lightning_logs/version_80/checkpoints/epoch=3-step=60.ckpt (torch, 43005 bytes, 24 tensors)

model.encoder.conv1.lin_l.weight f4 [32, 3]
0.38693064 0.3663906 0.06652513 -0.08769259 -0.1867263 -0.372422 0.31197122 -0.23088276
-0.36040762 -0.36161715 0.55125993 -0.35326448 -0.3032222 0.21842347 -0.52158225 -0.41794795
-0.44149315 0.45813024 -0.08806772 0.07939651 -0.36591536 0.4936278 -0.20965074 -0.53983676
0.33381978 -0.44233966 -0.5119961 -0.07922562 -0.48856172 -0.516718 0.21441807 0.15350623
-0.2371648 0.24634737 0.11036514 -0.013250402 -0.27266678 -0.044650003 -0.03763709 0.2974298
0.06886205 0.2498245 0.255034 -0.55094445 0.39254764 -0.49754807 -0.29852745 -0.12442249
-0.48800647 0.473912 -0.29835296 -0.46405324 0.20660447 -0.004617151 -0.41487417 -0.31698668
-0.14654818 0.51396894 -0.048143283 0.19052458 0.16366619 0.5510589 -0.42090416 -0.3587636
0.24027449 -0.22972532 -0.12334035 0.3801468 0.23227383 -0.12560058 -0.41728276 -0.5329799
0.30320647 0.25967014 0.16448891 0.16796257 -0.11189734 0.47920662 0.25657445 0.27911955
-0.33135507 0.1540669 0.11962293 0.5288137 0.45945132 -0.08771942 0.15275894 -0.16957334
0.48741874 0.24675502 -0.0927915 -0.10198106 0.45523813 0.26215246 -0.06747334 -0.23034449
00000000: c61b c63e 8c97 bb3e 543e 883d 2c98 b3bd
00000010: 2e35 3fbe 19ae bebe b1ba 9f3e 886c 6cbe
00000020: 5987 b8be e225 b9be 5f1f 0d3f 15df b4be
00000030: f13f 9bbe 67aa 5f3e 6a86 05bf 46fd d5be
00000040: 640b e2be 0c90 ea3e d95c b4bd a39a a23d
00000050: 4259 bbbe c8bc fc3e afae 56be be32 0abf
00000060: 6dea aa3e 587a e2be 2d12 03bf 0b41 a2bd
00000070: c324 fabe a147 04bf 6990 5b3e bd30 1d3e
00000080: 54db 72be 7c42 7c3e 1e07 e23d 3718 59bc
00000090: fb9a 8bbe ece2 36bd 5929 1abd b848 983e
000000a0: 8c07 8d3d fed1 7f3e d193 823e b20a 0dbf
000000b0: 01fc c83e 9fbe febe 97d8 98be 38d1 febd
000000c0: fcdb f9be 98a4 f23e b8c1 98be 6398 edbe
000000d0: 1f90 533e 784b 97bb 636a d4be 144c a2be
000000e0: ba10 16be 7893 033f e431 45bd e018 433e
000000f0: 1c98 273e 3212 0d3f c080 d7be ddaf b7be
00000100: 840a 763e 1d3d 6bbe de99 fcbd 9aa2 c23e
00000110: 31d9 6d3e 709d 00be 16a6 d5be 5f71 08bf
00000120: e13d 9b3e 7cf3 843e c86f 283e 61fe 2b3e
00000130: 6f2a e5bd 925a f53e ba5d 833e c2e8 8e3e
00000140: 5fa7 a9be b7c3 1d3e defc f43d 5660 073f
00000150: 343d eb3e 3da6 b3bd d76c 1c3e a2a4 2dbe
00000160: f38e f93e 59ad 7c3e 7809 bebd 72db d0bd
00000170: f914 e93e d938 863e 762f 8abd 6ddf 6bbe

model.encoder.conv1.lin_l.bias f4 [32]
0.1689201 -0.54606754 -0.029006908 -0.17840979 0.33927834 -0.5428169 -0.16716976 -0.5718207
-0.4764859 -0.25673544 -0.2071003 0.067850016 -0.12942335 -0.20744045 0.008038948 0.094265275
-0.5594935 -0.5186462 -0.19854991 -0.212354 -0.49611068 -0.038485315 0.31331176 -0.073941536
0.015642107 -0.21628869 0.56348515 -0.5462425 0.0059612566 0.17092516 0.21675363 -0.16566181
00000000: 64f9 2c3e 15cb 0bbf e59f edbc 0eb1 36be
00000010: e4b5 ad3e 0cf6 0abf 8d2e 2bbe d762 12bf
00000020: f6f5 f3be d472 83be 1a12 54be f3f4 8a3d
00000030: 8e87 04be 456b 54be cbb5 033c 270e c13d
00000040: f73a 0fbf ffc5 04bf ab50 4bbe 5473 59be
00000050: 3802 febe c7a2 1dbd 666a a03e a96e 97bd
00000060: e023 803c c87a 5dbe 9040 103f 8cd6 0bbf
00000070: a556 c33b 0107 2f3e aaf4 5d3e 40a3 29be

model.encoder.conv1.lin_r.weight f4 [32, 3]
-0.46129918 0.20904936 0.4017175 -0.06949407 0.5322386 0.18477297 -0.1771399 -0.2663554
0.5769479 0.19625539 0.16944695 0.32546625 0.28902033 -0.32558268 -0.18355122 0.5470548
-0.46591583 -0.472997 0.24509893 0.36437008 0.3131432 0.19977914 -0.46572366 -0.57415456
-0.004657626 0.2133742 -0.18886712 0.5531914 -0.29977456 -0.08997533 0.44762856 -0.009220789
0.16581829 0.34449434 -0.45287836 -0.36700228 0.5287966 0.36535174 0.5550791 0.22368674
-0.52435017 0.42924348 0.034320064 -0.4219169 -0.5728413 -0.33252484 0.25401387 0.070098184
-0.31719455 -0.5331295 -0.27938747 -0.30485532 -0.4963739 0.49911928 0.44742432 0.22900376
-0.20150474 0.062844865 -0.44366008 -0.14764425 -0.4870819 -0.14600596 -0.349291 0.3133438
0.2873658 0.39039958 -0.14052191 0.048927356 0.06640468 -0.50028026 0.13066746 -0.114346236
0.30293512 -0.009785056 -0.5533691 0.10409838 -0.2320866 0.44733706 -0.3720182 -0.101952694
0.4242489 0.16377307 -0.22155958 0.3571835 0.38769504 0.21694772 -0.24244238 -0.48974463
0.47786427 0.27568337 -0.3040641 0.02939247 0.45522594 0.12686104 0.19019885 -0.47329614
00000000: 682f ecbe 0911 563e ebad cd3e e852 8ebd
00000010: ca40 083f 2035 3d3e 2964 35be bc5f 88be
00000020: dcb2 133f 2cf7 483e 8083 2d3e 83a3 a63e
00000030: 79fa 933e c6b2 a6be daf4 3bbe c90b 0c3f
00000040: 858c eebe aa2c f2be 37fb 7a3e b78e ba3e
00000050: 4e54 a03e e792 4c3e 5573 eebe cbfb 12bf
00000060: 009f 98bb c47e 5a3e 6266 41be f49d 0d3f
00000070: 0d7c 99be fc44 b8bd 922f e53e cb12 17bc
00000080: 45cc 293e 9061 b03e acdf e7be b9e7 bbbe
00000090: 375f 073f 620f bb3e aa19 0e3f 230e 653e
000000a0: d03b 06bf cdc5 db3e 3293 0c3d 7e05 d8be
000000b0: baa5 12bf b240 aabe 1b0e 823e a38f 8f3d
000000c0: 5367 a2be 2d7b 08bf e00b 8fbe ff15 9cbe
000000d0: b824 febe 908c ff3e cd14 e53e f67f 6a3e
000000e0: 4257 4ebe cfb4 803d 6a27 e3be 0e30 17be
000000f0: cc62 f9be 9682 15be 45d6 b2be 996e a03e
00000100: 9c21 933e 74e2 c73e fae4 0fbe 0d68 483d
00000110: 2dff 873d 5e12 00bf b1cd 053e 5c2e eabd
00000120: 501a 9b3e 8051 20bc 99a9 0dbf 8831 d53d
00000130: 1ca8 6dbe 5d09 e53e 2b79 bebe 93cc d0bd
00000140: 2737 d93e 21b4 273e 84e0 62be c1e0 b63e
00000150: f77f c63e 8b27 5e3e d142 78be cfbf fabe
00000160: a0aa f43e 5f26 8d3e 4aae 9bbe 7ac8 f03c
00000170: 6013 e93e dce7 013e 7dc3 423e df53 f2be

model.encoder.conv2.lin_l.weight f4 [32, 32]
-0.049756836 0.009655461 -0.033991784 0.17354628 -0.041692864 0.15909334 -0.08616724 0.05505404
0.05564998 0.037254136 -0.13803107 -0.07550295 0.08944638 -0.14191279 -0.10975959 0.12961347
-0.15951563 -0.14792655 -0.17258336 0.059587754 0.09715743 -0.08853666 -0.03635859 0.025908053
-0.14486879 -0.108810656 0.068891086 -0.056281816 -0.03434615 0.110363044 0.054269403 -0.13225415
-0.02549699 -0.059499994 -0.01460221 0.0016048789 0.07044848 -0.15372358 0.066082776 0.104547724
-0.13889706 -0.14407888 0.15509312 -0.17651398 -0.099406205 -0.1336776 -0.16910155 0.044499513
-0.09867578 0.013514557 -0.10538914 0.033020042 -0.00422059 -0.13865456 0.05707495 0.10596348
0.13620496 -0.11049529 0.035405792 0.039785795 0.07872517 0.021386078 0.035373144 0.033044472
0.08415038 -0.13979152 -0.17078012 0.095179 0.14695309 0.050382905 -0.06740573 -0.15252848
0.06166788 0.14143993 -0.047101744 0.11232758 -0.095978685 -0.036079757 0.06441286 -0.1621123
-0.099942796 0.14886767 -0.0309072 -0.06620491 0.032932118 0.15529647 -0.09946309 -0.06725771
0.15473433 0.15223281 -0.13390377 -0.06867108 -0.0413821 -0.13607226 0.03287004 0.061814263
-0.09030965 -0.07276997 -0.03947735 0.09861033 -0.06197048 -0.010274008 0.033290144 0.112160996
-0.028384345 -0.12093571 -0.11621596 -0.12559666 -0.09135198 0.16298449 -0.02233404 -0.15910898
-0.018059328 -0.058600493 -0.062200785 -0.17117696 0.074870154 -0.012272413 0.040510044 0.16896866
0.0058545712 -0.022018448 -0.09861925 0.110499725 0.08918455 -0.08687125 -0.16533236 0.059514575
-0.07030332 0.13911413 -0.15783282 0.116144575 -0.075519666 -0.027945787 0.12261774 -0.10791928
-0.0021681834 0.08865376 -0.007592853 -0.15715848 -0.047052335 0.10924267 -0.13699232 -0.0073150117
-0.1196446 -0.15946402 0.007843509 0.1185534 -0.15473762 -0.051497873 -0.12630154 -0.06513266
0.17346217 0.07793208 -0.11182508 -0.0786519 0.15674162 0.00012686258 -0.058490038 0.053979605
-0.15952316 0.0891334 -0.1531754 0.020256765 -0.13952138 -0.14901091 -0.13200183 -0.0060243756
-0.09785375 0.0986665 -0.12186014 0.09233084 0.045594685 -0.15982366 0.09048509 0.0867321
-0.12370433 0.10905359 0.123037435 0.09053396 0.058655247 0.07255919 0.021016438 -0.07861163
0.05727782 -0.1306606 0.038833484 0.06693926 0.058511548 -0.08114165 0.082711235 -0.12538935
-0.06564079 0.079204366 0.036314297 -0.05840312 -0.06570859 -0.08038739 -0.03947983 -0.029718548
0.14816247 -0.111498505 -0.14443776 0.08293391 0.041099694 -0.10026743 -0.090207435 0.144264
-0.1410142 0.068926916 -0.13322258 -0.17038526 0.010008082 0.13616723 0.10919812 -0.13619563
-0.000658074 -0.08049369 -0.0079472745 0.0884396 -0.13390222 -0.1490011 0.109587744 -0.041716293
0.10676324 0.07931925 -0.12093844 -0.0036784278 -0.069520265 0.015011457 0.08319493 0.17120674
0.07598426 -0.075747505 -0.059760638 -0.097342335 -0.031122273 0.029411199 0.16141503 -0.14628133
-0.11136953 -0.107583456 -0.1436369 0.025299013 -0.079895206 0.0136323385 0.06781162 -0.06775367
-0.11652092 -0.098436885 -0.127679 0.17711751 -0.09663959 0.071633965 -0.03377762 0.14846352
00000000: d3cd 4bbd f031 1e3c f83a 0bbd 1eb6 313e
00000010: 23c6 2abd 5de9 223e 7378 b0bd 5880 613d
00000020: 3cf1 633d cb97 183d 0458 0dbe 4aa1 9abd
00000030: aa2f b73d 9651 11be a3c9 e0bd 65b9 043e
00000040: 1158 23be 0f7a 17be b1b9 30be 4a12 743d
00000050: 7afa c63d b552 b5bd bfec 14bd 203d d43c
00000060: 7c58 14be 1fd8 debd c516 8d3d c387 66bd
00000070: 8cae 0cbd 0506 e23d 9849 5e3d a26d 07be
00000080: 10df d0bc 44b6 73bd 1c3e 6fbc cd5a d23a
00000090: 4b47 903d b769 1dbe 6856 873d 1e1d d63d
000000a0: 083b 0ebe 6a89 13be bbd0 1e3e 15c0 34be
000000b0: 7b95 cbbd c8e2 08be f528 2dbe 1f45 363d
000000c0: 8716 cabd 296c 5d3c 43d6 d7bd 0640 073d
000000d0: e04c 8abb 76fb 0dbe 6cc7 693d 6203 d93d
000000e0: 5079 0b3e 5b4b e2bd aa05 113d 6ef6 223d
000000f0: a93a a13d db31 af3c 6ee3 103d a459 073d
00000100: 0957 ac3d 8225 0fbe fce0 2ebe 35ed c23d
00000110: df7a 163e 4e5e 4e3d 040c 8abd 6d30 1cbe
00000120: 7597 7c3d a1d5 103e c2ed 40bd 010c e63d
00000130: 7990 c4bd 5ec8 13bd e4ea 833d c400 26be
00000140: cfae ccbd c470 183e 1931 fdbc 7196 87bd
00000150: d4e3 063d 0a06 1f3e 4eb3 cbbd 69be 89bd
00000160: ad72 1e3e ebe2 1b3e 121e 09be 6ca3 8cbd
00000170: 4780 29bd 8756 0bbe bca2 063d f430 7d3d
00000180: 44f4 b8bd 6c08 95bd 00b3 21bd 36f4 c93d
00000190: c2d4 7dbd 5054 28bc 3f5b 083d aab4 e53d
000001a0: 4986 e8bc 24ad f7bd a202 eebd 699c 00be
000001b0: bf16 bbbd 68e5 263e e0f5 b6bc 77ed 22be
000001c0: 28f1 93bc 1207 70bd 40c6 7ebd 0349 2fbe
000001d0: 8655 993d 3b12 49bc dced 253d 1f06 2d3e
000001e0: b4d7 bf3b 0860 b4bc e4f8 c9bd ae4d e23d
000001f0: 64a6 b63d 8ee9 b1bd e34c 29be 8ec5 733d
00000200: 30fb 8fbd ef73 0e3e ed9e 21be 35dd ed3d
00000210: 0eaa 9abd 90ee e4bc 021f fb3d c904 ddbd
00000220: 1518 0ebb 1a90 b53d 78cd f8bb 27ee 20be
00000230: f3b9 40bd 9fba df3d b747 0cbe c4b2 efbb
00000240: 3a08 f5bd 894a 23be 1082 003c 20cc f23d
00000250: 8a73 1ebe 6fef 52bd 3155 01be 4664 85bd
00000260: 11a0 313e db9a 9f3d 8c04 e5bd 3f14 a1bd
00000270: e080 203e 6a06 0539 4093 6fbd b819 5d3d
00000280: 0a5a 23be 928b b63d 03da 1cbe 84f1 a53c
00000290: b1de 0ebe 5196 18be 7d2b 07be 2068 c5bb
000002a0: 8c67 c8bd a911 ca3d cf91 f9bd f417 bd3d
000002b0: 7ec1 3a3d d0a8 23be 3f50 b93d 99a0 b13d
000002c0: b258 fdbd 7d57 df3d 0dfb fb3d de69 b93d
000002d0: 7c40 703d ea99 943d aa2a ac3c 22ff a0bd
000002e0: 269c 6a3d e4cb 05be dc0f 1f3d 7317 893d
000002f0: cea9 6f3d 982d a6bd 8264 a93d 1166 00be
00000300: ae6e 86bd e635 a23d 4dbe 143d 1c38 6fbd
00000310: 3a92 86bd 25a2 a4bd 9ab5 21bd 5074 f3bc
00000320: e7b7 173e 5459 e4bd 7ee7 13be 41d9 a93d
00000330: 2758 283d 0359 cdbd adbe b8bd f1b9 133e
00000340: 0766 10be 8e29 8d3d 806b 08be 7979 2ebe
00000350: f0f8 233c 6c6f 0b3e 44a3 df3d de76 0bbe
00000360: 9982 2cba e0d9 a4bd 4935 02bc d21f b53d
00000370: aa1d 09be bf93 18be 8a6f e03d b4de 2abd
00000380: b0a6 da3d 2272 a23d 93ae f7bd c711 71bb
00000390: a460 8ebd 9df2 753c 1a62 aa3d d250 2f3e
000003a0: a39d 9b3d 8221 9bbd 92c7 74bd 6b5b c7bd
000003b0: 23f4 febc c1ef f03c fb49 253e c6ca 15be
000003c0: b515 e4bd b754 dcbd 8d15 13be e03f cf3c
000003d0: 19a0 a3bd 2c5a 5f3c d2e0 8a3d 70c2 8abd
000003e0: 85a2 eebd 4799 c9bd 49be 02be 4b5e 353e
000003f0: faea c5bd d4b4 923d 675a 0abd d206 183e

model.encoder.conv2.lin_l.bias f4 [32]
-0.09311316 -0.13094088 0.0842188 -0.056234792 0.02853173 0.016364835 0.11687824 -0.00627368
-0.04112502 0.14784718 -0.030689258 0.094080165 -0.14687438 -0.026416192 0.060036376 -0.15895633
-0.048310254 -0.13824244 -0.0702269 0.029261747 -0.03803842 0.05479161 -0.038115878 -0.111877486
-0.13908492 -0.14996026 -0.012754839 -0.020384287 0.13383032 -0.15653549 0.068375394 0.10231704
00000000: 1db2 bebd 5e15 06be e87a ac3d 7456 66bd
00000010: 60bb e93c 8c0f 863c dc5d ef3d 7193 cdbb
00000020: b572 28bd 4065 173e 0a68 fbbc 1aad c03d
00000030: 3d66 16be c566 d8bc b4e8 753d 73c5 22be
00000040: f9e0 45bd 6d8f 0dbe 1fd3 8fbd 55b6 ef3c
00000050: 2dce 1bbd 2b6d 603d 651f 1cbd 0620 e5bd
00000060: 476c 0ebe 2f8f 19be acf9 50bc f3fc a6bc
00000070: d10a 093e d74a 20be 6608 8c3d 998b d13d

model.encoder.conv2.lin_r.weight f4 [32, 32]
0.03397441 0.07566513 0.12008698 -0.1676957 0.08351057 -0.058534633 0.0357289 0.06780307
0.06523405 -0.07563006 -0.03101464 0.018132454 0.034732852 -0.11475404 -0.09702908 0.05627428
0.06334001 0.07609357 0.09860194 0.12433324 -0.14236888 -0.0057881083 0.07904897 -0.16241501
0.046983078 0.01844226 0.049547493 -0.06413313 0.08665558 -0.10942502 -0.08908757 0.1364187
0.010659362 0.15670557 0.12269512 0.11845393 -0.11545361 -0.15677951 -0.03301617 0.013659373
-0.07173579 -0.09079335 -0.12757008 0.05712068 0.11115195 0.091525994 0.004050255 0.047268894
0.15986489 -0.14974341 0.057270676 0.10790943 0.05282408 -0.156489 -0.119286135 -0.136738
-0.11731969 -0.004923704 0.15360694 -0.029668879 -0.11306493 -0.055925183 0.13394868 -0.09891275
-0.11032375 0.008792445 -0.120191686 0.15216425 -0.10623557 0.14120021 -0.15773736 0.07696148
-0.16905992 -0.09269804 0.077420056 0.16980797 0.14682536 -0.01047302 0.051218595 -0.086150624
0.030776367 0.014965806 -0.0911245 0.17292489 -0.13183907 -0.06336269 0.12014107 0.02894479
-0.033576358 0.023712374 0.13029143 0.026673837 0.11873657 0.07253916 -0.004331908 0.16699058
-0.050809447 -0.01581183 0.11203627 0.13039522 -0.042205296 -0.01631406 0.15228745 0.055813998
0.0033987164 -0.06398865 0.054571595 -0.015342734 -0.06852424 -0.015741153 -0.117927656 -0.05862087
0.009015694 0.0327601 -0.15653439 -0.009813681 0.16017891 0.052915536 0.03178726 0.086198255
0.1546465 -0.0068924427 -0.033621106 0.11106314 0.095880605 -0.15663216 -0.17314045 -0.016244262
-0.044462103 -0.16093463 -0.12742507 0.13913274 0.05842445 -0.1707763 0.15977255 -0.14076965
-0.054842003 0.08989973 0.07472882 -0.12890914 0.050717212 -0.009332113 -0.1396913 -0.023422904
0.06875485 -0.075865336 -0.13591401 -0.1738128 -0.12579313 -0.06466338 -0.11183731 -0.11207525
-0.12370338 -0.17563494 -0.10220022 -0.10919846 0.0937112 0.10789625 0.09572156 0.035758186
0.15407547 -0.025290906 0.10473483 -0.02727608 -0.026222305 0.10706941 -0.07842949 0.082282536
-0.06410102 0.06494923 -0.10687887 0.047717247 0.13584521 1.16750625e-05 -0.05869197 0.044346362
0.17548247 -0.12342368 0.12699433 -0.12046027 0.06283897 -0.062717594 -0.14683793 -0.1611317
-0.101280145 0.021402987 0.16980526 -0.12059289 0.024139253 -0.17076686 0.091513656 -0.15989786
0.08865056 0.13809817 0.10830057 -0.05162785 -0.10095566 0.11308725 -0.1044992 -0.13800567
0.0118361255 0.0005686432 -0.17635538 0.09189501 -0.10866713 -0.13606422 0.17544083 0.04060481
0.098669246 -0.038443588 -0.090653524 -0.11331274 0.020684153 -0.078935124 0.15936646 -0.022291461
0.018710734 0.14509128 -0.049138777 0.047613386 0.0032535342 -0.057281084 0.17652032 0.07210406
0.101733215 -0.06656501 0.09360876 0.15332152 0.045962915 0.05816059 0.036939815 0.027196914
-0.040954024 0.0080430955 -0.111836776 -0.010444747 -0.053212363 0.11824558 0.06567754 0.16951437
-0.13917117 0.10685095 -0.1417965 0.168152 -0.1370609 -0.014045934 0.003794143 0.10262056
-0.1778725 0.05981677 0.16561541 -0.0022265096 0.11454483 -0.024145715 -0.06580443 -0.037484076
00000000: c028 0b3d 52f6 9a3d 2af0 f53d 6cb8 2bbe
00000010: 9707 ab3d 03c2 6fbd 7858 123d 56dc 8a3d
00000020: 6e99 853d efe3 9abd 6a12 febc 838a 943c
00000030: 0944 0e3d 2b04 ebbd 2fb7 c6bd dc7f 663d
00000040: 68b8 813d f2d6 9b3d d0ef c93d 6da2 fe3d
00000050: 26c9 11be 2caa bdbb 6de4 a13d 1f50 26be
00000060: 5471 403d 3914 973c 50f2 4a3d 3b58 83bd
00000070: 7b78 b13d 3a1a e0bd 8b73 b6bd 58b1 0b3e
00000080: 9ba4 2e3c 6d77 203e 9447 fb3d f997 f23d
00000090: f172 ecbd cf8a 20be f73b 07bd 90cb 5f3c
000000a0: 37ea 92bd ddf1 b9bd bba1 02be 60f7 693d
000000b0: a2a3 e33d fb71 bb3d 00b8 843b 079d 413d
000000c0: 9fb3 233e 5656 19be a894 6a3d 9fff dc3d
000000d0: 105e 583d a73e 20be 4a4c f4bd 0c05 0cbe
000000e0: 4e45 f0bd 0657 a1bb 234b 1d3e 260c f3bc
000000f0: 968e e7bd ce11 65bd d829 093e c592 cabd
00000100: 6bf1 e1bd 300e 103c 0f27 f6bd f2d0 1b3e
00000110: 0992 d9bd ca96 103e e785 21be fb9d 9d3d
00000120: 0b1e 2dbe 78d8 bdbd 688e 9e3d 24e2 2d3e
00000130: 6359 163e 0897 2bbc 97ca 513d bd6f b0bd
00000140: b81e fc3c 2433 753c 7b9f babd 3913 313e
00000150: d200 07be 4cc4 81bd 850c f63d a01d ed3c
00000160: 5d87 09bd 7440 c23c 1e6b 053e 1783 da3c
00000170: 292c f33d 698f 943d aef2 8dbb 94ff 2a3e
00000180: 911d 50bd d087 81bc 4673 e53d 5386 053e
00000190: 76df 2cbd 10a5 85bc 3ef1 1b3e 389d 643d
000001a0: 00bd 5e3b 7b0c 83bd 7786 5f3d 1760 7bbc
000001b0: 7056 8cbd 97f3 80bc 0e84 f1bd 701c 70bd
000001c0: 90b6 133c 742f 063d 8d4a 20be 90c9 20bc
000001d0: f105 243e f6bd 583d 5c33 023d b688 b03d
000001e0: a75b 1e3e 00da e1bb 49b6 09bd 1275 e33d
000001f0: 0d5d c43d 2e64 20be bb4b 31be b012 85bc
00000200: e51d 36bd 0ccc 24be b87b 02be d078 0e3e
00000210: 7a4e 6f3d fbdf 2ebe 6a9b 233e eb25 10be
00000220: 02a2 60bd 5a1d b83d 6c0b 993d c200 04be
00000230: dabc 4f3d b8e5 18bc 3c0b 0fbe 64e1 bfbc
00000240: 58cf 8c3d 495f 9bbd 0b2d 0bbe fcfb 31be
00000250: eacf 00be 3c6e 84bd f60a e5bd b587 e5bd
00000260: 3358 fdbd a5d9 33be 594e d1bd 71a3 dfbd
00000270: a8eb bf3d b6f8 dc3d aa09 c43d 2d77 123d
00000280: f6c5 1d3e e02e cfbc 377f d63d 1672 dfbc
00000290: 29d0 d6bc 3547 db3d a49f a0bd bf83 a83d
000002a0: 6547 83bd 1a04 853d 4fe3 dabd 2973 433d
000002b0: 021b 0b3e 03e0 4337 fe66 70bd 88a4 353d
000002c0: adb1 333e 8ec5 fcbd cd0a 023e e0b3 f6bd
000002d0: b8b1 803d 1572 80bd af5c 16be b5ff 24be
000002e0: f76b cfbd 5155 af3c 6ee1 2d3e 68f9 f6bd
000002f0: afbf c53c 82dd 2ebe 836b bb3d 44bc 23be
00000300: 6d8e b53d 9b69 0d3e b0cc dd3d b977 53bd
00000310: d7c1 cebd 4a9a e73d ad03 d6bd 5c51 0dbe
00000320: 4fec 413c 0011 153a 8196 34be 7333 bc3d
00000330: df8c debd 6b54 0bbe c3a6 333e 3b51 263d
00000340: 1a13 ca3d 0677 1dbd 8ea8 b9bd 8310 e8bd
00000350: d071 a93c bda8 a1bd f630 233e 959c b6bc
00000360: 4147 993c cf92 143e be45 49bd 4106 433d
00000370: 3f39 553b 929f 6abd bec1 343e 4bab 933d
00000380: 8159 d03d 3c53 88bd f3b5 bf3d 5100 1d3e
00000390: 9c43 3c3d cc39 6e3d 344e 173d 10cc de3c
000003a0: 68bf 27bd 30c7 033c ae0a e5bd 7220 2bbc
000003b0: 35f5 59bd bd2a f23d f281 863d 2d95 2d3e
000003c0: e382 0ebe acd4 da3d 1a33 11be 0a30 2c3e
000003d0: b159 0cbe eb20 66bc 28a7 783b ba2a d23d
000003e0: 3524 36be 6e02 753d 1697 293e a2ea 11bb
000003f0: 7b96 ea3d 3ccd c5bc 79c4 86bd e788 19bd

model.readout.fc.weight f4 [6, 32]
-0.040096603 -0.07523912 -0.016749563 0.11887324 -0.045800246 0.09745491 0.11286317 -0.12653743
-0.023543252 0.09334375 -0.018184941 0.16835162 -0.07017471 0.17137904 -0.086891346 -0.014278206
-0.13320044 0.075849 0.09259419 0.14785388 -0.11051132 -0.05260972 0.0709382 0.06742192
0.04657097 -0.13790561 -0.018744657 -0.03824386 0.15860702 -0.15518838 -0.049207687 0.06025531
-0.1491683 0.072885044 0.045981567 0.14799005 0.058450166 0.10392385 -0.117772765 -0.06099315
0.11136903 -0.15181556 -0.061667554 0.16436908 0.03918159 -0.03086748 0.0023047312 -0.11382988
-0.125757 0.115357906 0.013671774 -0.15605229 0.012428303 0.08780184 0.033604585 -0.07174778
0.07330645 -0.08563004 -0.16443236 -0.07652815 -0.1491652 0.16229172 0.107061096 -0.005013848
-0.056953683 0.028239708 -0.045456614 0.11956169 -0.16134262 0.01637828 0.038210515 0.0021361476
-0.14696254 0.053495362 -0.03143592 -0.029986698 -0.051895306 0.017098088 -0.13735464 0.03898147
0.1218491 0.0979574 0.16748483 -0.11936682 -0.12711775 0.034063812 -0.06974444 -0.1183599
0.035717417 0.0438233 -0.10004407 0.13881749 -0.0872715 0.08297778 0.12886024 -0.0027928518
0.14107472 0.1297047 0.12535301 -0.12964909 -0.12173856 -0.14817572 0.109536566 -0.013344235
-0.17325945 -0.14809147 0.08578076 -0.12371763 0.043991998 0.04147254 -0.047778245 0.17747417
-0.100058325 0.024505464 0.111088276 -0.16031909 -0.09013687 0.06442115 0.1396795 -0.05573002
0.011186783 -0.1712555 0.0755412 -0.073091544 -0.02822092 0.1659015 -0.11141833 0.12529442
0.017428348 -0.09544906 0.0769011 -0.16280787 -0.08828189 0.119545296 -0.015147571 0.027952721
0.11581353 0.017924726 -0.016226795 0.16976368 -0.12775567 0.14951538 -0.10203007 0.123287894
-0.14541323 0.13689235 0.0116987135 -0.037013873 -0.17572168 0.025687413 -0.06949291 -0.025485847
-0.16754425 -0.08999673 -0.17240809 0.027299719 -0.05671237 0.16445781 0.10148146 -0.15669264
0.095948085 -0.017412864 0.05474035 0.07550741 0.15783447 0.025420904 -0.0073653683 0.0390377
-0.028334407 -0.11858207 -0.17157325 -0.12783882 -0.16410217 -0.13138108 -0.04535753 0.051440656
-0.1637469 -0.14937526 -0.1171087 -0.16164413 -0.0020769732 0.16082375 0.06808108 -0.15135679
0.14711532 -0.06222664 -0.0016153071 0.017690595 -0.017122667 0.086752824 0.13249274 -0.044282768
00000000: 563c 24bd f816 9abd 6136 89bc d073 f33d
00000010: 0a99 3bbd 7196 c73d ce24 e73d 0793 01be
00000020: c7dd c0bc 022b bf3d 96f8 94bc 5e64 2c3e
00000030: c2b7 8fbd fd7d 2f3e 17f4 b1bd 23ef 69bc
00000040: b265 08be b856 9b3d 06a2 bd3d 0267 173e
00000050: c253 e2bd 4a7d 57bd 0c48 913d 8114 8a3d
00000060: 34c1 3e3d 2137 0dbe 658e 99bc 98a5 1cbd
00000070: e169 223e b4e9 1ebe 008e 49bd 46ce 763d
00000080: 93bf 18be c144 953d 2b57 3c3d b48a 173e
00000090: 7169 6f3d 07d6 d43d d932 f1bd f4d3 79bd
000000a0: 7215 e43d 8a75 1bbe 1e97 7cbd 5e50 283e
000000b0: e07c 203d ccdd fcbc f90a 173b a41f e9bd
000000c0: 71c6 00be c440 ec3d 94ff 5f3c 2ccc 1fbe
000000d0: 15a0 4b3c 73d1 b33d f6a4 093d 80f0 92bd
000000e0: b121 963d cd5e afbd f560 28be caba 9cbd
000000f0: c3be 18be cd2f 263e d942 db3d 354b a4bb
00000100: 4448 69bd f656 e73c b730 3abd c2dc f43d
00000110: 0037 25be be2b 863c a182 1c3d 9cfe 0b3b
00000120: 597d 16be f41d 5b3d f4c2 00bd aaa6 f5bc
00000130: 2c90 54bd 4a11 8c3c b2a6 0cbe 09ab 1f3d
00000140: 058c f93d e49d c83d 2581 2b3e 9776 f4bd
00000150: 282b 02be 7f86 0b3d 2cd6 8ebd ad66 f2bd
00000160: 6d4c 123d 1080 333d e8e3 ccbd 2c26 0e3e
00000170: 66bb b2bd 41f0 a93d f0f3 033e 4708 37bb
00000180: e475 103e 4fd1 043e 8a5c 003e bbc2 04be
00000190: 1152 f9bd 60bb 17be b554 e03d c7a1 5abc
000001a0: ed6a 31be 4aa5 17be d3ad af3d ab5f fdbd
000001b0: f430 343d 1cdf 293d 1fb3 43bd cabb 353e
000001c0: 61eb ccbd afbf c83c 4082 e33d b02a 24be
000001d0: ae99 b8bd 3cef 833d 2508 0f3e 2945 64bd
000001e0: c548 373c 9a5d 2fbe 58b5 9a3d 05b1 95bd
000001f0: 8f2f e7bc 15e2 293e 4b2f e4bd 2e4d 003e
00000200: e5c5 8e3c cc7a c3bd 537e 9d3d 1bb7 26be
00000210: 23cd b4bd 2ad4 f43d 852d 78bc 1bfd e43c
00000220: a52f ed3d e0d6 923c 0eee 84bc 88d6 2d3e
00000230: 62d2 02be 8f1a 193e 24f5 d0bd 5d7e fc3d
00000240: 35e7 14be 822d 0c3e f6ab 3f3c dc9b 17bd
00000250: 62f0 33be 696e d23c 4c52 8ebd b2c7 d0bc
00000260: b890 2bbe 3550 b8bd bf8b 30be a9a3 df3c
00000270: 3b4b 68bd a167 283e 83d5 cf3d 0974 20be
00000280: 6e80 c43d 6ca5 8ebc 6b37 603d a1a3 9a3d
00000290: 5c9f 213e 803f d03c 3059 f1bb ffe5 1f3d
000002a0: 8f1d e8bc 28db f2bd e6b0 2fbe 2ee8 02be
000002b0: 660a 28be c388 06be d1c8 39bd 70b3 523d
000002c0: 44ad 27be d4f5 18be b0d6 efbd 0a86 25be
000002d0: d41d 08bb fbae 243e 186e 8b3d 46fd 1abe
000002e0: 66a5 163e 5ce1 7ebd b6b8 d3ba deeb 903c
000002f0: d644 8cbc 77ab b13d 2dac 073e d961 35bd

model.readout.fc.bias f4 [6]
-0.044155106 -0.074870914 0.13185285 -0.16104507 -0.050199308 0.17304067
00000000: fcdb 34bd ec55 99bd 6f04 073e 00e9 24be
00000010: ca9d 4dbd 9331 313e

exp_avg f4 [32, 3]
0.0017902394 -0.0033364547 -0.0005970852 0.0 0.0 0.0 0.0018563193 -0.000104787374
-0.0003001312 -0.001370388 -0.00379443 -3.6251116e-05 4.688399e-05 0.0005667428 0.00028339674 -6.6354776e-05
8.9049085e-05 -0.00010647089 -0.001719104 0.00051241554 -0.00010340957 -0.0003012932 -2.023259e-05 0.0
0.0007341919 0.0 0.0 -0.001597659 -0.0005886831 8.696039e-05 0.0016178597 -0.0018534529
-0.00017819325 0.0015480766 0.00073996914 -0.000454627 0.0012048766 0.0039951275 -0.0007881051 -0.0002315713
0.00011748412 0.00055368507 -0.0020535558 0.0001155817 4.6242003e-05 -9.658151e-05 0.0013196002 -0.0001965626
0.0 0.0 0.0 -2.6707114e-05 -0.00030835476 -0.00016542702 3.9171468e-05 -0.00010454218
-0.00015946594 -0.0017988291 0.00014699984 8.035588e-05 0.0 0.0 0.0 0.00034212705
0.00060332014 0.00026971468 0.00041266286 -5.634485e-06 -0.0005291199 0.0 0.0 0.0
-0.005794411 -0.0011687207 0.00072499044 -8.26301e-05 -8.4926185e-05 -0.00070816674 -0.00035049568 -0.0039044016
6.503226e-05 0.0002487082 0.00023001152 0.0003268739 0.00018924352 0.00048150774 -2.8993236e-05 1.1308973e-05
-8.101548e-06 -0.0005296417 -0.00011734718 -0.0017404542 -0.0012287116 -0.0004735467 -0.0030947651 4.8007238e-05
00000000: 77a6 ea3a 6ca8 5abb b685 1cba 0000 0000
00000010: 0000 0000 0000 0000 bd4f f33a 4bc1 dbb8
00000020: ee5a 9db9 979e b3ba f9ab 78bb 570c 18b8
00000030: 4da5 4438 7791 143a de94 9439 f327 8bb8
00000040: ddbf ba38 2049 dfb8 8f53 e1ba a053 063a
00000050: 97dd d8b8 e4f6 9db9 28b9 a9b7 0000 0000
00000060: c976 403a 0000 0000 0000 0000 8a68 d1ba
00000070: db51 1aba 815e b638 5d0e d43a 8fef f2ba
00000080: 63d9 3ab9 d5e8 ca3a 7dfa 413a 015b eeb9
00000090: f3ec 9d3a 8fe9 823b d798 4eba f3d1 72b9
000000a0: cf61 f638 2d25 113a f394 06bb 7464 f238
000000b0: f9f3 4138 ce8b cab8 6ff6 ac3a 5f1c 4eb9
000000c0: 0000 0000 0000 0000 0000 0000 1709 e0b7
000000d0: adaa a1b9 7a76 2db9 0b4c 2438 a83d dbb8
000000e0: 5036 27b9 b0c6 ebba f823 1a39 bc84 a838
000000f0: 0000 0000 0000 0000 0000 0000 845f b339
00000100: 2128 1e3a 7e68 8d39 ac5a d839 dc0f bdb6
00000110: a3b4 0aba 0000 0000 0000 0000 0000 0000
00000120: 0bdf bdbb c22f 99ba 490d 3e3a b249 adb8
00000130: 661a b2b8 44a4 39ba bcc2 b7b9 fde0 7fbb
00000140: ee61 8838 0d65 8239 3f2f 7139 4660 ab39
00000150: ac6f 4639 e072 fc39 8036 f3b7 abbb 3d37
00000160: e2eb 07b7 a7d7 0aba 4a18 f6b8 f41f e4ba
00000170: b80c a1ba 5d46 f8b9 8bd1 4abb 615b 4938

exp_avg_sq f4 [32, 3]
1.3169632e-06 4.146013e-06 1.363796e-07 0.0 0.0 0.0 1.9780384e-06 2.0753236e-08
3.1348748e-08 3.7159228e-07 2.265604e-06 2.7323066e-08 4.0631217e-06 1.3865293e-06 2.4389038e-08 1.6331649e-09
2.3666276e-09 3.407019e-08 8.19144e-07 2.3492603e-06 6.9118165e-09 1.8109455e-06 8.6824725e-10 0.0
4.8959913e-07 0.0 0.0 8.1246804e-07 9.3030756e-08 1.7535471e-09 4.391768e-06 1.5616491e-06
6.100035e-08 1.3866717e-06 9.818607e-07 5.550782e-08 1.3746186e-06 3.9121564e-06 1.405126e-07 1.6251953e-06
2.6626344e-07 1.14806355e-07 1.4915568e-06 4.878795e-08 1.9737957e-08 1.5184519e-08 7.0810114e-07 6.9015435e-08
0.0 0.0 0.0 1.1239555e-10 1.9638469e-08 1.3071274e-08 5.1255783e-10 3.2680305e-09
1.6514349e-08 1.177422e-06 1.5931154e-07 2.347611e-08 0.0 0.0 0.0 1.1375271e-06
1.782225e-06 9.0823065e-08 2.0702303e-06 1.1387438e-06 6.366597e-08 0.0 0.0 0.0
6.7411243e-06 2.791743e-06 1.2077061e-07 5.6426285e-07 2.8790138e-08 1.1664542e-07 7.047107e-07 2.736618e-06
8.1264034e-08 9.062797e-09 8.489714e-09 8.955804e-08 3.9470824e-06 2.5522918e-06 1.5671208e-07 6.46425e-07
1.948553e-06 1.2642433e-07 8.209401e-07 3.9126435e-06 2.5489393e-07 1.2282329e-06 1.3640292e-06 1.3275672e-09
00000000: 83c2 b035 fb1d 8b36 bd6f 1234 0000 0000
00000010: 0000 0000 0000 0000 71be 0436 d944 b232
00000020: 50a4 0633 417f c734 c80a 1836 0fb4 ea32
00000030: f355 8836 c918 ba35 1080 d132 e275 e030
00000040: 27a2 2231 9254 1233 26e3 5b35 fca7 1d36
00000050: fb7c ed31 9d0f f335 78a9 6e30 0000 0000
00000060: ff6c 0335 0000 0000 0000 0000 6118 5a35
00000070: 33c8 c733 7401 f130 005d 9336 db99 d135
00000080: 4cff 8233 ad1d ba35 7ac8 8335 7e67 6e33
00000090: 897f b835 2b45 8336 cfdf 1634 4921 da35
000000a0: f8f2 8e34 768b f633 8031 c835 eb8a 5133
000000b0: 3a8c a932 1c6f 8232 5714 3e35 a335 9433
000000c0: 0000 0000 0000 0000 0000 0000 1229 f72e
000000d0: 73b1 a832 1290 6032 0de4 0c30 cd93 6031
000000e0: 70db 8d32 e907 9e35 390f 2b34 83a8 c932
000000f0: 0000 0000 0000 0000 0000 0000 22ad 9835
00000100: c934 ef35 820a c333 49ee 0a36 f0d6 9835
00000110: bdb8 8833 0000 0000 0000 0000 0000 0000
00000120: d131 e236 c859 3b36 2cad 0134 d977 1735
00000130: 2f4e f732 7f7e fa33 5a2b 3d35 bda6 3736
00000140: 6083 ae33 9ab2 1b32 28da 1132 0e53 c033
00000150: 2e71 8436 0a48 2b36 b044 2834 fd85 2d35
00000160: e3c3 0236 41bf 0734 935e 5c35 5a49 8336
00000170: 5bd8 8834 c3d9 a435 b013 b735 9e75 b630

exp_avg f4 [32]
-0.0021706673 0.0 0.0014514009 -0.005206415 0.00087998743 1.3134273e-05 -0.0013533611 -0.00032152588
0.00073419185 -0.0020519788 -0.0004931185 0.0018847135 0.004539468 0.0004393862 -0.0019277729 0.0010644444
0.0 -0.00050048885 -0.00018564089 -0.0015714732 0.0 0.0011487348 -0.0002507636 3.2649335e-05
-0.0063206605 -0.0008757228 -0.0041112415 0.00080559356 0.00065267255 -0.0004962979 -0.0030522163 -0.0035415802
00000000: c141 0ebb 0000 0000 ef3c be3a 939a aabb
00000010: f5ae 663a 465b 5c37 4363 b1ba 7992 a8b9
00000020: c876 403a 7e7a 06bb 9f44 01ba 7e08 f73a
00000030: d1bf 943b 6b5d e639 53ad fcba d484 8b3a
00000040: 0000 0000 3d33 03ba 99a8 42b9 e4f9 cdba
00000050: 0000 0000 2591 963a ec78 83b9 f5f0 0838
00000060: 8b1d cfbb c390 65ba 98b7 86bb 782e 533a
00000070: 1d18 2b3a fd19 02ba b107 48bb db19 68bb

exp_avg_sq f4 [32]
7.4396744e-06 0.0 2.0631537e-06 3.895766e-06 7.692118e-06 4.519799e-08 4.0320097e-06 1.8200814e-06
4.8959913e-07 1.2904904e-06 8.770984e-06 3.0758115e-06 5.1003026e-06 1.4656607e-06 1.8534793e-06 9.793971e-07
0.0 5.461196e-08 4.2262734e-08 1.9219779e-06 0.0 5.194403e-06 3.995498e-06 3.1624587e-09
1.4903462e-05 7.193608e-07 3.492136e-06 1.934971e-07 1.1950001e-05 4.0815994e-06 6.1294086e-06 3.0599933e-06
00000000: 51a2 f936 0000 0000 b674 0a36 60b8 8236
00000010: 650d 0137 b71f 4233 b34a 8736 8549 f435
00000020: ff6c 0335 ea34 ad35 1727 1337 0a6a 4e36
00000030: 4423 ab36 b8b7 c435 10c5 f835 d473 8335
00000040: 0000 0000 7c8e 6a33 5e84 3533 54fb 0036
00000050: 0000 0000 954b ae36 1111 8636 9052 5931
00000060: e209 7a37 191a 4135 715a 6a36 14c4 4f34
00000070: dd7c 4837 acf4 8836 38ab cd36 495a 4d36

exp_avg f4 [32, 3]
-0.0006821022 -0.00070098916 -0.0007875746 0.0 0.0 0.0 0.002865366 -0.0007585616
-0.0006554038 -0.00085368997 -0.0041673495 -0.00018537586 0.0015125062 -0.0007994984 0.00016697898 1.31342695e-05
0.0 0.0 0.001235716 -0.0022063958 -0.00038268155 -0.0003215258 0.0 0.0
0.0 0.0007341919 0.0 -0.0020519788 0.0 0.0 9.3900184e-05 7.774608e-06
-0.0005947939 0.0018847134 0.0 0.0 0.0011517169 0.0045874207 -0.0011996706 0.0005909601
0.0 -0.00015157407 -0.0019277731 0.0 0.0 0.0 0.001424664 -0.00036021983
0.0 0.0 0.0 0.0 0.0 -0.00050048885 -0.00016173883 -2.3902085e-05
0.0 -0.0016977428 0.0 0.00012626975 0.0 0.0 0.0 0.0009155284
-0.0002647072 0.00049791473 0.00035001666 -0.00036104568 -0.00023973416 0.0 3.2649335e-05 0.0
-0.007272169 0.0009515092 0.0 -0.0009192878 -0.0001070652 0.00015063006 0.0002354232 -0.0039460314
-0.00040063285 -8.1274135e-05 0.0 0.00088686775 0.00027198836 0.0003389596 4.1725158e-05 -0.0004552361
-0.0002625866 0.00022152538 -0.00017633187 -0.0019990534 -0.0008768304 -0.00041644956 -0.0031251307 0.0
00000000: 1bcf 32ba 96c2 37ba 3d75 4eba 0000 0000
00000010: 0000 0000 0000 0000 ddc8 3b3b 35da 46ba
00000020: 68cf 2bba 2aca 5fba 438e 88bb 7461 42b9
00000030: 493f c63a 6e95 51ba 1417 2f39 425b 5c37
00000040: 0000 0000 0000 0000 c0f7 a13a 2e99 10bb
00000050: a6a2 c8b9 7692 a8b9 0000 0000 0000 0000
00000060: 0000 0000 c976 403a 0000 0000 7e7a 06bb
00000070: 0000 0000 0000 0000 47ec c438 b06f 0237
00000080: f1eb 1bba 7d08 f73a 0000 0000 0000 0000
00000090: 35f5 963a 1352 963b 443e 9dba a9ea 1a3a
000000a0: 0000 0000 dbef 1eb9 55ad fcba 0000 0000
000000b0: 0000 0000 0000 0000 cbbb ba3a e3db bcb9
000000c0: 0000 0000 0000 0000 0000 0000 0000 0000
000000d0: 0000 0000 3d33 03ba 7098 29b9 5681 c8b7
000000e0: 0000 0000 cc86 deba 0000 0000 4767 0439
000000f0: 0000 0000 0000 0000 0000 0000 1200 703a
00000100: 66c8 8ab9 7e86 023a 7182 b739 bb4a bdb9
00000110: 2661 7bb9 0000 0000 f5f0 0838 0000 0000
00000120: 604b eebb b46e 793a 0000 0000 5cfc 70ba
00000130: 3188 e0b8 73f2 1d39 efdb 7639 b64d 81bb
00000140: 080c d2b9 b871 aab8 0000 0000 b07c 683a
00000150: a999 8e39 63b6 b139 0c02 2f38 c1ac eeb9
00000160: c7ab 89b9 4449 6839 bae5 38b9 8d02 03bb
00000170: 18db 65ba ea56 dab9 fece 4cbb 0000 0000

exp_avg_sq f4 [32, 3]
1.6424129e-06 4.518317e-06 3.0039888e-07 0.0 0.0 0.0 1.8638659e-06 4.5850857e-07
1.4798775e-07 5.1944755e-07 3.7929879e-06 1.2512112e-07 7.1788822e-06 1.6977693e-06 4.430338e-08 4.519799e-08
0.0 0.0 1.1012156e-06 4.7138183e-06 1.0278846e-07 1.8200814e-06 0.0 0.0
0.0 4.8959913e-07 0.0 1.2904903e-06 0.0 0.0 8.156789e-06 4.8257586e-08
1.6721427e-07 3.0758117e-06 0.0 0.0 1.4958364e-06 3.512703e-06 1.9787926e-07 1.602085e-06
0.0 2.015751e-07 1.8534795e-06 0.0 0.0 0.0 9.930541e-07 4.8687664e-08
0.0 0.0 0.0 0.0 0.0 5.461196e-08 3.9955033e-08 1.6084127e-09
0.0 1.9420413e-06 0.0 1.5155807e-08 0.0 0.0 0.0 2.154574e-06
1.4179894e-06 9.298171e-08 1.6107094e-06 1.3606066e-06 9.9969206e-08 0.0 3.1624587e-09 0.0
9.35205e-06 2.74505e-06 0.0 6.117675e-07 5.271364e-09 1.8116688e-07 9.144124e-07 3.215105e-06
8.7516646e-08 2.9673414e-08 0.0 1.0984721e-07 6.096287e-06 4.3792525e-06 7.353432e-08 2.4644768e-07
3.9610886e-06 1.8146194e-07 8.035687e-08 5.756247e-06 3.4575692e-07 1.0357915e-06 2.4207134e-06 0.0
00000000: e170 dc35 0c9c 9736 8246 a134 0000 0000
00000010: 0000 0000 0000 0000 f229 fa35 f028 f634
00000020: 90e6 1e34 2a70 0b35 098b 7e36 0859 0634
00000030: 21e2 f036 e9de e335 1548 3e33 b71f 4233
00000040: 0000 0000 0000 0000 7bcd 9335 642b 9e36
00000050: 8ebc dc33 8549 f435 0000 0000 0000 0000
00000060: 0000 0000 ff6c 0335 0000 0000 e934 ad35
00000070: 0000 0000 0000 0000 24d9 0837 c743 4f33
00000080: 828b 3334 0b6a 4e36 0000 0000 0000 0000
00000090: 8cc4 c835 c7bb 6b36 a378 5434 3907 d735
000000a0: 0000 0000 8b70 5834 12c5 f835 0000 0000
000000b0: 0000 0000 0000 0000 1449 8535 a71c 5133
000000c0: 0000 0000 0000 0000 0000 0000 0000 0000
000000d0: 0000 0000 7c8e 6a33 069b 2b33 fe0e dd30
000000e0: 0000 0000 0454 0236 0000 0000 f92f 8232
000000f0: 0000 0000 0000 0000 0000 0000 4d97 1036
00000100: bf51 be35 3cad c733 8e2f d835 169e b635
00000110: a7ae d633 0000 0000 9052 5931 0000 0000
00000120: c0e6 1c37 9a37 3836 0000 0000 5838 2435
00000130: 681f b531 c686 4234 f175 7535 15c3 5736
00000140: c9f0 bb33 87e4 fe32 0000 0000 24e5 eb33
00000150: b58e cc36 7ef1 9236 ece9 9d33 834f 8434
00000160: 7ee9 8436 e1d7 4234 a890 ac33 c925 c136
00000170: 78a0 b934 8605 8b35 8a73 2236 0000 0000

exp_avg f4 [32, 32]
-0.003366372 0.0 -0.00020655539 -0.0012093347 -0.00042782596 -2.3773086e-07 -0.0008339548 0.0
0.0 2.5873793e-05 -4.031338e-05 -5.4200995e-05 -0.0007841263 -0.00023487923 2.2475768e-05 -6.230181e-05
0.0 -1.6457188e-06 0.0 2.9206227e-05 0.0 -0.0014420232 -0.002831726 0.0
-0.001131487 -0.00022294052 -0.0033560197 -5.469011e-05 -0.0011970373 -0.0042163543 -0.0012247622 -0.00010726686
0.00041334156 0.0 0.000117807045 0.00014283048 0.000134655 1.4708371e-05 1.0320489e-05 0.0
0.0 -2.4530695e-05 -2.1527327e-05 -2.2647058e-05 0.00026741595 8.349993e-05 -0.00013970597 8.8675915e-05
0.0 6.516404e-06 7.020345e-06 -0.000114262664 0.0 0.00029676207 0.00058369327 0.0
5.8303835e-05 8.3987245e-05 0.00036939583 2.6280717e-05 -4.1570118e-05 0.0006137116 0.0005079625 -5.8761056e-05
-0.0010108944 0.0 0.00019789682 -0.00031428062 -0.0017660022 5.336812e-05 -0.00043081163 2.5293779e-05
-8.271143e-07 -0.00014531513 -0.001366911 -0.0018537643 -0.0006564998 -0.00046260562 7.254914e-05 -2.060286e-05
0.0 -9.206866e-07 1.1407925e-05 -0.00031675975 0.0 -0.00073576946 -0.0012736155 0.0
-0.002229225 0.00034247228 -0.0021118259 9.8258635e-05 -0.002453088 -0.0008925969 0.0001812054 -0.00040066906
6.667146e-05 0.0 1.5207115e-06 -2.0657065e-08 -3.7407332e-07 0.0 9.424425e-06 0.0
6.4885876e-06 -2.3042913e-08 -2.892545e-07 -4.1594566e-07 -1.5033599e-07 -1.5143247e-07 0.0 0.0
0.0 0.0 0.0 -1.0014815e-07 0.0 -1.0414772e-07 2.062872e-05 0.0
2.6423993e-05 0.0 6.1946186e-05 0.0 5.9263737e-05 4.185253e-05 1.3190357e-05 2.4688012e-05
-0.00033426736 0.0 -4.0835324e-08 0.00013897246 -0.001881819 0.0 -0.00010920234 -1.3445116e-06
6.2238673e-06 -0.000501641 -0.001860674 -0.0026480244 -0.0007499065 -0.0011010072 -0.0003532129 -1.0650127e-06
0.0 0.0 0.0 -0.0009908184 0.0 -0.00021055745 -0.00067141536 0.0
-0.0025623492 -9.0783345e-07 -0.0018693263 0.0 -0.0030410942 4.273798e-05 8.38436e-06 -0.0006152854
0.0008743663 0.0 -0.0004034232 0.0003760026 0.00070337375 -4.919324e-05 0.00043435194 -0.00034185546
0.0 -0.0004921934 -2.4882635e-05 -4.355681e-05 0.00031661472 -0.00032442747 -0.00056233845 -4.560117e-05
0.0 -5.5937167e-06 -1.4579444e-05 -0.00063188176 0.0 0.00062753214 0.0011545237 0.0
0.00052948657 -0.00017626246 0.0008920696 -3.3922308e-05 0.00022248487 0.00089533516 -5.5867724e-05 -0.0002478102
0.00017002026 0.0 -0.00055671396 0.0012324025 0.0015714206 -3.9761344e-05 0.00057758595 -1.7826216e-07
0.0 -8.488571e-06 0.0006896354 0.0009485168 0.0003891118 -0.00032333413 -7.1333365e-05 2.3646788e-05
0.0 3.161617e-06 -7.033583e-06 -9.532942e-06 0.0 0.0011050748 0.0011434599 0.0
0.0014056336 -0.00054296484 0.0006083109 -0.00010713184 0.00086908566 0.000897928 -0.0008340422 -4.4346667e-05
0.0025404694 0.0 4.0468276e-05 0.0010689553 0.00037546977 5.747934e-05 0.00080151 9.177472e-07
1.8842172e-07 3.43565e-05 -1.7029219e-05 5.8760706e-05 0.00045805937 0.00013540045 0.00010537925 5.186491e-05
0.0 1.6106134e-05 1.2667207e-05 8.492381e-05 0.0 0.001065162 0.0019895132 0.0
0.0009436418 0.00010034534 0.0025387234 1.8107346e-05 0.001011872 0.0031891277 0.0004933102 0.00023849274
00000000: 5a9e 5cbb 0000 0000 ca96 58b9 8a82 9eba
00000010: d44d e0b9 f642 7fb4 c29d 5aba 0000 0000
00000020: 0000 0000 8c0b d937 2a16 29b8 e055 63b8
00000030: d38d 4dba ea49 76b9 588a bc37 08a8 82b8
00000040: 0000 0000 78e2 dcb5 0000 0000 e5ff f437
00000050: 0000 0000 4502 bdba 7b94 39bb 0000 0000
00000060: 674e 94ba 24c5 69b9 abf0 5bbb 0f63 65b8
00000070: e8e5 9cba 5829 8abb 3388 a0ba 75f4 e0b8
00000080: c4b5 d839 0000 0000 2d0f f738 c4c4 1539
00000090: 2d32 0d39 f9c3 7637 2a26 2d37 0000 0000
000000a0: 0000 0000 44c7 cdb7 9595 b4b7 30fa bdb7
000000b0: f633 8c39 af1c af38 097e 12b9 85f7 b938
000000c0: 0000 0000 7ca7 da36 4e90 eb36 4da0 efb8
000000d0: 0000 0000 bb96 9b39 fe02 193a 0000 0000
000000e0: 448b 7438 4f22 b038 78ab c139 6975 dc37
000000f0: 935b 2eb8 7de1 203a c928 053a 3476 76b8
00000100: fd7f 84ba 0000 0000 8682 4f39 08c6 a4b9
00000110: 3379 e7ba 95d7 5f38 8fde e1b9 fa2d d437
00000120: dd06 5eb5 bc5f 18b9 ec29 b3ba 02fa f2ba
00000130: f518 2cba e089 f2b9 8625 9838 4ed4 acb7
00000140: 0000 0000 1a25 77b5 aa64 3f37 c612 a6b9
00000150: 0000 0000 a7e0 40ba 72ef a6ba 0000 0000
00000160: 3018 12bb da8d b339 8f66 0abb 3410 ce38
00000170: fdc3 20bb 2afd 69ba f401 3e39 e410 d2b9
00000180: f8d1 8b38 0000 0000 401b cc35 5e71 b1b2
00000190: 3fd4 c8b4 0000 0000 991d 1e37 0000 0000
000001a0: 8bb8 d936 e7ef c5b2 d64a 9bb4 234f dfb4
000001b0: 0b6c 21b4 7199 22b4 0000 0000 0000 0000
000001c0: 0000 0000 0000 0000 0000 0000 0711 d7b3
000001d0: 0000 0000 d1a7 dfb3 d70b ad37 0000 0000
000001e0: 18a9 dd37 0000 0000 1be9 8138 0000 0000
000001f0: f491 7838 d08a 2f38 274c 5d37 1a19 cf37
00000200: 9b40 afb9 0000 0000 ea62 2fb3 23b9 1139
00000210: 5ea7 f6ba 0000 0000 8f03 e5b8 1175 b4b5
00000220: 9dd6 d036 8f80 03ba dce1 f3ba 7a8a 2dbb
00000230: 6095 44ba ac4f 90ba 6f2f b9b9 8ff1 8eb5
00000240: 0000 0000 0000 0000 0000 0000 59de 81ba
00000250: 0000 0000 16c9 5cb9 ec01 30ba 0000 0000
00000260: 16ed 27bb d7b1 73b5 2f04 f5ba 0000 0000
00000270: 184d 47bb 8e41 3338 8daa 0c37 1b4b 21ba
00000280: bb35 653a 0000 0000 8c82 d3b9 3722 c539
00000290: 9d62 383a d754 4eb8 bbb9 e339 103b b3b9
000002a0: 0000 0000 8a06 01ba 0dbb d0b7 c5b0 36b8
000002b0: 4fff a539 eb17 aab9 e569 13ba e243 3fb8
000002c0: 0000 0000 a9b1 bbb6 3c9a 74b7 dea4 25ba
000002d0: 0000 0000 f880 243a 6353 973a 0000 0000
000002e0: 3ecd 0a3a 18d3 38b9 c7d9 693a cd47 0eb8
000002f0: d44a 6939 edb4 6a3a 8353 6ab8 86ec 81b9
00000300: 7747 3239 0000 0000 71f0 11ba 9188 a13a
00000310: 20f8 cd3a 6bc5 26b8 2369 173a 5468 3fb4
00000320: 0000 0000 236a 0eb7 a6c8 343a e3a5 783a
00000330: b401 cc39 2c85 a9b9 cf98 95b8 175d c637
00000340: 0000 0000 2b2c 5436 0502 ecb6 adef 1fb7
00000350: 0000 0000 28d8 903a 26e0 953a 0000 0000
00000360: 3d3d b83a c155 0eba 0e77 1f3a f8ab e0b8
00000370: 5ad3 633a ee62 6b3a a0a3 5aba df00 3ab8
00000380: 017e 263b 0000 0000 7bbc 2938 301c 8c3a
00000390: b3da c439 f915 7138 6d1c 523a 1b5b 7635
000003a0: f850 4a34 031a 1038 f8d9 8eb7 d475 7638
000003b0: b027 f039 48fa 0d39 0eff dc38 8689 5938
000003c0: 0000 0000 a91b 8737 3d85 5437 2019 b238
000003d0: 0000 0000 e89c 8b3a 7e62 023b 0000 0000
000003e0: bb5e 773a 7f70 d238 b660 263b 3be5 9737
000003f0: caa0 843a af00 513b 7d51 013a e813 7a39

exp_avg_sq f4 [32, 32]
3.0406443e-06 0.0 1.9134799e-08 3.261142e-07 5.5851228e-08 1.8106122e-14 2.2278554e-07 0.0
0.0 1.2822915e-10 6.47784e-09 1.2130652e-08 1.2777998e-07 2.3000629e-08 9.360594e-11 1.2812851e-09
0.0 9.40842e-13 0.0 4.970112e-10 0.0 4.8700565e-07 1.926467e-06 0.0
4.1044825e-07 1.7874424e-08 3.0188148e-06 9.27248e-10 5.1637323e-07 4.5092156e-06 3.2918842e-07 1.4448286e-08
1.2449135e-07 0.0 3.6969363e-09 3.8148853e-09 4.1621906e-08 1.2640271e-09 1.1505483e-09 0.0
0.0 2.0152385e-10 2.162995e-08 8.9870504e-08 5.7327238e-08 3.484176e-08 1.8191002e-08 1.2512532e-09
0.0 1.2811115e-11 7.0082246e-11 7.1077513e-09 0.0 2.65441e-08 1.9808816e-07 0.0
1.5538349e-07 1.7325247e-08 1.7451221e-07 7.4123013e-10 2.3499811e-07 1.8448554e-07 8.525148e-08 9.37971e-10
2.5847962e-07 0.0 2.984674e-08 8.0258424e-08 1.5630975e-06 1.326842e-09 3.8860055e-08 6.5821886e-09
6.106491e-11 5.8699477e-08 1.1159179e-06 2.2232791e-06 2.9691714e-07 3.6222804e-07 7.780358e-08 1.4421875e-10
0.0 2.5826742e-13 4.610519e-11 2.202687e-07 0.0 2.0732422e-07 5.479323e-07 0.0
2.3286873e-06 3.92998e-08 1.713242e-06 3.2253646e-09 2.9056132e-06 1.744871e-07 8.224535e-08 9.527884e-08
3.1881746e-07 0.0 1.6512385e-10 1.5482494e-10 1.472872e-09 0.0 6.33158e-09 0.0
2.9925273e-09 1.7842168e-12 6.4341077e-10 1.2494118e-09 2.2383193e-10 1.246178e-10 0.0 0.0
0.0 0.0 0.0 2.0758378e-11 0.0 2.0022536e-10 3.0300182e-08 0.0
4.8782283e-08 0.0 2.7171902e-07 0.0 2.4749036e-07 1.2793305e-07 1.2446438e-08 4.320609e-08
6.3037237e-07 0.0 7.939779e-11 2.0595392e-08 1.5748471e-06 0.0 4.9570694e-08 1.2689483e-11
6.5666983e-10 4.8349857e-08 1.1872048e-06 2.3732753e-06 2.878099e-07 3.601604e-07 2.8432602e-08 1.0171599e-12
0.0 0.0 0.0 2.1401489e-07 0.0 1.3846555e-07 5.92156e-07 0.0
2.5992376e-06 7.5656755e-12 2.1848546e-06 0.0 3.4326965e-06 4.721395e-07 1.880592e-08 1.2956565e-07
4.082467e-07 0.0 3.6253642e-08 1.08569196e-07 2.384142e-06 2.768572e-09 5.3743932e-08 3.6393036e-08
0.0 1.4939859e-07 1.8507014e-06 3.8498365e-06 4.9725725e-07 6.658194e-07 2.7318856e-07 7.7632684e-10
0.0 8.971625e-12 1.5677787e-10 5.060231e-07 0.0 2.7755445e-07 9.479499e-07 0.0
4.0716145e-06 2.8974988e-08 2.733203e-06 6.4351185e-10 5.5632195e-06 3.0380266e-07 7.1798446e-08 2.0255206e-07
1.4415825e-06 0.0 5.210434e-08 9.543731e-07 2.6378582e-06 8.2275886e-10 2.548251e-07 1.544827e-14
0.0 6.4542744e-09 9.3120934e-07 1.7716499e-06 6.0428385e-07 2.2084855e-07 4.877707e-09 1.4590903e-09
0.0 5.6007123e-11 2.491643e-11 3.8759357e-08 0.0 1.155869e-06 2.4293424e-06 0.0
2.7591539e-06 5.8821254e-08 3.7682873e-06 3.7446966e-09 2.3544264e-06 1.9120237e-06 2.2907547e-07 3.984638e-08
3.0842155e-06 0.0 2.040092e-09 9.339076e-07 2.110348e-07 2.3810918e-09 3.3914367e-07 1.1079717e-12
9.651155e-11 7.919533e-10 3.0779635e-08 6.5826114e-08 1.8298887e-07 1.9230166e-08 5.8312315e-09 8.275273e-09
0.0 8.390669e-11 1.1527055e-10 4.2752544e-09 0.0 9.1118375e-07 2.5628608e-06 0.0
5.326059e-07 2.0933046e-08 3.090787e-06 3.3638101e-09 4.869294e-07 5.945112e-06 2.173552e-07 1.8831098e-08
00000000: df0d 4c36 0000 0000 de5d a432 cb14 af34
00000010: 13e1 6f33 e015 a328 d336 6f34 0000 0000
00000020: 0000 0000 4cfd 0c2f af93 de31 2c67 5032
00000030: e533 0934 eb92 c532 76d7 cd2e 3619 b030
00000040: 0000 0000 6869 842b 0000 0000 0e9e 0830
00000050: 0000 0000 c6ba 0235 7348 0136 0000 0000
00000060: 945b dc34 468a 9932 d896 4a36 47e1 7e30
00000070: e69c 0a35 de4d 9736 50bb b034 3c38 7832
00000080: ecab 0534 0000 0000 310d 7e31 1614 8331
00000090: c5c3 3233 00ba ad30 5221 9e30 0000 0000
000000a0: 0000 0000 ec93 5d2f c3cc b932 d5fe c033
000000b0: f737 7633 eca4 1533 7042 9c32 8ff8 ab30
000000c0: 0000 0000 2260 612d cc1c 9a2e 7138 f431
000000d0: 0000 0000 1803 e432 0fb2 5434 0000 0000
000000e0: 7dd7 2634 9fd2 9432 8d61 3b34 6fbf 4b30
000000f0: ca53 7c34 0017 4634 7f13 b733 ece9 8030
00000100: 2bc5 8a34 0000 0000 d630 0033 895a ac33
00000110: 9fcb d135 1a5c b630 15e7 2633 8b29 e231
00000120: 7d48 862e c21c 7c33 a6c6 9535 a533 1536
00000130: fb67 9f34 3e78 c234 f814 a733 f891 1e2f
00000140: 0000 0000 4264 912a d4c5 4a2e 0083 6c34
00000150: 0000 0000 d99c 5e34 9f15 1335 0000 0000
00000160: 8b46 1c36 96ca 2833 8cf2 e535 37a5 5d31
00000170: 0efe 4236 a65a 3b34 dc9e b033 199c cc33
00000180: f029 ab34 0000 0000 3b8e 352f 593b 2a2f
00000190: 146e ca30 0000 0000 2b8d d931 0000 0000
000001a0: 19a5 4d31 2f1b fb2b 02dc 3030 c5b7 ab30
000001b0: 161b 762f cb04 092f 0000 0000 0000 0000
000001c0: 0000 0000 0000 0000 0000 0000 b697 b62d
000001d0: 0000 0000 6e26 5c2f 6723 0233 0000 0000
000001e0: b084 5133 0000 0000 c7e0 9134 0000 0000
000001f0: d1de 8434 f85d 0934 03d4 5532 9991 3933
00000200: dc36 2935 0000 0000 fb98 ae2e bfe9 b032
00000210: 565f d335 0000 0000 8ee7 5433 5a3c 5f2d
00000220: 0881 3430 3ba9 4f33 0c58 9f35 8f44 1f36
00000230: 4b84 9a34 125c c134 f43b f432 0c27 8f2b
00000240: 0000 0000 0000 0000 0000 0000 f7cb 6534
00000250: 0000 0000 1fad 1434 a7f4 1e35 0000 0000
00000260: 906e 2e36 c618 052d 849f 1236 0000 0000
00000270: 475d 6636 5c7a fd34 a88a a132 bc1e 0b34
00000280: 002d db34 0000 0000 4db5 1b33 8c26 e933
00000290: 3fff 1f36 3c41 3e31 14d4 6633 914e 1c33
000002a0: 0000 0000 5f6a 2034 9e65 f835 d82d 8136
000002b0: 427b 0535 c3ba 3235 c0aa 9234 2565 5530
000002c0: 0000 0000 9bd4 1d2d 0c61 2c2f a5d5 0735
000002d0: 0000 0000 cb02 9534 9f76 7e35 0000 0000
000002e0: e79e 8836 ace4 f832 126c 3736 1fe3 3030
000002f0: b1ab ba36 521a a334 9d2f 9a33 167d 5934
00000300: 667c c135 0000 0000 54c9 5f33 0318 8035
00000310: 0f06 3136 8228 6230 e5ce 8834 4925 8b28
00000320: 0000 0000 66c4 dd31 38f8 7935 6dc9 ed35
00000330: 1236 2235 6322 6d34 c498 a731 2d89 c830
00000340: 0000 0000 6a52 762e d02a db2d 5d78 2633
00000350: 0000 0000 5b23 9b35 c907 2336 0000 0000
00000360: e729 3936 a7a2 7c33 afe2 7c36 b3aa 8031
00000370: bd00 1e36 5150 0036 c9f7 7534 8f23 2b33
00000380: 6bfa 4e36 0000 0000 ae31 0c31 a4b1 7a35
00000390: ce98 6234 9ca0 2331 8d13 b634 e3ee 9b2b
000003a0: 2c3b d42e c2b0 5930 9132 0433 4a5c 8d33
000003b0: 997b 4434 952f a532 0e5c c831 092b 0e32
000003c0: 0000 0000 4483 b82e 8d7b fd2e 89e5 9231
000003d0: 0000 0000 1298 7435 9dfd 2b36 0000 0000
000003e0: 66f8 0e35 41d0 b332 516b 4f36 c628 6731
000003f0: 89b5 0235 207c c736 2462 6934 06c2 a132

exp_avg f4 [32]
-0.0048108865 0.0006910888 -0.004041762 8.664832e-05 -0.0040607476 0.0022211666 0.0017862336 0.003398602
-0.007780284 0.0059680166 -0.0056359093 -0.003960736 0.0 -0.004914763 -0.0043514594 0.0006929535
0.0070500826 -0.008309278 -0.0012120005 -0.0005620153 0.0010275051 0.00227755 -0.004218653 -0.005731383
0.0013918689 0.006051961 0.0027747974 0.0043233843 0.002728406 -7.058613e-05 0.006582798 -0.0028693178
00000000: a4a4 9dbb 2f2a 353a c270 84bb f6b6 b538
00000010: 0510 85bb fe90 113b 0e20 ea3a 14bb 5e3b
00000020: c1f1 febb 5a8f c33b 6fad b8bb 10c9 81bb
00000030: 0000 0000 050c a1bb b096 8ebb 52a7 353a
00000040: 6104 e73b a323 08bc fddb 9eba 3554 13ba
00000050: 5aad 863a f342 153b a03c 8abb 53ce bbbb
00000060: 5f6f b63a 874f c63b 60d9 353b 2dab 8d3b
00000070: 0fcf 323b a407 94b8 83b4 d73b 2a0b 3cbb

exp_avg_sq f4 [32]
6.477904e-06 1.0361166e-06 7.1695395e-06 5.2944216e-07 8.549459e-06 1.4274556e-05 1.1808783e-05 6.2132754e-06
2.9839513e-05 2.05766e-05 1.3446832e-05 2.5529094e-05 0.0 1.6882614e-05 5.004522e-06 1.0044601e-05
2.0599422e-05 1.7578202e-05 8.316433e-06 5.773414e-07 2.6528653e-07 7.5583243e-06 1.2395434e-05 7.82401e-06
7.439924e-07 9.690849e-06 1.6227545e-05 6.900471e-06 1.2529358e-05 1.6399326e-06 2.0164869e-05 1.5682352e-05
00000000: c65c d936 b210 8b35 e091 f036 fd1e 0e35
00000010: a66f 0f37 c07c 6f37 561e 4637 a17b d036
00000020: de4f fa37 e99b ac37 b499 6137 5027 d637
00000030: 0000 0000 239f 8d37 84ec a736 3c85 2837
00000040: eccc ac37 e774 9337 cf86 0b37 99fa 1a35
00000050: b46c 8e34 839d fd36 fcf5 4f37 de43 0337
00000060: c5b6 4735 e195 2237 6320 8837 988a e736
00000070: 2f35 5237 a81b dc35 ba27 a937 988d 8337
