lightning_logs/version_135/checkpoints/epoch=3-step=60.ckpt (torch, 47523 bytes, 46 tensors)

model.encoder.conv1.att_src f4 [1, 4, 32]
00000000: db13 0bbe b495 6a3b e86d 72be d05f 6f3e
00000010: bae9 c7be 112b 3f3e b917 1c3e 4688 553e
00000020: d541 86be ea6a b43e 291b 28be 969a 3d3e
00000030: d6d5 b43e 5d5e 593e 383b 7c3e 076d 9fbe
00000040: f9f6 61bd 79f9 f53c edac 473e 679d a73e
00000050: 7a39 023e 24cd 2c3c cb58 613e 8a23 68bd
00000060: d14a a33e 87ad 89bd 64f7 edbd d19e 08be
00000070: bbfc 8f3e 8276 c5bc af58 a1be ae8c bebe
00000080: 800b 34be c7ab 1bbe 6331 c0be e173 4abb
00000090: 9fe6 b6be 279c b8be 2838 b6be a0ad 953e
000000a0: d828 94be fc8a f63c 8e2d 023e abe5 d13e
000000b0: 87ac b23e 33d8 8fbe 2bd2 903e 7839 27be
000000c0: 490b f93c c57b ea3d bca0 cd3e 6b78 1e3d
000000d0: eb78 723e c0d0 c23e 0d06 36be f75f 7abe
000000e0: a154 da3c 6882 0dbe 8464 3d3d 56c0 0c3e
000000f0: 31db 38bd 5fc3 3b3d 7538 1abc 975f ec3d
00000100: 5951 883e cad6 563e aa59 993e 113c 4bbe
00000110: 7a25 88be 0485 b03e bcc6 903e 0ca6 b3bd
00000120: e74b d13e d8ac b03e 43b6 7c3d 5b72 7e3e
00000130: 3ce8 b8be 608f 67be 0811 373e f543 2cbe
00000140: b8cd 9d3e 28d4 b83e a869 a93e 6c8c 53be
00000150: 160c 473b 9c23 713e 7d61 cfbe 2c07 8ebe
00000160: 11d5 813e 3185 963e 03e0 353e 8684 96be
00000170: 8360 873e e969 f53d 80c1 d63b b0d3 b53d
00000180: b7f2 d13d e6b9 cc3e 8dee af3b 40d8 003e
00000190: 1e68 97bb 37a1 633e 1d8e b43e 0b3b b03e
000001a0: c52f 933e 4ab1 02be af71 bebd 41a2 1bbe
000001b0: 1cb7 b73d c585 94bc 74af abbd e49f 613e
000001c0: 7692 f4bd 80e3 a63e b2aa 9a3e bbf1 c6be
000001d0: 18b2 373e 712e d43c 2048 1e3e e517 9bbd
000001e0: d5a9 2bbe b92e a0bd 1449 983e ebcf 1d3e
000001f0: ef18 833d dffe 523d a91f 0cbe e180 4ebe
-0.13581793 0.0035794796 -0.23674738 0.23376393 -0.39045507 0.18668772 0.15243424 0.20852765
-0.262221 0.3523782 -0.16416611 0.18516001 0.35319394 0.21227403 0.24631965 -0.3113787
-0.055167172 0.030026184 0.1949956 0.32737276 0.12717238 0.010546956 0.22006528 -0.056674518
0.31893018 -0.06722551 -0.11619452 -0.13341834 0.28122506 -0.02410436 -0.31512973 -0.37216705
-0.17582512 -0.15202247 -0.3753768 -0.0030891823 -0.35722825 -0.36056635 -0.3558972 0.29234028
-0.2893741 0.03009557 0.1271269 0.40995535 0.34897253 -0.28094634 0.28285345 -0.16330516
0.030400889 0.114493884 0.40161693 0.03868906 0.23678939 0.3804989 -0.17775746 -0.2445067
0.026651682 -0.13819277 0.046238437 0.13745245 -0.045130912 0.045840617 -0.0094128745 0.1154167
0.26624563 0.20980373 0.2995122 -0.19847132 -0.26591092 0.34476483 0.28276622 -0.08771905
0.4087822 0.3450687 0.061697256 0.2484831 -0.3611468 -0.22613287 0.1787759 -0.16822799
0.30821013 0.36099362 0.33088422 -0.20659035 0.0030372194 0.2354874 -0.40504065 -0.27739847
0.2535787 0.29398492 0.17761235 -0.29397982 0.2644082 0.119830914 0.0065538287 0.08878267
0.10251372 0.3998558 0.0053690136 0.12582493 -0.004620566 0.22229467 0.35264674 0.34420046
0.28747383 -0.12762943 -0.09299027 -0.15198614 0.08970472 -0.018130193 -0.083830744 0.2203365
-0.11941998 0.32595444 0.30208355 -0.388563 0.17939031 0.025901051 0.15457201 -0.07572917
-0.16764005 -0.07821412 0.29743254 0.15411346 0.0640124 0.051512595 -0.13683952 -0.20166351

model.encoder.conv1.att_dst f4 [1, 4, 32]
00000000: b183 19be 9109 7fbd a4d8 47be 920e d33d
00000010: d9ba ef3d c7ea 593e 7573 40be 6fcd 883e
00000020: 0d83 08be 95b4 b63e 1335 903c aaf9 8bbd
00000030: 64fb aebe b0f4 39be 1404 803e 1e43 873d
00000040: 81bc 2d3d 4300 c3bd ce85 35be f7d4 4ebe
00000050: 9565 9fbd dca2 183d 12b4 353e 9a63 983d
00000060: 2f07 813e ccfc 933e 06ae a3be 6457 313d
00000070: 2d6e a53c 437e c0be 060a 6dbe 5f56 1abe
00000080: 9f82 c23d e668 a2be 90c9 8cbe 7f86 a43e
00000090: 4604 55be dc4a c3bc 6ac1 49bd b751 9c3e
000000a0: 17bd ae3e f0e3 753e d503 8c3e 7e06 b8be
000000b0: 5931 123e cbe9 9a3b 2a19 b0be 8dfd 8ebe
000000c0: 64b4 143e e26b 8f3e 6ada 8dbd 556a 9fbe
000000d0: b731 413e defb d9bd 03a2 3dbe 613e cc3e
000000e0: 754f abbe a2ae 8bbd 58c6 20bd 8c40 0b3e
000000f0: db4c aabe 3367 e7bd 8d67 693e 1caa 09be
00000100: f957 88be d0d3 47be db87 80be c201 c6be
00000110: e322 81be ed1a df3d d924 3bbe 1cfd a0be
00000120: ab1c 303e 9cd7 3d3e 4ba6 b5bd f214 28be
00000130: ef5f 2fbe 991b b5bd f797 1dbe 66ec aebe
00000140: f446 8e3e 3b69 803e 9d54 03be e7a8 c3be
00000150: 72cd ebbb 5d97 b63d 8541 ab3e fc8a c73b
00000160: 17bf 37be f435 d0be 8701 18be 4126 783e
00000170: fdc4 ac3e ef86 9dbd e015 6bbe f22e a1be
00000180: 62b4 b2bd 5b08 8d3e e5d6 f03b 5fa3 af3e
00000190: 9c08 0abe ea14 6c3d 31fb 973d eb00 ce3e
000001a0: fffa 723d 2f58 873e 4da1 133e e146 f93d
000001b0: fc3f b43e 427d 3c3e 22d8 4e3e f3ed 963e
000001c0: 7dda 143d 90a8 c93e 3653 bebe cb67 563d
000001d0: 551b 66bd 4649 783e 836f bb3e bcad 04bd
000001e0: d344 bdbd 71ea 14bb c22e c9be d7a2 cc3d
000001f0: f16e 883e f50a a0be 6ce4 a53e 11c7 f7bc
-0.14991643 -0.062264983 -0.19516236 0.103055134 0.1170556 0.21280967 -0.18794043 0.26719233
-0.13331242 0.35684648 0.017603433 -0.06834729 -0.3417617 -0.18159747 0.2500311 0.066045985
0.0424161 -0.09521534 -0.17726824 -0.20198427 -0.07783047 0.03726469 0.17744473 0.074408725
0.25200793 0.28903806 -0.31968707 0.043296233 0.020194137 -0.3759633 -0.23148355 -0.1507201
0.0949757 -0.31720656 -0.2749753 0.32133862 -0.20802411 -0.023839407 -0.04925672 0.30531093
0.3412864 0.24012733 0.27346674 -0.35942453 0.14276637 0.0047275773 -0.343942 -0.2792782
0.14521939 0.28011996 -0.06926425 -0.31135812 0.18866621 -0.10643743 -0.18518834 0.3989134
-0.33459058 -0.06820418 -0.039251655 0.13598841 -0.3326176 -0.112989806 0.22793408 -0.13443798
-0.26629618 -0.19514394 -0.2510365 -0.38673216 -0.2522193 0.108938076 -0.18275775 -0.31443107
0.17198436 0.1853928 -0.088696085 -0.1641424 -0.1712644 -0.088431545 -0.15390001 -0.34164733
0.27788508 0.25080284 -0.12825246 -0.382148 -0.007196122 0.08915589 0.33448425 0.0060895663
-0.17943989 -0.40666163 -0.14844333 0.24233343 0.3374404 -0.07691752 -0.22957563 -0.3148113
-0.087258115 0.27545437 0.007349836 0.3430433 -0.13479847 0.057637133 0.07420958 0.40235075
0.0593214 0.26434466 0.14417 0.12171722 0.35205066 0.18407157 0.20199636 0.29478416
0.03634118 0.39386415 -0.3717286 0.05234508 -0.05617841 0.24246702 0.36608514 -0.03239225
-0.09241643 -0.0022722746 -0.39293486 0.09991997 0.26647142 -0.3125836 0.32400835 -0.03024629

model.encoder.conv1.bias f4 [32]
00000000: dc24 533b 38c5 0639 04e0 29ba c433 623b
00000010: 3181 90b8 4ae4 14bb 37be 98bb 2962 e0ba
00000020: 931d 57bb b0d9 073a 4f32 ea38 0334 e73a
00000030: a258 613a 1658 a33a 488a 013b 4f9b f1ba
00000040: c811 0c3a a3c2 9c3a 8503 7abb dfbb 983b
00000050: 9302 5bb9 c61d 0c3b 324e 7f3a 6a2a 6f3a
00000060: 4761 53ba a90b ddba b830 9bb9 395e 003a
00000070: c118 bb3a 2951 79bb 95a3 053b 0399 30ba
0.0032218015 0.00012852706 -0.00064802193 0.0034515718 -6.890519e-05 -0.0022719079 -0.0046613473 -0.0017119098
-0.0032824024 0.0005182279 0.0001116736 0.0017639402 0.0008596276 0.0012462165 0.001976626 -0.0018433126
0.0005343226 0.0011959862 -0.003814907 0.004661068 -0.00020886427 0.002138005 0.000973913 0.00091234467
-0.00080635067 -0.0016864437 -0.00029600202 0.0004896853 0.0014274345 -0.003804276 0.0020391692 -0.0006736668

model.encoder.conv1.lin.weight f4 [128, 3]
00000000: eb54 353e 518b 55be cac8 0bbe cf12 c5bd
00000010: 9d75 553e a836 72bd a72b 3e3d cd3d 883d
00000020: 8c25 14be 7408 783d afa2 893d 58bf 1dbe
00000030: 735a 393e fc85 4ebe a4d4 073d a937 e7bc
00000040: fd69 813d ce85 00bd 4c48 eb3d 9b47 5dbd
00000050: 6e2e 133e 1431 473e cc55 473c ff0f 0a3e
00000060: 8e60 cbbd c622 f73d adb5 adbd 5563 25bc
00000070: ce08 d9bd 8085 623d 1e7f 1c3e 007b b53d
00000080: 3731 453e 9242 b5bc 8897 be3d 0e13 393e
00000090: 108e ff3d 75db c73d 0537 69bd 6a5d 31be
000000a0: c691 1cbc edd3 47be 0d84 25be 907a 54bd
000000b0: 09df edbd 7941 fdbd 533a 573e e943 ad3d
000000c0: 9acd 83bd 63ae 2abe ab2e 1b3e c5b9 2bbe
000000d0: 5cee 9fbd 75b9 53bd a570 5ebc 2591 afbd
000000e0: 5ed4 84bd e3f1 433d cb01 05be 6386 4d3e
000000f0: b833 423e 083d 283e 947d 0c3e 0036 27bd
00000100: e950 413e aa3f 303d c5e7 3d3e 51d9 7a39
00000110: d1e7 053e 4f17 503e f16f 1b3e 2fef b43c
00000120: 3002 47be 6f8c 1bbe 9d0e 2abe 015e b1bc
00000130: 9eb1 5a3e 71b2 283e 2633 283d d2e8 b9bd
00000140: 5d27 ca3d 20e7 d43d cdf6 f83d 5e02 5a3e
00000150: 842c 0a3d 8efa c53d 5dfa e1bd 44e3 36bd
00000160: b86f e63d dc45 d6bd 1c39 373d 21b3 4cbe
00000170: 8964 3a3e e4bd 593e d349 113e bd73 31bb
00000180: f10c 27be 55b9 c8bd 921c 3c3e 83b3 443e
00000190: e158 a6bd 6721 5cbd 8599 1c3e 45bf 98bd
000001a0: 26fb 553e b684 0cbe 0aca d93d 66a9 b83c
000001b0: 30ba 5fbd b85b 283e 117e db3d 9e9f a63d
000001c0: 6624 eb3d c747 53be 55a4 3cbe 2aa2 d23d
000001d0: a353 17be 08e8 4ebd 7a81 c43c 0ce1 a2bd
000001e0: ca21 47bd 9e93 a73c 9771 0d3d 47a9 1c3e
000001f0: ec26 d03d 6af7 153d 4135 853d 8a39 f5bd
00000200: 1af4 3b3e 40a0 1f3e 23cd 8cbd b56f 723d
00000210: 118d 13be f027 2e3e 07cc 48be 713a 13be
00000220: 23e5 4cbe df46 333e ec2b 333e 8418 2cbe
00000230: 0284 f6bd 1820 9ebd 3d9c cebd 71b3 243e
00000240: a9f5 6fba fd9d a63c d506 9f3d 5c29 95bc
00000250: 99ca 003e 3bca 2c3c b282 1fbe cd58 6f3d
00000260: 2cdd 3fbe 0059 9bbd 2809 d2bc 63a6 f3bd
00000270: a574 963c 10e6 d0bd 0425 0bbb 2716 a4bb
00000280: d371 283c 03eb f13b 0e8e 223e 79dc 81bd
00000290: be59 373e 4016 da3d b5ec 9d3c 8c8c 21be
000002a0: adae 22be e028 33be 2321 58bd 485b f5bd
000002b0: 7bf2 a9bd c151 dfbd f0d8 08be b8fc dbbd
000002c0: 5eb3 403e 5425 4e3e 436f 28be f034 093e
000002d0: bff1 513e 367b bf3d 0734 72bc d2cf 55be
000002e0: 6f4d ac3d abdb 28bd d3f5 593e fe1b 4d3d
000002f0: 02b4 7f3d 1f69 18be 6bf6 4abe b804 493e
00000300: b62c 90bd 1e3d 75bd d3b9 cfbd 0326 a5bd
00000310: d70d 723d 8e64 193e 2ac3 93bd 9be2 073e
00000320: b374 ec3c 3d07 32be e571 cfbd 86b8 a6bd
00000330: ac96 e23d 1f49 e93d fcf0 d2bd 8362 5abd
00000340: fe7f 043d 0804 1bbd e5b4 9b3c db9f 6cbd
00000350: 5cb7 0bbe 4322 a13d e197 553e f452 0bbe
00000360: 280a 283e bd0d 53be 00a0 353e 9184 333e
00000370: 782f fbbd 5ec5 0d3e 4dd7 abbd 64a2 6c3d
00000380: 105b 4fbe b1a5 313c 7f4d d43d 5457 f13d
00000390: a667 8c3d 8079 483e 4cff 093e dc09 c73d
000003a0: b153 2fbd 5094 38be f581 da3d 0875 093d
000003b0: cec9 653d 9700 443e b08d 553e 0bf1 c43d
000003c0: af2f 49be 8796 153e dc3d e53d 9706 22be
000003d0: 3def 3cbe 95f7 1bbd 9be4 cdbc aeec e03b
000003e0: 605a 473e b5dd f93d 1ac7 1dbe ffce 32be
000003f0: e0b6 3dbe 664e a0bd 5b08 dbbd fa38 d53d
0.17708175 -0.20853926 -0.13650814 -0.09622728 0.20845647 -0.059134156 0.04642835 0.066524126
-0.14467448 0.060554937 0.067204826 -0.15405023 0.1810091 -0.20168298 0.033161774 -0.028224783
0.06319044 -0.031377606 0.11488399 -0.054023366 0.1437318 0.19452316 0.012166452 0.13482665
-0.09930526 0.120671794 -0.084819175 -0.010094483 -0.105973825 0.055303097 0.15282866 0.08861351
0.19257055 -0.02212647 0.09306246 0.18073675 0.12478268 0.09758655 -0.056937236 -0.17320791
-0.0095562395 -0.19514437 -0.16163655 -0.051874697 -0.11614806 -0.123660035 0.21018343 0.084602185
-0.064357 -0.16668086 0.15154521 -0.16770084 -0.07809135 -0.051690537 -0.013576661 -0.08572606
-0.06485818 0.047838103 -0.12988965 0.20070796 0.18965042 0.16429532 0.13719779 -0.040822983
0.18878521 0.043029465 0.18545444 0.00023922815 0.13076712 0.20321392 0.15179421 0.022086708
-0.19434428 -0.1519029 -0.16607137 -0.02165127 0.21356818 0.1647432 0.041064404 -0.0907761
0.09870789 0.10395646 0.121564485 0.21289966 0.03373386 0.0966693 -0.11034081 -0.04465033
0.112517774 -0.10462543 0.044732198 -0.19990207 0.18202414 0.21263844 0.14188318 -0.0027077042
-0.1631353 -0.09800974 0.18370274 0.19209103 -0.08122421 -0.053742792 0.15292938 -0.07458357
0.20896587 -0.137225 0.10634239 0.022541713 -0.05462092 0.16441238 0.10717405 0.08135913
0.11481552 -0.2063285 -0.18422063 0.102848366 -0.14777999 -0.05051425 0.02398752 -0.079530805
-0.048616208 0.020456132 0.034532156 0.15298949 0.10163674 0.036612906 0.06504298 -0.11973865
0.18354836 0.15588474 -0.06875064 0.059188563 -0.14409281 0.17007422 -0.1960908 -0.14377762
-0.20009284 0.17507504 0.17497224 -0.16806227 -0.12036897 -0.07720965 -0.10088394 0.16084076
-0.00091537327 0.020339007 0.07764975 -0.018208198 0.12577285 0.010546262 -0.155772 0.058434296
-0.18736714 -0.07585335 -0.025639132 -0.1189697 0.018366167 -0.10200131 -0.002123178 -0.0050075236
0.010281044 0.007382752 0.15874502 -0.0634088 0.17905328 0.10648775 0.01927791 -0.1577627
-0.15886946 -0.17496061 -0.052765977 -0.11980301 -0.082982026 -0.10904265 -0.13364005 -0.10741562
0.18818423 0.20131427 -0.16448693 0.133991 0.20502375 0.093496725 -0.014782912 -0.20880058
0.08413207 -0.041225117 0.21285181 0.050075524 0.06242753 -0.1488385 -0.19820563 0.19630706
-0.07039778 -0.05987274 -0.10142865 -0.08063891 0.05909523 0.14979765 -0.07214959 0.13270037
0.02886424 -0.17385574 -0.101291455 -0.08140664 0.11063895 0.113909 -0.1029987 -0.053316604
0.032348625 -0.03784564 0.019007156 -0.057769638 -0.13644165 0.07867863 0.20858718 -0.13605863
0.16410124 -0.2061071 0.17736816 0.17531039 -0.12264913 0.13844821 -0.08390675 0.057772055
-0.20249581 0.010842727 0.10366344 0.11784235 0.06855707 0.19577599 0.13476294 0.097186774
-0.042804424 -0.18025327 0.106693186 0.033558875 0.05610066 0.1914085 0.2085483 0.09616288
-0.19647096 0.14608203 0.11193439 -0.15822826 -0.18450637 -0.03807791 -0.025133422 0.006864152
0.19468069 0.122004904 -0.15407982 -0.17461775 -0.18526793 -0.07827453 -0.10694953 0.10411258

model.encoder.conv2.att_src f4 [1, 1, 32]
00000000: b1d7 ca3d a5a3 acbe 86b3 a6be abd5 2fbe
00000010: f6f1 b63e a45a eebd 605d 91be 45c4 73be
00000020: 7248 8c3e 4b28 a53e 6f43 bd3e 751c a2be
00000030: a6e3 8abe 66d0 d93d f7ba 8bbe 2b25 07be
00000040: 3a12 5ebe ef6a ddba ebfe fe3d 8144 bc3e
00000050: 0c2f 153e fdfd 8e3c 3f32 a4be 93a8 e73d
00000060: de2f 94bd ff23 65be e195 98be cc60 ccbe
00000070: 8e2f 2dbe 0f06 e83d 23b4 943d 45f1 65be
0.09904421 -0.337186 -0.3255884 -0.17171352 0.35731477 -0.11638382 -0.28391552 -0.2380534
0.2739902 0.32257304 0.3696551 -0.31662336 -0.27126807 0.10635452 -0.2729108 -0.13197772
-0.2168664 -0.0016892831 0.124509655 0.36771014 0.14568728 0.017455095 -0.32069585 0.1131145
-0.072356924 -0.22377013 -0.2980185 -0.399176 -0.16912672 0.113292806 0.07260921 -0.22455318

model.encoder.conv2.att_dst f4 [1, 1, 32]
00000000: 2006 5b3b 6abe 053e a47b 233e 988d dd3d
00000010: 5e8d dfbd a13f 913e 202c 89be ac0f c6be
00000020: dcc9 1d3e c150 ddbd 74c6 29be 4766 aebd
00000030: 1bde 99bd 7277 ab3e e10c 37bd f4aa b4be
00000040: 59a6 cb3e 0715 f23d a9bc 84bd ac57 0f3e
00000050: 39ce 01be 74ff d5be 9038 d83e dbb0 b13e
00000060: 2525 cdbd 2729 3ebe 8a61 8ebc 2cab 3d3e
00000070: 7a40 d73e cfae bc3e dcc1 c2be 6660 c53e
0.0033420399 0.13060918 0.15965134 0.108180225 -0.109156355 0.28368858 -0.26791477 -0.38683832
0.15409034 -0.10806418 -0.1657961 -0.085156016 -0.075130664 0.33489567 -0.044690017 -0.35286677
0.3977535 0.11820417 -0.064812966 0.13998288 -0.12676324 -0.41796458 0.42230654 0.34705243
-0.100168504 -0.18570386 -0.017380495 0.18522328 0.4204138 0.36852118 -0.38038528 0.3855011

model.encoder.conv2.bias f4 [32]
00000000: f4fe a13b 8655 d0ba 0f3d 64bb 67a6 81bb
00000010: 10b8 1bbb 470f 7fbb 777a 6138 a50c 8a3b
00000020: 9144 633b ed1e 723b c72f 9b3a 6952 3aba
00000030: 2e25 893a b179 28bb d1c4 373b 1f36 7c3b
00000040: 54e8 4d3b a0df 163b 6dc4 d03a 78bd a6bb
00000050: b440 43bb a1b1 623b 1c0c 593b 4113 30bb
00000060: d852 eaba c5ef 4b3b 1863 f63a bf1e 293b
00000070: 2c1d 603b 512f a43b 1ee8 603b ea14 e6b9
0.004943723 -0.0015894629 -0.0034826433 -0.0039566043 -0.0023760833 -0.0038919018 5.3758235e-05 0.004212933
0.003467832 0.0036944703 0.00118398 -0.0007107617 0.0010463351 -0.00257073 0.0028040896 0.0038484407
0.0031418996 0.0023021474 0.001592768 -0.0050885044 -0.0029793205 0.0034590738 0.003311879 -0.0026866945
-0.0017877473 0.0031118256 0.0018797843 0.002580568 0.0034197075 0.0050105234 0.003431804 -0.000438846

model.encoder.conv2.lin.weight f4 [32, 32]
00000000: d72e 9f3d 55d7 1e3e ad8d 2f3e 1fc1 5bbe
00000010: 250a 0ebe 4404 5d3e 4a7c 94be 01f7 6b3e
00000020: 3b3c 83be ee1c 04be c48a 0cbd 8bab 493e
00000030: 4829 abbc 6c1f 8bbe 84ae 93be fa20 28be
00000040: fc02 0e3e dbd5 2b3e 466f 56be 0118 3e3d
00000050: 6d42 d13d 4636 fbbd 79cb 46be 98ca 7fbe
00000060: 0aa9 1e3e ebfd 4a3e c168 42be 508a 613d
00000070: d9b4 83be 5d46 8cbe cd9c 84be 49c8 473e
00000080: be55 99be 52cc 983e c954 403e 2fe8 5e3e
00000090: 1cbd 6bbe 1212 9c3e 34fb 083d 2afe 963d
000000a0: db18 13be bcb6 45bd c121 103e 188e 893e
000000b0: 6beb 663e da94 c63b ea56 4ebe 77ec 493d
000000c0: ef08 863d d6e1 623d 2f45 44be 0a6e 45be
000000d0: 019e f03c 845f cc3d 943b e73d 003b ca3d
000000e0: 391b 96be 983c bd3d 9b77 bc3c 0c52 9a3e
000000f0: 95ef 59bd 0940 f1bc 463f b03d a718 4e3d
00000100: cd61 063e f3ff 7abe 6193 84bd f87c 483e
00000110: a3cd 42bd 46f0 19bd ca81 463e 2ccc 4f3e
00000120: 08aa 07be 0cbb 993d f95b 31bd 9da9 303e
00000130: 18e8 833e df93 083e f31f 8abe cc7f bf3d
00000140: f2b2 443e 8724 83be 1527 903e 44b2 963d
00000150: 9b17 513e 59a7 65be 38f6 863c 071c f23b
00000160: 48de adbd 8434 00be 46b0 e2bd f47a 88be
00000170: 0113 233e d603 4c3e ffb3 503d c07e 883e
00000180: 4871 cdbd a9bc fbbd 9a39 11be 873a 28be
00000190: 9252 7b3d e02c 91be 63b7 8f3e 5600 73be
000001a0: 13df 61bc 775b 7a3d e224 73bd a21a 16be
000001b0: e8bd 27be 8f9d 8fbe 5129 84bd 0df9 88be
000001c0: dc9f 8f3d 2828 683e c0f2 713e 7403 42be
000001d0: 2e9a 1d3d fd90 5b3e 7cb5 adba b496 8ebe
000001e0: f5bd 3fbe ede4 03be d0c3 fbbd fdf3 f33d
000001f0: 85db ef3b 140f 753e 5a9d 80be 7618 28be
00000200: 655c 86be 94b3 61be 4d21 01be 5d19 893e
00000210: 6372 863e 0471 99bd 258e c33d 0d36 8f3e
00000220: a10a 7c3e 39e3 a2bd fcda 4abc f998 3b3e
00000230: 5d43 923e 88fa 5fbd fc72 b7bd 0d52 85be
00000240: 6bad 7dbd fd04 92be f853 983e ceb6 dfbb
00000250: 8155 2fbe d6b8 873e 3bf4 0d3e d22f 9b3e
00000260: a3b8 1cbc 1fa6 a1bd 2600 fabd 1310 6c3e
00000270: dcd8 e5bb 5766 93be ae69 e7bd 9d37 783e
00000280: b91b 41be 5133 f23d 5ad6 853c 0938 9cbc
00000290: e66a 8e3e 1724 78be bb76 4bbe 21ef 0bbb
000002a0: 30ae 8ebd f23e 1cbe d01a 533e d767 ea3d
000002b0: 3562 d13c 8d99 6ebe ae7f c8bb 4dad 94be
000002c0: fd7d 32be 9fc0 45bb 72fd 7a3e afa6 d4bd
000002d0: c428 2cbe a427 873d 31ae 013d d9d2 753e
000002e0: 83dc 92bd af1a 16be 8a19 ce3d f28a c93d
000002f0: 8f07 1a3e c90d 18bd bcb9 33bd 7628 7c3d
00000300: dc05 863e 6507 7d3d 24d4 933e d3d2 933e
00000310: 3e74 0bbe bbfe 90be db8e 8cbd 41a9 a93d
00000320: b283 91be 5003 313e a11f fbbd f6e4 51bd
00000330: 95df 78be 5d6e 10be d6d7 dabd a7ef febd
00000340: 6638 343d e7c4 a2bd a05c 613e 52a5 49b9
00000350: be46 7f3e e33d ca3c 03c7 75be ba3f 4cbe
00000360: bc2d 8b3e a813 61be 5d95 d1bd 1f2b 8c3d
00000370: 86d8 a5bd 4a4e 97be 9122 103e 08c9 b2bd
00000380: 6020 163d 2af9 51be 6a48 b93d 06e1 f2bd
00000390: a9ab 873e cdc8 cd3d 1078 57bd eec7 333e
000003a0: 05c1 46be e041 973e a90d 93bd a960 ddbd
000003b0: 6f61 79be ab49 d13c 29be 80be a285 3b3c
000003c0: 78f1 36be 5a6b 1b3d e4a1 933e 441b 30be
000003d0: 9881 81be 1b2b 89bd 265e 15be 2d3b dabd
000003e0: b12f d6bd 7253 49be f57f 333d e2cc 32be
000003f0: b819 23be fdb1 5a3e 1bc7 473d 87ba 313d
0.07772606 0.1551183 0.17143889 -0.21460389 -0.13871057 0.21583658 -0.29001075 0.23043443
-0.2563189 -0.12901661 -0.034312025 0.19694345 -0.020893708 -0.2717241 -0.28844082 -0.1641883
0.13868326 0.16780798 -0.20940885 0.04640961 0.10217748 -0.12266211 -0.19413556 -0.24979627
0.15494171 0.19823425 -0.18985273 0.055063546 -0.25723913 -0.27397433 -0.2590088 0.19509996
-0.2994823 0.29843384 0.18782343 0.21768259 -0.23021358 0.30482537 0.03344269 0.07372697
-0.1436495 -0.048269972 0.14075376 0.2686622 0.22550742 0.006060225 -0.20150343 0.049297776
0.06544673 0.055391155 -0.19167016 -0.19280258 0.029372217 0.09979156 0.112906605 0.098745346
-0.29317644 0.09240073 0.023006251 0.30140722 -0.053207 -0.02944948 0.086058185 0.05031648
0.13123246 -0.245117 -0.06473423 0.19578922 -0.04755939 -0.03758266 0.19385448 0.20292729
-0.13248456 0.075063795 -0.043300603 0.17252202 0.2576301 0.13337658 -0.269775 0.09350547
0.19208887 -0.25613806 0.28154817 0.0735822 0.20419161 -0.2242712 0.016474828 0.007388595
-0.084896624 -0.12520033 -0.11068778 -0.26656306 0.15925218 0.19923338 0.050952908 0.26659203
-0.10031372 -0.122918434 -0.1418213 -0.16428576 0.061358042 -0.2835455 0.280696 -0.23730597
-0.013786095 0.061122384 -0.059361346 -0.14658597 -0.16381037 -0.28049895 -0.06453193 -0.2675251
0.07012913 0.22671568 0.23627758 -0.1894663 0.038477115 0.21442027 -0.0013252939 -0.27849352
-0.18724807 -0.12880297 -0.12293208 0.119117714 0.00731987 0.23931533 -0.2512005 -0.16415581
-0.26242366 -0.2204116 -0.1261036 0.26777163 0.26259145 -0.07492259 0.09548596 0.27970925
0.2461343 -0.079534955 -0.0123813115 0.18320073 0.2856702 -0.054682285 -0.089574784 -0.26039162
-0.061932962 -0.2851943 0.29751563 -0.006827212 -0.17122461 0.26508206 0.13862698 0.30309922
-0.009565505 -0.07893013 -0.122070596 0.23053007 -0.007014377 -0.28789017 -0.11299454 0.24239965
-0.18858232 0.11826194 0.016337562 -0.019069688 0.27815932 -0.24232517 -0.19869511 -0.0021352249
-0.069668174 -0.15258387 0.20615697 0.11445587 0.025559524 -0.23300762 -0.006118736 -0.29038468
-0.17430873 -0.0030174626 0.24510744 -0.10383355 -0.16812426 0.06599358 0.031660262 0.24006213
-0.071709655 -0.14658616 0.10063465 0.09840955 0.15041946 -0.03712252 -0.043878302 0.061562024
0.26176345 0.06177463 0.28872788 0.28871784 -0.13618562 -0.28319344 -0.06863185 0.08284236
-0.28420788 0.1728642 -0.12261892 -0.051243745 -0.2430404 -0.141046 -0.10685699 -0.12448054
0.0439991 -0.079477124 0.2200799 -0.0001923044 0.2492933 0.024687713 -0.24001698 -0.19946185
0.2718333 -0.21980155 -0.10233567 0.06844162 -0.08097939 -0.29551917 0.14075686 -0.0872975
0.03665197 -0.20505205 0.09047015 -0.11859326 0.26498154 0.10048065 -0.052604735 0.17556736
-0.19409569 0.29542446 -0.0718034 -0.10809452 -0.24353574 0.025547823 -0.2514508 0.011445435
-0.1786555 0.037944175 0.2883445 -0.17197901 -0.25294185 -0.06697675 -0.14586696 -0.10655818
-0.10458315 -0.19660738 0.0438232 -0.17460969 -0.1592778 0.2135696 0.048773866 0.043390777

model.encoder.bn1.weight f4 [32]
00000000: 4b9a 7f3f 0584 7f3f c4de 7f3f ccfc 7f3f
00000010: ed0d 803f be0f 803f 9507 803f 1848 7f3f
00000020: eec9 7f3f 1e7e 7f3f a266 7f3f 2215 803f
00000030: 8921 803f 8e29 803f 3f4c 803f 8fd6 7f3f
00000040: 99d2 7f3f 5c27 803f 1016 7f3f a547 803f
00000050: 51cf 7f3f d252 803f abc6 7f3f a8f0 7f3f
00000060: 26ca 7f3f 5654 803f f705 803f 8e38 803f
00000070: 1eae 7f3f 4335 803f 6315 803f 5843 803f
0.9984481 0.9981082 0.9994929 0.9999511 1.000425 1.0004804 1.0002314 0.9971938
0.99917495 0.99801815 0.9976598 1.0006449 1.0010234 1.0012681 1.0023268 0.99936765
0.9993072 1.0012012 0.9964304 1.0021864 0.99925715 1.0025275 0.9991252 0.9997659
0.9991783 1.0025737 1.000182 1.0017259 0.99875057 1.0016254 1.0006527 1.0020552

model.encoder.bn1.bias f4 [32]
00000000: 5e19 ab39 aa2e 12bb f618 703b 30b4 853b
00000010: d309 57bb 1e80 6b3b 0de8 5fbb 50d4 1eba
00000020: b3fd 88bb 174f 823b 6df5 96bb 1e18 0cbb
00000030: 5d2a a3bb 8c0e ad3b 26bd 9dbb cc69 993b
00000040: d96d 6e3b 551a 523b aa0f 8fbb 590f 9f3b
00000050: ef0c 60bb bfb8 63bb d67f 183b 13d8 20bb
00000060: f580 883b cd98 81bb 087a 64bb 4876 333a
00000070: e54a 203a f652 a0bb 627c 313b 5cf0 81b9
0.00032634562 -0.0022305646 0.0036635972 0.004080318 -0.0032812252 0.0035934518 -0.0034165413 -0.00060588587
-0.004180634 0.0039767134 -0.0046068938 -0.002137668 -0.0049794153 0.005281275 -0.004813808 0.0046818014
0.0036381392 0.0032059152 -0.004365881 0.0048541245 -0.0034187397 -0.0034747568 0.0023269556 -0.0024542853
0.0041657635 -0.003954983 -0.0034862775 0.00068459334 0.0006114676 -0.004892702 0.0027082195 -0.0002478388

model.encoder.bn1.running_mean f4 [32]
00000000: 68ab e0bc 8a21 613d 6b18 873d 1ce6 f1bc
00000010: 796b 283d db41 503d 2d2a 463c 332d d33d
00000020: d894 513a 003e 3f3d e21e cb3c 4f9a 853c
00000030: a01a d33d 2681 5fbd 427e 68bc ebc2 813d
00000040: cb21 8ebc ad69 33bd 60c4 bebc b981 823c
00000050: b96b 1e3d f0be 6ebc f7a9 64bc 15fd 1cba
00000060: d279 e0bd 366b 15bb 6173 0ebd 4d31 173d
00000070: 11d4 d13d ad85 12bd ae66 953b 8917 8bbc
-0.027425483 0.054963626 0.06596454 -0.02952867 0.04111812 0.050844055 0.012095016 0.103113554
0.0007994897 0.046689987 0.024795 0.016308932 0.10307813 -0.054566525 -0.014190258 0.06336006
-0.017350098 -0.043801952 -0.023286998 0.015930997 0.03867695 -0.01457189 -0.013956538 -0.000598864
-0.109607354 -0.0022799498 -0.034778003 0.03691225 0.102455266 -0.035772014 0.0045593595 -0.016978996

model.encoder.bn1.running_var f4 [32]
00000000: 9baa 383b c150 053b 8964 f93a ac22 423b
00000010: 1aff eb3a 038b 213b 9856 053b 5c6e f73a
00000020: 73e8 003b 8622 643b c416 083b 77f8 0d3b
00000030: f536 2b3b e828 003b 3b6a f23a 8168 203b
00000040: edcd 013b 86e1 fd3a b9a5 ec3a de5b 203b
00000050: 36c8 eb3a 4305 ee3a b764 763b f373 ff3a
00000060: 8e1b 083b 2025 fe3a bdbe 033b db63 003b
00000070: a823 3e3b cd14 433b 629e 3c3b 9058 fe3a
0.002817786 0.0020342323 0.0019027154 0.0029622717 0.0018005103 0.0024649508 0.0020345803 0.0018877494
0.00196698 0.0034810617 0.0020765522 0.002166299 0.0026125286 0.0019555632 0.0018494794 0.0024476352
0.001980658 0.0019369579 0.001805476 0.002446882 0.0017988745 0.0018159527 0.0037596652 0.0019489512
0.0020768377 0.0019389726 0.0020102703 0.0019590768 0.0029012952 0.0029767037 0.0028780927 0.0019405056

model.encoder.bn2.weight f4 [32]
00000000: 0fce 7e3f 10f7 7f3f 2d55 803f f863 803f
00000010: 1375 803f fc8d 803f 4ac1 7f3f d0e6 7e3f
00000020: dfd8 7e3f d7e7 7e3f de1f 803f 8259 803f
00000030: d634 7f3f d337 803f 72b0 7f3f ead3 7e3f
00000040: 720e 7f3f 1749 7f3f 3253 7f3f 15a2 803f
00000050: 4244 803f 98bc 7e3f e68c 7f3f 7973 803f
00000060: dd6d 7f3f 18be 7f3f 4480 7f3f 6d71 7f3f
00000070: 8edb 7e3f a9f7 7e3f 090e 7f3f 5c72 803f
0.9953317 0.9998636 1.0025994 1.0030508 1.0035728 1.004333 0.9990431 0.9957094
0.9954967 0.9957251 1.0009725 1.0027316 0.99689996 1.0017036 0.9987861 0.99542105
0.99631417 0.997209 0.9973632 1.0049464 1.0020831 0.9950652 0.9982437 1.003524
0.99777013 0.99899435 0.9980509 0.9978245 0.99553764 0.9959665 0.9963079 1.00349

model.encoder.bn2.bias f4 [32]
00000000: b97d 78bb 8b02 4fba 19b8 b13a 6fdf f93a
00000010: b5f2 633b 7b72 933b d159 c4ba 345c 8dbb
00000020: fbab 95bb 7a53 89bb 74a1 eb3a 8bba 473b
00000030: 0788 72bb 222e 3d3a 05e6 ca38 76bf 96bb
00000040: b8c3 73bb 15ce 2ebb ece5 3cbb 69b8 953b
00000050: 84a8 d538 de32 a8bb 1ec1 883a 76b3 763b
00000060: e286 84bb da60 0e3b 5bc7 deba 158a 4e39
00000070: 5559 9bbb 8e61 11bb c22e 77bb 10aa 5f3b
-0.0037916733 -0.0007896802 0.0013558894 0.0019063781 0.0034782116 0.004499731 -0.0014980381 -0.00431397
-0.004567621 -0.0041908594 0.0017977194 0.0030476179 -0.0037007348 0.0007216652 9.674955e-05 -0.0046004606
-0.0037195515 -0.0026673127 -0.0028823568 0.0045691025 0.0001018802 -0.005133017 0.001043353 0.0037643588
-0.0040443996 0.0021725208 -0.0016996668 0.0001969713 -0.004740874 -0.0022183391 -0.0037717079 0.0034128465

model.encoder.bn2.running_mean f4 [32]
00000000: 7b33 233e 2b08 803e f31e 793d dfca b93d
00000010: f165 833d eddf 9f3c ead7 7b3d 73ff 083d
00000020: c536 bd3d e301 b83c 5240 913c 6341 4a3d
00000030: 118a 033c 2ee0 253e 033c 703e 0292 9d3e
00000040: 7211 4f3d 2081 1e3d 5d55 d83d 503f 1f3d
00000050: 7df4 073e 3bbe f93b f27e ef3b 580c 1e3e
00000060: f769 063d 1fc9 143c 33f6 8b3e ecd0 c33d
00000070: 1b09 c33d 2eaf 8d3e 10df 0d3d a5ee 813a
0.15937607 0.25006232 0.06082053 0.09071898 0.06415928 0.019515956 0.06148521 0.03344674
0.09238962 0.022461837 0.017730866 0.049378764 0.008028523 0.16198799 0.23460393 0.30775458
0.050553747 0.038697362 0.10563157 0.03887874 0.13276859 0.007621554 0.007308834 0.15434396
0.0328159 0.009081154 0.27336273 0.09561333 0.09523221 0.27672714 0.034636557 0.000991304

model.encoder.bn2.running_var f4 [32]
00000000: 2006 d83e 2887 373f 5ae3 223e cd6f 6e3e
00000010: 9cb2 cd3e 43bc 1e3e b698 9a3e 301f ca3d
00000020: e6ed f73e 5050 2a3e 63cc 4c3e 6587 8c3e
00000030: 6008 973e aecb 423f 8533 293f e1d9 b63f
00000040: 6041 353e e10b 763e f507 123f be5a f63d
00000050: de11 6a3f f3ae 243e 67d9 9b3e 9c64 113f
00000060: 0ffc 143e f239 063e e16e ab3f ed05 233f
00000070: f8f2 0d3f a1d2 583f 108d 1a3d d3a4 3e3c
0.42192173 0.7169061 0.1590704 0.23284836 0.4017533 0.15501504 0.30194634 0.0986923
0.4842369 0.166322 0.19999842 0.27447048 0.29498577 0.7609204 0.6609424 1.4285241
0.1770072 0.24027969 0.5704339 0.120290264 0.91433513 0.16082363 0.30439302 0.5679414
0.14549278 0.13108042 1.3393213 0.6368092 0.55448866 0.84696394 0.037732184 0.011635977

model.readout.fc.weight f4 [6, 32]
00000000: 0467 59bd 9708 01be 3083 883c 282d c9bd
00000010: 8146 313c 88ee e63c eda9 c63c edb4 883d
00000020: 585c 153e 6190 88bc 558c f83d 3898 5e3c
00000030: 4b6c 7cbd 0f72 07be e6c1 b6bc afb1 a8bc
00000040: 3c33 553d b54f 75bd 171c 4fbd 43ef e13d
00000050: a2d6 09be 57bc d03d 8754 ce3d d642 813d
00000060: aab4 a7bd e3be 173e 10f0 7f3d bd1f 12bc
00000070: 19cc 723d ea88 82bd 79a6 74bd 1437 e8bc
00000080: 9e90 b23c 9a38 ff3d ff50 55bc e62b 983d
00000090: c7a3 e53c fd20 9ebd 3f67 9f3d ffce ee3d
000000a0: d305 ee3d f189 2a3e 5029 12be 9a89 be3c
000000b0: 922c 7d3d 9b82 403d 1ad9 fbbd dda7 a13b
000000c0: 8abb 2ebd 0f49 5f3d 22d5 933d 55a6 c1bd
000000d0: 07bd 4f3d 850e 883c 5af4 c1bc 4efb 1fbe
000000e0: 78e1 3d3c 3d21 34be dc6f 883d 8966 a93c
000000f0: 4a0d 2c3e c091 b5bd 27cf 1c3d 2640 0bbe
00000100: af83 a2bd e844 af3d 054c 423d db74 1c3e
00000110: c4b2 2b3e e397 e93d 62d7 4d3d 1be3 0dbe
00000120: b642 aa3d 522e 90bd 6505 aabc 3792 333e
00000130: a4c9 24be 7da5 753d 4da3 ebbd 0d33 ccbd
00000140: eace 14be 9cde 18be 1899 51bd c9ca 143e
00000150: b15a b5bc fd01 e0bd 3a1c a8bc 4554 6b3d
00000160: 9dae 94bd 76af 1cbe ae7f 863d 171d 0e3e
00000170: 8727 9dbd fc46 2ebe 912e 90bd 32e4 d03d
00000180: ad26 17bc 6ff2 463d 1fd6 573d 01b4 c53b
00000190: 395f 003d 824a b63c 2fb2 053d f246 ad3c
000001a0: a7f0 2bbe 5184 963c a3ee 0ebe fca5 a63d
000001b0: 0c19 a03d bfdb b23c c91e 8ebc 6ab7 3fbd
000001c0: b30f 1bbe 7d1d 2f3e cde2 193e 986e 313d
000001d0: 2302 113e 5c50 82bd 052a 153d 1c3b b5bd
000001e0: 93ec 3dbd 74de 4e3d 7810 693d 7fae 2cbe
000001f0: 024a c2bd 68c4 863c 8c16 0d3e 28d1 d6bd
00000200: 2ce1 c73d 8dd2 5dbd 5dd7 0c3e 4669 ebbd
00000210: 3964 163d a096 063d b20d aa3c c94d 833d
00000220: 74a2 87bd c1c5 31be 0dc4 1e3e 21d8 11be
00000230: 3fdf 21be 0e19 333d 0c88 d73d 4726 8abd
00000240: c244 eabc fa6b 4e3d b10a 823c e3e3 01be
00000250: 198b a0bc fb57 98bd 4679 033e 4295 b0bb
00000260: 438c c13c 8fbd b93d 467b c73b 417e 02be
00000270: 77b2 23be 2260 313e 4022 0a3e dd63 d63d
00000280: 6583 293e 91b8 26be 8719 5b3d 34b1 193c
00000290: b108 dd3d d477 9c3d e464 c6bd 9753 55bd
000002a0: a652 31bc ed9c 1b3e 29a9 143d 6cff 1b3e
000002b0: e2b8 b93b c268 04be 274f 4dbd 55fe 803d
000002c0: 409a f83c 269c 35be ace1 0b3e 91b1 abbd
000002d0: e9c1 91bd 66fe 96bc b76d 13be 986e 133e
000002e0: 6ae8 c3bd 8dc7 883d 8492 c83d e40a 09be
000002f0: 01dc 1a3d 2bb3 b5bc acaf a13c 7406 2fbe
-0.05307676 -0.12600933 0.016664118 -0.09823066 0.010820032 0.028189912 0.024250949 0.06675134
0.14586008 -0.016670408 0.12136141 0.013586096 -0.061626714 -0.13227104 -0.022309255 -0.020592539
0.052050814 -0.059890468 -0.050563898 0.11031964 -0.13460782 0.10192173 0.10074716 0.06311576
-0.08188756 0.14818911 0.0624848 -0.0089187 0.059276674 -0.063737705 -0.059729073 -0.028346576
0.021797474 0.12461968 -0.013019799 0.07430248 0.028032197 -0.07721136 0.077833645 0.11660575
0.11622205 0.16654183 -0.14273572 0.023258973 0.061810084 0.046999555 -0.12297268 0.004933341
-0.04265932 0.054513033 0.07218386 -0.094555534 0.05071738 0.016608486 -0.023676086 -0.15623209
0.0115894005 -0.17590804 0.066619605 0.020678775 0.16801944 -0.0886569 0.038283493 -0.1359869
-0.07935273 0.08558065 0.04743578 0.15278952 0.16767412 0.11405923 0.050254233 -0.13856165
0.08313505 -0.07040085 -0.020754525 0.17536245 -0.16092545 0.059972275 -0.115057565 -0.09970675
-0.14532056 -0.14928669 -0.051171392 0.14530481 -0.022137972 -0.10937879 -0.020521272 0.057453413
-0.07259867 -0.15301308 0.06567322 0.13878284 -0.07673555 -0.17019266 -0.07040132 0.10199775
-0.00922553 0.048571046 0.052694436 0.006033421 0.03134081 0.022252325 0.032640632 0.021151993
-0.1679102 0.01837364 -0.1395822 0.08137128 0.07817277 0.021833299 -0.017348664 -0.046805777
-0.15142708 0.17101093 0.15027924 0.04331836 0.14160971 -0.063629836 0.036417026 -0.08849165
-0.046368193 0.050505117 0.05690047 -0.1686344 -0.09486772 0.016451076 0.13778132 -0.10489112
0.09759745 -0.054155875 0.1375403 -0.11494689 0.036716674 0.03285849 0.020758484 0.06411321
-0.06622782 -0.17360593 0.15504475 -0.14242603 -0.15807818 0.043725066 0.10523996 -0.06745582
-0.02859724 0.050395943 0.015874239 -0.12684588 -0.019597577 -0.07438656 0.12839231 -0.0053888867
0.023626452 0.090693586 0.0060876934 -0.12743475 -0.15986048 0.17321828 0.13489628 0.10468266
0.1655403 -0.16281344 0.05349114 0.009380627 0.107926734 0.07640043 -0.09687212 -0.05208167
-0.010822928 0.15196581 0.036294136 0.15234154 0.0056677917 -0.12930587 -0.050124314 0.0629851
0.03034699 -0.17735347 0.13660306 -0.083834775 -0.071170636 -0.018431854 -0.14397322 0.14397657
-0.09565814 0.06678686 0.09793571 -0.1338306 0.03780747 -0.02218016 0.019737087 -0.17092305

model.readout.fc.bias f4 [6]
00000000: 0fe9 f83d 09cd 42bc 0c0f dcbc 080b acbd
00000010: 941b 1f3e b202 0f3e
0.121538274 -0.0118897045 -0.026862644 -0.084005415 0.15537864 0.13965872

exp_avg f4 [1, 4, 32]
00000000: 0cce 383b c09d 30bb fdfb 26ba a76a 17ba
00000010: f38d 483b 7f42 5aba f13e ba3a 78e1 9d3a
00000020: 08bd f7ba 6373 8d3a 5150 a339 2afa 40ba
00000030: 5750 b9b9 7f60 9eba c460 1bba 73c4 2bbb
00000040: 09f6 c83a 5b06 8ab9 682d 2d3a be2e f73a
00000050: 8f03 a7b9 2d10 04bb 1d62 a53a 7477 a4b9
00000060: b116 0039 724e ffba 8831 a93a d6e5 84b9
00000070: 0d0e 78ba 502f c9ba fe70 253b 46dc 55b9
00000080: d7c1 ab3a 6e59 e4bc 2b6e e4bc faa9 d33c
00000090: da6c bb3c fedb 133c 21e4 073d a1c3 163c
000000a0: 5ea3 d93b 8916 81bb 9fdc c3bc eb29 cabc
000000b0: 87fb 1b3d ba55 4cbc e63f 10bd 003e edbb
000000c0: 0cd0 8d3a 5e7c 873c f81b d33c 4fd2 dd3b
000000d0: de7b 62bc ab84 cd3a 57d5 dabc da02 b4bb
000000e0: 36a0 78bb ddcf 863b 310f 31bb ffec 2bbd
000000f0: cce9 16bc 7949 013d b25f 87bc e202 45bc
00000100: eec6 3a38 2aa3 f5ba 92fa c9b9 9ff1 a7ba
00000110: 0af6 203b bde7 91b5 5d9e 9c3a b293 3b3b
00000120: c70a 81ba 1dfa 2eb9 1ca9 b03a 56b9 12ba
00000130: d6e1 5139 888f 1c3b 7d8d 1d3a c16e e33a
00000140: ef66 13bb d946 f5ba 1cd9 03bb ede8 093b
00000150: a355 89ba 74bf 6039 55a8 24bb ce6e 75bb
00000160: 61a2 723a 09bb 8cba 8641 c4ba 154f 48bb
00000170: a1ce 753b 75ec 5f39 2534 09ba 60a7 213b
00000180: d001 2139 a353 2bba b3af d3bb 2d06 c5bb
00000190: 019d 90bb f690 8fba 4730 293c 4953 a1ba
000001a0: a789 0ebc 9efc c6ba 18fc d1ba c170 d93b
000001b0: d27c f33a 8280 ee3b 78d7 27bc 7c3f 053b
000001c0: 0d7f e3b9 0edc 1539 e950 073b 66bd cbbb
000001d0: 62a4 4bbb a0b7 6d3b 5be1 eb3a f612 be3b
000001e0: 976a 063c f36b 33bc f238 863b 765f a2bb
000001f0: 63ad 88bc 7f15 803b 40c6 483b d59c b2bb
0.0028198985 -0.0026949495 -0.00063699466 -0.00057760853 0.0030602186 -0.0008325949 0.0014209432 0.0012045344
-0.001890094 0.0010791834 0.00031149623 -0.0007361496 -0.00035345808 -0.0012083201 -0.00059272 -0.0026209622
0.0015332113 -0.00026326146 0.00066061923 0.0018858535 -0.00031855374 -0.0020151243 0.0012617741 -0.00031369517
0.00012215484 -0.0019478335 0.0012908438 -0.00025348243 -0.0009462543 -0.0015349183 0.002524435 -0.00020395321
0.0013104033 -0.027874675 -0.027884563 0.025837887 0.022879053 0.009024618 0.033176545 0.009201915
0.0066417893 -0.003939454 -0.023908911 -0.024678191 0.038081672 -0.012471611 -0.03521719 -0.007240057
0.0010819449 0.016538795 0.025770172 0.0067694555 -0.013823478 0.0015679797 -0.026713056 -0.005493504
-0.003793729 0.0041141347 -0.0027017111 -0.041974064 -0.009211015 0.03156421 -0.016525123 -0.012024613
4.4531123e-05 -0.0018740643 -0.00038524397 -0.0012813098 0.0024560713 -1.0870787e-06 0.0011949051 0.0028621969
-0.0009845131 -0.00016687108 0.0013478133 -0.0005597075 0.00020015924 0.0023889262 0.0006010158 0.0017351733
-0.0022491773 -0.0018713131 -0.002011842 0.0021043376 -0.0010477792 0.00021433627 -0.0025124748 -0.0037450078
0.0009255764 -0.0010736893 -0.0014973141 -0.0030564715 0.0037507194 0.00021355024 -0.00052339054 0.0024666414
0.00015354832 -0.0006535595 -0.006460154 -0.006012699 -0.0044132476 -0.0010953236 0.010326452 -0.0012308146
-0.008699811 -0.0015181487 -0.0016020564 0.0066357558 0.0018576628 0.007278503 -0.010244243 0.002033203
-0.00043391474 0.00014291724 0.0020647591 -0.0062176464 -0.0031073322 0.003627278 0.0017996238 0.0058006
0.008204124 -0.01095103 0.004096144 -0.0049552275 -0.01668424 0.0039088125 0.0030635744 -0.0054508247

exp_avg_sq f4 [1, 4, 32]
00000000: 4c43 0337 1163 b836 e930 cb34 ae33 d634
00000010: 5291 0537 6cc0 0435 c3a9 d035 eeff dd35
00000020: fece 3936 115c 4f35 9bbe 7234 b47b 4935
00000030: dfff d734 e353 b335 e840 1635 51e4 c936
00000040: db43 d635 1bdd 0435 a9a8 c134 77bf 1d36
00000050: 0153 c134 1092 5236 8a50 e235 7ae5 2c35
00000060: f0e8 a734 2f5c 5a36 9bcb 9835 40e9 0034
00000070: d1e3 2335 e28f da35 32b8 9036 d1d7 4f35
00000080: 75de 3837 2991 c538 e2e6 ac38 3c88 9f38
00000090: ba95 7c38 98bd 6a37 83af f738 296b 0f37
000000a0: 09e2 be36 e511 5536 175f 7b38 cc30 8c38
000000b0: 8cd6 2139 9204 c237 1264 1c39 5c18 2437
000000c0: 2de6 4735 d642 fc37 4431 9238 de15 a836
000000d0: 690e ac37 15da 8e34 1ac1 a238 fc1f 2c37
000000e0: 35b2 1636 87fe ec35 d0af 1e37 464e 4839
000000f0: 2388 7637 05d5 ec38 a3c5 0b38 890c c237
00000100: 8771 3e35 df66 ba36 28fe aa36 7414 8035
00000110: 3fe3 db36 0951 a735 dda2 4236 105d 7937
00000120: e25e ef37 0ad9 8737 795c 4137 9807 df35
00000130: c5f3 fe35 aee0 0737 3128 6d35 2a14 6a35
00000140: a717 7837 ace6 f035 ca0f f836 20f6 3c37
00000150: 4e0c 0336 e10f 7836 a084 2237 7c9d 7e37
00000160: be30 2c36 8ac5 bf37 48cc 8936 ce2a 5237
00000170: c6f7 8237 2b99 3e34 0b0b 2a36 5d9a 1c37
00000180: 1eec c137 83d7 8135 a063 9b38 63bd 7538
00000190: b4a1 c938 5d80 ed37 dd0e 6f39 d93f a535
000001a0: 8491 5c39 1bee 2e37 a0c3 d737 aebd 2c39
000001b0: 9612 b937 0ff7 ac38 729a 8239 bcee a636
000001c0: 775e 2638 c86c 2b37 7e3d cb38 f1d9 6438
000001d0: e1c4 7737 6c36 8a37 2ed8 a336 3565 ce37
000001e0: 7331 a238 d18d 3a39 ef94 ff38 f2bc 9a37
000001f0: 98fe 0e3a 1138 9d37 f327 f136 dfb5 e838
7.823877e-06 5.49516e-06 3.7847283e-07 3.9898208e-07 7.961253e-06 4.945384e-07 1.5546615e-06 1.6540268e-06
2.7687634e-06 7.7247483e-07 2.2607348e-07 7.5058347e-07 4.0233041e-07 1.3360954e-06 5.5973806e-07 6.0168463e-06
1.5963991e-06 4.949558e-07 3.6071768e-07 2.350627e-06 3.6009445e-07 3.1377458e-06 1.6861752e-06 6.4408925e-07
3.1275658e-07 3.253819e-06 1.138414e-06 1.2005785e-07 6.105375e-07 1.6284141e-06 4.3129776e-06 7.7427563e-07
1.1019049e-05 9.42073e-05 8.2446044e-05 7.6070864e-05 6.0220926e-05 1.399163e-05 0.000118105694 8.548414e-06
5.688755e-06 3.174989e-06 5.9931623e-05 6.684809e-05 0.00015434081 2.312873e-05 0.00014914598 9.780833e-06
7.4468227e-07 3.0071864e-05 6.970999e-05 5.009336e-06 2.0510708e-05 2.6608237e-07 7.76073e-05 1.0259446e-05
2.2455472e-06 1.7657447e-06 9.458468e-06 0.00019102645 1.4694439e-05 0.00011293035 3.3324246e-05 2.313244e-05
7.094572e-07 5.5552077e-06 5.0959825e-06 9.542696e-07 6.5531635e-06 1.2466054e-06 2.9003052e-06 1.4863224e-05
2.8535203e-05 1.619432e-05 1.1525227e-05 1.6617005e-06 1.8995421e-06 8.098939e-06 8.8347866e-07 8.7201136e-07
1.4787459e-05 1.7948528e-06 7.392814e-06 1.1262979e-05 1.9527683e-06 3.6964123e-06 9.686832e-06 1.5176247e-05
2.565837e-06 2.286096e-05 4.1066996e-06 1.2526942e-05 1.5612586e-05 1.7750851e-07 2.5338402e-06 9.334265e-06
2.3117344e-05 9.673971e-07 7.4095326e-05 5.8588932e-05 9.6145464e-05 2.8312375e-05 0.00022798353 1.231204e-06
0.00021035044 1.0426646e-05 2.5721092e-05 0.0001647386 2.2062373e-05 8.2476174e-05 0.00024910603 4.974978e-06
3.966546e-05 1.0217722e-05 9.691248e-05 5.456241e-05 1.4768187e-05 1.6476224e-05 4.882945e-06 2.4604242e-05
7.7339726e-05 0.00017791173 0.000121870886 1.8446215e-05 0.00054548075 1.8741966e-05 7.1870104e-06 0.00011096498

exp_avg f4 [1, 4, 32]
00000000: 2024 b539 fd77 1d39 4c0c c039 b36d cc39
00000010: 1c06 b0b8 2119 a738 46f7 beb9 afd7 b2b9
00000020: cd5a 6139 f8a4 12b9 6895 ffb9 83f9 efb9
00000030: 125a 1739 9278 013a f812 9a39 5dfe 60b9
00000040: cb33 c9b9 5f6e 0939 f8ff 2b39 3133 05ba
00000050: 6531 b6b9 5749 e4b8 0370 adb9 ec89 6bb8
00000060: 0251 dc39 119e dab9 991c 83b9 263a 0dba
00000070: af86 9239 3dde 8a39 ab83 f1b9 9a82 e536
00000080: cc61 91af 91df 482f 89af a12e d6e4 e6ae
00000090: 2b0e 77ad 617a 522f 6c59 f4ae 69da bbad
000000a0: aeaa 62ae 5fc0 582f 9dea 0eae b662 032f
000000b0: 7bcc e3ad f59b 9daf 1006 1e2f db69 39af
000000c0: 1621 5fad 486f 112e e987 c4ae c3b4 84ae
000000d0: 939e d8ad abd0 38ac 840f cc2e 1343 332f
000000e0: 951d 7eaf d748 13af ba2b 83af 427d e82e
000000f0: 0525 902f 8747 3eaf 38fd 7d2f 7261 a3af
00000100: 3b75 81b9 c070 8039 94d7 0f3a e8cb dbb9
00000110: d359 f639 3cd6 0b39 1b2e 7ab9 0d70 613a
00000120: 7520 5fba d0cb 04ba fbe1 7939 ae56 e039
00000130: 8bf7 533a 3ada 39b9 0ab9 1039 a396 613a
00000140: 0a2b 1e3a 6abf 47ba 76f9 e537 dfe8 26ba
00000150: 9d61 a9b9 c283 53b9 1223 5dba 3162 38ba
00000160: 0eb5 4eb9 e585 29ba 606b 7339 88a4 4f39
00000170: 2f8f 513a 9fb4 b339 7eff e039 8c3c 9db9
00000180: 290d c2b0 9e87 95b0 d584 7bb0 327e 6f30
00000190: f24c 4b30 90b3 1cb0 c9c7 09b1 9b7b 0ab1
000001a0: e468 5130 3dcc afb0 2608 58b0 b2d4 83af
000001b0: 5359 0bb1 c294 19b0 dbe7 c330 ff76 95b0
000001c0: bc3b a8b0 c7a0 70b0 bda7 adb0 f426 a9b0
000001d0: 5c5f b5b0 cb73 d830 180b ff2f c0ab 7f30
000001e0: 25ed a230 6474 4330 406b a9b0 e4bc 35b0
000001f0: 54bc ae30 7b40 d830 a820 c530 9ac2 ff30
0.00034549925 0.00015017386 0.00036630256 0.00038991644 -8.393472e-05 7.967861e-05 -0.00036423857 -0.00034111502
0.00021491498 -0.000139851 -0.00048748706 -0.00045771533 0.00014434036 0.0004938926 0.00029387302 -0.00021457062
-0.00038376296 0.00013106455 0.00016403187 -0.00050811755 -0.00034750547 -0.00010885548 -0.00033080587 -5.6156816e-05
0.00042022025 -0.0004169797 -0.00025007574 -0.0005387388 0.00027947637 0.00026486992 -0.00046065202 6.839936e-06
-2.6444835e-10 1.8269321e-10 7.352614e-11 -1.04998385e-10 -1.404347e-11 1.9142866e-10 -1.111172e-10 -2.1356432e-11
-5.1538045e-11 1.971343e-10 -3.249544e-11 1.194945e-10 -2.589772e-11 -2.8668948e-10 1.437217e-10 -1.686326e-10
-1.2683429e-11 3.306802e-11 -8.9371906e-11 -6.034775e-11 -2.4626778e-11 -2.6263807e-12 9.279602e-11 1.6303785e-10
-2.3111675e-10 -1.339545e-10 -2.385983e-10 1.0572389e-10 2.621975e-10 -1.7305811e-10 2.3100177e-10 -2.9718766e-10
-0.0002469214 0.00024498068 0.0005487141 -0.00041922857 0.000469877 0.00013335882 -0.00023859034 0.0008599766
-0.00085116114 -0.0005065771 0.00023830675 0.0004278919 0.0008085898 -0.0001772427 0.00013801843 0.00086055155
0.0006033635 -0.00076197705 2.7415092e-05 -0.0006367098 -0.0003230692 -0.00020171612 -0.0008435707 -0.00070336746
-0.00019713139 -0.000646679 0.00023214286 0.00019802351 0.00079940533 0.00034276114 0.00042914966 -0.00029990484
-1.4119098e-09 -1.0879722e-09 -9.1502034e-10 8.712703e-10 7.3960316e-10 -5.7007643e-10 -2.0049689e-09 -2.0151905e-09
7.6182816e-10 -1.2790974e-09 -7.859192e-10 -2.397989e-10 -2.0277937e-09 -5.5872473e-10 1.4254015e-09 -1.0874998e-09
-1.2240586e-09 -8.753997e-10 -1.2635081e-09 -1.230744e-09 -1.3196586e-09 1.5748979e-09 4.6392112e-10 9.301253e-10
1.1854452e-09 7.110599e-10 -1.2326851e-09 -6.6115846e-10 1.2713692e-09 1.5734395e-09 1.4342918e-09 1.8609001e-09

exp_avg_sq f4 [1, 4, 32]
00000000: 2d1e 5334 04a6 2033 f3cf 6b34 9040 8634
00000010: 1b74 4532 3dac 3432 5762 6a34 365a 4c34
00000020: 0c18 a333 221c 0a33 64e2 d134 d0c0 b834
00000030: 846c 1333 0744 d734 e6db 1734 7b99 a333
00000040: 570f 8234 87a8 f332 e94b 3f33 5119 e434
00000050: f816 5534 4ff4 a632 eb4c 4134 d0d1 b531
00000060: 1cdc 9b34 aa5d 9934 53c3 dc33 1426 0035
00000070: 5ae2 0934 edb4 f833 534e bb34 1fa3 8d2e
00000080: 475f bf20 7706 d320 7904 a320 0d4e 0a21
00000090: f351 8f21 3af3 ec20 b2e4 0c21 2d59 ee1e
000000a0: b124 d71e b94c cf20 2ef4 1721 d3dd 8920
000000b0: 7700 a521 4624 c121 1b76 ac21 8331 c820
000000c0: 53d5 9d1e 9f52 2621 6c58 5e20 38ce 151f
000000d0: 5f24 d620 3d75 881d bcbd 8920 b1a1 ff1e
000000e0: d184 9421 06cb 8b20 fc75 d620 6f83 a421
000000f0: c464 b620 d6b7 e620 d0ff 1c20 a63f ba21
00000100: d868 d833 555c e033 bb3b 0735 6af2 9e34
00000110: e2d6 c234 d242 f732 7a64 ce33 32aa a235
00000120: 10df a035 e30f e334 d974 cc33 1b3d a334
00000130: 2b9b 9035 02a2 5e33 5215 0133 ba04 a435
00000140: ab2f 2235 8c81 8035 597a 8130 c0be 3435
00000150: 0a70 3934 cf8d 9233 06c4 9f35 7feb 5a35
00000160: ad51 8933 e526 3935 872f c333 5764 8a33
00000170: f5f0 8e35 78ab 5134 9e2b a334 c1b2 2034
00000180: a4ad 2e21 e35f 4921 5d21 a921 4474 b720
00000190: 5337 f220 d39f 6021 1577 ca21 88b2 0d22
000001a0: 755a 5f21 7792 1e21 716e a220 beeb 8221
000001b0: 9d1b da21 dae0 9920 a01e 8921 d281 2121
000001c0: c08d 0a21 11dd 8420 467d 3721 d0d1 c521
000001d0: d105 ac21 ca6a df21 1810 4720 fe0a 0521
000001e0: a13f bd21 fc5b 2221 3ada 3621 80ba 9c20
000001f0: a3c8 fc21 9071 e021 1769 9321 527f 9821
1.9661884e-07 3.7403893e-08 2.1961732e-07 2.500642e-07 1.14933085e-08 1.0516541e-08 2.1828724e-07 1.9031799e-07
7.594653e-08 3.2156215e-08 3.9094004e-07 3.441296e-07 3.43248e-08 4.0096367e-07 1.414297e-07 7.618197e-08
2.4225548e-07 2.836556e-08 4.4539693e-08 4.248673e-07 1.9845527e-07 1.9436042e-08 1.8002508e-07 5.2916462e-09
2.903115e-07 2.856662e-07 1.02800776e-07 4.7739127e-07 1.2841465e-07 1.158131e-07 3.4888453e-07 6.440914e-11
3.2419708e-19 3.5749068e-19 2.7616234e-19 4.685952e-19 9.711749e-19 4.014091e-19 4.773652e-19 2.5236112e-20
2.2779186e-20 3.5117935e-19 5.148396e-19 2.3355494e-19 1.1180958e-18 1.308779e-18 1.1686436e-18 3.3914082e-19
1.671125e-20 5.6352336e-19 1.8833388e-19 3.1722557e-20 3.6277079e-19 3.612012e-21 2.3334258e-19 2.7066049e-20
1.0064026e-18 2.3681866e-19 3.6331086e-19 1.1147862e-18 3.089868e-19 3.9085168e-19 1.3298355e-19 1.2620698e-18
1.0077355e-07 1.0447608e-07 5.037834e-07 2.9606173e-07 3.6291664e-07 2.878497e-08 9.610899e-08 1.2119474e-06
1.1985849e-06 4.2293604e-07 9.520745e-08 3.0405576e-07 1.0773996e-06 5.1835748e-08 3.0054544e-08 1.2220328e-06
6.041907e-07 9.574446e-07 9.420759e-10 6.7332803e-07 1.7270227e-07 6.8244496e-08 1.1903473e-06 8.155402e-07
6.3944164e-08 6.897447e-07 9.08904e-08 6.4443775e-08 1.0649952e-06 1.9527022e-07 3.0392852e-07 1.4966191e-07
5.9183305e-19 6.8228354e-19 1.1460717e-18 3.1078344e-19 4.1033005e-19 7.610568e-19 1.3719573e-18 1.9203577e-18
7.567506e-19 5.3726327e-19 2.7516951e-19 8.871543e-19 1.4779564e-18 2.6068002e-19 9.291587e-19 5.472074e-19
4.6943823e-19 2.250796e-19 6.216861e-19 1.3404776e-18 1.1656713e-18 1.5139335e-18 1.686128e-19 4.50767e-19
1.2823981e-18 5.5009475e-19 6.195282e-19 2.6550843e-19 1.7129292e-18 1.520889e-18 9.988925e-19 1.0333622e-18

exp_avg f4 [32]
00000000: b4ab 87bb a315 8435 0894 c2b5 a1ff 0abc
00000010: e9c9 4bb6 a57c 183a a68b 8c3c 0e2d db35
00000020: 554f 023c f90d abba 5d61 8138 a116 9fba
00000030: 7744 41b5 fddb 193a 2429 fcba 9786 a2b3
00000040: c7c5 0abb 6ab5 353a 208e 893c 8db5 43bc
00000050: 8797 6836 3cb1 53ba 22fa d8bb 2d5d 04bc
00000060: 84c5 9f3a 2ac0 b43b 7058 5e3a f744 7935
00000070: e8d4 92ba 4bd7 5b3c 023f 7c3a 6b2a 53b9
-0.0041403417 9.841064e-07 -1.4497209e-06 -0.008483798 -3.0366884e-06 0.00058169133 0.017156433 1.6329884e-06
0.007953485 -0.0013050429 6.169335e-05 -0.0012137481 -7.199773e-07 0.00058692676 -0.0019238335 -7.5681946e-08
-0.0021175013 0.0006931635 0.016791403 -0.011945141 3.4658894e-06 -0.0008075421 -0.006621615 -0.008078855
0.0012189602 0.005516072 0.0008481806 9.2860085e-07 -0.0011202367 0.013418029 0.0009622426 -0.0002013833

exp_avg_sq f4 [32]
00000000: 348c 2537 0425 032b aa61 192c f1b4 0438
00000010: 8300 862d 61ae 1d35 04f3 0c38 dcca 892c
00000020: d6eb 0d38 3729 c736 d91a e334 ae81 e036
00000030: 9347 0330 a35d 4636 7eb4 1c36 375b 0329
00000040: 07e5 8937 0ff8 0d36 8130 9f38 1b45 9537
00000050: ef5e 2c2d 12df 3137 7227 7e37 c099 1d38
00000060: 2014 a335 156d 3a37 f17c 0137 c4b4 b02a
00000070: 7274 c136 3424 ca37 28d4 ab37 0739 7635
9.86741e-06 4.659192e-13 2.1796822e-12 3.1639767e-05 1.5234264e-11 5.874081e-07 3.3604927e-05 3.916296e-12
3.383666e-05 5.93546e-06 4.230158e-07 6.690817e-06 4.7759235e-10 2.9558803e-06 2.3350872e-06 2.916696e-14
1.6438322e-05 2.1155026e-06 7.5907454e-05 1.7794364e-05 9.7981475e-12 1.060196e-05 1.5148764e-05 3.7574908e-05
1.2150304e-06 1.1111862e-05 7.718089e-06 3.1389312e-13 5.7654042e-06 2.4097135e-05 2.0483581e-05 9.1725127e-07
