lightning_logs/version_159/checkpoints/epoch=5-step=90.ckpt (torch, 176845 bytes, 36 tensors)

model.encoder.conv1.bias f4 [64]
000000 de 0e b3 ba d7 22 43 3b 69 95 17 3b 59 c0 66 3a
       -0.0013661047 0.0029775405 0.0023129827 0.0008802466
000010 56 32 bc ba 6f 4a d5 ba b3 6b 21 3b 4c e0 30 3b
       -0.0014358263 -0.0016272793 0.0024630844 0.002698916
000020 83 1a ff 3a 00 00 00 00 46 f0 f7 ba 0d 56 8f 3b
       0.0019462857 0.0 -0.0018916212 0.0043742717
000030 a7 37 9c ba 3b a4 b7 ba 09 45 82 3b 72 fd 83 3a
       -0.0011918441 -0.0014010736 0.003975515 0.001007004
000040 00 00 00 00 1c 2d 82 3b ea cb 28 3b 7b 03 64 3a
       0.0 0.0039726626 0.0025756308 0.00086980284
000050 31 bc f8 39 5c 38 c7 ba d2 3c 56 bb 40 e1 92 3b
       0.0004744246 -0.0015199292 -0.003269006 0.0044824183
000060 f7 c5 50 3b 05 20 e1 3a e2 61 33 ba 47 40 00 ba
       0.0031856277 0.001717568 -0.0006842894 -0.00048923906
000070 a4 70 f3 38 b1 c0 d0 ba d5 d7 c1 ba b2 7e f1 ba
       0.00011608124 -0.0015926567 -0.0014789054 -0.0018424599
000080 e3 c3 1a bb 73 7c 81 ba 43 18 c5 ba f0 3f 52 3b
       -0.0023615293 -0.0009879008 -0.0015037138 0.0032081567
000090 fc a9 7e 3b 28 5e 69 bb ad de 90 39 8a 46 bb 3a
       0.0038858643 -0.00356091 0.00027631727 0.001428799
0000a0 4e 2e 02 bb 2d 5b 3d 3a 31 d2 52 ba 13 ee 56 3b
       -0.0019864026 0.0007223364 -0.0008042185 0.0032795712
0000b0 a1 6e 20 3b f0 6e e2 3b 25 2b 57 b9 0a 6c c4 3a
       0.0024480002 0.0069101974 -0.0002052007 0.0014985811
0000c0 f8 5c 35 3b f8 d6 19 3a c2 65 55 3a 7f ef 33 38
       0.0027673822 0.00058685197 0.0008140468 4.2899974e-05
0000d0 3e f9 a1 b9 00 00 00 00 18 9a 12 3b 8f 81 67 3b
       -0.00030894013 0.0 0.002236968 0.0035325026
0000e0 e0 98 f4 ba 39 97 2e bb 54 49 fb 39 00 00 00 00
       -0.0018661283 -0.0026640429 0.00047929084 0.0
0000f0 d4 f8 30 3b 97 cf 71 3b 5c ad a9 ba 20 89 f7 3a
       0.0027003782 0.0036897415 -0.0012945342 0.0018885471

model.encoder.conv1.lin.weight f4 [64, 3]
000000 7e fe 78 3c 84 96 bc bd ce 10 2a be 1b cd 84 3e
       0.015197394 -0.09208396 -0.16607973 0.25937733
000010 4a ab 69 be 62 08 45 3e 2e 19 06 be 32 9f f3 3d
       -0.22819248 0.19241479 -0.13095543 0.118955985
000020 0d 46 32 be 17 bd 28 3e e3 b6 69 3e 82 b3 17 be
       -0.17409535 0.16478382 0.22823672 -0.1481457
000030 55 1b 37 be 5a 04 1d 3e ae c8 52 be f7 b5 2f 3e
       -0.1788152 0.15333691 -0.20584366 0.17159258
000040 fa a8 31 3e 88 a6 37 3d ac 07 8f 3e e7 59 bc 3d
       0.17349616 0.04483655 0.2793554 0.09196835
000050 3a 3f 39 3d 65 8b 3a be df 12 79 bd 31 3e 2b 3e
       0.045226313 -0.18217237 -0.060809013 0.16722943
000060 2c 69 f5 3d 79 08 57 3e 49 03 71 3e 28 93 22 be
       0.119829506 0.20999326 0.2353641 -0.15876448
000070 d9 1c 1b be 93 ef 2c be 0e 29 11 bd 90 91 69 3e
       -0.15147723 -0.16888265 -0.035439543 0.22809434
000080 0f c9 62 3d 22 de 09 3e ac 05 94 be f7 11 06 be
       0.055367526 0.13463643 -0.28910577 -0.1309279
000090 ac dc 53 3c 27 0c 03 bc b2 48 77 be 7c ba 3b 3e
       0.01293103 -0.007998503 -0.24148825 0.18332857
0000a0 1e c0 17 be 06 ea 93 bd af 5c 32 3d f7 fe 70 be
       -0.1481938 -0.07222371 0.04354542 -0.23534761
0000b0 de 21 5b be 0a 70 02 be c6 04 ec bd 1d 9a 81 3d
       -0.21399638 -0.12738052 -0.11524348 0.06328223
0000c0 fe 1b 20 be b4 f6 d8 bd 82 67 e9 bd 23 a2 d4 bd
       -0.15635678 -0.1059393 -0.11396696 -0.103824876
0000d0 48 88 85 be 73 01 7e 3e 85 e3 a3 3d 2c 66 a7 bd
       -0.26080537 0.2480524 0.0800238 -0.081737846
0000e0 2d fb 08 be f5 df 1c be 9e 3f 07 3e 92 ca 86 be
       -0.13377066 -0.15319808 0.13207862 -0.26326424
0000f0 02 6e 1c 3d 3e 7d 4b 3e de db 44 be b1 c4 80 3c
       0.03819085 0.19871995 -0.19224498 0.01571879
000100 83 da 4c be 4d e9 2a 3e 09 c0 5d 3e b2 27 4b bd
       -0.2000523 0.1669056 0.21655287 -0.049598403
000110 82 70 4c 3e 76 01 5c bb ae 27 39 be 24 e0 8e 3e
       0.19964793 -0.0033570207 -0.18081543 0.2790538
000120 93 ba f4 3c a3 4a 83 3d 07 67 7d be 67 a8 56 be
       0.029874122 0.0641072 -0.24746333 -0.20962678
000130 e4 f8 d5 3d fc 22 70 bd 3b 92 68 3e 46 11 9b 3d
       0.10447863 -0.058627114 0.22712032 0.07571654
000140 da e4 00 be 03 c0 9a 3d 19 c5 3b be 4a de 8d be
       -0.125873 0.075561546 -0.18336906 -0.27708656
000150 aa df 3b 3e 15 6f a4 bd 2e 78 02 3c cf 9a e7 3d
       0.1834704 -0.08029 0.007963223 0.11308824
000160 43 5c b0 bd 4c 1c e3 bd a9 09 e3 bc 24 ce bd 3d
       -0.086113475 -0.110893816 -0.027714567 0.09267834
000170 a0 f7 a2 bc 2d 0f 61 be ec a2 ba 3d 9d e9 83 be
       -0.019893467 -0.21978445 0.09113106 -0.2576417
000180 cb 0b b7 3d 95 96 81 bd 60 ac 60 3d 62 be 33 3e
       0.08937796 -0.06327549 0.05485189 0.17553094
000190 c6 61 8e 3e be 88 23 be 61 a5 85 3e fe 62 4a bd
       0.2780897 -0.15970132 0.26102737 -0.049410813
0001a0 fc 7c 8f 3d d9 a8 8f ba 6d 42 27 be c8 4e d2 3d
       0.07006261 -0.0010960355 -0.16333933 0.102689326
0001b0 0c 85 41 be e1 f5 6c bd 72 bd c3 3d 5e f2 9a 3c
       -0.1889841 -0.057851676 0.09557618 0.018914398
0001c0 1a 0c 23 be e7 51 d3 3b f6 e0 13 3b 38 20 7a 3e
       -0.15922585 0.0064489725 0.0022564507 0.24426353
0001d0 ff 0a 79 3d 57 f3 5f 3e 8e c9 9b 3d d2 fd e0 3d
       0.060801502 0.2187017 0.07606803 0.109859124
0001e0 d2 cb c0 3d 83 a7 3a bd 3a b1 7f bd 1f ee 8e 3e
       0.09413876 -0.045569908 -0.062424876 0.27916047
0001f0 80 c4 da bd d2 7a 50 3e 04 b3 8c be a5 cc 54 3e
       -0.10682011 0.20359352 -0.27480328 0.2078119
000200 ad 5f 26 3e d3 69 5b 3e 8c 7a 05 3e 8f 06 6d be
       0.16247435 0.21427087 0.13035029 -0.23147033
000210 4b 33 bc 3d 75 57 89 be 15 f8 59 3d 46 ce 86 be
       0.09189471 -0.26824537 0.053215105 -0.2632925
000220 4a 03 78 3d d1 80 e0 bd 2e e0 8e 3e 7a 35 ac bd
       0.06055001 -0.1096207 0.2790541 -0.08408637
000230 cf 89 4d 3e a0 d5 6e be ea 2c 7e 3e 7a a0 6a 3e
       0.20072101 -0.23323679 0.24821821 0.2291278
000240 d4 c5 34 be 78 71 f6 3c 87 90 d1 bd 9f e7 7e 3e
       -0.1765359 0.030083403 -0.102326445 0.24893044
000250 44 7e 46 3e d7 38 6d be 83 8d 57 3e b5 c6 3d 3d
       0.19384104 -0.23166214 0.21050076 0.04633208
000260 f5 9f 93 3c a7 90 88 3b 2f ae 49 bb 24 67 73 be
       0.01802061 0.0041676345 -0.0030773988 -0.23769814
000270 88 54 82 3e c5 2e 79 3e ac bf c3 bd b9 d4 92 be
       0.25455117 0.24334247 -0.09558043 -0.2867792
000280 7e 20 4a be 48 ba 49 be c0 13 33 be a7 89 83 be
       -0.19738957 -0.19699967 -0.17488003 -0.25690958
000290 d0 d8 51 3e 07 eb 86 3d cd f4 91 be 28 24 03 be
       0.20492864 0.06587797 -0.2850708 -0.12806761
0002a0 88 e2 d6 3d cc e0 86 3e b1 bc 8a 3c 27 86 24 3e
       0.10492426 0.2634338 0.016935678 0.160668
0002b0 34 88 77 3e 2c f7 15 3d b3 c4 37 3d 17 7e 8f 3d
       0.24173051 0.036612675 0.04486532 0.070064716
0002c0 c9 8e 8d be 9a 88 38 be ab 9c 66 be c4 43 fa bd
       -0.27648 -0.1802086 -0.22520702 -0.122199565
0002d0 63 d5 86 3e 3d 6d 2e be 8f 86 8f be 20 4b 9b 3e
       0.26334676 -0.17033859 -0.28032348 0.30330753
0002e0 a0 9a a1 3c 2c d2 17 be 1a 8b 94 3e 82 4f 90 3e
       0.019727051 -0.14826268 0.29012376 0.2818566
0002f0 de ef 3e be 60 1b 93 3e ac 03 4a be a9 df 58 be
       -0.1864619 0.28731823 -0.19727963 -0.2117907

model.encoder.conv2.bias f4 [64]
000000 07 d6 15 bb 00 00 00 00 ab 26 4f ba 00 39 ba 39
       -0.0022863166 0.0 -0.00079021853 0.00035519153
000010 03 31 9c 3a db be b3 ba 84 c9 82 39 c3 eb 0b 3b
       0.0011916462 -0.0013713496 0.00024945673 0.0021350242
000020 a0 19 f6 3a 6b 43 38 3b 49 a7 0a 3b 10 ba 10 bb
       0.0018775947 0.0028116356 0.0021156839 -0.0022083558
000030 78 2f 5d 39 57 35 00 bb ab ca b9 ba 00 00 00 00
       0.00021093886 -0.0019563043 -0.001417478 0.0
000040 47 b4 12 3b 6c 4d c6 3a 27 d6 6d 3a 84 e8 69 3b
       0.0022385286 0.0015129275 0.00090727437 0.0035691569
000050 08 8b e6 b9 26 57 be 3b 33 7f 94 ba 97 ea b7 3b
       -0.00043972605 0.0058087287 -0.0011329412 0.005612682
000060 ec e2 36 bb 85 40 ab 3a 00 69 5e ba c3 d3 36 39
       -0.0027906252 0.0013065493 -0.0008484274 0.0001743576
000070 d0 61 aa bb 6a bc 9a 3b 00 00 00 00 1d ee db 3a
       -0.0051996484 0.0047221677 0.0 0.0016779337
000080 00 00 00 00 9e c5 da 3a 2f 43 49 ba de bf 34 3b
       0.0 0.0016690975 -0.00076775526 0.0027580182
000090 e5 c8 a4 38 97 81 95 b9 56 40 d1 ba ac bc ed b7
       7.857549e-05 -0.00028516047 -0.0015964608 -2.8340459e-05
0000a0 55 f5 8e 3b 32 c0 8a ba 00 00 00 00 ed fe ad 3b
       0.004362742 -0.0010585843 0.0 0.0053099305
0000b0 de 8e a8 3a bf 10 6f bb a8 79 db 3a 00 00 00 00
       0.001285996 -0.0036478487 0.001674463 0.0
0000c0 7f ed 16 bb 8e 39 99 ba 9d 20 e0 3a af 77 ac b9
       -0.0023029742 -0.0011690126 0.0017099563 -0.00032895568
0000d0 00 00 00 00 f4 3c f8 3a b6 c9 79 3b 00 00 00 00
       0.0 0.0018939064 0.0038114614 0.0
0000e0 dc 21 b7 ba b3 e5 ac b9 5c 50 1e 3b cd de 04 3a
       -0.0013971883 -0.00032977536 0.0024156785 0.00050686003
0000f0 40 75 c2 3a 09 ed c3 ba 00 00 00 00 bd a9 1a ba
       0.0014835969 -0.0014947961 0.0 -0.0005899927

model.encoder.conv2.lin.weight f4 [64, 64]
000000 0c ee 4e 3d 62 78 38 3e 4f 0c 31 3e ba 65 04 be
       0.050519988 0.18014672 0.17289852 -0.1292943
000010 80 7a dc bc 5d 56 43 3e 27 ba 8f bc ff 41 57 bd
       -0.026913881 0.19075914 -0.017544819 -0.052553173
000020 b8 f5 81 3c 9b 70 51 be e3 4c 10 be 69 25 0f be
       0.015864238 -0.20453112 -0.1409183 -0.13979115
000030 1f 48 49 3e b4 53 7f bd 4a 8d f2 3d 61 8f 0a be
       0.19656418 -0.062335685 0.11843355 -0.13531257
000040 28 4d c9 3c 3a de 11 3e 6e 4e 8f 3d 86 6f 8f 3d
       0.024572924 0.14244929 0.06997381 0.07003693
000050 b6 fe e1 3d 1e d7 a0 bc 53 a2 39 be ae 96 e8 3d
       0.110349104 -0.019633826 -0.18128328 0.11356865
000060 b0 bf dc bc 00 73 c9 bd 83 28 81 bd 7b d7 49 3e
       -0.026946872 -0.09836388 -0.06306555 0.19711106
000070 76 2b 56 3e d6 28 4a 3e 3a d0 97 3d 00 51 50 3c
       0.20915017 0.1974214 0.07412763 0.012714624
000080 e4 06 32 be c6 e0 ad 3d b3 77 c6 bc d5 3b 34 bd
       -0.17385441 0.08490138 -0.024226999 -0.044002373
000090 3a ca 06 3d 04 c2 03 be 28 df 1c be 17 ba cf bc
       0.032907702 -0.1286698 -0.15319502 -0.02535729
0000a0 a5 d9 16 3e f4 a3 4d be 0a ad ff bd b4 e7 72 3d
       0.14731462 -0.20082074 -0.124841765 0.059303
0000b0 c2 7e d8 bd a2 6b d6 3d df fc 55 3e fd f5 1d 3d
       -0.10571052 0.10469748 0.20897244 0.03856467
0000c0 de 38 b1 bd b1 27 1d be 52 54 39 be 42 53 02 be
       -0.08653425 -0.15347172 -0.18098572 -0.12727073
0000d0 a8 9b 5a be 4f 4b 42 be 8b d5 ec bd a3 1a 15 be
       -0.2134844 -0.1897404 -0.115641676 -0.14560942
0000e0 b6 59 76 bd cd 66 55 3e 24 6d 24 3d d9 a5 2c 3e
       -0.06014415 0.20839997 0.040143147 0.16860141
0000f0 69 70 84 bd 48 cb a8 bd d6 b6 8b 3d 77 8d 06 bd
       -0.06466753 -0.08241898 0.068219826 -0.032849755
000100 c0 b6 1c bc 2c 68 70 bd 08 73 2b be 86 28 a2 bd
       -0.009565055 -0.058693096 -0.167431 -0.079178855
000110 1c 26 61 3d 0d f3 1f 3e 54 eb 7a bd 18 d6 a2 bd
       0.054967985 0.1562006 -0.061259583 -0.079509914
000120 1e cc 41 be 90 7d 80 bd 2c f7 08 be e5 7a 2d 3e
       -0.18925521 -0.06273949 -0.13375539 0.16941412
000130 8c 77 41 3d 5a 18 b3 3d d6 e0 98 3d d4 aa 01 be
       0.04723315 0.08744879 0.07464759 -0.12662822
000140 fa 65 bc 3d 9f dc fe bd f1 ad 31 be a5 0a 2c 3e
       0.09199138 -0.12444424 -0.1735151 0.16800936
000150 00 15 0a 3b 98 d9 b6 bd 34 6e 1f bd ce 24 88 3d
       0.0021069646 -0.089282215 -0.038923457 0.06647645
000160 bb 6d 0f be 00 5a 0d 3b 22 f3 aa 3d 40 2f ec 3c
       -0.14006703 0.0021568537 0.08347155 0.028831124
000170 37 57 e7 bd 2d 9f da bd b2 af 2f be 78 95 ce bc
       -0.11295932 -0.106748916 -0.17156866 -0.025217757
000180 4d 64 13 3e c0 e0 9d 3c eb f5 02 3e 38 3a 4c bd
       0.1439373 0.019272208 0.12789123 -0.04986021
000190 e9 d3 16 3e 6b 26 46 3e da f1 b6 bd 2a 60 0a be
       0.14729275 0.19350593 -0.08932848 -0.13513246
0001a0 68 d7 e8 bd 55 1c 28 be 2c 2b 25 bd b1 c2 c7 bd
       -0.113692105 -0.16417058 -0.040324375 -0.09753931
0001b0 aa bc bc bd f4 9a 1d bd 50 73 c4 bd 1c 66 68 3d
       -0.09215672 -0.038477853 -0.095923066 0.056738004
0001c0 2a f3 8f bd c0 69 ff 3b 68 2f b6 bc 5e 31 2c be
       -0.07028802 0.007794589 -0.022239402 -0.16815707
0001d0 c6 c6 99 3d cf c1 26 3e 1c b1 66 3d 49 c9 3f 3e
       0.07508616 0.1628487 0.05632125 0.18729128
0001e0 1a 44 a8 bd 96 36 80 3d 77 66 dd bd b9 5b ed bd
       -0.08216114 0.062604114 -0.10810559 -0.1158976
0001f0 2a cd af bd 15 a0 3f be a5 45 57 3e b3 43 04 be
       -0.08584054 -0.1871341 0.21022661 -0.1291645
000200 94 53 00 be 5f 1a 4b 3e c1 5d 01 be 42 6f c4 ba
       -0.12531883 0.19834279 -0.1263342 -0.0014986771
000210 19 7f c4 3a 81 75 a9 3d f9 ca 31 be 15 3e 0a be
       0.0014991491 0.08274365 -0.17362584 -0.13500245
000220 bc 38 a9 3c c6 c8 46 be 41 c3 cb 3d a9 b0 13 3e
       0.020656936 -0.19412526 0.09949351 0.14422859
000230 70 88 41 3e 35 30 eb bc e4 cb 08 3c 44 b6 1e be
       0.18899703 -0.02870951 0.008349393 -0.15499216
000240 2e 8c c2 3d e5 90 fb bd 22 c4 d0 3d 5d 67 1e be
       0.094993934 -0.12283496 0.10193659 -0.15469117
000250 22 66 44 3e 99 dc 5e be 83 1c 2f be 51 49 f3 bc
       0.19179586 -0.21763839 -0.1710072 -0.029698046
000260 76 95 ee 3b 63 04 12 be ff 9b d1 3d 55 1d ab 3d
       0.0072810007 -0.14259486 0.10234832 0.08355204
000270 78 10 6c bd d6 30 4b 3d fc bf 0c 3e 4a 10 27 3c
       -0.057632893 0.04960712 0.13745111 0.010196755
000280 10 f0 51 3e 45 39 41 3d 90 10 71 bd fa 24 0d be
       0.20501733 0.047173757 -0.058853686 -0.13783637
000290 8d fc ed bc 02 ed 7e bc 1c e2 e1 bd 23 c2 70 bd
       -0.02905109 -0.015559437 -0.11029455 -0.058778893
0002a0 04 02 b3 bd 94 e3 00 3e e1 49 07 3e d2 73 49 3e
       -0.08740619 0.12586814 0.13211776 0.19673088
0002b0 e6 56 1c 3e 7a c9 2e be d0 48 b1 3d 41 b5 19 3e
       0.15267524 -0.17069045 0.08656466 0.15010549
0002c0 33 a7 5e be 0f 3e 5e 3d 8a 00 09 3e f5 d5 9e 3d
       -0.21743469 0.054258402 0.13379112 0.07755653
0002d0 08 52 a8 bd 5c ce 45 3d 94 e6 96 3d 92 25 45 be
       -0.08218771 0.048292503 0.07368198 -0.19252613
0002e0 a7 3c 84 3d 6c b3 a8 bd 20 b2 34 be 16 7f 8a 3d
       0.06456881 -0.08237347 -0.17646074 0.06762521
0002f0 f7 31 5f 3e 9d 69 39 3d 30 d8 32 be d5 18 8f 3d
       0.21796404 0.045266736 -0.17465281 0.06987158
000300 c1 f5 ef bd f8 5a 0d be 16 ec 19 be aa 81 bf 3d
       -0.11716796 -0.13804233 -0.15031466 0.09350903
000310 93 c5 f2 bd 96 bf f2 bc 57 0f 9f 3d fd b4 1d 3d
       -0.118540905 -0.02963237 0.07766598 0.038502682
000320 33 66 eb 3c 71 7f 02 3e 13 25 4f 3e df f4 28 3d
       0.028735256 0.12743928 0.20228986 0.041249152
000330 88 80 28 3e 0d ae 52 3e d7 34 25 bd e4 37 0b 3e
       0.16455281 0.20574208 -0.040333595 0.1359554
000340 a8 9a df bc ae be 59 3d ab ff 14 3e 2a 8b 80 3d
       -0.027295426 0.053160362 0.14550655 0.062765434
000350 58 df 03 3c d8 eb 1d be 70 02 3c 3e f6 e7 e7 bd
       0.008048855 -0.15421999 0.18360305 -0.1132354
000360 85 d9 25 bd b3 6f 19 be 97 8f 94 bc 87 8f e5 bb
       -0.040490646 -0.14984016 -0.018134875 -0.007005635
000370 f8 f6 14 3e 6f 15 d0 bd 09 4e 4b 3c 4a f9 1d bd
       0.14547336 -0.10160338 0.012408742 -0.03856782
000380 92 0a 25 bc 81 07 88 3d c3 cd de 3d c4 5b 87 bc
       -0.010073321 0.06642056 0.1087909 -0.01652325
000390 6e 7e 12 3e 30 fc 22 3e 10 6c 3a 3e 3c 8f 31 be
       0.14306042 0.15916514 0.18205285 -0.17339796
0003a0 97 f8 26 bd 2c 63 c3 bd 82 50 4b bd 97 64 59 be
       -0.040764417 -0.095404 -0.049637325 -0.21229778
0003b0 18 23 0b 3e 6f dd 22 be b4 6a 17 3e dc 51 9e bc
       0.13587606 -0.15904783 0.14786798 -0.019326143
0003c0 0d a1 4d 3d d1 f1 58 3e 33 7f d6 3d 54 fb b1 3c
       0.050202418 0.21185996 0.1047348 0.021726288
0003d0 96 47 8e 3d 7e 2e e6 bd 5e 59 ea 3b b5 8e f7 3d
       0.06947248 -0.112393364 0.0071517667 0.12087766
0003e0 ea 86 37 3e 80 37 98 bd 26 36 29 bc c0 99 cb bc
       0.1792256 -0.07432461 -0.010327851 -0.024853587
0003f0 8c ff 1e bd 04 1e 15 bd d3 89 dd bc a7 9f a4 bc
       -0.038817927 -0.03640558 -0.027043259 -0.02009566

model.pooling_fn.gate_nn.0.weight f4 [64, 64]
000000 57 f1 ba bd 90 b8 01 3d db 7c 02 3a 13 17 90 bd
       -0.09128063 0.031670153 0.00049777114 -0.07035651
000010 06 1b aa bd 22 84 af 3a e0 4b 20 3c 77 d5 86 bd
       -0.083059356 0.0013390819 0.009783715 -0.06583684
000020 f7 06 aa bd 9e 7d 14 3d 80 01 2c bc 68 88 03 bd
       -0.0830211 0.03625261 -0.0104984045 -0.03211251
000030 4c 5b 91 bd d7 15 fb bd 29 ca cd bd 72 ad 9d 3d
       -0.070974916 -0.12260025 -0.100483246 0.07699098
000040 fe c4 af bd 13 5a 69 3c cd c0 7c 3d 7a 06 a3 bd
       -0.08582495 0.014242667 0.061707307 -0.0796022
000050 81 d3 2e bd 7f cf 64 bd b8 ec b4 3d 4d 04 a3 bd
       -0.042682175 -0.055861946 0.08834213 -0.07959805
000060 3b 53 f0 bc a9 b6 23 bd 7f bb 93 bd 49 48 d2 bd
       -0.029336562 -0.03996912 -0.072134964 -0.102676935
000070 19 73 e1 bd 2b 8b 4c 3d a8 ff a6 bd 59 31 72 bb
       -0.11008281 0.04993741 -0.08154231 -0.0036955683
000080 86 7c f0 3d ee 0f 90 3d 1e 2d 0d bd 91 21 de 3d
       0.11742501 0.07034288 -0.034466855 0.10846246
000090 92 d2 d4 3d 80 02 d7 3d 95 3a 0a 3d 8c cf 82 bc
       0.103917256 0.10498524 0.033747274 -0.015968107
0000a0 e7 14 96 bd 07 a8 4a 3c b0 2d 94 bd 7b d5 43 3b
       -0.073282056 0.012369162 -0.07235277 0.0029881883
0000b0 2b 51 a8 bc 27 26 ff bd ac 28 13 3d 34 5b 3c bd
       -0.020546516 -0.12458449 0.03592746 -0.045985416
0000c0 e4 19 b7 3d 49 dd 75 bc 13 4e aa bd 1e b4 d4 3d
       0.08940485 -0.015006372 -0.08315673 0.10385917
0000d0 42 65 cc bd 52 5d a2 bd b5 1a 75 3d a0 be 3d bd
       -0.09980251 -0.07927956 0.059839923 -0.046324372
0000e0 ed 96 8a bd 40 06 c4 bd ea eb fc bd 94 5a e0 bc
       -0.06767068 -0.095715046 -0.123496845 -0.027386941
0000f0 63 23 91 bd fa 35 b7 bd 0e 9b 89 bd fa 80 47 bc
       -0.070868276 -0.08945842 -0.067190275 -0.0121767465
000100 23 43 9b bd 9c 6f 71 3d 4f db 72 bd 1f 84 bd bd
       -0.07581165 0.05894433 -0.05929118 -0.09253716
000110 bc e3 4f bd 23 2b d7 bd 2b 19 c3 3c 82 89 17 bd
       -0.050754294 -0.105062746 0.023815712 -0.036996372
000120 10 05 0e bb c6 5f f4 3d 24 a5 55 3b 5d 25 dc bc
       -0.0021670498 0.1193233 0.0032599652 -0.026873285
000130 a4 e7 b2 3d 63 6a e7 3d f9 ea a3 bd d8 99 fe 3d
       0.08735588 0.112995885 -0.08003802 0.12431687
000140 5b 2f c4 bd 13 b0 94 3d c0 0b ce bd 09 a8 c6 3c
       -0.09579345 0.07260146 -0.10060835 0.024250047
000150 d0 6c 66 3d a7 b6 e5 bd e6 73 00 be 57 eb 05 3d
       0.056256115 -0.11216479 -0.12544212 0.03269514
000160 51 3d bb bc a1 fb aa 3c 7e 62 22 3d 4a 60 03 b8
       -0.022856386 0.02087194 0.03964471 -3.132251e-05
000170 c9 7d a1 3d eb 28 b4 3d 34 3f 80 3d ad 3b af bd
       0.0788532 0.08796867 0.06262055 -0.08556304
000180 2c 52 3f bd a9 be 0d bd 74 48 d3 3d 88 e6 b7 3d
       -0.046709225 -0.034605656 0.10316554 0.08979517
000190 12 6d dc bd c7 09 83 bd 5a e5 f8 bc 17 99 0f 3d
       -0.10762991 -0.06398349 -0.0303828 0.035058107
0001a0 e3 75 5f 3d 97 e3 7a bd 40 14 f8 3c a5 a0 36 3d
       0.054555785 -0.061252203 0.030283093 0.044586796
0001b0 c5 a9 88 bd a1 59 b0 3d c7 63 04 3d b4 6f 68 bd
       -0.06673006 0.08610845 0.032321718 -0.056747153
0001c0 21 d7 3b 3b 86 ea 97 3d 59 56 9e bd 38 c2 cc bd
       0.0028662162 0.07417779 -0.07731313 -0.09997982
0001d0 7c 20 0a bd d2 f0 d3 3d 05 e2 e6 bd f6 df f0 3d
       -0.033722386 0.10348667 -0.112735786 0.11761467
0001e0 5e cd c8 bd a7 17 db 3d 31 db 12 bd 0d 1b 81 3d
       -0.09804796 0.10697871 -0.03585357 0.06303988
0001f0 8e 68 71 3d f4 09 90 3c 58 99 81 3d 19 09 30 bd
       0.0589376 0.017582871 0.06328076 -0.042977426
000200 30 c6 ea bd 7a 56 e2 bd 0d 43 d1 bd 92 fe a7 bd
       -0.114635825 -0.1105165 -0.10217867 -0.08202852
000210 ee de 1d bd 00 09 f1 3a c6 b6 c1 3b f4 61 23 3c
       -0.03854268 0.0018389523 0.005911681 0.009972084
000220 a6 37 5d 3d 6b 3f 44 bd 93 71 4c bc b3 24 b4 bd
       0.05400815 -0.047912043 -0.01247825 -0.08796062
000230 79 ce 7c 3d 26 14 77 bd 04 3d ce bd 50 ec 12 bd
       0.061720345 -0.06032195 -0.100702316 -0.035869896
000240 bb b7 78 3d 10 89 85 3c 39 da d2 bd 31 28 3c 3d
       0.060722094 0.016300708 -0.10295529 0.045936767
000250 23 97 8d bd a0 0b b8 3c 9b 81 b2 3d 6d b7 d7 bd
       -0.06913593 0.02246648 0.087161265 -0.105330326
000260 ef 70 9f bd 00 64 e4 3d 0c 0f c6 bd 8d 23 9d 3d
       -0.07785212 0.11151886 -0.09670839 0.076727964
000270 08 77 80 3d eb ce cd bd a0 0a 26 bd c4 79 af 3d
       0.062727034 -0.10049232 -0.040537477 0.08568147
000280 84 8a 94 bd 4b e0 9d bd 41 45 0a bd 15 36 92 bd
       -0.07252982 -0.07708796 -0.033757452 -0.071392216
000290 5e c7 ce 3d 20 24 c3 3d 9e e3 98 3d 33 56 8e bd
       0.1009662 0.09528375 0.074652895 -0.06950035
0002a0 5b 46 03 3e a9 e8 c4 bd b6 7f aa bd 48 74 6b bd
       0.12819807 -0.09614689 -0.0832514 -0.05748394
0002b0 29 7e ac 3c b8 52 f9 3d 6d 49 92 3d a8 0a f3 bc
       0.021056252 0.121739805 0.07142911 -0.029668167
0002c0 b0 b9 ef bd 72 2e 4d bd 76 2c fc bd 4f 4e 08 bd
       -0.11705339 -0.05009312 -0.12313168 -0.033277806
0002d0 50 b8 19 3d 65 e7 ae 3d 42 1e 93 bc 28 75 c7 bc
       0.03752929 0.08540229 -0.017958764 -0.024347857
0002e0 02 75 b4 3c cd 92 13 3c 1d eb e1 bd 73 9e 94 3d
       0.02202845 0.009007168 -0.110311724 0.07256784
0002f0 0f 30 79 3c 72 39 e4 bd 74 c2 d7 3d 72 1b 9c bd
       0.015209212 -0.11143769 0.10535136 -0.07622422
000300 8e 01 cd 3d ae 90 e6 bd 18 ce 2a 3d be 2f d1 bd
       0.10010062 -0.11258064 0.041700453 -0.10214184
000310 20 6e 4e bd bf 8b e3 bd b1 47 29 3d ad 84 ed 3d
       -0.050397992 -0.11110639 0.041328136 0.115975715
000320 19 f7 89 bd 65 2a f4 3d 64 08 ff bd f8 40 f7 bd
       -0.06736583 0.119221486 -0.12452772 -0.12072939
000330 59 4f bd 3c 78 84 9d bc 69 fd b1 3d e2 21 db 3d
       0.023109125 -0.019228205 0.08690912 0.10699822
000340 69 de ae 3c 06 01 f8 3d 36 70 1a 3c cf ab e2 3c
       0.021346288 0.1210957 0.009426167 0.027669815
000350 00 62 54 bd a7 ef a8 3d 18 a5 fb 3d ee 86 00 be
       -0.051851273 0.08248835 0.122873485 -0.12551472
000360 7e c6 f0 3c 63 32 78 3c 3d 7f 2c 3d 46 cd f5 3c
       0.029391523 0.015148732 0.04211353 0.030005109
000370 9d b2 af bb df 10 b4 3d 04 da 26 bd ae cf 42 3d
       -0.0053618685 0.087922804 -0.04073526 0.04756134
000380 9e e6 d0 3d b4 3d 01 bd a5 a4 bf bc ff cb f0 bd
       0.10200237 -0.031552985 -0.023393938 -0.11757659
000390 f7 a7 ba 3c e8 8a b5 3d 0c b0 a1 3b 77 2f 06 3d
       0.02278517 0.08864385 0.0049343165 0.03276011
0003a0 34 97 c1 bd 5a 46 a1 bd d8 fe 3f 3d 3f 9a ff bd
       -0.09452668 -0.078747466 0.046873897 -0.12480592
0003b0 19 06 4b 3d ea d8 b5 bd e4 75 9d 3d 4c 46 fa 3d
       0.049566362 -0.08879264 0.076885015 0.12220439
0003c0 63 50 d7 bd 7b 8a ba bd be 4a 86 3d 38 7d ad 3d
       -0.105133794 -0.09108444 0.06557225 0.08471149
0003d0 56 5d a7 3d a7 10 1c bc 0d b0 84 bc c8 f4 24 3d
       0.08172099 -0.009525455 -0.016197229 0.040272504
0003e0 c6 2f 6e 3c 31 90 dc 3d 6a d6 9c bd 9a 63 d7 3c
       0.014537757 0.1076969 -0.07658084 0.02629261
0003f0 5b 53 a8 3c a5 83 7b bc ee d0 d7 bd b0 e3 86 bd
       0.02054756 -0.015351211 -0.10537897 -0.06586397

model.pooling_fn.gate_nn.0.bias f4 [64]
000000 5d a8 14 3b 42 ee 88 3d 83 88 aa 3d 60 4d 9d bd
       0.002268336 0.06686069 0.08326819 -0.07680774
000010 c3 58 e2 3d 93 c9 b2 3d ce 25 8d bd ed e8 35 3d
       0.11052086 0.087298535 -0.06891976 0.04441159
000020 b0 d9 ce 3d 3d 90 31 3a cb d5 d1 3d 39 19 52 3d
       0.10100114 0.00067735073 0.10245856 0.051293585
000030 39 c9 29 3d d1 8c a5 bc c6 7c d9 3d aa 38 65 bd
       0.041451667 -0.020208748 0.10619502 -0.055962242
000040 35 69 85 3c 7d 3a 98 bd c5 05 ea 3c 7a 29 ee 3d
       0.016285518 -0.07433031 0.028567204 0.11629005
000050 ae 6f 24 bd e6 19 0e bd 28 2e ea bd 55 fd 9a 3d
       -0.04014557 -0.034692667 -0.11434585 0.075678505
000060 60 6b ed 3d 59 5c 15 3d 3d 9e ec bd 15 f0 ca bd
       0.11592746 0.036465023 -0.11553619 -0.09909073
000070 97 2a a9 3d 32 64 a2 3d ae d3 fc 3d 5b ba c7 bb
       0.082600765 0.07929267 0.12345062 -0.0060952133
000080 2c de 69 bd 95 88 56 bd 00 6c 9c bc 37 c7 86 3d
       -0.057096645 -0.05237635 -0.019094467 0.06580966
000090 b8 79 2e 3c da c7 93 3d ac c6 d9 38 59 87 1d 3d
       0.010649137 0.07215853 0.00010384372 0.038459156
0000a0 91 33 df bc 10 f8 d5 3c 32 d8 94 bd 58 c3 e2 bc
       -0.027246268 0.026119262 -0.072677985 -0.027681038
0000b0 26 64 d1 3d d5 c5 e7 bd f3 cf fa 3d 5a 19 6b 3d
       0.1022418 -0.1131703 0.122466944 0.057397224
0000c0 ef 2e 17 bd 5e e9 2a bd 95 8f 00 3e 1a 1c 9d bc
       -0.036909994 -0.041726463 0.12554772 -0.019178439
0000d0 b1 4c ba bd 6c 55 d7 bd 5c 32 f0 3d bd ad 4b 3c
       -0.09096659 -0.1051434 0.11728355 0.012431559
0000e0 d0 f8 9d bb 11 9a ac bd 92 76 e2 bb ec 00 bf 3d
       -0.0048209205 -0.08427823 -0.0069111073 0.09326348
0000f0 fe db 1c 3d 2f b6 04 bd 6e 3e f7 3d f5 b0 f6 bd
       0.03829574 -0.032400306 0.120724544 -0.120454706

model.pooling_fn.gate_nn.2.weight f4 [1, 64]
000000 dd f5 63 bb 4c 21 63 3d 0a a1 8d 3d ba 43 aa bd
       -0.0034783997 0.055451676 0.069154814 -0.08313699
000010 e0 8f 19 3d fb 1a 26 bd 6f b9 5e 3d 5f 9f 1c bd
       0.037490726 -0.040553074 0.054376062 -0.038237926
000020 d0 d1 d8 3d 66 1e a8 bd 12 df 68 bd 6e da 0f bc
       0.105868936 -0.08208923 -0.05685336 -0.008780105
000030 20 ea 39 bd 33 23 95 3d bf b3 22 bd ac 95 9d 3d
       -0.045389295 0.07282104 -0.0397222 0.07694563
000040 e3 3d e2 3d a4 f2 23 3c d9 81 85 bd 56 95 44 bc
       0.1104696 0.0100065805 -0.06518907 -0.011998495
000050 fb 2e dc bd d4 6f 62 3c dc d2 16 bd 9f d5 c9 bd
       -0.10751148 0.013820607 -0.036822185 -0.09855198
000060 7a 2c 95 3d eb 59 10 3d e2 1d d5 bd 52 65 a1 bd
       0.07283874 0.035242002 -0.1040609 -0.078806534
000070 97 b4 3b 3d a9 35 7b bd 39 ef 50 3d ad 16 ae bd
       0.04582652 -0.06133047 0.05100939 -0.08500419
000080 92 be e9 3d a5 c5 e4 bd 66 2e 9d bc 2f 3f d6 bd
       0.114133015 -0.1117051 -0.019187164 -0.1046127
000090 2d cb 5e 3d 02 79 14 3d 92 fd cc bb 36 90 aa 3d
       0.054392982 0.036248215 -0.006255814 0.08328287
0000a0 d9 76 58 bd 26 32 50 bc b4 0f eb bd 3c e8 a5 3c
       -0.052847717 -0.012707269 -0.114776045 0.02025234
0000b0 82 54 4a bd 31 f8 d3 bd 6b 2d af 3c ad 9d a9 bd
       -0.049397 -0.10350073 0.021383962 -0.082820274
0000c0 ba da a0 3d be 68 c5 3d 19 06 75 3d 74 ed b1 bd
       0.07854219 0.096391186 0.05982027 -0.08687869
0000d0 8f 84 95 bd 97 13 e5 3c 4d a7 b9 bc 50 6d 4a bd
       -0.07300674 0.027963443 -0.022662783 -0.049420655
0000e0 84 26 00 bc 03 e7 7b bd 42 95 af 3d 1a dd ab bd
       -0.007821683 -0.061499607 0.085733905 -0.08391781
0000f0 dc 9b 88 bd 50 a1 f2 3a 9f 55 c5 3b d6 b4 b8 3d
       -0.06670353 0.001851121 0.0060221697 0.09018867

model.pooling_fn.att_pool.gate_nn.0.weight f4 [64, 64]
000000 57 f1 ba bd 90 b8 01 3d db 7c 02 3a 13 17 90 bd
       -0.09128063 0.031670153 0.00049777114 -0.07035651
000010 06 1b aa bd 22 84 af 3a e0 4b 20 3c 77 d5 86 bd
       -0.083059356 0.0013390819 0.009783715 -0.06583684
000020 f7 06 aa bd 9e 7d 14 3d 80 01 2c bc 68 88 03 bd
       -0.0830211 0.03625261 -0.0104984045 -0.03211251
000030 4c 5b 91 bd d7 15 fb bd 29 ca cd bd 72 ad 9d 3d
       -0.070974916 -0.12260025 -0.100483246 0.07699098
000040 fe c4 af bd 13 5a 69 3c cd c0 7c 3d 7a 06 a3 bd
       -0.08582495 0.014242667 0.061707307 -0.0796022
000050 81 d3 2e bd 7f cf 64 bd b8 ec b4 3d 4d 04 a3 bd
       -0.042682175 -0.055861946 0.08834213 -0.07959805
000060 3b 53 f0 bc a9 b6 23 bd 7f bb 93 bd 49 48 d2 bd
       -0.029336562 -0.03996912 -0.072134964 -0.102676935
000070 19 73 e1 bd 2b 8b 4c 3d a8 ff a6 bd 59 31 72 bb
       -0.11008281 0.04993741 -0.08154231 -0.0036955683
000080 86 7c f0 3d ee 0f 90 3d 1e 2d 0d bd 91 21 de 3d
       0.11742501 0.07034288 -0.034466855 0.10846246
000090 92 d2 d4 3d 80 02 d7 3d 95 3a 0a 3d 8c cf 82 bc
       0.103917256 0.10498524 0.033747274 -0.015968107
0000a0 e7 14 96 bd 07 a8 4a 3c b0 2d 94 bd 7b d5 43 3b
       -0.073282056 0.012369162 -0.07235277 0.0029881883
0000b0 2b 51 a8 bc 27 26 ff bd ac 28 13 3d 34 5b 3c bd
       -0.020546516 -0.12458449 0.03592746 -0.045985416
0000c0 e4 19 b7 3d 49 dd 75 bc 13 4e aa bd 1e b4 d4 3d
       0.08940485 -0.015006372 -0.08315673 0.10385917
0000d0 42 65 cc bd 52 5d a2 bd b5 1a 75 3d a0 be 3d bd
       -0.09980251 -0.07927956 0.059839923 -0.046324372
0000e0 ed 96 8a bd 40 06 c4 bd ea eb fc bd 94 5a e0 bc
       -0.06767068 -0.095715046 -0.123496845 -0.027386941
0000f0 63 23 91 bd fa 35 b7 bd 0e 9b 89 bd fa 80 47 bc
       -0.070868276 -0.08945842 -0.067190275 -0.0121767465
000100 23 43 9b bd 9c 6f 71 3d 4f db 72 bd 1f 84 bd bd
       -0.07581165 0.05894433 -0.05929118 -0.09253716
000110 bc e3 4f bd 23 2b d7 bd 2b 19 c3 3c 82 89 17 bd
       -0.050754294 -0.105062746 0.023815712 -0.036996372
000120 10 05 0e bb c6 5f f4 3d 24 a5 55 3b 5d 25 dc bc
       -0.0021670498 0.1193233 0.0032599652 -0.026873285
000130 a4 e7 b2 3d 63 6a e7 3d f9 ea a3 bd d8 99 fe 3d
       0.08735588 0.112995885 -0.08003802 0.12431687
000140 5b 2f c4 bd 13 b0 94 3d c0 0b ce bd 09 a8 c6 3c
       -0.09579345 0.07260146 -0.10060835 0.024250047
000150 d0 6c 66 3d a7 b6 e5 bd e6 73 00 be 57 eb 05 3d
       0.056256115 -0.11216479 -0.12544212 0.03269514
000160 51 3d bb bc a1 fb aa 3c 7e 62 22 3d 4a 60 03 b8
       -0.022856386 0.02087194 0.03964471 -3.132251e-05
000170 c9 7d a1 3d eb 28 b4 3d 34 3f 80 3d ad 3b af bd
       0.0788532 0.08796867 0.06262055 -0.08556304
000180 2c 52 3f bd a9 be 0d bd 74 48 d3 3d 88 e6 b7 3d
       -0.046709225 -0.034605656 0.10316554 0.08979517
000190 12 6d dc bd c7 09 83 bd 5a e5 f8 bc 17 99 0f 3d
       -0.10762991 -0.06398349 -0.0303828 0.035058107
0001a0 e3 75 5f 3d 97 e3 7a bd 40 14 f8 3c a5 a0 36 3d
       0.054555785 -0.061252203 0.030283093 0.044586796
0001b0 c5 a9 88 bd a1 59 b0 3d c7 63 04 3d b4 6f 68 bd
       -0.06673006 0.08610845 0.032321718 -0.056747153
0001c0 21 d7 3b 3b 86 ea 97 3d 59 56 9e bd 38 c2 cc bd
       0.0028662162 0.07417779 -0.07731313 -0.09997982
0001d0 7c 20 0a bd d2 f0 d3 3d 05 e2 e6 bd f6 df f0 3d
       -0.033722386 0.10348667 -0.112735786 0.11761467
0001e0 5e cd c8 bd a7 17 db 3d 31 db 12 bd 0d 1b 81 3d
       -0.09804796 0.10697871 -0.03585357 0.06303988
0001f0 8e 68 71 3d f4 09 90 3c 58 99 81 3d 19 09 30 bd
       0.0589376 0.017582871 0.06328076 -0.042977426
000200 30 c6 ea bd 7a 56 e2 bd 0d 43 d1 bd 92 fe a7 bd
       -0.114635825 -0.1105165 -0.10217867 -0.08202852
000210 ee de 1d bd 00 09 f1 3a c6 b6 c1 3b f4 61 23 3c
       -0.03854268 0.0018389523 0.005911681 0.009972084
000220 a6 37 5d 3d 6b 3f 44 bd 93 71 4c bc b3 24 b4 bd
       0.05400815 -0.047912043 -0.01247825 -0.08796062
000230 79 ce 7c 3d 26 14 77 bd 04 3d ce bd 50 ec 12 bd
       0.061720345 -0.06032195 -0.100702316 -0.035869896
000240 bb b7 78 3d 10 89 85 3c 39 da d2 bd 31 28 3c 3d
       0.060722094 0.016300708 -0.10295529 0.045936767
000250 23 97 8d bd a0 0b b8 3c 9b 81 b2 3d 6d b7 d7 bd
       -0.06913593 0.02246648 0.087161265 -0.105330326
000260 ef 70 9f bd 00 64 e4 3d 0c 0f c6 bd 8d 23 9d 3d
       -0.07785212 0.11151886 -0.09670839 0.076727964
000270 08 77 80 3d eb ce cd bd a0 0a 26 bd c4 79 af 3d
       0.062727034 -0.10049232 -0.040537477 0.08568147
000280 84 8a 94 bd 4b e0 9d bd 41 45 0a bd 15 36 92 bd
       -0.07252982 -0.07708796 -0.033757452 -0.071392216
000290 5e c7 ce 3d 20 24 c3 3d 9e e3 98 3d 33 56 8e bd
       0.1009662 0.09528375 0.074652895 -0.06950035
0002a0 5b 46 03 3e a9 e8 c4 bd b6 7f aa bd 48 74 6b bd
       0.12819807 -0.09614689 -0.0832514 -0.05748394
0002b0 29 7e ac 3c b8 52 f9 3d 6d 49 92 3d a8 0a f3 bc
       0.021056252 0.121739805 0.07142911 -0.029668167
0002c0 b0 b9 ef bd 72 2e 4d bd 76 2c fc bd 4f 4e 08 bd
       -0.11705339 -0.05009312 -0.12313168 -0.033277806
0002d0 50 b8 19 3d 65 e7 ae 3d 42 1e 93 bc 28 75 c7 bc
       0.03752929 0.08540229 -0.017958764 -0.024347857
0002e0 02 75 b4 3c cd 92 13 3c 1d eb e1 bd 73 9e 94 3d
       0.02202845 0.009007168 -0.110311724 0.07256784
0002f0 0f 30 79 3c 72 39 e4 bd 74 c2 d7 3d 72 1b 9c bd
       0.015209212 -0.11143769 0.10535136 -0.07622422
000300 8e 01 cd 3d ae 90 e6 bd 18 ce 2a 3d be 2f d1 bd
       0.10010062 -0.11258064 0.041700453 -0.10214184
000310 20 6e 4e bd bf 8b e3 bd b1 47 29 3d ad 84 ed 3d
       -0.050397992 -0.11110639 0.041328136 0.115975715
000320 19 f7 89 bd 65 2a f4 3d 64 08 ff bd f8 40 f7 bd
       -0.06736583 0.119221486 -0.12452772 -0.12072939
000330 59 4f bd 3c 78 84 9d bc 69 fd b1 3d e2 21 db 3d
       0.023109125 -0.019228205 0.08690912 0.10699822
000340 69 de ae 3c 06 01 f8 3d 36 70 1a 3c cf ab e2 3c
       0.021346288 0.1210957 0.009426167 0.027669815
000350 00 62 54 bd a7 ef a8 3d 18 a5 fb 3d ee 86 00 be
       -0.051851273 0.08248835 0.122873485 -0.12551472
000360 7e c6 f0 3c 63 32 78 3c 3d 7f 2c 3d 46 cd f5 3c
       0.029391523 0.015148732 0.04211353 0.030005109
000370 9d b2 af bb df 10 b4 3d 04 da 26 bd ae cf 42 3d
       -0.0053618685 0.087922804 -0.04073526 0.04756134
000380 9e e6 d0 3d b4 3d 01 bd a5 a4 bf bc ff cb f0 bd
       0.10200237 -0.031552985 -0.023393938 -0.11757659
000390 f7 a7 ba 3c e8 8a b5 3d 0c b0 a1 3b 77 2f 06 3d
       0.02278517 0.08864385 0.0049343165 0.03276011
0003a0 34 97 c1 bd 5a 46 a1 bd d8 fe 3f 3d 3f 9a ff bd
       -0.09452668 -0.078747466 0.046873897 -0.12480592
0003b0 19 06 4b 3d ea d8 b5 bd e4 75 9d 3d 4c 46 fa 3d
       0.049566362 -0.08879264 0.076885015 0.12220439
0003c0 63 50 d7 bd 7b 8a ba bd be 4a 86 3d 38 7d ad 3d
       -0.105133794 -0.09108444 0.06557225 0.08471149
0003d0 56 5d a7 3d a7 10 1c bc 0d b0 84 bc c8 f4 24 3d
       0.08172099 -0.009525455 -0.016197229 0.040272504
0003e0 c6 2f 6e 3c 31 90 dc 3d 6a d6 9c bd 9a 63 d7 3c
       0.014537757 0.1076969 -0.07658084 0.02629261
0003f0 5b 53 a8 3c a5 83 7b bc ee d0 d7 bd b0 e3 86 bd
       0.02054756 -0.015351211 -0.10537897 -0.06586397

model.pooling_fn.att_pool.gate_nn.0.bias f4 [64]
000000 5d a8 14 3b 42 ee 88 3d 83 88 aa 3d 60 4d 9d bd
       0.002268336 0.06686069 0.08326819 -0.07680774
000010 c3 58 e2 3d 93 c9 b2 3d ce 25 8d bd ed e8 35 3d
       0.11052086 0.087298535 -0.06891976 0.04441159
000020 b0 d9 ce 3d 3d 90 31 3a cb d5 d1 3d 39 19 52 3d
       0.10100114 0.00067735073 0.10245856 0.051293585
000030 39 c9 29 3d d1 8c a5 bc c6 7c d9 3d aa 38 65 bd
       0.041451667 -0.020208748 0.10619502 -0.055962242
000040 35 69 85 3c 7d 3a 98 bd c5 05 ea 3c 7a 29 ee 3d
       0.016285518 -0.07433031 0.028567204 0.11629005
000050 ae 6f 24 bd e6 19 0e bd 28 2e ea bd 55 fd 9a 3d
       -0.04014557 -0.034692667 -0.11434585 0.075678505
000060 60 6b ed 3d 59 5c 15 3d 3d 9e ec bd 15 f0 ca bd
       0.11592746 0.036465023 -0.11553619 -0.09909073
000070 97 2a a9 3d 32 64 a2 3d ae d3 fc 3d 5b ba c7 bb
       0.082600765 0.07929267 0.12345062 -0.0060952133
000080 2c de 69 bd 95 88 56 bd 00 6c 9c bc 37 c7 86 3d
       -0.057096645 -0.05237635 -0.019094467 0.06580966
000090 b8 79 2e 3c da c7 93 3d ac c6 d9 38 59 87 1d 3d
       0.010649137 0.07215853 0.00010384372 0.038459156
0000a0 91 33 df bc 10 f8 d5 3c 32 d8 94 bd 58 c3 e2 bc
       -0.027246268 0.026119262 -0.072677985 -0.027681038
0000b0 26 64 d1 3d d5 c5 e7 bd f3 cf fa 3d 5a 19 6b 3d
       0.1022418 -0.1131703 0.122466944 0.057397224
0000c0 ef 2e 17 bd 5e e9 2a bd 95 8f 00 3e 1a 1c 9d bc
       -0.036909994 -0.041726463 0.12554772 -0.019178439
0000d0 b1 4c ba bd 6c 55 d7 bd 5c 32 f0 3d bd ad 4b 3c
       -0.09096659 -0.1051434 0.11728355 0.012431559
0000e0 d0 f8 9d bb 11 9a ac bd 92 76 e2 bb ec 00 bf 3d
       -0.0048209205 -0.08427823 -0.0069111073 0.09326348
0000f0 fe db 1c 3d 2f b6 04 bd 6e 3e f7 3d f5 b0 f6 bd
       0.03829574 -0.032400306 0.120724544 -0.120454706

model.pooling_fn.att_pool.gate_nn.2.weight f4 [1, 64]
000000 dd f5 63 bb 4c 21 63 3d 0a a1 8d 3d ba 43 aa bd
       -0.0034783997 0.055451676 0.069154814 -0.08313699
000010 e0 8f 19 3d fb 1a 26 bd 6f b9 5e 3d 5f 9f 1c bd
       0.037490726 -0.040553074 0.054376062 -0.038237926
000020 d0 d1 d8 3d 66 1e a8 bd 12 df 68 bd 6e da 0f bc
       0.105868936 -0.08208923 -0.05685336 -0.008780105
000030 20 ea 39 bd 33 23 95 3d bf b3 22 bd ac 95 9d 3d
       -0.045389295 0.07282104 -0.0397222 0.07694563
000040 e3 3d e2 3d a4 f2 23 3c d9 81 85 bd 56 95 44 bc
       0.1104696 0.0100065805 -0.06518907 -0.011998495
000050 fb 2e dc bd d4 6f 62 3c dc d2 16 bd 9f d5 c9 bd
       -0.10751148 0.013820607 -0.036822185 -0.09855198
000060 7a 2c 95 3d eb 59 10 3d e2 1d d5 bd 52 65 a1 bd
       0.07283874 0.035242002 -0.1040609 -0.078806534
000070 97 b4 3b 3d a9 35 7b bd 39 ef 50 3d ad 16 ae bd
       0.04582652 -0.06133047 0.05100939 -0.08500419
000080 92 be e9 3d a5 c5 e4 bd 66 2e 9d bc 2f 3f d6 bd
       0.114133015 -0.1117051 -0.019187164 -0.1046127
000090 2d cb 5e 3d 02 79 14 3d 92 fd cc bb 36 90 aa 3d
       0.054392982 0.036248215 -0.006255814 0.08328287
0000a0 d9 76 58 bd 26 32 50 bc b4 0f eb bd 3c e8 a5 3c
       -0.052847717 -0.012707269 -0.114776045 0.02025234
0000b0 82 54 4a bd 31 f8 d3 bd 6b 2d af 3c ad 9d a9 bd
       -0.049397 -0.10350073 0.021383962 -0.082820274
0000c0 ba da a0 3d be 68 c5 3d 19 06 75 3d 74 ed b1 bd
       0.07854219 0.096391186 0.05982027 -0.08687869
0000d0 8f 84 95 bd 97 13 e5 3c 4d a7 b9 bc 50 6d 4a bd
       -0.07300674 0.027963443 -0.022662783 -0.049420655
0000e0 84 26 00 bc 03 e7 7b bd 42 95 af 3d 1a dd ab bd
       -0.007821683 -0.061499607 0.085733905 -0.08391781
0000f0 dc 9b 88 bd 50 a1 f2 3a 9f 55 c5 3b d6 b4 b8 3d
       -0.06670353 0.001851121 0.0060221697 0.09018867

model.readout.mlp.0.weight f4 [64, 64]
000000 c4 77 fa 3d 64 e3 99 bd b6 c9 44 bd 3b 24 72 bd
       0.12229875 -0.075140744 -0.04804393 -0.059116583
000010 b9 45 25 3d e5 52 8f bd 16 fc ce bd ff 14 8b bc
       0.040349696 -0.06998233 -0.10106675 -0.016977785
000020 72 22 8c 3c e9 46 aa 3d a3 b0 5e bd 16 15 60 3d
       0.017106269 0.08314306 -0.054367673 0.05470761
000030 9e e8 cb 3d 30 d4 f5 bd 56 f6 da 3d dc 66 ef bd
       0.099564776 -0.12003362 0.10691516 -0.11689541
000040 a7 cd e7 bd f9 21 ea 3d e8 8c 77 bd 63 6d 83 3d
       -0.11318522 0.11432261 -0.060437113 0.06417348
000050 3a 3f 4d bd d9 d6 81 bd 2e 57 ba bc 56 88 45 bd
       -0.050109126 -0.06339807 -0.022746649 -0.048225723
000060 23 cd 5e bd 7b ab b0 bd c4 a9 b1 3c 62 a5 d4 bc
       -0.054394852 -0.08626457 0.021687396 -0.025957767
000070 a7 fc c7 3d 76 7e cf bd a4 2e 68 bd 1e bd 72 3c
       0.097649865 -0.101315424 -0.056685105 0.014815597
000080 32 0a 89 3d dc 0b f4 3d de 82 ff 3d 94 74 d7 bd
       0.06691398 0.119163245 0.12476133 -0.105202824
000090 bf a6 7e bd e9 78 d2 3d 5f 30 cc bd 16 bf 23 3c
       -0.06217074 0.10276968 -0.099701636 0.009994289
0000a0 43 47 86 bd ee 5a f5 bd 84 ed 17 3d 75 93 90 3d
       -0.06556561 -0.11980234 0.037091747 0.07059375
0000b0 58 41 03 3d 05 7a 2e 3d cf 01 47 bd 24 d3 c6 3d
       0.03204474 0.042596836 -0.04858571 0.09708241
0000c0 13 fd 63 3c 9a f9 f2 bd 82 83 c0 3d cf 35 a6 3d
       0.013915318 -0.11864014 0.09400083 0.08115732
0000d0 3c d1 d0 3d b9 9b 8d 3d d0 d6 52 3d a4 d0 f9 bd
       0.10196158 0.06914467 0.051474392 -0.12197998
0000e0 5b 96 d3 bd e0 ca 47 3c 81 2f fa 3d 98 4f a8 3c
       -0.103314124 0.012194365 0.12216092 0.020545766
0000f0 ca 39 65 3c 03 dd 8f bc d0 62 28 bd 7e de 76 bd
       0.013990829 -0.017561441 -0.04110986 -0.06027078
000100 42 28 f9 3d fc 3a 2d 3d 6e 54 f9 3d 08 df b8 bc
       0.12165882 0.04229258 0.12174307 -0.022567287
000110 b0 45 c1 bc 78 19 4a 3d 3e 4b 97 bd 90 9f 02 3c
       -0.0235928 0.049340695 -0.07387398 0.007972613
000120 b0 ac 4b 3d 80 43 a0 bb 68 1e ff 3c 7a 7f 87 bd
       0.049725235 -0.004890859 0.031142429 -0.06616111
000130 b0 66 19 3c 8c 1a 99 3d d0 82 47 bc dc 4a ca 3d
       0.0093628615 0.074757665 -0.012177184 0.098775595
000140 24 39 0b bd 10 ab 85 bd 90 ae 84 3d 48 48 3a bd
       -0.03399004 -0.06526768 0.06478608 -0.04547909
000150 18 64 9b 3d 60 30 92 bd d4 d3 8e bd 18 fb 87 bc
       0.07587451 -0.07138133 -0.06973997 -0.016599223
000160 b4 83 35 bd 1c 00 a5 bd e0 43 8a bd 70 79 e9 3c
       -0.044315055 -0.080566615 -0.067512274 0.028500289
000170 78 6a ca bc a6 04 8b 3d 94 dd 0f 3d bc a5 9a bd
       -0.024708971 0.06787996 0.035123423 -0.075511426
000180 aa bf bf 3d a4 f9 87 bd b0 2c fb bc 98 f7 a4 3d
       0.09362729 -0.06639412 -0.030660957 0.08055037
000190 ba b0 ad bd 88 29 55 bd d0 2e 46 bc 6c a6 79 bd
       -0.084809735 -0.05204156 -0.012096122 -0.060949728
0001a0 b0 14 0c bc ec b2 dc 3d 40 cb 4e bb 30 74 28 bc
       -0.008549854 0.10776314 -0.0031554252 -0.0102816075
0001b0 74 5d e7 bd 72 da f8 3d a0 80 5e bd b0 24 c1 3d
       -0.11297122 0.1215104 -0.054321885 0.09430826
0001c0 30 49 da bd ec 84 1d bd bc d5 07 bd a4 7f d4 3d
       -0.10658491 -0.038456842 -0.033162817 0.10375908
0001d0 ae 35 b4 bd 24 36 a3 3d 00 09 b3 3d 00 b8 70 ba
       -0.08799301 0.07969311 0.08741951 -0.00091826916
0001e0 74 44 71 3d 04 93 c9 bd 68 45 98 3c 90 e6 b2 3d
       0.058903173 -0.09842494 0.018587783 0.087353826
0001f0 a6 b5 cf bd ee 32 f7 3d 88 da 93 bc 80 58 92 3a
       -0.101420686 0.12070261 -0.01804854 0.0011165291
000200 3c 8d bc 3b 9c 11 e2 bd a0 60 bd bc b0 43 ce bd
       0.005754141 -0.11038515 -0.023117363 -0.10071504
000210 49 cd d1 bd 42 b4 8a 3d f6 c9 c4 bd 99 5b 27 3d
       -0.10244233 0.06772663 -0.096088335 0.04085884
000220 46 82 fa 3d f4 6a 7e 3d 82 76 a9 bd 6c 69 20 bd
       0.12231879 0.062113717 -0.08274557 -0.039163038
000230 85 e5 b2 bd b1 5c 98 bd 8e 91 ac bd bc 6d e1 bd
       -0.087351836 -0.074395545 -0.084262 -0.11007258
000240 dd 23 eb 3d 90 02 8a bd 49 a9 d8 3d 40 5d 53 3d
       0.1148145 -0.0673877 0.105791636 0.051602602
000250 0a 15 84 bd a9 c2 c5 b9 57 de dc 3d d1 b2 7f bc
       -0.064493254 -0.000377198 0.107845955 -0.015606598
000260 2b 74 c9 3d 66 84 ef bd 81 9e bc 3d 98 c5 f4 bc
       0.098366104 -0.11695175 0.0920992 -0.029879376
000270 e3 78 e0 3d 4d f1 e2 bd 38 72 b6 bd 6c 92 a6 bd
       0.10960557 -0.11081181 -0.08908504 -0.081333965
000280 9c 2d 90 bd 3a 5c c6 3c 9e 25 20 bc 51 bd ea 3d
       -0.07039949 0.024213899 -0.009774594 0.114618905
000290 c4 df 89 3d 24 b3 38 3d 78 e8 02 be 73 0a db 3c
       0.06732133 0.045092717 -0.12783992 0.026738381
0002a0 c4 a3 92 bd 02 cd 06 3d 94 6f 97 bd 39 2b 6d bc
       -0.07160142 0.032910354 -0.07394329 -0.014475637
0002b0 a9 eb 4a 3c 77 cb c7 bc bf 05 df 3c 68 e4 6e bd
       0.012385287 -0.024389012 0.02722442 -0.058323294
0002c0 5c e8 cf bd 61 aa 06 3d ce 1d 70 3d 1f a7 d7 bd
       -0.10151741 0.03287733 0.058622174 -0.10529923
0002d0 3e fc bf bd 06 0a 00 be 7a 8f 51 3d de f5 82 3d
       -0.09374283 -0.12503824 0.05116222 0.06394552
0002e0 1d a3 2b bc 79 55 90 bd 1c 2c fb 3d 37 4e ae bd
       -0.010475901 -0.070475526 0.122642726 -0.08511012
0002f0 0a d5 ee 3d 92 5e 24 bd 56 a9 9c bd 5d 71 f1 3b
       0.11661728 -0.04012925 -0.07649486 0.0073682503
000300 8d 47 83 3d 20 a3 28 bd 11 34 cd 3c b0 f9 b8 39
       0.064101316 -0.041171193 0.025049241 0.00035281247
000310 56 2e 5e 3d 5e 8a 49 bd ad 99 0a 3d eb 77 80 bd
       0.05424341 -0.049204223 0.033837963 -0.062728725
000320 81 5f 54 3d 82 7b 3d bd 5c 8e a5 bd 2e 9c 93 3d
       0.051848892 -0.046260364 -0.080837935 0.07207523
000330 c1 be c7 bd 95 4e a1 bd ee 42 82 3d 38 03 ca 3c
       -0.0975318 -0.078763165 0.06360422 0.024659738
000340 5b 92 b1 3c 16 7f 98 bd d7 3e af 3d e7 12 df bd
       0.021676233 -0.07446115 0.085569076 -0.10892277
000350 cc 2b d4 bd ba da 02 3e 8c 89 e4 3c 21 4e 99 3d
       -0.10359916 0.1277875 0.027897619 0.07485605
000360 36 ec 91 bd 67 cc 76 bd 01 b0 a3 3d f0 c1 c8 3c
       -0.07125132 -0.060253527 0.079925545 0.02450654
000370 0f f0 07 bd 1c 4a e6 bd f6 30 d9 bd 29 2b e3 3d
       -0.033187922 -0.11244604 -0.10605042 0.110922165
000380 10 93 2c 3d 08 54 f8 bd 60 61 c1 3d 93 56 25 bc
       0.042132437 -0.12125403 0.09442401 -0.010091442
000390 b4 7a ad bd 13 ed c7 3d 0e 88 e8 bd 5a 80 da bd
       -0.084706694 0.09762015 -0.11354075 -0.10669012
0003a0 f0 d0 b2 bd a8 1b 8f bd e8 af 67 bd d3 f2 2c 3d
       -0.08731258 -0.06987697 -0.05656424 0.042223763
0003b0 ea c5 c0 3d 2f a3 4b 3d 3e 7e bb 3d a6 4a 88 bd
       0.09412749 0.04971617 0.09154938 -0.06654863
0003c0 ec 4c c2 bd 8e 2b 72 bd c2 52 4e bd e3 87 86 bd
       -0.09487328 -0.05912357 -0.050371893 -0.06568887
0003d0 9c 73 77 3d be d3 36 3d aa 2a c2 bc 98 81 88 3d
       0.060412988 0.044635527 -0.023701984 0.06665343
0003e0 ce 17 b2 bb ba 9e d6 3d f3 22 f1 bd f9 ea 20 bd
       -0.0054349666 0.104794934 -0.11774244 -0.039286587
0003f0 5d 1c 6e 3c 38 b9 d5 3d d0 29 f9 bd 3b b1 e1 bd
       0.0145331295 0.10435718 -0.12166178 -0.11020132

model.readout.mlp.0.bias f4 [64]
000000 05 34 c0 3c 1c 4e d6 bd 95 65 83 3d f8 91 f4 3d
       0.023462305 -0.10464117 0.064158596 0.11941904
000010 14 1c ac 3b 3a dc 6b 3d e9 8d ca bd db d4 17 bd
       0.0052523706 0.05758307 -0.098903485 -0.03706823
000020 c8 7a 43 bd cc d2 40 bd c2 d2 c9 bc e9 54 a6 3d
       -0.047724515 -0.04707603 -0.02463663 0.08121664
000030 9f 6d bf 3d de b5 61 bc 04 ef ba bd 82 52 bd 3c
       0.093470804 -0.013776271 -0.0912762 0.023110632
000040 2f dc 7f 3d 92 dd f2 bd 32 2f fa bd 70 b1 e4 bc
       0.062465843 -0.118586674 -0.12216033 -0.02791664
000050 d8 9b 51 bd 68 af ec 3d f1 cf 64 3d fe 98 cd bd
       -0.051174015 0.115568936 0.05586237 -0.100389466
000060 98 9a f4 bd e2 68 90 bd ca 64 d8 bd 2d 41 85 bc
       -0.11943549 -0.07051255 -0.10566099 -0.01626643
000070 4f 00 d4 3d c4 82 ab bd 6e d8 8d bd 30 3b b0 bd
       0.10351621 -0.08374551 -0.06926046 -0.08605039
000080 29 78 a1 3d 2a 5b fa bc af d2 2a 3c 2d 3f 76 bd
       0.07884247 -0.030561049 0.010426207 -0.060118843
000090 f4 39 b6 bd 3d 46 c3 3c 72 43 de bb 41 98 95 3d
       -0.088977724 0.023837203 -0.0067829425 0.07304431
0000a0 d1 bd da 3c 1c af 54 3d d8 40 97 3d a6 3b 99 bd
       0.02670184 0.05192481 0.07385415 -0.0748208
0000b0 ea 23 80 bd b7 96 e9 3d 8c 6d a6 3d f7 61 1a 3b
       -0.0625685 0.114057 0.08126363 0.0023556927
0000c0 46 e0 4b 3d 41 0e 48 bd 2a 17 a6 3c 51 2c cb ba
       0.04977443 -0.04884172 0.020274717 -0.0015500878
0000d0 0a 6e ae bc 9a 64 ba bd 78 40 b2 bc 8a 23 75 3c
       -0.021292705 -0.091012195 -0.021759257 0.014962086
0000e0 24 f3 23 bd 58 bc dd bd e2 bf ef bd dd 49 80 3c
       -0.0400268 -0.10826939 -0.117065206 0.01566022
0000f0 7c 3f 75 bc 42 ff 54 3d ad d2 e4 3d 59 b5 b4 bb
       -0.014968749 0.052001245 0.11172996 -0.0055147824
