lightning_logs/version_209/checkpoints/epoch=19-step=560.ckpt (torch, 227573 bytes, 42 tensors)

model.encoder.conv1.lin_l.weight f4 [64, 3]
000000 13 ac bc 3d e9 42 07 3f 5a 8e 5d 3e 32 93 b1 be
       0.09212508 0.5283647 0.21636334 -0.34682614
000010 48 22 07 bf b8 82 8d 3d b6 e7 a6 be 6d 6c 8c 3e
       -0.52786684 0.06909698 -0.32598656 0.27426472
000020 5f d3 b0 3d 47 45 33 3e c9 89 55 be 05 35 92 3e
       0.08634066 0.17506896 -0.20853342 0.28556076
000030 70 1d fb 3d 0d 51 48 be ef 09 c0 3e 97 2d d6 be
       0.12261474 -0.19562168 0.3750758 -0.41831657
000040 b3 64 03 3f 9c 8d 9e be 1e 57 ac 3e eb 74 f9 bd
       0.5132553 -0.30967414 0.33660215 -0.121805035
000050 d2 e6 9b 3e c9 8c 0c 3f 53 25 4f be 70 a0 88 3d
       0.3044954 0.5490232 -0.20229082 0.06671226
000060 c2 a2 6d 3d f6 16 9e 3e 7a 43 6b be 59 df 9c be
       0.058016546 0.30876893 -0.22974959 -0.3063915
000070 26 2d 37 bc 52 a0 6a be bd 02 8e 3e 90 d4 f7 be
       -0.011180198 -0.2291272 0.27736464 -0.4840436
000080 45 5f 11 3f be a4 39 bd 7b 3f 4b 3e fe 31 66 3e
       0.56785995 -0.045323126 0.19848435 0.22480008
000090 78 20 86 3e 94 f1 0e 3e 06 86 05 3f f9 65 13 3e
       0.26196647 0.13959342 0.5215763 0.14394368
0000a0 d9 be 01 3f 8d 60 c3 be fe f8 c4 3e 02 e2 4f 3d
       0.50681835 -0.381596 0.38471216 0.050752647
0000b0 50 b3 fa 3e 24 0b 85 3e 1e 07 b5 3e f0 27 0d be
       0.4896493 0.25985062 0.35356992 -0.13784766
0000c0 cb e0 00 bf a4 a1 06 bf 0d 45 ea be ae 70 13 3f
       -0.50343007 -0.52590394 -0.45755807 0.5759381
0000d0 f5 f3 d8 3e 87 87 0c bf c0 9c 32 3d f1 51 81 be
       0.42373624 -0.548943 0.04360652 -0.2525783
0000e0 2c bf db bd e4 bb fb bd 2a ed fa be b9 b7 95 3e
       -0.107298225 -0.12291697 -0.49009067 0.29241732
0000f0 50 06 9d bd 50 cd d6 be 7b 79 ce be 87 87 2f be
       -0.0766722 -0.41953516 -0.40327057 -0.17141543
000100 a9 09 a2 3d 7c 0f 05 bf 88 fa 18 3e 14 01 4f 3e
       0.07911999 -0.5197675 0.1493932 0.20215255
000110 02 77 bc be 48 fd e7 3d c0 aa e5 3c c2 f9 a1 3e
       -0.36809546 0.113276064 0.028035522 0.31635863
000120 a6 7e d4 be 97 33 82 be 50 98 07 3e 14 7d b6 3e
       -0.41502875 -0.25429985 0.13241696 0.35642302
000130 3f d0 b4 3e 2c 32 42 be 4f 3d c2 3e 7f 44 06 3f
       0.3531513 -0.18964452 0.379374 0.52448267
000140 5d b8 03 bd ec d0 d2 be b4 9f 1a 3f 6e ac f3 3e
       -0.032158244 -0.4117502 0.6039994 0.4759249
000150 dc 9d d5 bd 54 9b a7 3e 54 c5 8b 3e 70 c8 27 3e
       -0.104305 0.32735693 0.27298987 0.16385055
000160 ec 73 ce be 7a 12 cd be dc 3a 14 bd 24 b9 0d 3e
       -0.40322816 -0.4005316 -0.036188945 0.13840157
000170 d0 e2 25 3e 3f 56 a4 3e 9d ec fd be 65 4e 92 3e
       0.16199803 0.3209705 -0.49594584 0.28575435
000180 07 2d 9d 3e c4 fb b7 bd 95 33 95 be 38 bb 36 be
       0.30698416 -0.08983567 -0.29140916 -0.17844856
000190 14 c1 44 3d 0e fc 9e be 36 1c f4 be 49 88 f5 be
       0.048035696 -0.31051677 -0.47677773 -0.4795554
0001a0 0b e6 f1 3e 92 ad 96 bd 00 e4 b7 be 31 88 0c 3f
       0.4724582 -0.07357325 -0.35916138 0.5489531
0001b0 3e 2d 3e 3e 6f 5f 03 3c 73 be 48 3e cb d0 87 be
       0.18571946 0.008018359 0.196039 -0.26526484
0001c0 f4 ce 0e 3f 56 38 8a 3e ab a7 0c bf 42 aa ba 3e
       0.55784535 0.26996106 -0.5494334 0.3645802
0001d0 87 d4 ef be 5c c0 46 be f0 6a e4 bd 6a ac 34 be
       -0.46841833 -0.19409317 -0.11153209 -0.17643896
0001e0 4d 82 08 bf 7d d6 a1 3e 68 3f 9c bd 69 7b f4 3e
       -0.53323823 0.31608954 -0.07629281 0.47750404
0001f0 8b 9e c3 3e 77 a9 90 be f5 39 86 be 22 0d bc be
       0.38206896 -0.2825429 -0.26216093 -0.3672877
000200 a0 99 da bd 4f c4 15 bf 33 07 39 bc 7b 07 3a 3e
       -0.10673833 -0.5850267 -0.01129322 0.18166916
000210 00 a8 6d be b1 8f 10 3f b0 1c 9b be 0f a5 22 3e
       -0.23208618 0.56469256 -0.30295324 0.15883277
000220 c8 16 ac be 49 ea 0b 3f 41 51 0d 3f a4 bd bd 3d
       -0.3361113 0.54654366 0.5520211 0.09264687
000230 b9 93 5a 3e f2 75 4d be e8 1a b8 bd 00 4b 0b bd
       0.21345414 -0.20064524 -0.08989507 -0.034007072
000240 61 f5 cf be 6f c9 d4 be d5 a8 8f 3e 68 8a 13 3f
       -0.40616897 -0.41559932 0.28058496 0.57633066
000250 29 87 e7 3e de 0e ef 3e de 39 ad be 18 16 a4 3e
       0.45220307 0.4669103 -0.33833212 0.32048106
000260 47 64 e6 3e 6b 00 d1 3e 8c ea 5c be 0a 11 16 bf
       0.4499838 0.4082063 -0.21573848 -0.5861975
000270 7e 6a 80 be 00 58 e9 3e d7 23 d4 be c3 72 a3 be
       -0.25081247 0.4557495 -0.41433594 -0.31923494
000280 61 18 c3 bd 24 f9 49 3d 00 41 54 be 6f 20 f9 be
       -0.09526134 0.049309865 -0.2072792 -0.48657557
000290 ed 26 db 3e ae 75 0b 3f f6 e1 f9 3b af 90 96 bd
       0.42803136 0.5447644 0.0076258136 -0.07351815
0002a0 fa 0e 43 be 2d 9e c5 be f8 c3 0e 3f 79 0a 04 bf
       -0.19048682 -0.3859724 0.55767775 -0.5157848
0002b0 ee 5b f4 be ba b4 ee be cb e2 04 bf 61 4e 52 3e
       -0.47726387 -0.46622258 -0.5190856 0.20537712
0002c0 65 20 06 3f 6f 09 7a be 1e 3b 02 3f e3 77 98 be
       0.5239318 -0.24417661 0.50871456 -0.29778966
0002d0 e3 9f f6 be c5 ec 7a 3e 3f 79 0f be 39 3e 49 3d
       -0.4816886 0.24504383 -0.14011095 0.049131606
0002e0 5e 11 1a 3e 09 02 ac 3d 15 d9 fb 3d 61 15 7a 3e
       0.15045688 0.08398826 0.122972645 0.24422218
0002f0 2c 36 29 be c3 ef 0b bd 4e d1 95 3e 26 e5 bc 3c
       -0.16524571 -0.0341642 0.2926125 0.023058485

model.encoder.conv1.lin_l.bias f4 [64]
000000 eb fd 99 be 4d d8 8f be 13 9a a2 3e 91 21 3b bd
       -0.30076537 -0.28094712 0.31758174 -0.04568631
000010 04 1c 08 3f 2b cb 13 be f1 9f 08 bf 09 04 aa 3e
       0.5316775 -0.14432971 -0.5336905 0.33206204
000020 f5 b4 e9 3e ab d0 04 3f dd 55 07 bc 55 6e e7 3e
       0.45645872 0.518809 -0.0082602175 0.45201364
000030 c5 85 0a bf 98 19 e1 3e 79 aa 26 3e f6 73 bc be
       -0.54110366 0.4396484 0.16275968 -0.3680722
000040 ec 97 ec be 28 5e 04 be 3e 22 fc be 5f 4f db 3d
       -0.46209657 -0.12926543 -0.49244875 0.10708498
000050 bc cf dd be f5 59 14 3f 70 5e 7f be a4 69 11 bf
       -0.4332255 0.57949764 -0.24938369 -0.5680182
000060 73 bb 40 3e 97 e8 ff bc 12 70 a7 be 11 0e 81 bd
       0.18821506 -0.031238837 -0.3270269 -0.06301511
000070 57 7b 81 be 10 fd 66 be de f8 b2 3e e9 72 b2 3e
       -0.25289413 -0.22557473 0.34955496 0.34853294
000080 fb b5 10 3e 29 d3 3b bd 75 c7 f1 be 53 c0 a0 bd
       0.1413192 -0.045855675 -0.47222486 -0.07849183
000090 41 cf d4 3e 53 20 ed be 5f 30 8a be f6 81 1d be
       0.41564372 -0.46313724 -0.2699003 -0.15381607
0000a0 9f 4e e9 be e1 56 a1 3d 13 2e 0e bf b4 40 f8 be
       -0.45567796 0.07877899 -0.55539054 -0.48486865
0000b0 7d d4 04 bf b1 13 bc 3c 35 c5 11 3f 53 8a f4 be
       -0.5188673 0.022958608 0.5694154 -0.47761783
0000c0 d7 38 e2 3e cf c3 39 3d 82 1e 05 3d d1 fa c5 bd
       0.4418399 0.045352753 0.032499798 -0.0966698
0000d0 48 cd 8a be 5b 9d 86 3e 60 bb 8d be 72 3e 8e be
       -0.27109742 0.26291928 -0.27682018 -0.27782017
0000e0 7e 5a 91 be 2e 93 0a bf f3 84 16 be d3 1e 01 bf
       -0.28389353 -0.5413083 -0.14699154 -0.5043766
0000f0 d4 08 af be b4 0f 87 bc 33 77 f7 bd 33 15 46 3e
       -0.34186423 -0.01648698 -0.12083282 0.19344024

model.encoder.conv1.lin_r.weight f4 [64, 3]
000000 84 7c f4 bc 33 89 f6 3b 37 4d 9a be c0 6d 4b 3c
       -0.02984453 0.0075236796 -0.30137035 0.012416303
000010 2a bf e3 be 20 d7 26 bd 61 cd 08 bf 7e c2 6b 3e
       -0.44481784 -0.040732503 -0.53438383 0.23023412
000020 88 b8 d5 bd be ce 6a be 21 1b b4 3e 4e 3d dd be
       -0.10435587 -0.22930428 0.35176948 -0.43210834
000030 b5 cd 1f bd ff 19 f5 be 71 6c ec be e1 98 07 bf
       -0.039014537 -0.47871396 -0.46176484 -0.5296765
000040 e7 11 18 3d 9b 91 9e 3d 18 69 06 3e bb 4e 16 3f
       0.037126448 0.07742616 0.13126028 0.58713883
000050 9e 1b ab 3e 54 a3 d9 3b e2 c6 0a bf f8 24 0e 3d
       0.33419508 0.0066417847 -0.5420972 0.034703225
000060 cf e6 ec be f1 10 64 3d af 47 e6 3e 59 95 62 be
       -0.46269843 0.05568022 0.44976565 -0.22127284
000070 db 3c 10 3f 42 1e 4d be 04 5f 0d bf 69 06 d8 3e
       0.5634286 -0.20031074 -0.5522311 0.4219239
000080 b9 9c c5 be c1 05 d0 be 99 e2 20 3d 53 d0 d8 3e
       -0.38596132 -0.4062939 0.0392786 0.4234644
000090 d8 09 74 be 50 ae 9c bd 40 54 a9 be e7 6e db bc
       -0.2383188 -0.07650435 -0.3307209 -0.02678628
0000a0 88 5a 07 3f 71 d2 84 be 5f 51 1b bc d1 8e 31 be
       0.52872515 -0.25941804 -0.00947985 -0.17339636
0000b0 93 da 12 3f da 84 d1 be 03 1c 68 3e a2 73 60 be
       0.5736477 -0.4092167 0.22666936 -0.2191911
0000c0 70 ba 02 bf 0e df 32 be 68 4c ba be 22 d4 9c 3e
       -0.5106573 -0.17467901 -0.36386418 0.30630594
0000d0 3c 48 a0 3e ff 0e 2a 3e 24 ce 07 be 54 ec ef bd
       0.3130511 0.16607283 -0.1326223 -0.11714998
0000e0 02 b7 d3 be 54 b7 c3 be bb 2a 94 be a4 ce 03 bf
       -0.4135056 -0.38225806 -0.2893885 -0.51487184
0000f0 bc 85 38 3e 20 36 93 3e 78 73 8a be 73 b2 81 3d
       0.18019766 0.28752232 -0.2704122 0.063328646
000100 0c 26 af 3e 7d f1 94 be f7 a8 97 be d0 4d 12 bf
       0.34208715 -0.2909049 -0.29621097 -0.5714998
000110 46 e5 0c be c4 1e 49 3e 37 b2 b5 be 42 b5 93 be
       -0.13759336 0.19640642 -0.3548753 -0.28849226
000120 1a dc 02 be 0a 6b 73 be db 38 96 3e 23 2c b3 3e
       -0.12779275 -0.23771301 0.29340252 0.3499461
000130 44 03 94 bd c0 7b 64 3e 05 89 52 bd 0e ad b0 3e
       -0.07227185 0.22312832 -0.051400203 0.3450703
000140 d3 81 05 bf 61 df 11 3e 7c 0a 25 3e d5 cd 38 3e
       -0.5215122 0.14245369 0.1611728 0.18047269
000150 7a 38 6b be 68 dc 0b bf 8b f5 09 bf 9e 89 c7 be
       -0.22970763 -0.5463319 -0.53890294 -0.3897218
000160 18 41 e2 be e5 09 01 bf 50 ab 8a 3e 94 15 a3 be
       -0.44190288 -0.5040572 0.27083826 -0.318524
000170 bb 28 0b bf f0 b1 cd be a7 3a 53 be b3 0d c6 3e
       -0.54359025 -0.40174818 -0.20627843 0.38682327
000180 64 a5 0c 3f 38 a6 3c be b9 fb a6 3e e5 f2 af 3e
       0.54939866 -0.18422782 0.32613924 0.34365
000190 2b 3a 56 3e aa ba 65 be b8 cc ab 3e fe 2c 92 be
       0.20920627 -0.22434488 0.33554626 -0.2854995
0001a0 c0 84 cf be 55 2d 67 be 70 c1 ae 3e af 38 7a 3e
       -0.40530968 -0.22575887 0.34131956 0.24435686
0001b0 1f 71 f0 be a6 d3 78 be 28 66 a5 3e 1b 06 8b be
       -0.46961305 -0.24299487 0.32304502 -0.27153096
0001c0 ec 14 01 3f f4 5c 74 3d 5e 0f 02 bf 6a 23 06 bf
       0.5042255 0.05965896 -0.508047 -0.5239779
0001d0 92 b3 bd 3e 30 d1 b0 3d 68 a6 4f 3e 50 fb 45 3e
       0.37051064 0.08633649 0.20278323 0.1933415
0001e0 51 85 15 3f d8 49 bf 3e 0c 87 0f 3f f2 d6 90 be
       0.5840655 0.37361026 0.5606544 -0.2828899
0001f0 33 10 af be bb e5 e9 3e 48 51 94 3d 70 2c 83 bd
       -0.34192047 0.45683083 0.07242066 -0.0640496
000200 30 ff 60 bd 08 d7 31 3e e3 60 92 3e 92 eb da 3e
       -0.054930866 0.17367184 0.28589544 0.4275785
000210 40 7d 95 bd f8 1a 2c be d5 91 c8 3e 61 4e 9f be
       -0.0729928 -0.16807163 0.3917376 -0.31114486
000220 5c f2 fd be 16 93 7c be 08 17 a8 be 4c 43 88 be
       -0.49598968 -0.24665484 -0.3283007 -0.26613843
000230 ed 1d fe 3e ae d2 51 be 93 f2 9f be b0 8e 7f bd
       0.49632207 -0.20490524 -0.31239757 -0.062391937
000240 36 e5 f4 3d 7b 5d 03 3e 96 fd 88 3e c1 23 95 be
       0.11957781 0.12828629 0.2675597 -0.2912884
000250 7b a8 87 be 63 d8 e8 be c4 76 c9 bc 5e b5 11 bf
       -0.26495728 -0.4547759 -0.024592765 -0.5691737
000260 91 50 40 3e 3e 21 af be e4 a3 df be 0c 28 23 3e
       0.18780734 -0.3420505 -0.43679726 0.15933245
000270 3b 0e a0 be 14 e8 dd be 7c ed ec 3e 8b 2b 28 3e
       -0.31260857 -0.43341124 0.46274936 0.1642286
000280 9f 97 cc 3e c4 bc c6 be 70 c9 5a be cc 39 62 3e
       0.39959428 -0.38815892 -0.21365905 0.2209236
000290 b0 1c 6a bc 4d 62 85 be 4d 9c 8a 3e 25 c4 c3 3e
       -0.014289066 -0.2605156 0.27072373 0.38235584
0002a0 6d 89 de bd f0 67 ee 3e 96 49 6a be 7c ec 3f 3e
       -0.10866056 0.46563673 -0.22879633 0.18742555
0002b0 82 01 00 3f 5c 3d da 3e bd 82 4b 3d ee 4e 34 3e
       0.500023 0.42624938 0.04968523 0.17608234
0002c0 bb 71 3b be 27 96 8a 3e 1b 79 ad be ea e8 d1 3c
       -0.18305103 0.27067682 -0.3388146 0.025623757
0002d0 3c 79 d7 be 9a 73 ad 3e 27 ad 06 bf f3 6a 5c 3c
       -0.42084682 0.3387726 -0.5260796 0.013453233
0002e0 29 ea 05 3f a7 61 a5 be d3 6d 38 ba 39 3b 94 3e
       0.52310425 -0.32301065 -0.0007035408 0.28951433
0002f0 89 51 0b 3f 4b 23 a8 bd 61 c4 d8 3e 58 49 a4 3e
       0.5442129 -0.082098566 0.42337325 0.32087207

model.encoder.conv2.lin_l.weight f4 [64, 64]
000000 0b 0b 8d 3c 2a 6d a3 bd 85 d9 93 3b 0d 19 94 bd
       0.01721718 -0.07979806 0.0045120143 -0.072313406
000010 91 24 26 bd 50 ec 9d bd d8 b4 47 bd b4 1a c5 3d
       -0.040562216 -0.07711089 -0.04875645 0.09624234
000020 46 21 d0 3d e3 8b 13 3d 5b cb d5 3c 84 5a 80 3d
       0.101625964 0.03602208 0.026097944 0.062672645
000030 ec 21 ce bd be fe 80 3d 46 c8 9b 3d 0d 73 59 bd
       -0.10065064 0.06298588 0.076065585 -0.053088237
000040 7a 43 cf bd 24 9c 45 3c a0 56 76 bd 5e 88 aa 3d
       -0.10120292 0.012061153 -0.060141206 0.08326791
000050 e8 8e fb 3d de c7 09 bc ac af d4 3d 3e 79 d2 bd
       0.122831166 -0.008409468 0.10385069 -0.10277031
000060 7a d7 e9 bd 0f a5 ff bb f7 4b 81 3c b7 57 d9 3d
       -0.11418052 -0.007801659 0.015783293 0.106124334
000070 50 bc d9 bd 4c 3c 31 bd d5 69 32 3d d4 8c 0a 3c
       -0.10631621 -0.043270394 0.04355796 0.008456428
000080 7b 96 b0 bd 5a bb b5 bd ad 02 f8 bd 09 c0 be bc
       -0.08622452 -0.08873625 -0.12109885 -0.023284929
000090 31 55 a7 3c 62 53 74 3d dd 8a 72 bd 4c e1 1f bd
       0.020426365 0.059649833 -0.05921446 -0.03903322
0000a0 83 3a 0b bd d3 1d bb bd 40 d2 97 bd da cb 90 bd
       -0.033991348 -0.09136548 -0.07413149 -0.070701316
0000b0 a3 9c c5 3d 6a ae 13 bd ae 57 f1 3b 40 f8 cd bb
       0.09649017 -0.036055006 0.0073651886 -0.006285697
0000c0 9a 06 9a bd f2 f3 e5 bd 4d 93 e4 bb 1b c9 9c 3d
       -0.075207904 -0.112281695 -0.0069755674 0.07655545
0000d0 41 41 88 3d b4 b9 ea bd 24 59 f1 bc 15 60 b3 3c
       0.06653071 -0.11461201 -0.02946145 0.021896401
0000e0 3c b5 77 bd 2a 4a a4 bd 54 f3 8e bc 56 80 81 3b
       -0.060475573 -0.08021958 -0.017450012 0.0039520664
0000f0 5d 7c ec 3c 41 ac 50 3c 28 34 c3 3d 57 76 ab 3d
       0.028867895 0.012736381 0.095314324 0.08372181
000100 4d ce 4e bd d8 46 dc 3c a0 30 13 3d 32 32 47 bc
       -0.050489713 0.02688925 0.035935044 -0.012157964
000110 10 1a 13 bd 64 56 a7 3c d6 f1 5f bd 97 be d0 3d
       -0.035913527 0.020426936 -0.054673992 0.10192602
000120 9f 43 e1 bd 51 0b a5 bd 1f e3 aa bd e8 58 d8 3d
       -0.10999226 -0.08058799 -0.08344101 0.105638325
000130 40 95 0a 3d ed c7 b8 bd 55 ef c4 3d 9b 5e 8a bd
       0.033833742 -0.09022508 0.096159615 -0.06756326
000140 08 8d 37 bd 15 89 0a 3d 00 8b cd 3a f8 e8 d9 3c
       -0.044812232 0.033822138 0.0015681684 0.026600346
000150 6c a8 35 bd 15 51 0a bd c4 d9 7b bd 00 52 78 bb
       -0.044350073 -0.033768732 -0.061486974 -0.0037890673
000160 3e 22 86 bd c0 08 80 3d 6d 88 8a 3d 73 3d 8d bc
       -0.065495 0.06251669 0.067643024 -0.017241215
000170 10 a5 aa bd b4 be 97 bd 5f 58 31 3c a0 0c c4 3d
       -0.083322644 -0.074094206 0.010824292 0.095727205
000180 2c 15 81 bd 52 33 d2 bb 88 79 ee bb 53 a9 14 3c
       -0.06302866 -0.0064148093 -0.0072776712 0.009073573
000190 c7 ee d8 bd 72 18 d3 3d 3c 27 e0 3d 98 f2 a7 bc
       -0.10592418 0.10307397 0.10944983 -0.02050142
0001a0 4d 0b e9 3d 36 8a 65 bb 80 eb ea 3a f5 0d 01 bd
       0.113791086 -0.0035025007 0.0017922968 -0.03150745
0001b0 2a a0 89 bd 05 b2 77 bd ff f7 00 3e b8 f0 6c 3d
       -0.06720002 -0.060472507 0.12594603 0.057846755
0001c0 56 4b 7d 3d 03 74 6b 3d e5 dd 23 3d d8 34 6a 3c
       0.061839424 0.057483684 0.040006537 0.0142948255
0001d0 53 89 bd bc 5b 2d 74 bd 32 0b 93 3d cc da d2 bd
       -0.02313677 -0.059613567 0.0717987 -0.102956384
0001e0 ae 35 33 bd 60 91 fb 3c b7 6a 9a 3c 49 5d d1 bd
       -0.043752365 0.030708969 0.018849714 -0.10222871
0001f0 52 69 c5 bd 42 0e 73 3d 09 b4 bc bd f1 80 e0 3c
       -0.09639229 0.05933977 -0.092140265 0.027405234
000200 07 c3 97 3d 64 8c a0 bd 11 74 61 bc fd 27 e4 bd
       0.074102454 -0.078392774 -0.013760583 -0.1114044
000210 65 6f d9 bc 98 52 fd 3c e2 03 49 bd f1 7c e4 3d
       -0.026542375 0.030923173 -0.04907597 0.11156643
000220 04 74 8e bb 69 26 db bd e9 9a 9c 3d d2 9d d4 3d
       -0.0043473262 -0.107006855 0.07646734 0.10381664
000230 00 80 04 bc 20 c7 7d bd a2 42 c0 bd a8 cf 9c 3d
       -0.008087158 -0.06195748 -0.09387709 0.07656795
000240 56 33 b0 bd 6c d4 eb 3c 18 9c a1 bc e9 ff d5 bd
       -0.086035416 0.028787814 -0.019727752 -0.104492016
000250 9c d8 2f 3d 24 aa ce 3d 1c ae e2 bd b0 a5 1b 3c
       0.042931184 0.100910455 -0.11068365 0.009499952
000260 c8 b0 09 bd 64 4f 4a bd e8 60 9f bd 27 de 04 be
       -0.033615857 -0.04939212 -0.07782155 -0.1297537
000270 70 d2 2a bc 0c af 25 bd e9 f5 26 bc 4d 6d df 3d
       -0.010426149 -0.04045014 -0.0101904655 0.10909519
000280 38 64 e1 3d 40 86 db 3d 3b 51 56 bd 61 d1 f5 3d
       0.11005443 0.107189655 -0.05232356 0.120028265
000290 74 bb c3 bd b4 b2 6b bc 64 cb 90 bd 70 4d 6b 3d
       -0.09557238 -0.014385868 -0.07070044 0.057446897
0002a0 61 e2 9a 3d b6 8a 84 bd 5c 45 57 3d 7f 1f aa 3d
       0.075627096 -0.064717695 0.05255638 0.08306789
0002b0 4a f5 ba bb d8 28 9d 3c ee 87 c6 3c 22 0f c1 3d
       -0.0057055103 0.019184515 0.024234738 0.094267145
0002c0 b4 0c cb bd f7 13 01 3e 47 0e 02 bd f8 80 f1 3d
       -0.09914532 0.12605272 -0.031751897 0.11792177
0002d0 69 5e e1 bd c4 68 8a 3c a2 2a ba 3d 27 f7 ad bd
       -0.110043354 0.01689566 0.09090163 -0.08494406
0002e0 f5 36 ae 3d 30 cb af 3c a4 3c fc bd 42 ec 60 3d
       0.08506576 0.021459192 -0.12316254 0.054912813
0002f0 66 b0 ea bd 3c ff 45 3d 9b 6d 68 bd 07 a7 01 be
       -0.114594266 0.048339114 -0.056745153 -0.12661372
000300 99 73 95 3d 30 d8 bb bc d4 23 9a bc 27 d1 76 3b
       0.07297439 -0.022930235 -0.018815912 0.0037661286
000310 79 0c b0 3d 9c d7 0b ba 6e 02 fe 3d 3f 78 d7 bc
       0.08596129 -0.00053345575 0.12402807 -0.026302455
000320 c3 62 94 3d 4c f0 2b 3d bf 05 b6 bc d8 d9 a6 3b
       0.072454 0.04197721 -0.022219537 0.005091887
000330 08 28 ae 3d 67 2a a0 bd 5b 65 9b 3d c2 f2 cf 3d
       0.08503729 -0.078205876 0.075876914 0.10153724
000340 80 87 b1 bd fa dd d4 bc b0 2c 78 3d 7f 3a d4 3c
       -0.08668423 -0.025984753 0.060589492 0.0259068
000350 5c 06 f6 bd ce e1 79 3c fa bc c6 bd 94 ec 8a bd
       -0.12012932 0.01525159 -0.09704013 -0.06783405
000360 ce 99 f0 3d c8 92 f8 3d 64 00 05 3e cd 04 d9 3c
       0.11748086 0.12137371 0.1298843 0.026491547
000370 3c 00 ad 3d 3c d1 fa bd f6 6b a9 3d d9 01 9f bd
       0.0844731 -0.122469395 0.08272545 -0.07764024
000380 dd 37 01 be 94 69 1a bd c3 ba ad 3d 44 9f 1c 3c
       -0.12618966 -0.037698343 0.084828876 0.009559456
000390 cc 87 99 3c 8a 21 dd bd 62 52 45 bc 50 c1 e2 bd
       0.01874151 -0.10797413 -0.012043567 -0.11072028
0003a0 f1 eb c7 3d 91 40 83 3d a0 6f 26 3c 51 fb 80 bc
       0.09761799 0.064087994 0.010158449 -0.015744837
0003b0 dd da 09 bd c0 f6 69 3b 72 80 aa 3d 80 74 22 bc
       -0.03365599 0.0035700053 0.0832528 -0.009915471
0003c0 d3 bb b0 3c 4b d3 ce 3c 01 de ff bb 2e af 41 bd
       0.021573937 0.025247237 -0.0078084473 -0.047286205
0003d0 25 96 9e bd d7 6b f9 3d 3a 9a bd bd 00 56 7e bd
       -0.077434815 0.12178772 -0.09257932 -0.062093735
0003e0 e8 97 ef 3d 6a d0 91 3d 9e 35 6a bd 72 fb d4 3d
       0.11698896 0.0711983 -0.05718004 0.10399522
0003f0 fa ee 1c 3d 43 76 94 bc 0f 00 3d 3d f6 87 d0 bc
       0.038313843 -0.018122798 0.046142634 -0.025455456

model.encoder.conv2.lin_l.bias f4 [64]
000000 d7 85 12 bd ab d5 04 bd 88 eb 05 3d d7 7f ad bd
       -0.03577217 -0.032430332 0.032695323 -0.08471649
000010 8d 5e 02 3e 94 33 a9 bd 32 25 ab bd 52 90 71 3b
       0.12731381 -0.08261791 -0.08356704 0.0036859703
000020 42 dc e1 3d 53 80 53 bb 1d b3 dd bb 3f be 89 3d
       0.11028339 -0.0032272532 -0.0067657367 0.0672574
000030 40 fc a5 bc 52 d6 67 3c 33 cb c3 3d fc 90 08 3e
       -0.020261884 0.014150219 0.095602416 0.13336557
000040 48 3b 60 3d cf a1 b9 bc db d6 c2 3d f7 ee 4d 3d
       0.054744035 -0.022660164 0.09513637 0.050276723
000050 5f 77 01 3e ef 84 e6 3b a0 d6 7b bd 5d 18 d7 bd
       0.12643193 0.00703489 -0.06148398 -0.10502694
000060 fc d7 db bc 61 5f 05 3e 3f de 48 3d 44 a5 80 3d
       -0.026836388 0.13024665 0.049040075 0.06281522
000070 a7 28 e5 3d 29 86 2a 3d fb bc b5 3d 00 30 b9 bd
       0.111893944 0.04163185 0.08873936 -0.090423584
000080 19 6b 80 bd fe 06 fb bd e9 1f cd 3c 17 14 6c 3b
       -0.06270427 -0.12257193 0.02503963 0.0036022717
000090 16 5b a3 bd 4c a5 c4 bd d3 76 88 3d 31 cb 2e 3d
       -0.07976358 -0.096018404 0.06663289 0.042674247
0000a0 b3 d6 f0 3d 0c 15 59 bd 33 6e 6d 3d 00 12 61 ba
       0.117597006 -0.052998587 0.057966422 -0.0008585751
0000b0 60 22 6f 3d e5 c1 8d bd 17 13 58 3c 2d df f3 3d
       0.058382392 -0.06921748 0.013188145 0.11907802
0000c0 2b 1b 17 3d a6 1b a0 bc 02 0f 65 bc e1 14 bc 3d
       0.036891144 -0.019544434 -0.013980629 0.0918367
0000d0 fa b5 40 3d 73 90 f0 3d 10 e2 a0 bc 13 29 c8 bd
       0.047048546 0.117463015 -0.019639045 -0.09773459
0000e0 1c 0f 9e 3d 25 6c 0e bd 0b 3f 94 bd 87 28 fb 3c
       0.07717726 -0.034771103 -0.07238587 0.030658973
0000f0 d3 c6 a3 bd 5e 64 a0 3d 3c ce 15 3d 8a 2e 37 bd
       -0.07996907 0.078316435 0.036573634 -0.044722117

model.encoder.conv2.lin_r.weight f4 [64, 64]
000000 94 46 ca bc 68 74 4c 3d 54 25 a9 bd 38 bd f0 3d
       -0.024691857 0.0499157 -0.08259073 0.117548406
000010 04 29 30 3d 04 2d 21 bd 5e d2 f2 3d 66 d5 c9 bd
       0.043007866 -0.03934957 0.118565306 -0.09855156
000020 c0 e7 b1 bd 46 07 0f bd e5 89 a4 bd f2 40 f9 bd
       -0.08686781 -0.034919046 -0.08034114 -0.121705905
000030 18 18 4a bd ca 14 e4 bd e7 3d 09 bd 62 04 80 bd
       -0.049339384 -0.11136778 -0.0335063 -0.06250836
000040 46 7f da 3d 76 88 af 3d 0a fc f7 bd 25 61 e9 bc
       0.10668807 0.0857095 -0.121086195 -0.028488705
000050 30 f5 67 3d 07 79 b5 bd 48 ea 35 3d c8 df 11 3d
       0.056630313 -0.08860975 0.04441288 0.035613805
000060 93 7a 9d 3d 85 fd e6 bd de 90 88 bd b1 d8 73 3d
       0.07689395 -0.11278824 -0.06668256 0.059532825
000070 90 18 64 3d b8 c1 50 3d 5b b9 f2 3d f3 75 96 bd
       0.055687487 0.050965995 0.1185176 -0.07346716
000080 8d 38 ee 3d 53 12 e9 bd 0d c4 35 3d 16 a6 d8 3d
       0.1163188 -0.11380448 0.04437642 0.105785534
000090 89 ed ed 3c a5 99 06 3d 02 8f d7 bd 60 17 d9 bb
       0.02904393 0.03286137 -0.105253235 -0.006625101
0000a0 a2 88 ca bd d4 d0 b0 3c 40 a5 9b 3b 3b 97 51 3d
       -0.09889342 0.021583952 0.004749924 0.051169615
0000b0 ac bd 11 3d f6 02 a5 bd 57 3b 6d 3c 40 c8 d7 bb
       0.035581276 -0.080572054 0.01447948 -0.006585151
0000c0 c3 d1 e1 3b 49 e8 c8 bd d2 38 dc bd 68 c8 76 bd
       0.0068914606 -0.0980993 -0.10753025 -0.060249716
0000d0 a8 d2 83 3c 57 f8 42 bc 62 6c ea bd 7f a1 bb bd
       0.01609166 -0.011900029 -0.11446454 -0.09161662
0000e0 a4 dd d4 3d 9c 6b 04 3d 65 c9 d5 3d 3d 8d af bd
       0.10393837 0.032329187 0.104388036 -0.08571861
0000f0 26 13 33 bd 5a 84 2a 3d 4d f0 ff bd 4b 2c fe bd
       -0.043719433 0.041630127 -0.124970056 -0.12410792
000100 d1 55 ca 3d a4 75 9d 3d e2 8c c0 3d a2 4b 4b 3d
       0.098796494 0.07688454 0.09401871 0.049632676
000110 93 4a 94 bd 12 45 8f 3d cf 50 6b bd 34 a5 be bc
       -0.072407864 0.06995596 -0.057450112 -0.023272134
000120 1a fd d8 bd 42 d8 a3 3d 24 ed a2 bd b6 0f 9b 3d
       -0.1059515 0.08000232 -0.07955387 0.07571356
000130 70 ac 51 bd 0e 8d ac 3d 66 fd 48 bc e9 49 9a bc
       -0.05118984 0.084253415 -0.012267446 -0.018834071
000140 80 5b c8 ba 4a 6b 4f bc e0 cb cb bb bb f4 07 3e
       -0.0015286058 -0.012659857 -0.006219372 0.13276951
000150 c8 4a 85 bd 6f 09 2a bd b4 6e a2 3d 32 bb 94 bd
       -0.06508404 -0.041512903 0.07931271 -0.07262267
000160 88 1e d0 bc 6a a3 5a bd 2d 22 f0 3c 6c d4 8e bd
       -0.025405183 -0.0533785 0.029313171 -0.0697411
000170 30 dd 06 bd 2c f2 e0 bd df 91 ac bc 45 bd 0c bd
       -0.032925785 -0.109836906 -0.02106565 -0.03436019
000180 ff 8f f1 3c d0 97 c1 3d 3a a0 de bd 5a 08 d4 3d
       0.029487608 0.09452784 -0.108704045 0.103531554
000190 e9 dc c7 bd a0 75 81 3d 4c 31 0e bd 10 dd b4 bc
       -0.09758932 0.06321263 -0.034714982 -0.022078067
0001a0 bf 3e 94 3c 84 48 93 ba f6 78 92 3d 0a 02 e6 bd
       0.018096326 -0.0011236821 0.07151978 -0.11230858
0001b0 2c c4 41 3d 40 e3 3b 3d 3c f6 ed bd 30 4d 7c 3d
       0.047306225 0.04587102 -0.11619231 0.06159705
0001c0 8f 5a d7 bd c2 96 e7 3d 95 d0 4e 3d e8 96 89 3c
       -0.105153196 0.11308052 0.050491888 0.01679559
0001d0 5e 5a f3 3d d7 93 a9 bd eb 90 19 3e 48 0e 88 3d
       0.118824705 -0.08280151 0.14996688 0.06643349
0001e0 d6 59 e1 3d f2 1a 82 bd 27 05 8c bd 80 b9 82 3d
       0.11003463 -0.06352796 -0.0683692 0.063830376
0001f0 71 80 6c 3d 90 f6 c1 bb d2 41 94 3b 30 f8 65 bd
       0.05773968 -0.005919285 0.004524448 -0.056144893
000200 f3 e7 06 be f4 c2 c0 bd 7e 67 f6 bb 71 b1 03 be
       -0.13174419 -0.09412184 -0.0075196614 -0.12860657
000210 c4 a1 12 3e 55 8f 22 3d db 78 43 3c 38 fa 1d bd
       0.14319521 0.039687473 0.01193067 -0.038568705
000220 31 0b d6 bc a7 44 8c 3c 99 a1 09 be 64 95 f0 bc
       -0.026128383 0.01712258 -0.13440551 -0.02936811
000230 f2 0f 90 3d d1 a7 bd bd b4 9a 61 bc 70 01 ca bd
       0.07034291 -0.09260524 -0.013769794 -0.098635554
000240 c4 59 b9 3d 84 24 bb bb fa e7 ca bd 0a 93 25 bc
       0.090503246 -0.00571114 -0.09907527 -0.010105858
000250 76 b4 f7 bd ed 9e 93 3d a8 b6 ab bd 5c 2c 4e 3d
       -0.12094967 0.07208047 -0.08384448 0.050335273
000260 a1 4c bd bd c3 3b 30 bd d4 17 10 3c 42 f0 b4 bd
       -0.092431314 -0.043025743 0.008794744 -0.08834888
000270 c4 ae 21 bd a8 0a e9 bd f6 72 cb 3d a0 90 8b 3b
       -0.03947331 -0.11378986 0.099340364 0.004259184
000280 9e d0 13 bd 82 43 a8 3d e2 8f 9f 3c ea af f6 3d
       -0.036087625 0.08216001 0.019477788 0.12045272
000290 1b 54 f1 3d 73 22 34 3d 0b 4d 81 3c 20 92 e8 bd
       0.1178362 0.043978166 0.015783807 -0.11355996
0002a0 67 9c ff 3c 12 5a 7d bc c0 41 e3 bb 7a a3 c8 3d
       0.031202508 -0.015463369 -0.0069353282 0.09796806
0002b0 48 b8 8f 3d 19 a3 0c 3c 15 dc de 3d 0e 1a fa 3d
       0.07017571 0.008583807 0.10881821 0.12212001
0002c0 d6 80 cd 3d 20 58 ea 3d f4 3c e8 bb a6 39 31 3d
       0.10034339 0.1144259 -0.0070873443 0.04326787
0002d0 94 0d 78 bd 25 23 7a bd e4 a1 b1 3d 5f 9f 2b 3c
       -0.060559824 -0.061068673 0.08673456 0.010475009
0002e0 ca 1a a2 3c 0c 3f 18 3d d9 01 9d bb 10 42 84 3d
       0.019788165 0.0371695 -0.00479148 0.06457913
0002f0 0c 91 b5 bd 3b d5 1e bd 72 4d ed 3c f7 15 b0 3d
       -0.08865556 -0.03877757 0.028967593 0.085979395
000300 77 bf 5b 3d c6 e2 b5 3d 08 23 a6 3d 42 62 60 3c
       0.053649392 0.08881144 0.081121504 0.0136953015
000310 a1 f7 60 bc 95 b9 70 3d f7 13 de 3d 22 7a cb 3d
       -0.013730914 0.058770735 0.10843652 0.09935404
000320 db a0 b0 3d b9 73 bb bd 1e 0c b7 bb f1 26 f8 3d
       0.08624431 -0.09152932 -0.0055861613 0.121168025
000330 b0 97 34 bc 6a c3 b6 3c 1f 8a a0 3d f1 e1 03 3e
       -0.011022493 0.022309978 0.078388445 0.12879159
000340 04 f3 90 3d a3 70 34 3c 06 09 f2 bd 3e b9 48 bd
       0.070776016 0.011013183 -0.11818127 -0.049004786
000350 0c 4d 71 bd dc 8a 55 3d 52 6d 93 bd 38 32 24 3d
       -0.05891137 0.05213438 -0.071985856 0.040086955
000360 e8 78 9f 3d 34 5d 30 3d f1 37 de 3d 84 2a 88 3d
       0.07786733 0.043057635 0.10850514 0.06648734
000370 cc 61 15 bd 1a d5 8f 3d 7b fa bd bd 4b 1f ec bd
       -0.03647022 0.07023068 -0.09276291 -0.11529406
000380 42 13 73 3d de e5 c1 3d 73 1d af 3d 27 0c ad 3d
       0.059344538 0.09467672 0.08550539 0.084495835
000390 97 df 87 3c d8 97 13 bd 10 89 05 bd 70 e2 63 bd
       0.016586108 -0.03603348 -0.032601416 -0.05563587
0003a0 8b 1f eb 3c 8e f2 4c bd 08 c2 8e 3c 71 ba 85 3d
       0.028701564 -0.050036006 0.017426506 0.065297015
0003b0 2b 23 cc bd 63 5c b0 bc 80 1f d1 bd 10 7e 7b bd
       -0.09967645 -0.021528428 -0.10211086 -0.06139952
0003c0 1b d2 bf bc c3 e8 7a bc ba 8f 33 3c 65 9c 8b bb
       -0.023415616 -0.015314284 0.01095956 -0.004260587
0003d0 79 54 b4 3c dc 0e bb 3c 69 c0 c3 3d 42 e9 13 3e
       0.022012936 0.022834234 0.09558184 0.1444445
0003e0 ff 21 e1 3d 04 2c b4 3d fa 17 45 bd 5a ab 3d 3d
       0.10992812 0.08797458 -0.04811857 0.04630599
0003f0 d5 54 e1 bd 09 c0 84 3d bf 2f 90 3d 2d 73 b4 3b
       -0.110025086 0.0648194 0.07040357 0.005506894

model.pooling_fn.gate_nn.0.weight f4 [64, 64]
000000 b6 44 90 bd 04 52 fe bd a0 64 f8 bb 24 0d 4a bd
       -0.070443556 -0.12417987 -0.007580355 -0.049328938
000010 28 dc 73 3d 50 bd c3 bc 20 f7 32 bc 78 7f 7e 3d
       0.05953613 -0.023893982 -0.010923177 0.062133282
000020 b0 ec 5f 3c e0 72 1d bd 00 9b ce 3c 9a 21 ec bd
       0.013667271 -0.03843963 0.025220394 -0.115298465
000030 38 11 2a 3d 00 61 ee bd bc 25 84 bd ec 98 fb bd
       0.041520327 -0.11639595 -0.0645251 -0.12285027
000040 c0 f6 8d bc 9c 7b 36 3d ec 98 b9 3d 12 84 86 bd
       -0.017329574 0.044551477 0.09062371 -0.06568159
000050 86 b8 93 bd e0 bb ae 3d b2 11 8f 3d f8 5f cc 3c
       -0.072129294 0.08531928 0.06985797 0.024948105
000060 70 54 8c 3c 88 9c 4b 3d b2 90 a0 bd 44 4d 35 3d
       0.017130107 0.049709827 -0.078400984 0.04426314
000070 3e 8c 95 bd 5c a6 81 3d 64 da 8a 3d 84 74 11 bd
       -0.0730214 0.06330559 0.06779936 -0.03551151
000080 54 de b9 3d 6c 4f 77 3d 08 e1 9c 3d c0 8e 23 bb
       0.09075609 0.060378477 0.07660109 -0.0024956912
000090 70 1b 71 3c 0c 92 ba 3d 58 09 60 3d 4a aa 8b bd
       0.014716014 0.091098875 0.05469641 -0.068195894
0000a0 86 f0 d9 bd 30 2f 34 3d 80 09 24 bc 88 5b e3 bc
       -0.10641579 0.043990314 -0.010012031 -0.027753606
0000b0 e0 35 ff bd 10 35 c2 bc 40 f8 13 3b 90 f6 b9 bd
       -0.12461448 -0.023706943 0.0022578388 -0.09080231
0000c0 90 19 da bc 9c 95 1e bd 00 6d 4a ba e0 c3 a3 3c
       -0.026623517 -0.038716897 -0.0007721931 0.019990861
0000d0 f6 f8 f6 bd d8 32 8d bd f6 70 b6 3d 1c 44 c9 bd
       -0.12059204 -0.06894463 0.08908264 -0.09827444
0000e0 38 6d ba 3c 88 77 f1 bd d6 6a a6 bd 50 a7 bf bd
       0.022757158 -0.11790377 -0.08125846 -0.09358084
0000f0 98 ca 30 bd 1a 5b 91 bd 20 85 b1 3b 22 c9 d5 3d
       -0.04316196 -0.07097454 0.005417481 0.10438754
000100 dc 3e c0 bd 38 4f aa bc 35 0c 9f 3d 0d 8f cc bc
       -0.093869895 -0.020789728 0.07766 -0.024970556
000110 ec fd 45 bd 8c 40 e4 3d 5e 7a ac 3d dc fb dd 3d
       -0.048337862 0.11145124 0.08421777 0.10839054
000120 2b 2a 50 3d 20 a8 59 3d 27 14 21 bd eb f1 9f 3d
       0.050821465 0.053138852 -0.03932586 0.07809814
000130 90 cd 00 bd a1 15 71 3d e8 11 cc bd 0d cf f7 bd
       -0.03144604 0.058858518 -0.09964353 -0.12100039
000140 83 f2 a1 bd f6 98 f5 bd 67 4f 92 bd 95 9e 11 3c
       -0.079075836 -0.119920656 -0.07144051 0.008887907
000150 f5 05 7a ba f3 59 c3 3d 4c da 0c 3d cc d2 12 bd
       -0.0009537631 0.09538641 0.03438787 -0.035845563
000160 6e ed 0c bd 9f 5f 0a 3d 7c 42 b4 3d 0e 13 26 bd
       -0.034406118 0.033782598 0.088017434 -0.040545516
000170 64 bd ce bd 00 0a 88 ba a0 d2 ef 3d 90 0b ad 3c
       -0.10094717 -0.0010378957 0.117100954 0.021123677
000180 eb 2c bd bc a2 a0 be 3d f7 7c d6 3d 09 03 fd bc
       -0.023092708 0.09307982 0.10473054 -0.030885236
000190 86 6a 06 3d 10 80 44 3c da 78 b6 bd 00 d6 1d bd
       0.032816432 0.011993423 -0.08909769 -0.038534164
0001a0 49 ba 1a bd dd 23 d1 3d 27 0b d8 bd cc 68 98 bd
       -0.03777531 0.102119185 -0.10549002 -0.074418634
0001b0 1a 25 16 bd 3e b3 99 bd 64 32 ee 3c b0 8b 76 3d
       -0.036656477 -0.07504891 0.029076762 0.06019181
0001c0 72 cd 51 bd 67 9d 28 bc b1 da a7 3d 0a 6a 8d 3d
       -0.05122132 -0.010291434 0.08196009 0.06904991
0001d0 80 09 9e bc c8 bf e8 bd ef c0 b3 bd 16 d5 b4 bd
       -0.01929164 -0.11364704 -0.087770335 -0.088297054
0001e0 06 1a 50 bd 8a 6c 3b bc 25 e0 87 bd c2 2d c0 bd
       -0.050806068 -0.011439452 -0.06634549 -0.093837276
0001f0 f3 46 10 bd 38 0c 67 3d 93 71 3b bd a0 53 e0 bd
       -0.035223912 0.056408137 -0.04576261 -0.1095345
000200 85 2a 04 be 4f 31 50 bd bb 35 12 3d ef 71 9b bb
       -0.12906845 -0.050828274 0.035695773 -0.0047438066
000210 b6 48 9a 3d 2e 3a f4 bc 30 49 81 bc e2 42 c1 3d
       0.075334 -0.029812898 -0.015781969 0.09436585
000220 b1 bf 9a 3d ac 76 a5 3c a4 7a 57 3c 6c 60 dc bd
       0.075560935 0.020198189 0.013151798 -0.107605785
000230 d0 71 cf bc 36 ee bc bd 58 87 c4 3c 82 e1 6c bd
       -0.025322825 -0.09225123 0.023990318 -0.05783225
000240 5b e1 bd bd 68 7c 9c bc f6 af ab 3d 5d 3b 8c bd
       -0.09271499 -0.01910229 0.08383171 -0.0684726
000250 62 5b 77 bd a4 14 48 3c 28 80 04 3d dd db 70 bd
       -0.060389884 0.012211952 0.03234878 -0.058803428
000260 70 67 47 bc 3e 82 c8 3d 17 aa 7d 3c a3 2e ab bd
       -0.0121706575 0.09790467 0.015482447 -0.083585046
000270 16 4a 05 3e 58 05 f3 3d d7 b0 7d bb 64 32 c0 3d
       0.13016543 0.118662536 -0.003871014 0.09384611
000280 30 84 c7 bd 78 29 e9 3c 25 09 ca bd e6 f0 fa 3d
       -0.0974201 0.028462157 -0.098650254 0.12252979
000290 19 e8 ba 3d 62 eb f0 3d c9 5b 60 bc b2 50 d2 3d
       0.091263 0.11763646 -0.013693758 0.10269298
0002a0 ee 6f 79 bc b5 c6 34 3c 68 17 0f 3d f8 03 e8 bc
       -0.01522444 0.011033704 0.03493443 -0.028322205
0002b0 16 ae 79 3d 31 74 33 bd db d5 0a 3d 49 67 67 3d
       0.060957037 -0.04381198 0.033895355 0.056494985
0002c0 9d 38 f1 bd 89 3e 89 bd 39 7b b6 bc 5b 55 d2 3d
       -0.11778376 -0.06701381 -0.022275554 0.102701865
0002d0 52 c1 2e 3d 22 26 e8 3d 2a 24 f7 3d 50 68 de 3a
       0.042664833 0.11335398 0.120674446 0.0016968343
0002e0 e0 8f 81 3d d5 71 a9 3d 3e 80 a6 3d bf b6 bf bd
       0.0632627 0.08273665 0.08129929 -0.09361028
0002f0 89 74 27 3d 3b ed 0b 3d 1e 0a e7 bd ce d0 44 bb
       0.04088262 0.034161787 -0.112812266 -0.0030031684
000300 dc 44 6c bd 60 0d d9 bc 78 2f 33 bd d4 51 8f bd
       -0.057682857 -0.026495636 -0.04374644 -0.06998029
000310 f6 b2 c2 bd ca d3 b6 bd 98 b2 5a 3d 08 eb 9b bd
       -0.0950679 -0.08927114 0.053392977 -0.07613188
000320 1a 2d e2 3d 00 72 da 3d f0 be 52 3c 00 13 c8 bb
       0.11043759 0.10666275 0.012862906 -0.0061057806
000330 48 5d fc 3c 10 c0 5d 3c f0 10 2b 3c fc 77 0a 3d
       0.030806199 0.013534561 0.01044105 0.033805832
000340 62 48 c0 3d 10 3b 50 3c c2 c6 e7 3d 88 82 8c bc
       0.09388806 0.012709394 0.11317207 -0.017152086
000350 40 95 35 bd f2 0b fa bd 10 30 a2 3c 90 de 24 3c
       -0.04433179 -0.1220931 0.019798309 0.010062829
000360 04 ae c9 bd 32 87 93 3d e8 7b 63 bd 80 d4 94 3a
       -0.09847644 0.07203521 -0.055538088 0.0011354834
000370 b0 a1 0b 3c 00 dc 10 39 50 d0 c6 3c e0 9f 27 bd
       0.008522436 0.00013814867 0.024269253 -0.040923953
000380 4e 67 ee 3d 30 de 41 3d ae 31 86 3d 6c 6b ee bd
       0.116407976 0.047331035 0.065524444 -0.11641583
000390 68 f0 95 bc 90 9f ba 3c 22 f3 d5 3d c0 ef fe bc
       -0.018303111 0.022781163 0.104467645 -0.031120181
0003a0 c8 f1 18 bd a0 90 0c 3d dc 8b f9 bd 88 49 85 bd
       -0.037339956 0.034317613 -0.12184879 -0.065081656
0003b0 f6 6c d3 bd 34 b6 5c 3d b8 2e f2 3c 56 50 e7 bd
       -0.10323517 0.0538847 0.029563293 -0.1129462
0003c0 56 58 f0 bd 20 c6 28 3c 0c ab f9 3d 1c c4 7f 3d
       -0.11735599 0.010301143 0.12190828 0.062442884
0003d0 b0 23 c9 bd ac a7 eb bd f0 66 ab 3c a0 15 0b 3d
       -0.0982126 -0.1150659 0.020923108 0.03395617
0003e0 78 a8 f7 bc f4 ec ed bd 00 8f 48 bb 4c ae 85 bd
       -0.0302317 -0.11617461 -0.0030602813 -0.06527385
0003f0 d4 23 cd bd b0 6a 6a bd f6 ca b8 bd 14 6e 4b bd
       -0.10016599 -0.05723065 -0.09023087 -0.049665526

model.pooling_fn.gate_nn.0.bias f4 [64]
000000 0a c3 f0 bd 4a c7 f0 bc 32 81 c3 3d 9c 61 0f 3d
       -0.11755951 -0.029391903 0.095461264 0.035005197
000010 bf 0d 8b bd 45 5d d7 3d b1 66 d9 bd 6d 9b 50 3d
       -0.06789731 0.105158366 -0.1061529 0.050929476
000020 ed 81 cd 3d 04 57 5a bd 3d 79 c0 bc b3 b4 8d bc
       0.10034547 -0.05330564 -0.02349531 -0.017298078
000030 d9 f3 c9 3d 7e 89 0e 3e 11 f7 ef 3b b0 00 71 3d
       0.098609634 0.13919637 0.007323154 0.058838546
000040 e4 87 0f 3d e2 6e 9e bd e3 32 7c 3b 16 d3 e2 3d
       0.035041705 -0.07735993 0.003848248 0.11075418
000050 ca 01 b3 3c bb b4 bd bd d9 91 92 bd 81 e1 32 bd
       0.021851439 -0.09262987 -0.071567245 -0.04367209
000060 b0 b4 ce 3d e0 11 c4 3d 06 0c cd bd 48 be 89 3d
       0.10093057 0.09573722 -0.10012059 0.067257464
000070 8d 73 be bd 44 fe 0d bd ff 73 9e 3b 1c aa 1f bc
       -0.09299383 -0.034666315 0.004835605 -0.009745147
000080 0b ae 14 3d 0f b2 a5 3d 5b 54 e7 bd f6 aa 1e 3d
       0.036298793 0.080906026 -0.112953864 0.03873726
000090 ea 9f c0 bd 99 91 4f 3c 04 17 e2 bd f4 da ab 3d
       -0.09405501 0.0126689905 -0.11039546 0.08391371
0000a0 43 12 86 3d 08 6c a7 bd 68 2a be 3c f4 b4 cf bd
       0.06546452 -0.08174902 0.02321358 -0.10141936
0000b0 28 f9 14 bd fb da 84 bd a4 10 80 3d f2 60 ec 3d
       -0.036370426 -0.0648708 0.06253174 0.11541928
0000c0 cb 85 fc 3c 98 62 c2 bd fa 97 c2 3b 43 8b e7 bd
       0.030825516 -0.094914615 0.005938527 -0.11305859
0000d0 94 ee 50 3d 6e 3e 27 3d 62 16 01 be 78 76 ca 3c
       0.051008776 0.040831022 -0.12606195 0.024714693
0000e0 cd 92 35 3b 1b 6b 03 3e 4a 51 01 be 7d f9 26 3d
       0.0027705908 0.12833826 -0.12628666 0.040765274
0000f0 39 8d 42 3d a0 f0 96 3d aa d5 8c 3d db 43 a3 3d
       0.04749796 0.07370114 0.06876691 0.07971927

model.pooling_fn.gate_nn.2.weight f4 [1, 64]
000000 3c 01 d0 3d 60 df ef bd a1 ea 0d bd f8 1f 4c 3d
       0.101564854 -0.11712527 -0.034647588 0.049835175
000010 5d 94 e2 3d d5 1b 19 3e 17 e5 a7 3d b1 e8 9c 3c
       0.11063454 0.14952023 0.08197992 0.019153925
000020 46 26 80 3d 69 45 26 bd 13 e5 b0 3d bf 69 f5 3d
       0.062573 -0.04059354 0.086374424 0.1198306
000030 c1 1b 25 3d a6 e5 f5 3d 06 57 45 3d 0d ea 9c 3b
       0.04030967 0.120066926 0.048178695 0.004788643
000040 b4 ef 5c bd ec aa 3b 3d 99 1d 78 3d 5d b8 5f bd
       -0.053939536 0.0458173 0.0605751 -0.054619182
000050 8d 3f 0c bd ea f5 01 3d 27 29 c6 bc a2 2d ef bd
       -0.034240294 0.031728663 -0.024189545 -0.11678626
000060 8a 1e 9e 3c f3 29 09 bd 28 49 2b 3d d9 d3 8a bd
       0.019301672 -0.03348727 0.041817814 -0.06778688
000070 2e 19 ac 3d 60 95 6b 3c 8d 58 7b 3d 2b d1 f2 bc
       0.0840324 0.0143788755 0.061363745 -0.029640755
000080 ad 37 2d 3d 88 f7 87 3b 74 c0 b1 3d 7a 9b 97 bd
       0.042289425 0.004149381 0.08679286 -0.07402702
000090 25 0d 99 bb 5e 78 a4 bd 54 da 43 3d 4c 7f 88 bd
       -0.0046707564 -0.08030771 0.047815636 -0.06664905
0000a0 f4 b0 59 3d c5 21 d8 bd ec 08 f5 bd da 7f 97 bc
       0.05314727 -0.10553316 -0.11964592 -0.018493582
0000b0 1a 75 71 3c 96 37 96 bd e9 2b 83 3d 46 6d a2 3d
       0.014737392 -0.07334821 0.064048596 0.079309985
0000c0 9c ea e8 3c 52 a2 c7 bc 2c 81 52 bd 21 0c 35 bc
       0.028432183 -0.024369393 -0.05139272 -0.011050255
0000d0 31 c6 2a 3d ba 8f 4e 3d 7f 4e eb 3d 00 d5 00 3d
       0.041692916 0.050430037 0.11489581 0.031453133
0000e0 cf d4 f0 bd d3 87 f2 bd ee 01 68 3d 10 e4 ed 3d
       -0.1175934 -0.11842313 0.056642465 0.11615765
0000f0 f1 d5 d2 bd ae ed 05 3e a5 e1 5a 3d bb c7 94 bd
       -0.10294712 0.13078949 0.053437848 -0.07264658

model.pooling_fn.att_pool.gate_nn.0.weight f4 [64, 64]
000000 b6 44 90 bd 04 52 fe bd a0 64 f8 bb 24 0d 4a bd
       -0.070443556 -0.12417987 -0.007580355 -0.049328938
000010 28 dc 73 3d 50 bd c3 bc 20 f7 32 bc 78 7f 7e 3d
       0.05953613 -0.023893982 -0.010923177 0.062133282
000020 b0 ec 5f 3c e0 72 1d bd 00 9b ce 3c 9a 21 ec bd
       0.013667271 -0.03843963 0.025220394 -0.115298465
000030 38 11 2a 3d 00 61 ee bd bc 25 84 bd ec 98 fb bd
       0.041520327 -0.11639595 -0.0645251 -0.12285027
000040 c0 f6 8d bc 9c 7b 36 3d ec 98 b9 3d 12 84 86 bd
       -0.017329574 0.044551477 0.09062371 -0.06568159
000050 86 b8 93 bd e0 bb ae 3d b2 11 8f 3d f8 5f cc 3c
       -0.072129294 0.08531928 0.06985797 0.024948105
000060 70 54 8c 3c 88 9c 4b 3d b2 90 a0 bd 44 4d 35 3d
       0.017130107 0.049709827 -0.078400984 0.04426314
000070 3e 8c 95 bd 5c a6 81 3d 64 da 8a 3d 84 74 11 bd
       -0.0730214 0.06330559 0.06779936 -0.03551151
000080 54 de b9 3d 6c 4f 77 3d 08 e1 9c 3d c0 8e 23 bb
       0.09075609 0.060378477 0.07660109 -0.0024956912
000090 70 1b 71 3c 0c 92 ba 3d 58 09 60 3d 4a aa 8b bd
       0.014716014 0.091098875 0.05469641 -0.068195894
0000a0 86 f0 d9 bd 30 2f 34 3d 80 09 24 bc 88 5b e3 bc
       -0.10641579 0.043990314 -0.010012031 -0.027753606
0000b0 e0 35 ff bd 10 35 c2 bc 40 f8 13 3b 90 f6 b9 bd
       -0.12461448 -0.023706943 0.0022578388 -0.09080231
0000c0 90 19 da bc 9c 95 1e bd 00 6d 4a ba e0 c3 a3 3c
       -0.026623517 -0.038716897 -0.0007721931 0.019990861
0000d0 f6 f8 f6 bd d8 32 8d bd f6 70 b6 3d 1c 44 c9 bd
       -0.12059204 -0.06894463 0.08908264 -0.09827444
0000e0 38 6d ba 3c 88 77 f1 bd d6 6a a6 bd 50 a7 bf bd
       0.022757158 -0.11790377 -0.08125846 -0.09358084
0000f0 98 ca 30 bd 1a 5b 91 bd 20 85 b1 3b 22 c9 d5 3d
       -0.04316196 -0.07097454 0.005417481 0.10438754
000100 dc 3e c0 bd 38 4f aa bc 35 0c 9f 3d 0d 8f cc bc
       -0.093869895 -0.020789728 0.07766 -0.024970556
000110 ec fd 45 bd 8c 40 e4 3d 5e 7a ac 3d dc fb dd 3d
       -0.048337862 0.11145124 0.08421777 0.10839054
000120 2b 2a 50 3d 20 a8 59 3d 27 14 21 bd eb f1 9f 3d
       0.050821465 0.053138852 -0.03932586 0.07809814
000130 90 cd 00 bd a1 15 71 3d e8 11 cc bd 0d cf f7 bd
       -0.03144604 0.058858518 -0.09964353 -0.12100039
000140 83 f2 a1 bd f6 98 f5 bd 67 4f 92 bd 95 9e 11 3c
       -0.079075836 -0.119920656 -0.07144051 0.008887907
000150 f5 05 7a ba f3 59 c3 3d 4c da 0c 3d cc d2 12 bd
       -0.0009537631 0.09538641 0.03438787 -0.035845563
000160 6e ed 0c bd 9f 5f 0a 3d 7c 42 b4 3d 0e 13 26 bd
       -0.034406118 0.033782598 0.088017434 -0.040545516
000170 64 bd ce bd 00 0a 88 ba a0 d2 ef 3d 90 0b ad 3c
       -0.10094717 -0.0010378957 0.117100954 0.021123677
000180 eb 2c bd bc a2 a0 be 3d f7 7c d6 3d 09 03 fd bc
       -0.023092708 0.09307982 0.10473054 -0.030885236
000190 86 6a 06 3d 10 80 44 3c da 78 b6 bd 00 d6 1d bd
       0.032816432 0.011993423 -0.08909769 -0.038534164
0001a0 49 ba 1a bd dd 23 d1 3d 27 0b d8 bd cc 68 98 bd
       -0.03777531 0.102119185 -0.10549002 -0.074418634
0001b0 1a 25 16 bd 3e b3 99 bd 64 32 ee 3c b0 8b 76 3d
       -0.036656477 -0.07504891 0.029076762 0.06019181
0001c0 72 cd 51 bd 67 9d 28 bc b1 da a7 3d 0a 6a 8d 3d
       -0.05122132 -0.010291434 0.08196009 0.06904991
0001d0 80 09 9e bc c8 bf e8 bd ef c0 b3 bd 16 d5 b4 bd
       -0.01929164 -0.11364704 -0.087770335 -0.088297054
0001e0 06 1a 50 bd 8a 6c 3b bc 25 e0 87 bd c2 2d c0 bd
       -0.050806068 -0.011439452 -0.06634549 -0.093837276
0001f0 f3 46 10 bd 38 0c 67 3d 93 71 3b bd a0 53 e0 bd
       -0.035223912 0.056408137 -0.04576261 -0.1095345
000200 85 2a 04 be 4f 31 50 bd bb 35 12 3d ef 71 9b bb
       -0.12906845 -0.050828274 0.035695773 -0.0047438066
000210 b6 48 9a 3d 2e 3a f4 bc 30 49 81 bc e2 42 c1 3d
       0.075334 -0.029812898 -0.015781969 0.09436585
000220 b1 bf 9a 3d ac 76 a5 3c a4 7a 57 3c 6c 60 dc bd
       0.075560935 0.020198189 0.013151798 -0.107605785
000230 d0 71 cf bc 36 ee bc bd 58 87 c4 3c 82 e1 6c bd
       -0.025322825 -0.09225123 0.023990318 -0.05783225
000240 5b e1 bd bd 68 7c 9c bc f6 af ab 3d 5d 3b 8c bd
       -0.09271499 -0.01910229 0.08383171 -0.0684726
000250 62 5b 77 bd a4 14 48 3c 28 80 04 3d dd db 70 bd
       -0.060389884 0.012211952 0.03234878 -0.058803428
000260 70 67 47 bc 3e 82 c8 3d 17 aa 7d 3c a3 2e ab bd
       -0.0121706575 0.09790467 0.015482447 -0.083585046
000270 16 4a 05 3e 58 05 f3 3d d7 b0 7d bb 64 32 c0 3d
       0.13016543 0.118662536 -0.003871014 0.09384611
000280 30 84 c7 bd 78 29 e9 3c 25 09 ca bd e6 f0 fa 3d
       -0.0974201 0.028462157 -0.098650254 0.12252979
000290 19 e8 ba 3d 62 eb f0 3d c9 5b 60 bc b2 50 d2 3d
       0.091263 0.11763646 -0.013693758 0.10269298
0002a0 ee 6f 79 bc b5 c6 34 3c 68 17 0f 3d f8 03 e8 bc
       -0.01522444 0.011033704 0.03493443 -0.028322205
0002b0 16 ae 79 3d 31 74 33 bd db d5 0a 3d 49 67 67 3d
       0.060957037 -0.04381198 0.033895355 0.056494985
0002c0 9d 38 f1 bd 89 3e 89 bd 39 7b b6 bc 5b 55 d2 3d
       -0.11778376 -0.06701381 -0.022275554 0.102701865
0002d0 52 c1 2e 3d 22 26 e8 3d 2a 24 f7 3d 50 68 de 3a
       0.042664833 0.11335398 0.120674446 0.0016968343
0002e0 e0 8f 81 3d d5 71 a9 3d 3e 80 a6 3d bf b6 bf bd
       0.0632627 0.08273665 0.08129929 -0.09361028
0002f0 89 74 27 3d 3b ed 0b 3d 1e 0a e7 bd ce d0 44 bb
       0.04088262 0.034161787 -0.112812266 -0.0030031684
000300 dc 44 6c bd 60 0d d9 bc 78 2f 33 bd d4 51 8f bd
       -0.057682857 -0.026495636 -0.04374644 -0.06998029
000310 f6 b2 c2 bd ca d3 b6 bd 98 b2 5a 3d 08 eb 9b bd
       -0.0950679 -0.08927114 0.053392977 -0.07613188
000320 1a 2d e2 3d 00 72 da 3d f0 be 52 3c 00 13 c8 bb
       0.11043759 0.10666275 0.012862906 -0.0061057806
000330 48 5d fc 3c 10 c0 5d 3c f0 10 2b 3c fc 77 0a 3d
       0.030806199 0.013534561 0.01044105 0.033805832
000340 62 48 c0 3d 10 3b 50 3c c2 c6 e7 3d 88 82 8c bc
       0.09388806 0.012709394 0.11317207 -0.017152086
000350 40 95 35 bd f2 0b fa bd 10 30 a2 3c 90 de 24 3c
       -0.04433179 -0.1220931 0.019798309 0.010062829
000360 04 ae c9 bd 32 87 93 3d e8 7b 63 bd 80 d4 94 3a
       -0.09847644 0.07203521 -0.055538088 0.0011354834
000370 b0 a1 0b 3c 00 dc 10 39 50 d0 c6 3c e0 9f 27 bd
       0.008522436 0.00013814867 0.024269253 -0.040923953
000380 4e 67 ee 3d 30 de 41 3d ae 31 86 3d 6c 6b ee bd
       0.116407976 0.047331035 0.065524444 -0.11641583
000390 68 f0 95 bc 90 9f ba 3c 22 f3 d5 3d c0 ef fe bc
       -0.018303111 0.022781163 0.104467645 -0.031120181
0003a0 c8 f1 18 bd a0 90 0c 3d dc 8b f9 bd 88 49 85 bd
       -0.037339956 0.034317613 -0.12184879 -0.065081656
0003b0 f6 6c d3 bd 34 b6 5c 3d b8 2e f2 3c 56 50 e7 bd
       -0.10323517 0.0538847 0.029563293 -0.1129462
0003c0 56 58 f0 bd 20 c6 28 3c 0c ab f9 3d 1c c4 7f 3d
       -0.11735599 0.010301143 0.12190828 0.062442884
0003d0 b0 23 c9 bd ac a7 eb bd f0 66 ab 3c a0 15 0b 3d
       -0.0982126 -0.1150659 0.020923108 0.03395617
0003e0 78 a8 f7 bc f4 ec ed bd 00 8f 48 bb 4c ae 85 bd
       -0.0302317 -0.11617461 -0.0030602813 -0.06527385
0003f0 d4 23 cd bd b0 6a 6a bd f6 ca b8 bd 14 6e 4b bd
       -0.10016599 -0.05723065 -0.09023087 -0.049665526

model.pooling_fn.att_pool.gate_nn.0.bias f4 [64]
000000 0a c3 f0 bd 4a c7 f0 bc 32 81 c3 3d 9c 61 0f 3d
       -0.11755951 -0.029391903 0.095461264 0.035005197
000010 bf 0d 8b bd 45 5d d7 3d b1 66 d9 bd 6d 9b 50 3d
       -0.06789731 0.105158366 -0.1061529 0.050929476
000020 ed 81 cd 3d 04 57 5a bd 3d 79 c0 bc b3 b4 8d bc
       0.10034547 -0.05330564 -0.02349531 -0.017298078
000030 d9 f3 c9 3d 7e 89 0e 3e 11 f7 ef 3b b0 00 71 3d
       0.098609634 0.13919637 0.007323154 0.058838546
000040 e4 87 0f 3d e2 6e 9e bd e3 32 7c 3b 16 d3 e2 3d
       0.035041705 -0.07735993 0.003848248 0.11075418
000050 ca 01 b3 3c bb b4 bd bd d9 91 92 bd 81 e1 32 bd
       0.021851439 -0.09262987 -0.071567245 -0.04367209
000060 b0 b4 ce 3d e0 11 c4 3d 06 0c cd bd 48 be 89 3d
       0.10093057 0.09573722 -0.10012059 0.067257464
000070 8d 73 be bd 44 fe 0d bd ff 73 9e 3b 1c aa 1f bc
       -0.09299383 -0.034666315 0.004835605 -0.009745147
000080 0b ae 14 3d 0f b2 a5 3d 5b 54 e7 bd f6 aa 1e 3d
       0.036298793 0.080906026 -0.112953864 0.03873726
000090 ea 9f c0 bd 99 91 4f 3c 04 17 e2 bd f4 da ab 3d
       -0.09405501 0.0126689905 -0.11039546 0.08391371
0000a0 43 12 86 3d 08 6c a7 bd 68 2a be 3c f4 b4 cf bd
       0.06546452 -0.08174902 0.02321358 -0.10141936
0000b0 28 f9 14 bd fb da 84 bd a4 10 80 3d f2 60 ec 3d
       -0.036370426 -0.0648708 0.06253174 0.11541928
0000c0 cb 85 fc 3c 98 62 c2 bd fa 97 c2 3b 43 8b e7 bd
       0.030825516 -0.094914615 0.005938527 -0.11305859
0000d0 94 ee 50 3d 6e 3e 27 3d 62 16 01 be 78 76 ca 3c
       0.051008776 0.040831022 -0.12606195 0.024714693
0000e0 cd 92 35 3b 1b 6b 03 3e 4a 51 01 be 7d f9 26 3d
       0.0027705908 0.12833826 -0.12628666 0.040765274
0000f0 39 8d 42 3d a0 f0 96 3d aa d5 8c 3d db 43 a3 3d
       0.04749796 0.07370114 0.06876691 0.07971927

model.pooling_fn.att_pool.gate_nn.2.weight f4 [1, 64]
000000 3c 01 d0 3d 60 df ef bd a1 ea 0d bd f8 1f 4c 3d
       0.101564854 -0.11712527 -0.034647588 0.049835175
000010 5d 94 e2 3d d5 1b 19 3e 17 e5 a7 3d b1 e8 9c 3c
       0.11063454 0.14952023 0.08197992 0.019153925
000020 46 26 80 3d 69 45 26 bd 13 e5 b0 3d bf 69 f5 3d
       0.062573 -0.04059354 0.086374424 0.1198306
000030 c1 1b 25 3d a6 e5 f5 3d 06 57 45 3d 0d ea 9c 3b
       0.04030967 0.120066926 0.048178695 0.004788643
000040 b4 ef 5c bd ec aa 3b 3d 99 1d 78 3d 5d b8 5f bd
       -0.053939536 0.0458173 0.0605751 -0.054619182
000050 8d 3f 0c bd ea f5 01 3d 27 29 c6 bc a2 2d ef bd
       -0.034240294 0.031728663 -0.024189545 -0.11678626
000060 8a 1e 9e 3c f3 29 09 bd 28 49 2b 3d d9 d3 8a bd
       0.019301672 -0.03348727 0.041817814 -0.06778688
000070 2e 19 ac 3d 60 95 6b 3c 8d 58 7b 3d 2b d1 f2 bc
       0.0840324 0.0143788755 0.061363745 -0.029640755
000080 ad 37 2d 3d 88 f7 87 3b 74 c0 b1 3d 7a 9b 97 bd
       0.042289425 0.004149381 0.08679286 -0.07402702
000090 25 0d 99 bb 5e 78 a4 bd 54 da 43 3d 4c 7f 88 bd
       -0.0046707564 -0.08030771 0.047815636 -0.06664905
0000a0 f4 b0 59 3d c5 21 d8 bd ec 08 f5 bd da 7f 97 bc
       0.05314727 -0.10553316 -0.11964592 -0.018493582
0000b0 1a 75 71 3c 96 37 96 bd e9 2b 83 3d 46 6d a2 3d
       0.014737392 -0.07334821 0.064048596 0.079309985
0000c0 9c ea e8 3c 52 a2 c7 bc 2c 81 52 bd 21 0c 35 bc
       0.028432183 -0.024369393 -0.05139272 -0.011050255
0000d0 31 c6 2a 3d ba 8f 4e 3d 7f 4e eb 3d 00 d5 00 3d
       0.041692916 0.050430037 0.11489581 0.031453133
0000e0 cf d4 f0 bd d3 87 f2 bd ee 01 68 3d 10 e4 ed 3d
       -0.1175934 -0.11842313 0.056642465 0.11615765
0000f0 f1 d5 d2 bd ae ed 05 3e a5 e1 5a 3d bb c7 94 bd
       -0.10294712 0.13078949 0.053437848 -0.07264658
