lightning_logs/version_147/checkpoints/epoch=3-step=60.ckpt (torch, 68373 bytes, 18 tensors)

model.encoder.conv1.bias f4 [64]
0	0x3b53155b	0.0032208774
1	0x00000000	0.0
2	0xbb518101	-0.0031967761
3	0x3ac60784	0.0015108441
4	0x3b32be76	0.0027274168
5	0xbb3b8c91	-0.002861772
6	0xbadbb086	-0.0016760982
7	0x3a9dd8bb	0.001204274
8	0x3b096c46	0.0020969077
9	0xb9974921	-0.0002885545
10	0xbb31c0f9	-0.0027123077
11	0xbae7afb0	-0.001767626
12	0xba8969c2	-0.0010483789
13	0x00000000	0.0
14	0xbb198fdc	-0.0023431694
15	0x3a74cf39	0.000933874
16	0xb772edb3	-1.4479668e-05
17	0xbb189463	-0.0023281805
18	0x3a424365	0.0007410555
19	0x3acc9902	0.0015609565
20	0x3b0bfeb5	0.0021361534
21	0x00000000	0.0
22	0xb9d88995	-0.00041301237
23	0x3ac58cd2	0.0015071875
24	0xbafc8d59	-0.0019268199
25	0x3ac8cbba	0.0015319504
26	0x00000000	0.0
27	0xbaff19a8	-0.0019462602
28	0xba201a06	-0.00061073934
29	0xb73df1e0	-1.1321594e-05
30	0xb9971e2d	-0.00028823447
31	0x3a573f9a	0.00082110765
32	0x3b1fa273	0.0024358302
33	0x3ac54bcf	0.00150525
34	0x3aa80e76	0.0012821693
35	0x00000000	0.0
36	0x00000000	0.0
37	0xbafe4354	-0.0019398727
38	0xb993fa55	-0.00028224537
39	0xbaabdc40	-0.0013111904
40	0x39ef8374	0.00045683573
41	0x3a98570b	0.001162262
42	0xba5d8339	-0.00084500347
43	0xbaf76231	-0.0018873868
44	0x00000000	0.0
45	0x39a1997b	0.00030822665
46	0xb8fcb72f	-0.00012050417
47	0x00000000	0.0
48	0x392af06a	0.00016302025
49	0xbab29065	-0.0013623355
50	0xbad27a63	-0.0016058203
51	0xbb56ba40	-0.0032764822
52	0x39006147	0.0001224327
53	0xbb3015ce	-0.0026868465
54	0x3866ebc1	5.5055836e-05
55	0xba426fd5	-0.0007417177
56	0xbb097af1	-0.002097782
57	0xba405472	-0.0007336802
58	0x3aaab398	0.0013023494
59	0xba40a2ea	-0.0007348495
60	0xb9ce7cba	-0.0003938431
61	0x3936dac2	0.00017438366
62	0xba5f265b	-0.00085124903
63	0xba427e0a	-0.0007419294

model.encoder.conv1.lin.weight f4 [64, 3]
0	0x3d21ac9e	0.03947126
1	0x3d86bfa0	0.06579518
2	0xbb6e6a19	-0.0036379157
3	0xbe863a6a	-0.2621644
4	0xbd577234	-0.052599147
5	0xbe905a27	-0.2819378
6	0x3e571ea2	0.21007779
7	0xbd9ec6a6	-0.07752733
8	0xbe7240a8	-0.23657477
9	0x3e10d99a	0.14145508
10	0x3e815776	0.2526204
11	0x3e538379	0.20655622
12	0x3e1efbeb	0.15525787
13	0xbdcdbd2a	-0.10045846
14	0xbdcdc0bc	-0.10046527
15	0x3e24612e	0.16052696
16	0xbe739f6d	-0.23791285
17	0xbe500a5b	-0.2031645
18	0x3dbb29bc	0.091388196
19	0xbe3b58d0	-0.18295598
20	0xbe3d4ecc	-0.1848709
21	0xbe6e4ba9	-0.2327105
22	0xbe1f9375	-0.15583594
23	0x3e8f55ca	0.2799514
24	0xbc46325b	-0.012096967
25	0x3e16ea60	0.14737844
26	0x3d4345ac	0.047673866
27	0xbdf8329c	-0.12119028
28	0xbd3ffa77	-0.04686972
29	0x3cddf79b	0.027095607
30	0xbd943b0a	-0.07237823
31	0x3e8964ee	0.26834816
32	0xbe8e245c	-0.27762115
33	0xbd1dc6fb	-0.03851984
34	0x3e95e1b0	0.29273748
35	0xbe5c7b0c	-0.21531314
36	0x3e0a4e85	0.13506515
37	0x3b860d2b	0.004090925
38	0xbdd9c223	-0.10632732
39	0xbdbb1812	-0.091354504
40	0xbe766f8b	-0.24065988
41	0xbcc2a240	-0.023759007
42	0xbe0afc41	-0.1357279
43	0xbe34b2e7	-0.17646371
44	0x3da81887	0.08207803
45	0x3d257d43	0.040402662
46	0xbd6db73e	-0.05803608
47	0xbe1c3493	-0.1525443
48	0xbe6edd86	-0.23326692
49	0xbd97ba0c	-0.074085325
50	0x3dd60e18	0.10451907
51	0x3e8c0a53	0.27351627
52	0xbc2bba6c	-0.010481458
53	0xbe44cefe	-0.19219586
54	0xbe138e2a	-0.144097
55	0x3e72100a	0.23638931
56	0xbdb5f712	-0.088850155
57	0xbcad3f4e	-0.02114835
58	0x3e586bc4	0.2113486
59	0xbe78bfc0	-0.24291897
60	0xbe192c01	-0.14958192
61	0x3e97eb41	0.29671672
62	0x3e99db1c	0.3004998
63	0xbe6e420e	-0.23267385
64	0xbe3fbf75	-0.18725379
65	0xbe5f39cb	-0.2179939
66	0x3e556e68	0.20842898
67	0x3ca28e92	0.019843373
68	0xbe1add6f	-0.15123533
69	0x3e3c9264	0.18415219
70	0x3cbf5a6e	0.02335855
71	0x3e8ed92b	0.2790006
72	0xbc8bd7fe	-0.017070767
73	0x3e35b83e	0.17746064
74	0x3d20c575	0.03925081
75	0x3e4b9cc2	0.19884017
76	0xbe386836	-0.18008503
77	0x3e0bb6c6	0.13643941
78	0xbd430d08	-0.04761985
79	0xbe1f53ba	-0.15559283
80	0xbdc26866	-0.09492569
81	0xbe201808	-0.15634167
82	0x3cee3029	0.029075699
83	0x3e572b8c	0.21012706
84	0x3e1f59c9	0.15561594
85	0xbdf7b4cd	-0.12095032
86	0x3e92a773	0.2864338
87	0xbd5e172b	-0.054221313
88	0x3d975a0a	0.073902205
89	0xbdd2d7fb	-0.10295101
90	0xbe3e0326	-0.18555889
91	0xbdf9cd87	-0.12197404
92	0x3dab2ebd	0.08358524
93	0x3e92d854	0.2868067
94	0xbe2071de	-0.15668437
95	0x3e448bd8	0.19193971
96	0xbdac8712	-0.084242
97	0x3e922b96	0.28548878
98	0xbe736f4e	-0.23772928
99	0x3e63e01e	0.22253463
100	0x3e643879	0.22287168
101	0x3e720a7c	0.23636812
102	0x3d98ddbc	0.074641675
103	0xbdefb837	-0.11705058
104	0xbe380602	-0.17971042
105	0xbe6ad543	-0.22932915
106	0xbe8d6c82	-0.27621847
107	0xbc300360	-0.010742992
108	0xbe60bda7	-0.21947347
109	0xbe79fe24	-0.24413353
110	0xbe924f53	-0.28576145
111	0xbe774df1	-0.24150826
112	0xbe4fb674	-0.20284444
113	0x3cc15c3b	0.02360355
114	0x3e29c6cb	0.1657974
115	0xbded305d	-0.1158149
116	0xbe3108ab	-0.17288463
117	0xbe52c575	-0.20583136
118	0x3e8ccf75	0.27502027
119	0x3e37a700	0.17934799
120	0xbddb98df	-0.10722517
121	0x3db075c5	0.08616213
122	0x3d87f4b5	0.06638471
123	0xbe473996	-0.19455561
124	0xbe919c46	-0.2843954
125	0x3db64491	0.08899797
126	0xbd7db9cc	-0.061944768
127	0xbe87a530	-0.26493216
128	0x3bab177d	0.005221306
129	0xbe3bef70	-0.18353057
130	0xbd841c2b	-0.06450685
131	0x3e82b211	0.2552648
132	0xbe27598e	-0.16342756
133	0xbe2eb0d1	-0.17059638
134	0xbe908ef9	-0.2823408
135	0x3e28b0f6	0.16473755
136	0x3e1601df	0.14649151
137	0x3e2fba25	0.17160852
138	0xbe914356	-0.28371686
139	0xbdbd3e7a	-0.09240432
140	0x3e6083c4	0.21925265
141	0xbda7ea22	-0.08198954
142	0xbdf7bd8c	-0.120967
143	0xbd5ae690	-0.053442538
144	0x3e8c0cb6	0.27353448
145	0x3e581142	0.21100333
146	0xbe005e24	-0.12535912
147	0x3e746f4e	0.23870584
148	0xbd212004	-0.039337173
149	0x3d8daa9d	0.069173075
150	0xbe93be28	-0.28856015
151	0x3e533b4d	0.2062809
152	0x3d2e646f	0.04257625
153	0x3e706898	0.234774
154	0xbe3749e2	-0.17899278
155	0xbdd3f481	-0.1034937
156	0xbdde66bf	-0.10859441
157	0xbc5cafdf	-0.013469665
158	0x3e40ba5f	0.18821095
159	0xbe7f1809	-0.24911512
160	0xbe0c538c	-0.13703746
161	0x3e88b784	0.2670251
162	0x3e5467fd	0.20742793
163	0x3e395964	0.18100506
164	0xbe972e4f	-0.29527518
165	0x3cc4fe97	0.02404718
166	0x3e66151e	0.22468993
167	0xbcc55277	-0.024087174
168	0xbdeae4dd	-0.114694335
169	0x3e8508cb	0.2598327
170	0xbd049d51	-0.03237659
171	0x3dea07be	0.11427258
172	0x3e81ddab	0.25364432
173	0xbdd3d3bc	-0.103431195
174	0xbe89d04f	-0.2691674
175	0x3dc9ec91	0.098595746
176	0x3e5f8861	0.21829368
177	0xbdc8cce4	-0.09804705
178	0x3e69d52f	0.2283523
179	0x3e861c13	0.26193294
180	0x3e89355a	0.26798517
181	0xbe7e4b4d	-0.24833412
182	0x3c855d68	0.016279891
183	0x3e30653e	0.17226121
184	0xbe14618b	-0.14490335
185	0x3dbe1127	0.09280615
186	0x3caa2aba	0.020772327
187	0x3e84ab75	0.2591206
188	0xbd637bfd	-0.055538166
189	0x3d03e2d2	0.032198735
190	0x3e107a95	0.14109261
191	0xbe7bc84d	-0.24588127

model.encoder.conv2.bias f4 [64]
0	0xb99ce780	-0.0002992712
1	0xba6d52fd	-0.0009053199
2	0xbb0ea10d	-0.0021763474
3	0x00000000	0.0
4	0x00000000	0.0
5	0xb9da513d	-0.00041640727
6	0xbae95d5a	-0.001780431
7	0x3ac5e296	0.0015097435
8	0x39ac9c19	0.00032922698
9	0xba4a9da6	-0.000772918
10	0xba401c09	-0.00073283963
11	0xba58c7b4	-0.0008269504
12	0xb9bf1262	-0.00036444055
13	0xbaf0712a	-0.0018344272
14	0x3a996756	0.001170377
15	0x3769aae9	1.3927675e-05
16	0x3acae499	0.0015479504
17	0xbb3ede8a	-0.0029124343
18	0x00000000	0.0
19	0xba46180b	-0.0007556683
20	0xb94ecf08	-0.00019722816
21	0xbabaee2c	-0.0014261655
22	0x00000000	0.0
23	0xbb0b2fa6	-0.0021238117
24	0xba8a8421	-0.0010567942
25	0xb94f8f80	-0.00019794516
26	0xbad49ec4	-0.0016221632
27	0xbab8bc10	-0.0014094133
28	0xba8c0462	-0.0010682459
29	0x3b27b714	0.00255913
30	0x38070c16	3.2197764e-05
31	0x00000000	0.0
32	0x39ed66c8	0.0004528074
33	0x3a989281	0.0011640341
34	0xb9d0d9cc	-0.00039835123
35	0x00000000	0.0
36	0xba90a683	-0.0011035952
37	0x00000000	0.0
38	0x3af62fc7	0.0018782549
39	0x00000000	0.0
40	0xba86f203	-0.0010295514
41	0x00000000	0.0
42	0x3b3758fa	0.0027976618
43	0x3b20b95b	0.0024524543
44	0xbb2207d3	-0.0024723902
45	0x00000000	0.0
46	0xb80e5038	-3.3930148e-05
47	0x00000000	0.0
48	0x00000000	0.0
49	0xba7206c2	-0.00092325744
50	0xba58864c	-0.0008259758
51	0xba3e7570	-0.00072654244
52	0xbaea3471	-0.0017868412
53	0xba12e1a3	-0.00056030805
54	0x395cf263	0.00021071131
55	0xbb2238e1	-0.002475314
56	0x3b331bef	0.0027329882
57	0xbab9ffcc	-0.0014190613
58	0x00000000	0.0
59	0xba419618	-0.00073847314
60	0xb81cb8de	-3.736547e-05
61	0x3abb99ff	0.0014312862
62	0xba56fe62	-0.0008201358
63	0x00000000	0.0

model.encoder.conv2.lin.weight f4 [64, 64]
0	0xbdabf144	-0.08395627
1	0xbd837114	-0.06418052
2	0x3e42ed9c	0.19035953
3	0x3d9ebb55	0.077505745
4	0xbe42b170	-0.19013
5	0xbe3d5ede	-0.1849322
6	0x3e576c9c	0.21037525
7	0xbdfeffdb	-0.12451144
8	0xbd413b88	-0.047175914
9	0x3bd04143	0.006355436
10	0xbe5cde87	-0.21569262
11	0x3d65047f	0.05591249
12	0x3cd98ce8	0.026556447
13	0xbca0d8a0	-0.019634545
14	0xbda4c9f8	-0.08046335
15	0x3e164eab	0.14678447
16	0x3dcc8f93	0.09988322
17	0xbdaef466	-0.08542709
18	0x3dc2c4e9	0.09510214
19	0x3ddb502f	0.10708653
20	0xbd8cdf88	-0.06878573
21	0xbdc3ecf8	-0.095666826
22	0xbd9ac3da	-0.07556887
23	0x3e546aa2	0.20743802
24	0xbae58a2c	-0.0017512492
25	0x3da59c89	0.08086497
26	0x3e06e68f	0.13173889
27	0x3e312a37	0.1730126
28	0xbc4b20bc	-0.012397941
29	0xbe1eeabe	-0.15519235
30	0x3e2f1ac1	0.1710005
31	0xbc3524bb	-0.0110561205
32	0x3b2f7661	0.002677344
33	0xbe5cd152	-0.21564224
34	0xbd4b4879	-0.049629662
35	0x3d3040a4	0.043030396
36	0xbe3d6418	-0.18495214
37	0x3e42f4cd	0.19038697
38	0xbdd7a651	-0.10529769
39	0x3e3da72f	0.18520807
40	0xbe06ee9d	-0.13176961
41	0x3e4f2533	0.20229034
42	0xbd89af9f	-0.0672295
43	0xbdacbb34	-0.08434144
44	0xbcde7d40	-0.027159333
45	0x3c498201	0.012299062
46	0xbe2e1e62	-0.17003778
47	0x3e06b523	0.13155036
48	0x3e56bcff	0.20970534
49	0xbe4eac1f	-0.20182846
50	0xbd599599	-0.053121183
51	0x3e12eda6	0.14348468
52	0x3e01f91b	0.12692682
53	0xbdf8b2c5	-0.121434726
54	0x3e248412	0.16066006
55	0x3d990f28	0.07473594
56	0xbe45872f	-0.1928985
57	0x3c23987f	0.009985088
58	0x3bb140c1	0.0054093306
59	0x3df3e2a8	0.119084656
60	0x3d643e84	0.055723682
61	0x3d7444ac	0.059635803
62	0x3d37c5f2	0.04486651
63	0x3deff713	0.117170475
64	0xbe2f249c	-0.17103809
65	0xbda5abf8	-0.08089441
66	0x3dea8170	0.114504695
67	0xbdc87e23	-0.09789684
68	0xbe463b9c	-0.19358677
69	0x3e4b6c67	0.19865571
70	0xbb196535	-0.0023406271
71	0x3d62a934	0.055337146
72	0x3c1331fa	0.008984083
73	0x3bdcf480	0.006743014
74	0xbde47f60	-0.11157107
75	0xbe558ac2	-0.20853713
76	0x3d93ddc4	0.07220033
77	0xbdecc75d	-0.11561463
78	0xbd2091d0	-0.039201558
79	0x3e2d7386	0.169386
80	0x3e4f6a55	0.20255406
81	0xbe0f07cf	-0.13967822
82	0xbd15e0c4	-0.036591306
83	0x3e30f0e0	0.17279387
84	0xbd19cb00	-0.03754711
85	0x3d1655fc	0.036703095
86	0x3e57420e	0.21021292
87	0xbda2f582	-0.07956983
88	0xbe16f9fa	-0.14743796
89	0x3d05d199	0.03267059
90	0x3e275815	0.16342194
91	0xbe53cfc0	-0.20684719
92	0xbdff43f4	-0.12464133
93	0xbe0bc6f3	-0.13650112
94	0xbe18faa4	-0.14939362
95	0xbc9dde7e	-0.019271132
96	0xbdcc8a6f	-0.099873416
97	0x3e4b94f4	0.1988104
98	0x3e55f5b0	0.20894504
99	0x3e103675	0.14083274
100	0x3d3d199c	0.046167
101	0xbd9a0adc	-0.075216025
102	0x3e0e666e	0.13906261
103	0xbdf6d1a3	-0.12051704
104	0xbdb06502	-0.08613016
105	0x3e238b21	0.15971042
106	0xbddef86c	-0.108872265
107	0xbe248009	-0.16064467
108	0xbe17a6fa	-0.1480979
109	0x3d559bed	0.052150656
110	0xbd8c1866	-0.06840591
111	0xbe2c0390	-0.16798234
112	0xbdd395a8	-0.10331279
113	0xbe0f9cce	-0.1402466
114	0x3c11c42e	0.008896871
115	0xbe2e6b98	-0.17033231
116	0xbde37106	-0.11105542
117	0xbc553810	-0.013013855
118	0x3e41f922	0.18942693
119	0x3e474efb	0.19463722
120	0xbd39515d	-0.04524361
121	0xbcbd3c6c	-0.0231001
122	0xbdedf263	-0.11618497
123	0xbdac1fdf	-0.084045164
124	0xbcc7d23d	-0.024392242
125	0xbe47e635	-0.19521411
126	0x3e30146e	0.17195293
127	0xbd6f2a23	-0.058389794
128	0xbe0ae50c	-0.13563937
129	0xbd838b54	-0.06423059
130	0x3d9367d2	0.071975365
131	0x3e0cda62	0.13755181
132	0xbdc69831	-0.09696997
133	0xbb888f83	-0.0041674986
134	0x3d8726c2	0.06599189
135	0xbe4c81a4	-0.19971329
136	0x3e0effb9	0.13964738
137	0xbba8b5fc	-0.0051486474
138	0xbe0fc343	-0.1403933
139	0xbc5f60e4	-0.01363394
140	0x3cc49973	0.023998952
141	0xbe53bc78	-0.20677364
142	0x3e50c440	0.20387363
143	0x3ce662df	0.028123317
144	0x3e0cd9b2	0.13754919
145	0xbdcc7460	-0.09983134
146	0x3d043dac	0.032285377
147	0xbd929f2a	-0.071592644
148	0xbde88323	-0.11353137
149	0xbd4c7988	-0.04992059
150	0x3e4a17bc	0.19735616
151	0xbdf96824	-0.121780664
152	0xbde53312	-0.111913815
153	0xbc4fc918	-0.012682222
154	0x3e223a09	0.15842451
155	0x3bdb79fd	0.0066978917
156	0x3e310a92	0.17289189
157	0xbe084874	-0.13308889
158	0xbe2fbbe9	-0.17161526
159	0xbe54f66b	-0.20797126
160	0xbd903b81	-0.070425995
161	0xbd7f5171	-0.062333528
162	0x3d4a8654	0.04944451
163	0x3e22142d	0.15828009
164	0xbd776950	-0.06040317
165	0xbd3778c8	-0.04479292
166	0x3e2f86e8	0.17141306
167	0xbd4e012c	-0.050294086
168	0x3b12c663	0.002239608
169	0x3e384f7e	0.17999074
170	0x3dc35b0f	0.095388524
171	0x3e2d557e	0.16927144
172	0xbe26295a	-0.16226712
173	0xbce03ebb	-0.027373662
174	0x3e25084e	0.16116449
175	0x3bb905c0	0.0056464374
176	0x3c55d84b	0.013052057
177	0x3e2d0234	0.16895372
178	0xbe141ca9	-0.14464058
179	0xb99467f7	-0.0002830622
180	0x3e01e8fa	0.1268653
181	0x3e56370c	0.20919436
182	0xbe28dc85	-0.16490372
183	0xbdf518d5	-0.11967627
184	0x3d4864c6	0.04892423
185	0xbcb5528d	-0.02213409
186	0x3e30862e	0.17238685
187	0x3da28197	0.079348736
188	0xbbb3ea14	-0.005490551
189	0xbd9c5b0f	-0.076345555
190	0xbc8a1a60	-0.01685828
191	0xbda0bb23	-0.078481935
192	0xbe4101c4	-0.1884833
193	0x3daaeec6	0.08346324
194	0x3da5383a	0.08067365
195	0xbdfc2475	-0.12311641
196	0xbd51646c	-0.05112116
197	0x3e41c249	0.1892177
198	0xbe53d244	-0.20685679
199	0x3c56ebe0	0.01311776
200	0x3d6393f4	0.05556102
201	0x3e2d63eb	0.16932647
202	0x3db21a0e	0.08696376
203	0x3db808c2	0.089860454
204	0xbdd9c5ca	-0.106334284
205	0x3e231247	0.15924941
206	0xbe01cd3d	-0.12675948
207	0x3e578d7d	0.21050067
208	0x3e3aca71	0.18241288
209	0xbe5d8bbf	-0.2163534
210	0xbe28e7f5	-0.16494735
211	0x3be84960	0.007088825
212	0xbdf75552	-0.120768204
213	0x3e334bfd	0.17509456
214	0xbd4f3f20	-0.05059731
215	0x3b8cc1c0	0.0042955577
216	0x3e58f28b	0.21186273
217	0xbdfcf2f0	-0.12351024
218	0xbe0f8325	-0.14014871
219	0x3e0517b7	0.12997328
220	0xbe47696c	-0.19473809
221	0xbdfb6252	-0.122746125
222	0x3d1d8eac	0.03846614
223	0xbdd49c73	-0.10381403
224	0x3d0c1cb4	0.03420706
225	0xbbfb7aa0	-0.00767453
226	0x3e240367	0.16016923
227	0xbe1a91ae	-0.15094635
228	0xbe2fa4df	-0.17152737
229	0xbcd475f8	-0.025935158
230	0xbe2b10c2	-0.16705611
231	0xbd36c30c	-0.044619605
232	0xbdfcd9c5	-0.12346224
233	0x3e4b3db3	0.19847755
234	0xbe56aaeb	-0.20963638
235	0xbe1dffe8	-0.15429652
236	0xbd88118c	-0.06643972
237	0xbdf463f9	-0.11933131
238	0x3e46f953	0.19431047
239	0x3dffad56	0.12484233
240	0xbd22ecb4	-0.03977652
241	0xbe57afdb	-0.21063177
242	0x3db3ed5e	0.087855086
243	0x3e0a68f7	0.13516603
244	0xbdb8ca8e	-0.09023009
245	0xbda04174	-0.07824984
246	0xbd618980	-0.05506277
247	0x3d090784	0.033454433
248	0xbd1528f4	-0.03641601
249	0xbd1a824c	-0.037721917
250	0x3e0a0b13	0.13480787
251	0xbdc80ec4	-0.09768441
252	0xbdd06933	-0.10176315
253	0xbe442d44	-0.19157892
254	0x3dccb902	0.09996225
255	0x3e15dc15	0.14634736

model.readout.fc.weight f4 [6, 64]
0	0x3be01b63	0.0068392023
1	0x3d2e2b60	0.042521834
2	0x3c63f417	0.013913176
3	0x3da24708	0.079237044
4	0x3dea9e4a	0.114559725
5	0xbdd2a7e9	-0.102859326
6	0xbcdd4979	-0.027012574
7	0x3da94729	0.08265526
8	0x3d260f8f	0.04054218
9	0xbd764a85	-0.06012966
10	0xbcdd223f	-0.026993869
11	0x3dd14921	0.10219026
12	0xbce240bd	-0.02761876
13	0x3d9e2d64	0.07723501
14	0xbcffc4fb	-0.031221857
15	0x3caf3a9c	0.021390252
16	0x3d680bfc	0.056652054
17	0x3ce4a3ad	0.027910078
18	0xbd981120	-0.07425141
19	0x3d0e08b0	0.034676254
20	0x3d9d68a4	0.07685974
21	0x3d0f1f75	0.03494211
22	0xbdee28ac	-0.11628851
23	0x3d56eb08	0.052470237
24	0x3d877652	0.06614365
25	0xbc7cb3e5	-0.01542375
26	0x3d81f7ee	0.06346117
27	0xbda4f334	-0.080542
28	0x3c62c309	0.013840445
29	0xbd4210d5	-0.047379334
30	0xbd5834b7	-0.052784648
31	0x3df7d5ea	0.12101348
32	0xbd8271ae	-0.06369339
33	0x3d967f13	0.07348456
34	0xbd92abd2	-0.071616784
35	0xbbdc9720	-0.0067318827
36	0xbc818593	-0.015810763
37	0x3dc99bba	0.098441556
38	0x3b98fc82	0.004668773
39	0x3cb99758	0.022655174
40	0xbd0f10bc	-0.03492807
41	0x3d364154	0.044495896
42	0xbc84beda	-0.016204286
43	0x3d682edb	0.05668531
44	0xbdf74be3	-0.12075021
45	0x3d97a70c	0.074049085
46	0xbddd57ec	-0.108077854
47	0xbd8480cc	-0.064698786
48	0x3dbbe65c	0.09174797
49	0x3cad4147	0.02114929
50	0x3c175f19	0.009238982
51	0xbdc7124a	-0.09720285
52	0x3d8192e9	0.06326849
53	0xbbeb8f01	-0.0071886783
54	0xbdc52b84	-0.096274406
55	0x3d92e549	0.07172639
56	0xbdf459c0	-0.11931181
57	0x3df91e3c	0.1216397
58	0xbd6eaa50	-0.05826789
59	0x3dd75a75	0.105153
60	0xbe005105	-0.12530906
61	0x3c85efc7	0.016349686
62	0xbda90323	-0.082525514
63	0x3b9e1ee0	0.004825458
64	0x3d0d739d	0.034534086
65	0xbd7ec7e4	-0.06220235
66	0x3d12f64f	0.03587943
67	0x3d4eb130	0.050461948
68	0xbdecbfb8	-0.11560005
69	0x3d0bcb2e	0.034129314
70	0xbd917754	-0.07102838
71	0xbc98fc5b	-0.01867502
72	0xbd95b6c1	-0.07310248
73	0xbd7df6ec	-0.06200306
74	0xbdcc7a67	-0.09984284
75	0xbd81595b	-0.06315871
76	0xbd3ab19a	-0.04557953
77	0xbb8a6720	-0.0042237192
78	0x3dd222f8	0.10260576
79	0x3dd4977e	0.10380457
80	0x3d84edac	0.06490645
81	0x3d85e217	0.06537264
82	0xbdb7d888	-0.08976847
83	0xbdd2d849	-0.10295159
84	0xbdb78777	-0.08961385
85	0x3d154224	0.03644003
86	0xbdc515ca	-0.096232966
87	0x3d61d15d	0.055131305
88	0xbca350b2	-0.01993594
89	0xbd5cf69f	-0.053946134
90	0x3d92eae2	0.071737066
91	0x3b6f1ad7	0.0036484504
92	0x3dda427c	0.10657212
93	0x3c903c9c	0.017607026
94	0x3d6d253e	0.057896845
95	0x3d0d1704	0.034445778
96	0x3c89b06e	0.016807761
97	0xbd7d6127	-0.06186023
98	0xbd215a49	-0.039392743
99	0xbd7aaa38	-0.06119749
100	0x3c5be450	0.013421133
101	0xb9d2c200	-0.00040198863
102	0xbde1b4fa	-0.11020847
103	0x3dad49e2	0.08461358
104	0x3c6d26b9	0.014474564
105	0xbcbf5ac8	-0.023358718
106	0xbcf5ebb4	-0.030019619
107	0x3d2f997b	0.04287098
108	0x3d4653f9	0.048419926
109	0xbc7e3860	-0.015516371
110	0x3dced264	0.100987226
111	0x3daffb94	0.085929066
112	0x3db26540	0.08710718
113	0xbd0b5a78	-0.034021825
114	0x3d7938bc	0.06084512
115	0xbdf681d5	-0.12036482
116	0x3d56ea89	0.052469764
117	0x3d55e261	0.052217845
118	0xbdb14f4e	-0.08657704
119	0x3ba9846f	0.005173258
120	0xbd18f2af	-0.037340816
121	0xbdc7497b	-0.09730812
122	0x3dcad5ea	0.09904082
123	0xbd1c0731	-0.038092796
124	0x3ddbc539	0.107309766
125	0x3d94b9b2	0.07261981
126	0xbc900482	-0.017580274
127	0x3d7e0078	0.062012166
128	0xbd98ae29	-0.074550934
129	0xbdfd8458	-0.12378758
130	0xbd783471	-0.060596887
131	0xbdc35cf4	-0.09539214
132	0x3d249d4c	0.040189072
133	0x3dcc1ce0	0.09966445
134	0x3c5c64c9	0.013451763
135	0xbdbbc205	-0.09167866
136	0xbcb8fccc	-0.02258148
137	0x3d3ca9e9	0.046060476
138	0xbddf57a4	-0.10905388
139	0x3db2e21f	0.087345354
140	0x3d9fab26	0.07796316
141	0x3da57ab4	0.080800444
142	0xbd0ff559	-0.03514609
143	0xbdd5c79e	-0.104384646
144	0xbd6d10dd	-0.05787741
145	0xbdf8a29c	-0.1214039
146	0xbc134810	-0.008989349
147	0x3df62b40	0.12019968
148	0xbcd429f2	-0.025898907
149	0xbdc9ee63	-0.09859922
150	0xbd90516c	-0.0704678
151	0x3de70be0	0.11281562
152	0xbdd2a0ac	-0.10284552
153	0xbdb9d426	-0.09073667
154	0xbaf2ff22	-0.001853917
155	0x3da3f075	0.08004848
156	0xbd87d824	-0.066330224
157	0x3d0a21c6	0.033723615
158	0x3dd846d2	0.10560383
159	0xbb78fc00	-0.0037992
160	0xbd40ef04	-0.047102943
161	0xbc5c61e3	-0.013451072
162	0x3d7378d6	0.05944141
163	0x3df18428	0.11792785
164	0x3b599a00	0.0033203363
165	0xbde8151a	-0.1133215
166	0xbd8d3f7b	-0.068968736
167	0xbd11d884	-0.035606876
168	0xbd51bfd7	-0.051208343
169	0x3df5d746	0.12003951
170	0x3dd3059a	0.10303803
171	0x3c76cb8b	0.015063177
172	0xbdf1da8f	-0.11809265
173	0xbd9f2be2	-0.07772042
174	0xbc490293	-0.01226868
175	0x3c509980	0.01273191
176	0xbd0461d0	-0.032319844
177	0xbd098ac0	-0.033579588
178	0x3df7f596	0.12107389
179	0x3dadc746	0.08485274
180	0xbd9b1043	-0.07571461
181	0x3cd09d01	0.02546549
182	0xbc378283	-0.01120055
183	0xbda837fe	-0.08213805
184	0xbd8fb24f	-0.070164315
185	0xbd7dc208	-0.06195262
186	0x3d78c6d4	0.060736492
187	0xbc2eab87	-0.0106610125
188	0x3db56059	0.088562675
189	0x3ca4e715	0.02012972
190	0xbc2268f1	-0.009912715
191	0x3df1ef4a	0.11813219
192	0xbbb9bd53	-0.005668321
193	0x3c6ea8f1	0.014566646
194	0xbd39389e	-0.04522001
195	0x3c282f90	0.010265246
196	0x3d44aad4	0.048014477
197	0xbde63a14	-0.11241546
198	0x3d78e215	0.060762484
199	0xbc88f29a	-0.016717244
200	0x3db4f44e	0.0883566
201	0xbc222401	-0.009896279
202	0xbdd74a88	-0.105122626
203	0x3d0c50dd	0.034256805
204	0xbb81fa0c	-0.0039665755
205	0xbde1bf33	-0.110227965
206	0x3dadab5c	0.0847995
207	0xbc80fb75	-0.015744904
208	0xbcc2cfa2	-0.023780648
209	0xbce68975	-0.028141716
210	0xbdd115fa	-0.1020927
211	0x3ba79adb	0.0051148958
212	0x3d92f85b	0.07176276
213	0x3dbb56d2	0.09147419
214	0x3d241584	0.04005958
215	0xbd32745d	-0.043568004
216	0xbdc7495e	-0.097307906
217	0x3c161e82	0.009162547
218	0xbd518718	-0.051154226
219	0xbdf74e69	-0.120755024
220	0x3dc73b05	0.09728054
221	0x3dd7e878	0.10542387
222	0xbc348b91	-0.011019603
223	0xbc269390	-0.010167018
224	0x3d31fe1e	0.043455236
225	0x3de31775	0.110884584
226	0xbd87eb26	-0.06636648
227	0x3c5e8e50	0.013583735
228	0xbc9b6804	-0.018970497
229	0x3aa89d80	0.0012864321
230	0x3dfd1b0c	0.123586744
231	0x3d478044	0.048706308
232	0xbdfda244	-0.12384465
233	0x3de9b44a	0.114113405
234	0xbdb7b71c	-0.08970472
235	0x3da7ebf8	0.08199304
236	0x3d5b7cfa	0.053585984
237	0xbda566be	-0.08076237
238	0x3d9c112f	0.07620465
239	0x3cacf340	0.021112084
240	0xbde89a8c	-0.113576025
241	0xbd433087	-0.0476537
242	0xbb32ad8e	-0.0027264091
243	0xbdf36142	-0.11883785
244	0xbd1fb42d	-0.03899019
245	0xbd8e360f	-0.069439046
246	0xbd0f6938	-0.035012454
247	0xbdc6d637	-0.09708827
248	0x3d2d33bc	0.042285666
249	0xbdfd2d01	-0.123620994
250	0xbd793784	-0.06084396
251	0xbc7074f7	-0.014676324
252	0xbde52851	-0.1118933
253	0x3de37065	0.11105422
254	0x3d24d49e	0.04024183
255	0xbd1748d8	-0.036934704

model.readout.fc.bias f4 [6]
0	0xbd85f114	-0.06540123
1	0x3d9f3f14	0.07775703
2	0xbba4b65f	-0.005026623
3	0xbdca5536	-0.09879534
4	0xbd860571	-0.065440066
5	0x3d0c4438	0.034244746

exp_avg f4 [64]
0	0xbb6690ff	-0.003518164
1	0x00000000	0.0
2	0x3b1d7d4e	0.0024030986
3	0xbb4b6610	-0.0031036176
4	0xbb3de164	-0.0028973455
5	0x3a98a103	0.0011644665
6	0x39f876bc	0.0004739071
7	0xb983bde4	-0.00025127747
8	0xbad72007	-0.0016412743
9	0x3802a16a	3.1144744e-05
10	0x3b2f14d4	0.0026715295
11	0x3b2eb7eb	0.0026659917
12	0x3b078d6d	0.0020683662
13	0x00000000	0.0
14	0x3898e82a	7.291169e-05
15	0xb9096bd6	-0.0001310551
16	0x37d8feaf	2.5867803e-05
17	0x3a6be209	0.00089982204
18	0xba84a029	-0.0010118532
19	0xba898e24	-0.0010494632
20	0xba9600e6	-0.001144436
21	0x00000000	0.0
22	0x3a12fac3	0.00056068244
23	0xbaf2a4e2	-0.0018512274
24	0x3ab7823e	0.0014000607
25	0xbaa0ac53	-0.0012258388
26	0x00000000	0.0
27	0x3b055c52	0.0020349217
28	0x3a699d12	0.000891165
29	0x3965da5c	0.00021920487
30	0x3881b26c	6.184433e-05
31	0xba00d6be	-0.00049148116
32	0xbaca451a	-0.0015431971
33	0xbb294815	-0.0025830318
34	0xb9b7c8d2	-0.00035054103
35	0x00000000	0.0
36	0x00000000	0.0
37	0x380d6764	3.371331e-05
38	0x3a480e06	0.0007631484
39	0x3a64b8f6	0.0008725071
40	0xba6797d0	-0.00088345725
41	0xb8801361	-6.107125e-05
42	0x37e89ba1	2.7729026e-05
43	0x3983c326	0.00025131664
44	0x00000000	0.0
45	0xb9da1059	-0.0004159238
46	0xb8008b81	-3.06475e-05
47	0x00000000	0.0
48	0x39b33bdc	0.0003418614
49	0x3a824e7d	0.0009941604
50	0x3b18f5d7	0.0023339891
51	0x3afe43dd	0.0019398887
52	0x38b0a431	8.422917e-05
53	0x393884cf	0.00017597082
54	0x3a7ee1af	0.00097229605
55	0x3a6d3b9b	0.00090497144
56	0x3b013c35	0.0019719724
57	0x3b28788e	0.0025706622
58	0xba413e25	-0.0007371626
59	0x3a8cede3	0.0010752048
60	0xb66b083d	-3.5022524e-06
61	0xba42a9fd	-0.0007425843
62	0x39f16375	0.00046041203
63	0x3a1b90e1	0.00059343694

exp_avg_sq f4 [64]
0	0x36303426	2.6256398e-06
1	0x00000000	0.0
2	0x35ab9f51	1.278686e-06
3	0x36c21282	5.783805e-06
4	0x36318c8f	2.6456871e-06
5	0x35524755	7.83349e-07
6	0x34955d27	2.782119e-07
7	0x34478129	1.8580307e-07
8	0x35a1cd7b	1.2055237e-06
9	0x332d36aa	4.0329418e-08
10	0x35d0441d	1.5517031e-06
11	0x36956ea6	4.453427e-06
12	0x365eadf4	3.3181832e-06
13	0x00000000	0.0
14	0x31d06c91	6.0659393e-09
15	0x3575923d	9.1482417e-07
16	0x3355b84e	4.976055e-08
17	0x35904ed7	1.0751781e-06
18	0x353c9371	7.0250013e-07
19	0x3536301a	6.787028e-07
20	0x357b1183	9.353027e-07
21	0x00000000	0.0
22	0x36745c7a	3.6412662e-06
23	0x36be8b3d	5.6786507e-06
24	0x35ac7519	1.2849079e-06
25	0x35843b55	9.852034e-07
26	0x00000000	0.0
27	0x35c10174	1.4380043e-06
28	0x35403ebf	7.161688e-07
29	0x35aae894	1.2733676e-06
30	0x32c56453	2.297944e-08
31	0x35f2991a	1.8074963e-06
32	0x34d945ae	4.0470098e-07
33	0x3680ed20	3.8423022e-06
34	0x35821b06	9.69362e-07
35	0x00000000	0.0
36	0x00000000	0.0
37	0x30d117d8	1.5213528e-09
38	0x355cfd93	8.2325386e-07
39	0x3569fe10	8.7168974e-07
40	0x363e744c	2.83799e-06
41	0x31e82926	6.7567667e-09
42	0x30f4f71b	1.7823568e-09
43	0x3437e2dc	1.7125734e-07
44	0x00000000	0.0
45	0x363fd58e	2.8585523e-06
46	0x3304c574	3.0913228e-08
47	0x00000000	0.0
48	0x35ad29f1	1.2901711e-06
49	0x35ba0541	1.3859609e-06
50	0x361aba50	2.3056236e-06
51	0x35855a67	9.935583e-07
52	0x34711685	2.2453067e-07
53	0x32a17d2d	1.879979e-08
54	0x36e77f46	6.899153e-06
55	0x35c6e112	1.4817654e-06
56	0x361b122d	2.310738e-06
57	0x37139da8	8.79859e-06
58	0x3551146d	7.788829e-07
59	0x35a3da37	1.2207955e-06
60	0x34c8c609	3.7396993e-07
61	0x35bce536	1.4073801e-06
62	0x36043fbb	1.9706629e-06
63	0x36966fc8	4.4833614e-06

exp_avg f4 [64, 3]
0	0xbac3073c	-0.0014879475
1	0xbb028d21	-0.0019920545
2	0xb7de5112	-2.6502214e-05
3	0x00000000	0.0
4	0x00000000	0.0
5	0x00000000	0.0
6	0x3ae17b5f	0.0017202905
7	0x3a34290b	0.0006872571
8	0xb79121e9	-1.7301138e-05
9	0xb9cf67b5	-0.00039559384
10	0xbb29e211	-0.00259221
11	0xb8f6fd65	-0.000117773925
12	0xbb0c643d	-0.0021422051
13	0xba4c4907	-0.00077928643
14	0x3823d50a	3.9060636e-05
15	0x3a62b996	0.000864887
16	0x399537b7	0.00028461005
17	0xb7de61aa	-2.650994e-05
18	0x39aa6a7d	0.00032504267
19	0x3920818e	0.00015307052
20	0xb6d02da6	-6.2041972e-06
21	0xb6d271a3	-6.2717168e-06
22	0xb904d6f2	-0.00012668574
23	0xb8f9e9b1	-0.00011916774
24	0xba1cc1ec	-0.00059798243
25	0xba8e3928	-0.0010850774
26	0x383f1457	4.555689e-05
27	0x350f8e36	5.3478595e-07
28	0x37f2e4c3	2.8955174e-05
29	0x3632cf41	2.6644705e-06
30	0x3a9e34b3	0.0012070149
31	0x3ac20c4b	0.0014804689
32	0xb761a47b	-1.3449341e-05
33	0x3ada8b83	0.0016673658
34	0x3a725ae3	0.00092451106
35	0x38b7d105	8.765053e-05
36	0x3ac7bdbf	0.0015239044
37	0x3a2666dc	0.00063477247
38	0xb8c22f7e	-9.259487e-05
39	0x00000000	0.0
40	0x00000000	0.0
41	0x00000000	0.0
42	0x3541296f	7.1958397e-07
43	0x368893e0	4.0703308e-06
44	0x38901b1d	6.871505e-05
45	0x39a44f15	0.00031339438
46	0xb9ccbc4d	-0.00039050207
47	0x36508bf6	3.1075883e-06
48	0x367b5a91	3.7454631e-06
49	0x38010e14	3.0769108e-05
50	0xb744c832	-1.1729122e-05
51	0xb93f5c8b	-0.00018249654
52	0x3a88bc34	0.0010432065
53	0x386308cb	5.4129207e-05
54	0xb99ff238	-0.0003050731
55	0xba430a89	-0.00074402295
56	0x3814fd67	3.552195e-05
57	0xba293e3f	-0.0006456114
58	0xb9e5bded	-0.0004381979
59	0x384305f6	4.6497174e-05
60	0xb955a868	-0.00020375999
61	0xba45e72e	-0.0007549402
62	0xb95176c9	-0.00019976044
63	0x00000000	0.0
64	0x00000000	0.0
65	0x00000000	0.0
66	0xb9c3466d	-0.0003724577
67	0x3a8292e4	0.000996199
68	0xb895b4e5	-7.138568e-05
69	0xbb1b4299	-0.0023690818
70	0x39842648	0.00025205524
71	0x3983b08f	0.00025117813
72	0x38840be5	6.296466e-05
73	0x3aa01209	0.0012212406
74	0x3909c383	0.00013138172
75	0xbab003ba	-0.0013428845
76	0xb96a18f8	-0.0002232528
77	0x39b99949	0.00035400156
78	0x00000000	0.0
79	0x00000000	0.0
80	0x00000000	0.0
81	0xb7f9b006	-2.976508e-05
82	0x3b006375	0.001959053
83	0x391bb5e4	0.00014849711
84	0x3a65f6d4	0.0008772437
85	0x38dda404	0.000105686515
86	0xb9001552	-0.00012214974
87	0xb94491e2	-0.00018746362
88	0x39d3a36c	0.00040366815
89	0x377bbb18	1.5004327e-05
90	0x34efafc2	4.46451e-07
91	0x37cde655	2.4545161e-05
92	0x3820c9c2	3.8334874e-05
93	0x3934749f	0.00017209582
94	0xba1d2af2	-0.0005995474
95	0xb85ad3b7	-5.2172425e-05
96	0xb9b19abb	-0.00033875354
97	0xbaa205d0	-0.0012361351
98	0x3839cc7d	4.429788e-05
99	0x3818f552	3.6468096e-05
100	0xbb267604	-0.0025399933
101	0xb8a4446f	-7.832876e-05
102	0xb97a615d	-0.00023878129
103	0xb9090116	-0.00013065743
104	0x37820eb7	1.550406e-05
105	0x00000000	0.0
106	0x00000000	0.0
107	0x00000000	0.0
108	0x00000000	0.0
109	0x00000000	0.0
110	0x00000000	0.0
111	0x00000000	0.0
112	0x00000000	0.0
113	0x380d823d	3.3738314e-05
114	0x3a75f6c9	0.0009382782
115	0xb90d7fb9	-0.00013494388
116	0xb7c3c5a7	-2.333785e-05
117	0xb9750b0b	-0.00023369135
118	0x3a6ebdf5	0.00091072853
119	0x3957b4ff	0.00020571424
120	0x3a2852f9	0.00064210553
121	0xbaad5d64	-0.0013226685
122	0xb8ff407e	-0.0001217136
123	0xb4bbc408	-3.4974096e-07
124	0xb7176a5e	-9.025067e-06
125	0xb8571c07	-5.1286097e-05
126	0x00000000	0.0
127	0x00000000	0.0
128	0x37e71673	2.75478e-05
129	0x382e8c28	4.1615363e-05
130	0x38cfd67e	9.9104815e-05
131	0x38ee7975	0.000113713475
132	0x00000000	0.0
133	0x00000000	0.0
134	0x00000000	0.0
135	0x3a853928	0.0010164129
136	0xbab64f91	-0.0013909211
137	0xb81997cb	-3.661941e-05
138	0x3657839b	3.21141e-06
139	0xb854a80d	-5.070125e-05
140	0x3788bf2f	1.630149e-05
141	0x00000000	0.0
142	0x00000000	0.0
143	0x00000000	0.0
144	0x39ff6450	0.0004871213
145	0x379e0fb0	1.8842373e-05
146	0xb9321fe8	-0.00016987289
147	0x39fc7172	0.0004814971
148	0x39e648e4	0.00043923326
149	0x3838b5ce	4.4038337e-05
150	0xb8401e3b	-4.580452e-05
151	0x3b1ba3cb	0.0023748751
152	0xb789d74a	-1.6431924e-05
153	0x3ac73797	0.0015199062
154	0x39d89cf3	0.00041315667
155	0xb81540ba	-3.558465e-05
156	0xb6ebe66f	-7.0303718e-06
157	0x38ba544f	8.884875e-05
158	0x36335ddc	2.6727712e-06
159	0x37dc1172	2.6234167e-05
160	0x36c3e5d7	5.8382097e-06
161	0x3913e40b	0.00014103965
162	0x3a8cc9c8	0.0010741288
163	0x386491c3	5.4495187e-05
164	0xb9241e06	-0.00015651443
165	0x3a7ae112	0.0009570281
166	0x3977732b	0.00023598659
167	0xb99432dc	-0.00028266653
168	0x3a2b53fa	0.0006535646
169	0x3a8ab0e4	0.0010581282
170	0x3994d2bd	0.00028385772
171	0x3b17ce11	0.0023163597
172	0x3a7e52d2	0.0009701672
173	0xba3b024f	-0.0007133828
174	0x39341aed	0.00017176168
175	0xba492cc5	-0.00076742127
176	0xb8f972c9	-0.00011894626
177	0x38f62860	0.000117377145
178	0x3a82d9cb	0.000998312
179	0xb85b0983	-5.2222527e-05
180	0xb7c180b0	-2.3067318e-05
181	0x39159aca	0.00014267411
182	0xb911424e	-0.00013852978
183	0xba867f29	-0.0010261285
184	0xb76ba6c4	-1.404592e-05
185	0x399a342d	0.00029412043
186	0x39f50071	0.0004673037
187	0xb8c3f274	-9.343485e-05
188	0x38c27a68	9.273441e-05
189	0x3a87ad93	0.0010351412
190	0xb9e6cdaa	-0.0004402225
191	0xb780b117	-1.5341253e-05

exp_avg_sq f4 [64, 3]
0	0x3550e7d4	7.782339e-07
1	0x3569d6e5	8.7111977e-07
2	0x32f19458	2.8123551e-08
3	0x00000000	0.0
4	0x00000000	0.0
5	0x00000000	0.0
6	0x35409621	7.174404e-07
7	0x33fcbc01	1.1768862e-07
8	0x30067133	4.890978e-10
9	0x35c647c1	1.4773033e-06
10	0x35ede45a	1.7724335e-06
11	0x33501563	4.8448225e-08
12	0x35c34046	1.4547338e-06
13	0x3466abd7	2.1482934e-07
14	0x30e44bba	1.6610706e-09
15	0x350f951b	5.348863e-07
16	0x3302e1df	3.0473412e-08
17	0x2fc67edb	3.6106126e-10
18	0x3458fb24	2.0207932e-07
19	0x31f8fb55	7.246323e-09
20	0x2dfe24b4	2.8892756e-11
21	0x30d49fb1	1.5470417e-09
22	0x32edf045	2.7699693e-08
23	0x338dfc7b	6.61175e-08
24	0x348eb601	2.6581986e-07
25	0x34d5dbbb	3.9834217e-07
26	0x32bad633	2.1750656e-08
27	0x2b3ce1fb	6.710463e-13
28	0x2fb248e6	3.242981e-10
29	0x33256f0c	3.8518053e-08
30	0x3440995d	1.7937187e-07
31	0x354fbd6e	7.7389166e-07
32	0x31415675	2.8134342e-09
33	0x353f8f2e	7.13614e-07
34	0x3601c6ea	1.9338281e-06
35	0x322fc873	1.02319175e-08
36	0x355fbd60	8.334955e-07
37	0x359907ac	1.1401621e-06
38	0x311956d7	2.2313793e-09
39	0x00000000	0.0
40	0x00000000	0.0
41	0x00000000	0.0
42	0x2c360d5c	2.5871172e-12
43	0x2eb22d6b	8.102571e-11
44	0x31b48fb3	5.255026e-09
45	0x352959f8	6.308833e-07
46	0x33365e05	4.2460687e-08
47	0x2c422090	2.7587134e-12
48	0x2dd413aa	2.4110342e-11
49	0x307e5799	9.2529145e-10
50	0x333f4bd2	4.453961e-08
51	0x34ff01de	4.749881e-07
52	0x3477e7e6	2.3088032e-07
53	0x310714ab	1.9656834e-09
54	0x3310d11b	3.3717793e-08
55	0x34ebd12f	4.3924362e-07
56	0x321c4d00	9.097903e-09
57	0x3442181c	1.8076429e-07
58	0x3474eb42	2.2809857e-07
59	0x30bf3654	1.391252e-09
60	0x33c55215	9.188458e-08
61	0x34ca7782	3.7712385e-07
62	0x33467831	4.620978e-08
63	0x00000000	0.0
64	0x00000000	0.0
65	0x00000000	0.0
66	0x35792003	9.280631e-07
67	0x35a91b19	1.2599368e-06
68	0x317450f2	3.5552685e-09
69	0x35b1cc29	1.3246946e-06
70	0x36080e65	2.0273958e-06
71	0x335d1523	5.1474796e-08
72	0x3433a510	1.6730723e-07
73	0x35063929	5.000207e-07
74	0x3329fb94	3.9577188e-08
75	0x35289747	6.2805015e-07
76	0x332aec59	3.9796166e-08
77	0x33986c28	7.097725e-08
78	0x00000000	0.0
79	0x00000000	0.0
80	0x00000000	0.0
81	0x318695b6	3.9169334e-09
82	0x3566de3d	8.6005076e-07
83	0x3420cf59	1.4976594e-07
84	0x34cf093e	3.856348e-07
85	0x338b58d5	6.48885e-08
86	0x31e30c1a	6.6079453e-09
87	0x33df7d29	1.0407013e-07
88	0x353d3254	7.0481224e-07
89	0x2f5aed67	1.9911327e-10
90	0x2d30ed7a	1.0057172e-11
91	0x2f94cc43	2.706618e-10
92	0x32b0c7cd	2.0579956e-08
93	0x358da64f	1.0553721e-06
94	0x3411e4c7	1.3587406e-07
95	0x339f6882	7.423024e-08
96	0x330a867e	3.225295e-08
97	0x347e5c92	2.368927e-07
98	0x31fe9979	7.4098208e-09
99	0x357c8287	9.406726e-07
100	0x35c00fdb	1.4309729e-06
101	0x3309f870	3.212375e-08
102	0x3554d66c	7.928818e-07
103	0x32956ec0	1.7396246e-08
104	0x2f3d6241	1.7224357e-10
105	0x00000000	0.0
106	0x00000000	0.0
107	0x00000000	0.0
108	0x00000000	0.0
109	0x00000000	0.0
110	0x00000000	0.0
111	0x00000000	0.0
112	0x00000000	0.0
113	0x30d0a9cf	1.5182254e-09
114	0x3505184f	4.9581735e-07
115	0x3388bd35	6.36741e-08
116	0x3020a6ae	5.8444527e-10
117	0x3335fa8a	4.237021e-08
118	0x35046668	4.932285e-07
119	0x330ed53f	3.3255898e-08
120	0x33dc13a6	1.0248122e-07
121	0x35f9894b	1.8591903e-06
122	0x335fe455	5.21289e-08
123	0x2d43ece0	1.11370635e-11
124	0x2dce77a5	2.3472621e-11
125	0x31cc5517	5.946855e-09
126	0x00000000	0.0
127	0x00000000	0.0
128	0x30f210e4	1.7612618e-09
129	0x30cdf88d	1.4986355e-09
130	0x32efe721	2.7928367e-08
131	0x33600266	5.2156246e-08
132	0x00000000	0.0
133	0x00000000	0.0
134	0x00000000	0.0
135	0x3543e4d4	7.297615e-07
136	0x3581c92a	9.669795e-07
137	0x32bef807	2.2231701e-08
138	0x2ef8e803	1.1318948e-10
139	0x318f4a1d	4.1702735e-09
140	0x327c9b77	1.4703679e-08
141	0x00000000	0.0
142	0x00000000	0.0
143	0x00000000	0.0
144	0x34e30da1	4.229196e-07
145	0x34b7908d	3.419158e-07
146	0x32b5533f	2.110903e-08
147	0x352be4aa	6.4035214e-07
148	0x347aee3d	2.3369735e-07
149	0x321dfb2a	9.195711e-09
150	0x33359296	4.2275666e-08
151	0x35da2ca3	1.6255257e-06
152	0x338bbb1f	6.506729e-08
153	0x351b928b	5.795525e-07
154	0x337e1972	5.9162126e-08
155	0x30828a8f	9.498126e-10
156	0x3177db66	3.6067944e-09
157	0x33256e94	3.8517626e-08
158	0x33752997	5.7081333e-08
159	0x2fd0dff7	3.7994116e-10
160	0x30cb049d	1.4771505e-09
161	0x324c4a83	1.1891305e-08
162	0x360153a3	1.927118e-06
163	0x36073b76	2.0151178e-06
164	0x318f9e3c	4.179837e-09
165	0x34d0323a	3.8779564e-07
166	0x35000683	4.769319e-07
167	0x32b5a7c9	2.1147473e-08
168	0x346126d6	2.0968886e-07
169	0x359818db	1.1332116e-06
170	0x335216f3	4.8915307e-08
171	0x364ba874	3.034741e-06
172	0x363578d9	2.7041444e-06
173	0x343e19a5	1.7704458e-07
174	0x3235b700	1.0577196e-08
175	0x351a604a	5.750959e-07
176	0x32aff6e5	2.0484956e-08
177	0x33e8683f	1.0822304e-07
178	0x352a802f	6.3516467e-07
179	0x32cf337d	2.4121386e-08
180	0x345de3f1	2.0665153e-07
181	0x32f140ef	2.8085621e-08
182	0x323fdb26	1.1167492e-08
183	0x35657dc1	8.5492144e-07
184	0x33c54654	9.18632e-08
185	0x3336ab26	4.2530836e-08
186	0x351eb840	5.9127706e-07
187	0x350b6de2	5.1941436e-07
188	0x3304f630	3.095755e-08
189	0x35cc2cdd	1.5212241e-06
190	0x358a0cee	1.0285564e-06
191	0x30d8b207	1.5766667e-09

exp_avg f4 [64]
0	0x3ab1f665	0.001357746
1	0x392a292b	0.000162278
2	0x398b814b	0.00026608477
3	0x00000000	0.0
4	0x00000000	0.0
5	0x3a4a461e	0.0007716137
6	0x3a604c8b	0.00085563277
7	0xba92899a	-0.0011179924
8	0xb8642c4e	-5.4400698e-05
9	0x39a5226e	0.00031496905
10	0x3a153cc7	0.00056929555
11	0x3b21cfee	0.0024690586
12	0x37f60052	2.9325634e-05
13	0x3b72265b	0.0036949131
14	0xbb3cb919	-0.002879685
15	0xba0a2b5f	-0.0005270745
16	0xb863bf55	-5.429921e-05
17	0x3a855b94	0.0010174387
18	0x00000000	0.0
19	0x3b0e3dd2	0.0021704328
20	0x3ae20fd4	0.0017247149
21	0x3a1fece1	0.00061006664
22	0x00000000	0.0
23	0x3aff6d96	0.0019487615
24	0x3b502fbb	0.003176673
25	0x39dff714	0.00042717962
26	0x3b0d19d0	0.0021530278
27	0x3ac0b3fe	0.0014702079
28	0x3a0a8fa6	0.00052856875
29	0xbb8156be	-0.003947108
30	0xba2ab04f	-0.00065112574
31	0x00000000	0.0
32	0x39ee9867	0.00045508446
33	0xba7a2c20	-0.00095433183
34	0x3aa88acb	0.0012858746
35	0x00000000	0.0
36	0x3a98eaed	0.0011666693
37	0x00000000	0.0
38	0xbb833e86	-0.004005256
39	0x00000000	0.0
40	0x3acc9ea1	0.001561124
41	0x00000000	0.0
42	0xbb0b6d43	-0.0021274842
43	0xbb4265e4	-0.0029662782
44	0x395ae73c	0.00020876242
45	0x00000000	0.0
46	0xbaf86ca0	-0.0018953271
47	0x00000000	0.0
48	0x00000000	0.0
49	0x3b0dbaf9	0.0021626337
50	0x3a42c584	0.0007429945
51	0x3a9caa4e	0.001195261
52	0x3b18092a	0.0023198822
53	0x39d0d470	0.0003983113
54	0x3a9a62a0	0.001177866
55	0x3b64c18c	0.0034905402
56	0xbb78e9bf	-0.003798112
57	0x3b5bad07	0.003351988
58	0x00000000	0.0
59	0x3b046ace	0.0020205262
60	0xba8a20ec	-0.0010538376
61	0xbb8ad316	-0.004236589
62	0xb9d411c3	-0.00040449025
63	0x00000000	0.0

exp_avg_sq f4 [64]
0	0x371f4279	9.492615e-06
1	0x34632b40	2.1156757e-07
2	0x336460cd	5.3173427e-08
3	0x00000000	0.0
4	0x00000000	0.0
5	0x3790a0ee	1.7241076e-05
6	0x34aa8745	3.176339e-07
7	0x3581d56d	9.673364e-07
8	0x370c6077	8.36711e-06
9	0x348adeb8	2.5866552e-07
10	0x36c0d592	5.7469088e-06
11	0x3769f926	1.3945892e-05
12	0x36b65bd5	5.4347133e-06
13	0x37345897	1.07494625e-05
14	0x36cc0e1d	6.0813168e-06
15	0x36f9f0af	7.4487975e-06
16	0x34392570	1.7243087e-07
17	0x34e54018	4.2701208e-07
18	0x00000000	0.0
19	0x373580b8	1.081841e-05
20	0x373e4a87	1.1342235e-05
21	0x358bdc11	1.0420355e-06
22	0x00000000	0.0
23	0x362331cd	2.431788e-06
24	0x37070798	8.048395e-06
25	0x3673c911	3.6326858e-06
26	0x36a2d62c	4.852909e-06
27	0x368d0a53	4.2033294e-06
28	0x3584c745	9.892761e-07
29	0x36b9b111	5.534043e-06
30	0x36aaf4ba	5.0948847e-06
31	0x00000000	0.0
32	0x35946634	1.1056604e-06
33	0x36bf268a	5.69673e-06
34	0x3730fb65	1.054895e-05
35	0x00000000	0.0
36	0x3624d084	2.4559276e-06
37	0x00000000	0.0
38	0x373fcb44	1.1431814e-05
39	0x00000000	0.0
40	0x366ad934	3.4995146e-06
41	0x00000000	0.0
42	0x35ef9ec2	1.7853092e-06
43	0x36a34353	4.865616e-06
44	0x332afd62	3.981166e-08
45	0x00000000	0.0
46	0x36527d2b	3.1365296e-06
47	0x00000000	0.0
48	0x00000000	0.0
49	0x36616170	3.3584329e-06
50	0x35f9ea38	1.8620112e-06
51	0x36e15b19	6.7161277e-06
52	0x368640a9	4.0010386e-06
53	0x36bdced0	5.656715e-06
54	0x3709d77c	8.216008e-06
55	0x368b6c82	4.155155e-06
56	0x3683432a	3.911923e-06
57	0x368c1944	4.1752664e-06
58	0x00000000	0.0
59	0x36f586b2	7.3172496e-06
60	0x369c606d	4.6603877e-06
61	0x3712edf6	8.757683e-06
62	0x3550baad	7.775769e-07
63	0x00000000	0.0

exp_avg f4 [64, 64]
0	0x38a305cb	7.773525e-05
1	0x00000000	0.0
2	0x37dc6973	2.6275147e-05
3	0x39b5caff	0.00034674254
4	0x3850e41e	4.9803515e-05
5	0x38be30e5	9.069013e-05
6	0x38787884	5.9240047e-05
7	0x3855e667	5.0997736e-05
8	0x39609dec	0.00021421135
9	0x35b2e04e	1.3327315e-06
10	0x39da6017	0.00041651793
11	0x39d537ee	0.00040668197
12	0xb7f39be7	-2.9040455e-05
13	0x00000000	0.0
14	0x3637eeee	2.74082e-06
15	0x37ac4ad1	2.0538837e-05
16	0x3777ac5a	1.4762476e-05
17	0xb85ce741	-5.266746e-05
18	0x39de545b	0.0004240599
19	0x3996e333	0.00028779506
20	0x3a1b1a0b	0.00059166615
21	0x00000000	0.0
22	0xb7e1554e	-2.6861813e-05
23	0x3885aede	6.374506e-05
24	0x3985f3c8	0.00025549368
25	0x38ff0919	0.00012161042
26	0x00000000	0.0
27	0x38f14611	0.000115048264
28	0x390959f7	0.00013098853
29	0x390e95a5	0.00013597922
30	0x36db4c76	6.53561e-06
31	0x38fddb4f	0.000121048295
32	0x39ecaa4c	0.0004514031
33	0x399c48b9	0.0002980882
34	0x382cb145	4.117309e-05
35	0x00000000	0.0
36	0x00000000	0.0
37	0xb527c13d	-6.2493547e-07
38	0x3861c98a	5.3831878e-05
39	0x3a12d1d4	0.0005600725
40	0x394c3261	0.00019473724
41	0x351b144b	5.777153e-07
42	0xb405a988	-1.2448265e-07
43	0x386ee663	5.6958186e-05
44	0x00000000	0.0
45	0x394ce8f2	0.00019541735
46	0x382f21ab	4.1754607e-05
47	0x00000000	0.0
48	0x39411d53	0.00018416838
49	0x361f5e48	2.3747725e-06
50	0x39ece808	0.00045186304
51	0x38c18039	9.2268405e-05
52	0x383c3f7c	4.4881817e-05
53	0x384b7b0f	4.851358e-05
54	0x39290348	0.00016118318
55	0x39904cb4	0.0002752297
56	0x39eb097b	0.00044829756
57	0x398fdf79	0.00027441586
58	0x39932443	0.00028065042
59	0x39eca518	0.00045136432
60	0x39110cbb	0.0001383302
61	0x38c46471	9.364717e-05
62	0x39a4e611	0.0003145193
63	0x392fa79e	0.00016751743
64	0x3700ac96	7.669578e-06
65	0x00000000	0.0
66	0x3754f7da	1.2693892e-05
67	0x37e62a3b	2.7437802e-05
68	0x36f67c0d	7.3458127e-06
69	0xb60e5fee	-2.1215487e-06
70	0xb5dde707	-1.6533021e-06
71	0x00000000	0.0
72	0x3709d5a6	8.21558e-06
73	0x00000000	0.0
74	0x37222aea	9.665944e-06
75	0x37754e03	1.46213015e-05
76	0x37414e33	1.1521904e-05
77	0x00000000	0.0
78	0x00000000	0.0
79	0xb4a0ce7d	-2.9952562e-07
80	0x00000000	0.0
81	0x37bac2cb	2.2263635e-05
82	0xb488675f	-2.5407186e-07
83	0x373ebf17	1.1369374e-05
84	0x36474f22	2.9699372e-06
85	0x00000000	0.0
86	0x379db525	1.880021e-05
87	0x378ffc1f	1.7164331e-05
88	0x371bc274	9.283995e-06
89	0x36b49826	5.3821304e-06
90	0x00000000	0.0
91	0x00000000	0.0
92	0x36b88e30	5.50018e-06
93	0xb4e48f84	-4.257273e-07
94	0x00000000	0.0
95	0x3777d91a	1.4772895e-05
96	0x372a0376	1.0133595e-05
97	0x38082780	3.2461714e-05
98	0xb58bbfa2	-1.041208e-06
99	0x00000000	0.0
100	0x00000000	0.0
101	0x00000000	0.0
102	0x36e715e6	6.886886e-06
103	0xb5e65289	-1.7160356e-06
104	0xb4613c96	-2.0976799e-07
105	0x00000000	0.0
106	0x00000000	0.0
107	0x00000000	0.0
108	0x00000000	0.0
109	0x37bf9481	2.2838127e-05
110	0x00000000	0.0
111	0x00000000	0.0
112	0x3816e974	3.5980207e-05
113	0x37943a9b	1.7670265e-05
114	0xb38f7950	-6.681023e-08
115	0x370a71e6	8.25196e-06
116	0x00000000	0.0
117	0x00000000	0.0
118	0x37ef9099	2.8558354e-05
119	0x37832704	1.5634585e-05
120	0x366f13ac	3.5625226e-06
121	0x37d159af	2.4956504e-05
122	0x00000000	0.0
123	0x366cd344	3.5289713e-06
124	0x36d85817	6.4475566e-06
125	0x36b4063a	5.365143e-06
126	0x3791e7ed	1.7393346e-05
127	0x373ba83c	1.1185239e-05
128	0x36f93e92	7.4280624e-06
129	0x00000000	0.0
130	0x357e5a11	9.475344e-07
131	0x386fd9c6	5.7184858e-05
132	0x35a77752	1.2477196e-06
133	0x3527c030	6.249202e-07
134	0x341c2d27	1.4545058e-07
135	0x37a48608	1.9612737e-05
136	0x37a893d5	2.0096e-05
137	0x3411c02f	1.3574093e-07
138	0x368443fd	3.9418214e-06
139	0x36eeb4c0	7.113995e-06
140	0x357b421b	9.360098e-07
141	0x00000000	0.0
142	0x34668d5e	2.1471848e-07
143	0x303fd274	6.9784467e-10
144	0x3697e260	4.526504e-06
145	0x360c7190	2.0927728e-06
146	0x372557e4	9.85523e-06
147	0x363b5617	2.7915282e-06
148	0x3887f1eb	6.4823624e-05
149	0x00000000	0.0
150	0x35d4da01	1.5858678e-06
151	0x384aa31d	4.8312464e-05
152	0x37ad5c98	2.0666324e-05
153	0x376dd8be	1.4176765e-05
154	0x00000000	0.0
155	0x37e49ae9	2.7251854e-05
156	0x38130094	3.504807e-05
157	0x3534cda2	6.735446e-07
158	0x35bcfea9	1.4081207e-06
159	0x37d0c9fc	2.4889589e-05
160	0x36cb4274	6.0576076e-06
161	0x38812912	6.158849e-05
162	0x339f86b5	7.4285175e-08
163	0x00000000	0.0
164	0x00000000	0.0
165	0xb52bad58	-6.395471e-07
166	0x356005a2	8.34547e-07
167	0x38394df8	4.418005e-05
168	0x3770af6e	1.434596e-05
169	0xb555f603	-7.970668e-07
170	0xb40e2bc9	-1.324071e-07
171	0x37cc09c0	2.4323235e-05
172	0x00000000	0.0
173	0x3835a5f1	4.3308308e-05
174	0x3780a941	1.5337604e-05
175	0x00000000	0.0
176	0x374bc3cd	1.2145331e-05
177	0x3772f68f	1.448173e-05
178	0x37a4070b	1.9553603e-05
179	0x36164c9f	2.2396341e-06
180	0x37b7b6af	2.1900369e-05
181	0x379ad10c	1.8455576e-05
182	0x360aebb5	2.0700802e-06
183	0x378fabd9	1.7126951e-05
184	0x378e1bae	1.6940608e-05
185	0x375156d4	1.2477587e-05
186	0x380832a7	3.24721e-05
187	0x3863990a	5.4263546e-05
188	0x36d469d7	6.3304137e-06
189	0x37232de6	9.726244e-06
190	0x3785e72c	1.5962483e-05
191	0x35490093	7.487917e-07
192	0x00000000	0.0
193	0x00000000	0.0
194	0x00000000	0.0
195	0x00000000	0.0
196	0x00000000	0.0
197	0x00000000	0.0
198	0x00000000	0.0
199	0x00000000	0.0
200	0x00000000	0.0
201	0x00000000	0.0
202	0x00000000	0.0
203	0x00000000	0.0
204	0x00000000	0.0
205	0x00000000	0.0
206	0x00000000	0.0
207	0x00000000	0.0
208	0x00000000	0.0
209	0x00000000	0.0
210	0x00000000	0.0
211	0x00000000	0.0
212	0x00000000	0.0
213	0x00000000	0.0
214	0x00000000	0.0
215	0x00000000	0.0
216	0x00000000	0.0
217	0x00000000	0.0
218	0x00000000	0.0
219	0x00000000	0.0
220	0x00000000	0.0
221	0x00000000	0.0
222	0x00000000	0.0
223	0x00000000	0.0
224	0x00000000	0.0
225	0x00000000	0.0
226	0x00000000	0.0
227	0x00000000	0.0
228	0x00000000	0.0
229	0x00000000	0.0
230	0x00000000	0.0
231	0x00000000	0.0
232	0x00000000	0.0
233	0x00000000	0.0
234	0x00000000	0.0
235	0x00000000	0.0
236	0x00000000	0.0
237	0x00000000	0.0
238	0x00000000	0.0
239	0x00000000	0.0
240	0x00000000	0.0
241	0x00000000	0.0
242	0x00000000	0.0
243	0x00000000	0.0
244	0x00000000	0.0
245	0x00000000	0.0
246	0x00000000	0.0
247	0x00000000	0.0
248	0x00000000	0.0
249	0x00000000	0.0
250	0x00000000	0.0
251	0x00000000	0.0
252	0x00000000	0.0
253	0x00000000	0.0
254	0x00000000	0.0
255	0x00000000	0.0
