lightning_logs/version_119/checkpoints/epoch=10-step=165.ckpt (torch, 97955 bytes, 46 tensors)

model.encoder.conv1.att_src f4 [1, 4, 64]
-0.15143175 0.2028342 0.30627006 -0.08387095 0.19841647 -0.17174435 -0.015379025 -0.22617994
-0.043224122 -0.1541798 0.28423882 0.16971952 -0.23097305 -0.13604023 -0.19797373 -0.0055967006
-0.06830661 -0.21034333 0.12824951 0.18096632 0.15266849 0.16581391 -0.1397872 -0.30468023
-0.007880538 0.27860126 -0.044259842 0.089289375 0.19460297 -0.19638091 -0.23816912 0.05614006
-0.032132152 -0.22733663 -0.20207168 -0.18510199 -0.011730637 -0.13008592 -0.17255774 0.00064656127
0.07243246 -0.2881846 -0.20432243 0.08483579 0.2510707 0.28293917 0.032185026 0.09213115
-0.13852029 -0.19700162 0.3006174 0.22908336 0.11203403 -0.23949994 -0.1233465 -0.28516704
-0.21071996 0.14787659 0.1809648 0.039970383 0.18913111 -0.2123442 0.09118629 0.137194
-0.23546349 0.11803751 0.1404196 -0.29941767 0.16911928 -0.12416478 0.28734487 -0.19075681
0.23321721 0.04883511 0.2572662 -0.24827123 -0.031182537 0.055107776 0.2514189 -0.20120862
0.09686798 0.06996609 0.03836534 -0.13111623 -0.07271586 -0.052259844 -0.10255872 0.13745403
0.04941367 -0.10574142 0.09451007 -0.08347205 0.30740112 0.15413006 -0.071359694 0.23063321
0.30477944 0.03701223 -0.29156148 -0.035830375 -0.26532805 -0.22666389 -0.07304257 -0.2859826
-0.16868116 0.07695551 -0.32137015 0.2966133 -0.14972696 -0.21103965 -0.16644932 -0.27488777
-0.004611762 0.06188407 -0.117882535 0.017289657 -0.16133544 0.23159342 -0.1830452 0.24320644
0.2454531 0.22508813 -0.24948701 -0.31141096 0.07880987 0.29249123 0.09659687 -0.19210476
-0.075874545 0.106992856 0.23173204 -0.17447335 -0.2717868 0.058066495 0.063973434 -0.13231833
0.12590848 0.2346618 -0.059846405 -0.00437727 -0.08776832 -0.23572747 -0.0023823231 -0.28025845
0.285062 0.02894786 0.15076569 -0.20598383 -0.09083531 -0.1353799 -0.017503044 0.15984437
-0.04743326 0.21853964 -0.0005249794 0.16182962 0.29068467 -0.24036668 -0.26111072 -0.036756612
-0.2650396 0.099910066 0.102446415 -0.28556126 0.11495586 -0.033538178 -0.219256 0.13217103
-0.24719046 0.022237485 0.255902 -0.14929168 -0.19742784 -0.12644416 0.26619127 0.21823113
-0.016036648 0.24824418 -0.24628964 0.07478938 -0.09941018 0.027273213 0.024470769 0.08594569
0.24368775 0.08888053 0.25151163 -0.13038833 -0.21531968 -0.27008468 0.1565316 -0.22755854
-0.029221501 0.25517803 -0.15834644 -0.19331467 -0.10433806 0.26317665 0.26090476 0.12429773
-0.031434983 -0.18920076 -0.05296106 0.291752 0.26945743 0.15471753 0.057316195 -0.21361724
-0.24172482 0.10665351 -0.05492258 -0.29769644 -0.10386483 -0.20263566 0.22260109 0.028735664
0.09805754 0.15139411 0.18929212 0.21973698 -0.15999411 0.019586768 -0.21642818 -0.14265102
0.060027495 0.2443925 0.09726528 0.21910436 -0.14351644 0.2234484 -0.068514206 0.26262757
-0.062039785 0.084311604 -0.18441054 -0.25568736 0.24088182 -0.05295984 -0.043276068 -0.27192366
-0.013418709 0.07765659 -0.08467721 -0.2371244 -0.020877978 -0.11094439 0.1926038 0.12207682
-0.23442201 -0.24177241 -0.20487541 -0.24736547 0.24250673 0.25334057 0.0012021384 0.035600677
00000000: ed10 1bbe c5b3 4f3e 6ecf 9c3e 88c4 abbd
00000010: b02d 4b3e c0dd 2fbe 4ef8 7bbc b79b 67be
00000020: c70b 31bd 4fe1 1dbe c087 913e f4ca 2d3e
00000030: 3384 6cbe 214e 0bbe a0b9 4abe 8764 b7bb
00000040: 56e4 8bbd 3e64 57be d753 033e 3c4f 393e
00000050: 2155 1c3e 1fcb 293e 6024 0fbe 0cff 9bbe
00000060: 5f1d 01bc d3a4 8e3e cf49 35bd 59dd b63d
00000070: 0046 473e 1418 49be 9be2 73be 1ff3 653d
00000080: 019d 03bd efca 68be e1eb 4ebe 608b 3dbe
00000090: dc31 40bc 3e35 05be fab2 30be fe7d 293a
000000a0: 7857 943d ef8c 93be e639 51be 63be ad3d
000000b0: 578c 803e 67dd 903e 72d4 033d 42af bc3d
000000c0: 43d8 0dbe cbba 49be 86ea 993e d494 6a3e
000000d0: 1972 e53d 793f 75be 179d fcbd 6a01 92be
000000e0: f9c6 57be f66c 173e d64e 393e fcb7 233d
000000f0: 96ab 413e c270 59be e1bf ba3d 957c 0c3e
00000100: 571d 71be a6bd f13d 28ca 0f3e 464d 99be
00000110: 9b2d 2d3e 1b4a febd de1e 933e c155 43be
00000120: 7ed0 6e3e 5307 483d 65b8 833e d03a 7ebe
00000130: 8572 ffbc b1b8 613d fab9 803e a209 4ebe
00000140: b862 c63d 624a 8f3d fa24 1d3d 5543 06be
00000150: 0eec 94bd 6b0e 56bd 4e0a d2bd c0c0 0c3e
00000160: fd65 4a3d f58e d8bd 7f8e c13d 65f3 aabd
00000170: ae63 9d3e 45d4 1d3e 0825 92bd 1d2b 6c3e
00000180: 0d0c 9c3e 239a 173d 8c47 95be dfc2 12bd
00000190: 14d9 87be 941a 68be 5897 95bd 506c 92be
000001a0: c1ba 2cbe da9a 9d3d a18a a4be b3dd 973e
000001b0: 0652 19be c71a 58be b171 2abe 17be 8cbe
000001c0: 431e 97bb 277a 7d3d 666c f1bd 0aa3 8d3c
000001d0: 1e35 25be d326 6d3e 3370 3bbe 1c0b 793e
000001e0: 0f58 7b3e 817d 663e 8679 7fbe 4271 9fbe
000001f0: 1267 a13d 69c1 953e 94d4 c53d 1cb7 44be
00000200: 1d64 9bbd 121f db3d 2a4b 6d3e 24a9 32be
00000210: a427 8bbe 22d7 6d3d 8104 833d 757e 07be
00000220: 27ee 003e 2f4b 703e 8121 75bd 346f 8fbb
00000230: e1bf b3bd 8b62 71be c020 1cbb 097e 8fbe
00000240: a5f3 913e 1024 ed3c 5262 1a3e 6ded 52be
00000250: dd07 babd 07a1 0abe 8b62 8fbc 3eae 233e
00000260: 6149 42bd dbc8 5f3e c59e 09ba aab6 253e
00000270: 9fd4 943e af22 76be 4eb0 85be 1a8e 16bd
00000280: 45b3 87be a69d cc3d 6dcf d13d 1635 92be
00000290: fa6d eb3d 545f 09bd a584 60be d857 073e
000002a0: 7f1f 7dbe 632b b63c 9605 833e ebdf 18be
000002b0: 862a 4abe 947a 01be 394a 883e fb77 5f3e
000002c0: 4a5f 83bc b933 7e3e 5a33 7cbe 2d2b 993d
000002d0: 9097 cbbd 136c df3c ec76 c83c 4b04 b03d
000002e0: 4889 793e ff06 b63d 22c6 803e 8584 05be
000002f0: c37c 5cbe 8a48 8abe d249 203e 1b05 69be
00000300: ee61 efbc b2a6 823e 9225 22be 48f4 45be
00000310: 31af d5bd 17bf 863e 4f95 853e cf8f fe3d
00000320: f8c1 00bd d8bd 41be b2ed 58bd 8560 953e
00000330: 53f6 893e 466e 1e3e 63c4 6a3d 7abe 5abe
00000340: b686 77be 286d da3d 80f6 60bd ab6b 98be
00000350: 16b7 d4bd b97f 4fbe 8af1 633e 0e67 eb3c
00000360: 64d2 c83d 0f07 1b3e cbd5 413e bb02 613e
00000370: 7fd5 23be 6e74 a03c 599f 5dbe 1c13 12be
00000380: 64df 753d 0742 7a3e 0533 c73d e55c 603e
00000390: f9f5 12be a8cf 643e 2d51 8cbd 1f77 863e
000003a0: 6e1d 7ebd 90ab ac3d 1ed6 3cbe 74e9 82be
000003b0: b9a9 763e 6bec 58bd 3f42 31bd 9439 8bbe
000003c0: 25da 5bbc 6b0a 9f3d 3f6b adbd bdd0 72be
000003d0: 4b08 abbc d036 e3bd ee39 453e 6903 fa3d
000003e0: 530c 70be 3093 77be dcca 51be 604d 7dbe
000003f0: af53 783e dbb5 813e 1291 9d3a 04d2 113d

model.encoder.conv1.att_dst f4 [1, 4, 64]
0.13567269 -0.060318075 0.076479934 0.050022215 0.1831325 -0.25612038 0.017543178 0.00067356625
-0.26170468 0.06330376 0.20515127 0.29614067 0.26480436 0.089758344 -0.25564033 0.09866369
-0.22116801 0.13142538 0.18703148 -0.17184886 -0.004731975 -0.03267542 0.06110767 0.15896697
0.21383835 -0.08502454 -0.0816104 -0.3005035 -0.24612096 0.24086928 0.26547796 0.1545635
-0.26473385 -0.2100235 0.04057514 0.28713542 0.17907546 -0.27444533 0.12741019 0.087003134
0.21042445 0.25503018 -0.0916966 -0.29662675 -0.084967114 0.005816803 0.06576803 0.18435644
-0.24138609 -0.275551 0.29972282 0.25518578 0.083661295 -0.16499905 -0.22530253 0.08847023
-0.16742225 -0.28759068 0.15236779 -0.21613157 0.19929747 0.21408094 0.070755444 0.013664926
0.11332771 -0.233717 -0.14187597 0.13939513 -0.14777869 0.22530402 -0.028877726 0.21461679
-0.12250378 -0.08663053 0.27769095 -0.21666163 0.16980432 -0.0009358759 0.24504727 -0.05631153
0.044362143 0.112245604 -0.18705636 0.073308535 -0.29636395 0.17602336 0.21245915 -0.005813796
0.22231007 0.07712078 0.1309396 0.22910804 0.20294161 -0.13223898 0.2924061 -0.17207775
0.0078118774 0.1950023 -0.27780116 0.07576888 0.072961256 0.060417514 0.12471635 0.23059087
-0.24823998 -0.19845462 0.09386121 -0.12184418 0.05399749 -0.29906693 0.17928614 -0.11953131
0.20389411 -0.053991728 0.14285725 0.025601424 0.0060809893 -0.083771415 0.11436149 -0.17911147
-0.03135261 0.14009437 0.16092016 0.05255276 -0.251583 -1.2001368e-05 0.3108706 0.28227097
0.24156217 -0.23648337 0.09587844 0.13377325 0.06719564 -0.20711994 -0.08497183 0.0999063
-0.18367785 0.07172159 0.13813816 -0.076801404 -0.19519141 0.10130393 -0.11429072 -0.07427692
-0.0057758084 -0.30403104 -0.261551 0.07688909 -0.29849815 0.20935853 -0.06943262 0.08672433
0.06750725 -0.018633204 0.21950449 -0.06511014 -0.26523644 -0.099964365 -0.24911962 -0.12766641
0.076926276 -0.10178091 0.18242738 -0.1156911 -0.19593984 0.21182822 0.13054222 -0.2198809
0.27094862 0.049463455 -0.19623572 -0.10914033 -0.14701954 -0.02696766 -0.3000732 0.068332694
0.0030965416 0.053380903 -0.061614286 -0.15783432 0.15551613 -0.10940688 -0.14816108 0.10761344
-0.2466391 -0.019933924 -0.12852807 -0.1597016 -0.21048743 0.076524384 -0.06762619 0.20771153
0.05572931 -0.108979344 0.28838134 0.04193061 -0.2759579 0.20924085 -0.23200488 -0.27275017
-0.16485602 0.22110862 -0.20496689 0.2513506 -0.16130866 -0.15395258 -0.22066861 -0.17886515
-0.11339551 0.16238488 0.046095774 -0.21772915 0.038876887 -0.20682622 0.07530875 -0.26441437
0.24941012 0.13220961 -0.17773788 0.3043458 -0.1621251 0.12842335 0.2077841 -0.01518043
0.004123325 0.024064574 0.19995464 -0.20689876 0.20724174 0.1464931 -0.02367009 0.2730249
0.08324937 0.10490205 0.09975243 -0.17584173 0.2899477 -0.049267672 0.040334456 -0.013823718
0.06115807 -0.28203362 -0.13079862 -0.24624889 -0.23526523 0.11943012 0.04250091 -0.12893492
0.10104626 -0.22146142 0.29523832 0.05504685 -0.23932567 -0.12224284 0.16034967 -0.06635327
00000000: c8ed 0a3e 1610 77bd 83a1 9c3d 18e4 4c3d
00000010: 1687 3b3e 3622 83be b6b6 8f3c 4492 303a
00000020: 28fe 85be 67a5 813d 2d13 523e c09f 973e
00000030: 7094 873e 39d3 b73d 4ae3 82be 3010 ca3d
00000040: de79 62be 6094 063e 2e85 3f3e 26f9 2fbe
00000050: af0e 9bbb a9d6 05bd 094c 7a3d 3dc8 223e
00000060: 71f8 5a3e 5921 aebd 5a23 a7bd 98db 99be
00000070: 2207 7cbe 70a6 763e baec 873e e545 1e3e
00000080: 328b 87be 6610 57be 1e32 263d 6a03 933e
00000090: 8f5f 373e 1984 8cbe d177 023e b32e b23d
000000a0: 8279 573e 5193 823e 6dcb bbbd 76df 97be
000000b0: 3d03 aebd e19a be3b 64b1 863d efc7 3c3e
000000c0: ea2d 77be 0515 8dbe 4575 993e b6a7 823e
000000d0: 9d56 ab3d 83f5 28be b5b5 66be e12f b53d
000000e0: bd70 2bbe 163f 93be 4d06 1c3e 9851 5dbe
000000f0: a314 4c3e 0938 5b3e 3be8 903d dbe2 5f3c
00000100: 5c18 e83d 8253 6fbe ef47 11be 99bd 0e3e
00000110: 4c53 17be 19b6 663e fb90 ecbc 81c4 5b3e
00000120: 43e3 fabd 596b b1bd 822d 8e3e 8cdc 5dbe
00000130: 2fe1 2d3e 9255 75ba aced 7a3e eba6 66bd
00000140: 14b5 353d 06e1 e53d b48b 3fbe c922 963d
00000150: 04bd 97be 783f 343e e48e 593e a881 bebb
00000160: 40a5 633e 80f1 9d3d 0815 063e 4c9b 6a3e
00000170: edcf 4f3e a869 07be 41b6 953e 2635 30be
00000180: c7fa ff3b afae 473e f43b 8ebe b72c 9b3d
00000190: b66c 953d 5b78 773d 496b ff3d 0320 6c3e
000001a0: 9f32 7ebe b037 4bbe 4e3a c03d 7189 f9bd
000001b0: 792c 5d3d 4d1f 99be c996 373e d5cc f4bd
000001c0: 9ec9 503e 6e26 5dbd 2c49 123e 14ba d13c
000001d0: 0943 c73b 5990 abbd 5b36 ea3d ff68 37be
000001e0: 986b 00bd e674 0f3e 41c8 243e 9041 573d
000001f0: 7dcf 80be 7c59 49b7 6e2a 9f3e d285 903e
00000200: 135c 773e b228 72be ea5b c43d dbfb 083e
00000210: de9d 893d 4017 54be b605 aebd ad9b cc3d
00000220: 0c16 3cbe c5e2 923d 1774 0d3e 0e4a 9dbd
00000230: 42e0 47be 6f78 cf3d 4111 eabd 7f1e 98bd
00000240: fe42 bdbb f5a9 9bbe 03ea 85be 0778 9d3d
00000250: c0d4 98be 1562 563e b132 8ebd 879c b13d
00000260: 3e41 8a3d a9a4 98bc c9c5 603e 7758 85bd
00000270: 12cd 87be 1eba ccbd 3719 7fbe fcba 02be
00000280: 868b 9d3d 8272 d0bd 3ece 3a3e 75ef ecbd
00000290: 74a4 48be 7fe9 583e dcac 053e 7528 61be
000002a0: c7b9 8a3e 319a 4a3d 04f2 48be f784 dfbd
000002b0: 4a8c 16be 48eb dcbc 32a3 99be 03f2 8b3d
000002c0: 59ef 4a3b efa5 5a3d 435f 7cbd 529f 21be
000002d0: 9f3f 1f3e b710 e0bd 8ab7 17be 6f64 dc3d
000002e0: f68e 7cbe 784c a3bc dd9c 03be d188 23be
000002f0: 048a 57be d1b8 9c3d 9a7f 8abd 55b2 543e
00000300: 6b44 643d 9030 dfbd b8a6 933e 6ebf 2b3d
00000310: 5b4a 8dbe 3c43 563e b092 6dbe e9a5 8bbe
00000320: 04d0 28be 4c6a 623e d7e2 51be 07b1 803e
00000330: 192e 25be bfa5 1dbe f4f6 61be 6d28 37be
00000340: e83b e8bd 3948 263e ecce 3c3d 64f4 5ebe
00000350: 5f3d 1f3d 41ca 53be 793b 9a3d 5261 87be
00000360: 5e65 7f3e f561 073e eb00 36be 36d3 9b3e
00000370: 1f04 26be 6981 033e 5bc5 543e 57b7 78bc
00000380: f51c 873b 1223 c53c e9c0 4c3e 45dd 53be
00000390: 2e37 543e 4a02 163e c7e7 c1bc ebc9 8b3e
000003a0: a57e aa3d e3d6 d63d 014b cc3d db0f 34be
000003b0: 0674 943e e6cc 49bd be35 253d e07c 62bc
000003c0: e280 7a3d b666 90be 13f0 05be ab28 7cbe
000003d0: 5ee9 70be c797 f43d 6f15 2e3d 8407 04be
000003e0: 57f1 ce3d c8c6 62be 7a29 973e ce78 613d
000003f0: ca11 75be 745a fabd b432 243e 39e4 87bd

model.encoder.conv1.bias f4 [64]
0.0059518316 0.011189516 -0.015511891 -0.0069618905 -0.01736477 -0.030786827 0.012663507 -0.002650394
0.003030722 -0.0033448655 0.019238237 -0.0043792995 0.01628608 -0.0056922953 0.001400843 0.0036676018
-0.01994916 0.021462232 -0.020033546 -0.005986287 0.018625887 0.0119401375 0.0022676156 -0.011537516
0.010868235 0.015251406 0.0076708593 0.0016735017 0.01961252 0.0036859494 -0.0022830311 0.0014962523
-0.0011768136 -0.013900069 0.01803012 -0.038943402 -0.009802121 0.019875258 0.0045118383 0.052929215
0.005064628 -0.012797492 -0.009264354 0.016249575 0.00326997 0.006378697 -0.0040199137 0.0037801515
0.0029778525 0.007156855 0.0020211341 -0.003552221 0.0062405234 -0.01354613 0.03490033 -0.018843878
-0.00060041784 -0.006937337 0.008187759 0.03215859 -0.00770226 -0.001398448 0.008525662 -0.010813607
00000000: 9507 c33b 3b54 373c 9625 7ebc 9220 e4bb
00000010: 9040 8ebc a834 fcbc 997a 4f3c 3cb2 2dbb
00000020: 149f 463b 8835 5bbb 8299 9d3c 3a80 8fbb
00000030: 636a 853c 6f86 babb 7e9c b73a 265c 703b
00000040: 6c6c a3bc 90d1 af3c 641d a4bc 9d28 c4bb
00000050: 5195 983c 91a0 433c 479c 143b d907 3dbc
00000060: ae10 323c 08e1 793c d55b fb3b 6659 db3a
00000070: 6faa a03c f88f 713b e89e 15bb e51d c43a
00000080: 503f 9aba 1dbd 63bc e7b3 933c 1e83 1fbd
00000090: 1399 20bc 70d1 a23c 0bd8 933b 4ecc 583d
000000a0: 2ef5 a53b 92ac 51bc 84c9 17bc d41d 853c
000000b0: fe4c 563b 6404 d13b 7bb9 83bb 6bbc 773b
000000c0: 1328 433b 0d84 ea3b 0175 043b 61cc 68bb
000000d0: 4e7d cc3b 96f0 5dbc a6f3 0e3d 7a5e 9abc
000000e0: 5c65 1dba 9a52 e3bb f325 063c bab8 033d
000000f0: 3d63 fcbb 214c b7ba 38af 0b3c 8e2b 31bc

model.encoder.conv1.lin.weight f4 [256, 3]
-0.07579625 -0.112835094 0.069520056 0.12812443 0.12183911 0.054094348 0.13325545 -0.0023386807
0.11610446 -0.07863278 -0.044089977 0.02937958 0.031249195 0.13448288 0.025654722 0.04111878
0.033240356 0.06424372 0.13058679 0.16584173 -0.12355773 -0.15924868 0.037734058 -0.020595828
-0.13253886 0.15068465 0.085339494 -0.032307293 0.123785526 -0.00012375638 0.14514975 0.055561773
-0.022371545 0.028682088 -0.12605324 0.006736474 0.114125334 0.06832538 -0.091702625 -0.13932978
-0.029788602 -0.022585258 0.14748116 0.013075569 -0.07938148 -0.08325365 0.12814386 0.026974026
-0.15706716 0.013759052 0.050093956 -0.14554933 -0.010269672 0.04178007 0.12082355 0.07682689
0.1375495 0.052733652 0.09543194 -0.12818314 0.020823838 0.045254428 0.13851485 -0.08964687
0.09593184 -0.06455767 -0.022647278 -0.0018392464 0.12924789 -0.16232643 0.010109177 -0.10883778
0.005463944 0.05474892 0.14263472 -0.09614404 0.00034027448 0.13871415 0.014812489 -0.0507786
-0.084325224 -0.022583742 0.12720403 -0.051421963 0.05543166 -0.12759192 0.0857047 -0.048764315
0.11348886 -0.13590883 -0.042121496 -0.023296842 0.080662556 0.0099120075 -0.076381624 -0.061677072
0.078019224 0.14715515 0.043958586 -0.048797816 0.050859336 0.11711776 0.057546172 -0.015484821
-0.009757605 -0.10305805 0.044581056 0.061298687 -0.0936206 0.106822796 0.06821628 0.015661791
-0.022178797 0.15175165 -0.12299515 -0.12891962 0.01094147 0.12282542 -0.13931729 0.028167762
-0.05736954 -0.028240383 -0.14495109 0.06431349 0.02196524 0.14970665 -0.09061796 -0.047193773
-0.13239153 -0.0398063 -0.02902221 -0.06038645 -0.013309644 0.0060614194 -0.102814294 0.10838439
0.047331195 0.12639436 -0.0867668 0.050795108 -0.1299351 -0.00031993378 0.10530029 0.1252656
0.105294384 -0.023634994 -0.09447257 -0.045484632 0.071612045 -0.10220662 0.16724633 0.024494
-0.16743945 -0.040412333 -0.032370925 -0.01151525 0.01602363 -0.15037425 0.09336794 -0.08289277
-0.14372328 -0.015269916 -0.11177248 -0.124088325 0.060410406 -0.13888167 -0.08409248 -0.008369253
0.061248433 0.0772135 -0.09893163 -0.02370524 -0.11128492 0.06930901 -0.0022916368 -0.0059326533
0.00941716 -0.036954798 0.039296728 -0.13945425 -0.14756727 -0.006109998 -0.076848656 0.14304906
0.13996354 0.05757379 -0.11981722 -0.12839375 -0.06221642 0.037621886 -0.11830914 -0.08513626
0.053792518 -0.06263855 -0.099030465 -0.14403455 0.04771913 0.026119994 0.12121807 -0.044378255
0.043562457 0.1076163 -0.15130325 0.057994716 0.06364903 0.030794755 -0.107435666 -0.11128889
-0.098284975 -0.1506475 -0.090116054 0.15277636 0.043598056 0.042186275 -0.107914135 -0.13346884
-0.08629368 -0.07049826 0.06148704 0.015012768 -0.109371044 0.13547695 -0.094762295 0.02750796
0.13870415 -0.13109186 -0.071361385 0.021722743 0.043079212 0.045739394 -0.04992325 -0.13662508
-0.02688378 0.06148844 -0.079596624 -0.05886916 0.009228995 -0.02384886 -0.0948139 -0.06341652
0.030129883 -0.05466831 -0.1200557 -0.047847383 -0.07345883 0.059149846 0.01591749 -0.10170422
-0.06434354 -0.023345575 0.04422026 -0.122834556 -0.15591979 0.08268397 0.13328205 0.021592818
00000000: 103b 9bbd 1616 e7bd 8860 8e3d 0d33 033e
00000010: c986 f93d 0992 5d3d 1e74 083e 8d44 19bb
00000020: 2dc8 ed3d 390a a1bd b197 34bd 72ad f03c
00000030: 50fe ff3c e1b5 093e da29 d23c 2a6c 283d
00000040: 0a27 083d 3692 833d 8bb8 053e 6ad2 293e
00000050: d60b fdbd 1612 23be 078f 1a3d 95b8 a8bc
00000060: 44b8 07be 144d 1a3e 79c6 ae3d a754 04bd
00000070: 4483 fd3d 9ac4 01b9 23a2 143e be94 633d
00000080: 8844 b7bc b3f6 ea3c 1a14 01be a4bd dc3b
00000090: 8bba e93d 2dee 8b3d 96ce bbbd 77ac 0ebe
000000a0: 3a07 f4bc b804 b9bc 4d05 173e e93a 563c
000000b0: c292 a2bd e480 aabd 2538 033e a2f8 dc3c
000000c0: 37d6 20be a66d 613c 522f 4d3d e20a 15be
000000d0: 2042 28bc 9421 2b3d 5672 f73d 6b57 9d3d
000000e0: c7d9 0c3e 3eff 573d d271 c33d 7142 03be
000000f0: c196 aa3c b55c 393d d6d6 0d3e c798 b7bd
00000100: ea77 c43d d036 84bd c986 b9bc de12 f1ba
00000110: 8f59 043e e638 26be f6a0 253c 58e6 debd
00000120: e20a b33b 6740 603d d60e 123e 2be7 c4bd
00000130: de66 b239 150b 0e3e 15b0 723c 39fd 4fbd
00000140: b4b2 acbd 8a01 b9bc c641 023e d69f 52bd
00000150: 4f0c 633d 75a7 02be f285 af3d 17bd 47bd
00000160: d96c e83d af2b 0bbe 9787 2cbd 05d9 bebc
00000170: 6932 a53d f965 223c f86d 9cbd 19a1 7cbd
00000180: 8bc8 9f3d d7af 163e eb0d 343d 38e0 47bd
00000190: e151 503d 70db ef3d 89b5 6b3d 0cb4 7dbc
000001a0: 5dde 1fbc 1910 d3bd a09a 363d 5514 7b3d
000001b0: 28bc bfbd e9c5 da3d fab4 8b3d 284d 803c
000001c0: 4fb0 b5bc c964 1b3e e2e4 fbbd 8103 04be
000001d0: da43 333c e58b fb3d 31a9 0ebe 14c0 e63c
000001e0: 53fc 6abd 6058 e7bc 0f6e 14be cbb6 833d
000001f0: 72f0 b33c b34c 193e e995 b9bd 424e 41bd
00000200: a591 07be ee0b 23bd fcbf edbc c857 77bd
00000210: b110 5abc df9e c63b 4d90 d2bd a3f8 dd3d
00000220: 5bde 413d 866d 013e cbb2 b1bd 880e 503d
00000230: b50d 05be c9bc a7b9 aea7 d73d a045 003e
00000240: 95a4 d73d 2d9e c1bc d67a c1bd 184e 3abd
00000250: 56a9 923d b451 d1bd 9f42 2b3e a4a7 c83c
00000260: 3f75 2bbe 6787 25bd 6097 04bd 76aa 3cbc
00000270: fd43 833c b5fb 19be b137 bf3d afc3 a9bd
00000280: 322c 13be ab2e 7abc f8e8 e4bd 0522 febd
00000290: e770 773d ff36 0ebe ae38 acbd 311f 09bc
000002a0: a3df 7a3d 1d22 9e3d ab9c cabd 7e31 c2bc
000002b0: 59e9 e3bd e2f1 8d3d 492f 16bb b466 c2bb
000002c0: 6f4a 1a3c ea5d 17bd 9bf5 203d 18cd 0ebe
000002d0: e01b 17be 6136 c8bb d462 9dbd 747b 123e
000002e0: 9a52 0f3e 7fd2 6b3d bb62 f5bd a779 03be
000002f0: a5d6 7ebd 6819 1a3d 104c f2bd eb5b aebd
00000300: 8b55 5c3d a448 80bd 7cd0 cabd cb7d 13be
00000310: 2275 433d 99f9 d53c 2e41 f83d f9c5 35bd
00000320: 8c6e 323d ef65 dc3d 3def 1abe de8b 6d3d
00000330: 6c5a 823d 4845 fc3c 3b07 dcbd 6eeb e3bd
00000340: a249 c9bd 5743 1abe c48e b8bd 6871 1c3e
00000350: e093 323d 84cb 2c3d 1602 ddbd 0eac 08be
00000360: beba b0bd 6461 90bd d6d9 7b3d 1df8 753c
00000370: edfd dfbd 78ba 0a3e bc12 c2bd 6058 e13c
00000380: 7608 0e3e f23c 06be eb25 92bd e5f3 b13c
00000390: d473 303d 3b59 3b3d 527c 4cbd 72e7 0bbe
000003a0: 5f3b dcbc 4ddb 7b3d 8e03 a3bd ca20 71bd
000003b0: 3635 173c af5e c3bc ca2d c2bd 85e0 81bd
000003c0: f2d2 f63c e1eb 5fbd c3df f5bd 9efb 43bd
000003d0: 9571 96bd 1c47 723d 6565 823c 4d4a d0bd
000003e0: 8cc6 83bd 383f bfbc 4e20 353d af90 fbbd
000003f0: 70a9 1fbe 3756 a93d 177b 083e 6ce3 b03c

model.encoder.conv2.att_src f4 [1, 1, 64]
0.00096089015 -0.027934864 0.22398333 0.06833577 0.1959478 0.16940688 -0.022701405 0.07478423
-0.081117995 -0.029482923 0.15242258 0.01868014 0.13378288 0.2724032 0.057421442 0.23410532
-0.109508984 -0.15849318 0.120124355 0.29295486 -0.06448098 0.29344088 0.062739976 -0.065192394
-0.00607585 -0.046643335 0.15128303 0.038436286 -0.06733434 0.051316086 0.224079 0.23277605
-0.18619971 -0.010239768 -0.21080251 -0.19300465 -0.18595593 -0.26036984 0.03107149 0.11148964
-0.3119771 0.15243614 -0.12939858 -0.17333047 0.14566606 -0.11262771 0.011162356 0.099115625
0.30234098 -0.20120661 -0.2169651 -0.13737547 -0.09188301 0.0006031584 -0.10970602 -0.111518964
-0.2623488 -0.089823656 0.110089935 0.2901163 -0.25309116 -0.07988112 -0.0600525 -0.24269834
00000000: 3fe4 7b3a a8d7 e4bc e35b 653e a0f3 8b3d
00000010: 8aa6 483e ff78 2d3e 4cf8 b9bc 7928 993d
00000020: 3121 a6bd 2c86 f1bc aa14 1c3e 1807 993c
00000030: 61fe 083e 6f78 8b3e bf32 6b3d 4eb9 6f3e
00000040: 3f46 e0bd 094c 22be c203 f63d 2efe 953e
00000050: 9b0e 84bd e23d 963e d17d 803d 9783 85bd
00000060: ed17 c7bb 150d 3fbd f0e9 1a3e 5e6f 1d3d
00000070: 96e6 89bd d130 523d f774 653e d85c 6e3e
00000080: 23ab 3ebe b3c4 27bc 9ddc 57be 03a3 45be
00000090: 3b6b 3ebe 324f 85be a389 fe3c ae54 e43d
000000a0: 76bb 9fbe 3818 1c3e 1081 04be 8b7d 31be
000000b0: 7c29 153e 5ba9 e6bd 50e2 363c 22fd ca3d
000000c0: 70cc 9a3e 1b09 4ebe 192c 5ebe 28ac 0cbe
000000d0: 292d bcbd 461d 1e3a 8dad e0bd 0e64 e4bd
000000e0: 9552 86be 77f5 b7bd d576 e13d 208a 943e
000000f0: 2a95 81be b698 a3bd 9cf9 75bd ea85 78be

model.encoder.conv2.att_dst f4 [1, 1, 64]
0.097053714 -0.2625111 0.044875395 0.037779216 0.056465 -0.06606398 0.14011876 -0.05451607
-0.2278262 0.12600599 -0.22651441 -0.26317972 0.22946073 -0.11508041 0.22046624 -0.036356732
0.041499715 0.08538579 0.20288363 0.12390895 0.25815266 -0.29408702 0.08234499 -0.20896788
-0.055114277 0.25368738 0.1780793 0.18194127 -0.036761574 -0.27493617 -0.084784575 -0.26395476
0.08504073 0.01999964 0.25475767 0.0016786669 -0.040923122 0.18603688 -0.06414357 0.09705434
0.016870309 0.18765108 0.108937964 0.11645725 -0.30759656 0.26601923 -0.23358971 -0.038122058
0.056551397 0.30859077 -0.09453678 -0.09246337 -0.26803544 -0.29039913 -0.22262706 0.015354494
0.20236734 0.18323004 0.107785106 0.25513032 -0.053110845 0.093774565 -0.22465064 0.16424525
00000000: 19c4 c63d db67 86be 43cf 373d 61be 1a3d
00000010: d847 673d 8d4c 87bd 4b7b 0f3e 3e4c 5fbd
00000020: 454b 69be b707 013e 65f3 67be 7ebf 86be
00000030: c1f7 6a3e 47af ebbd e7c1 613e ccea 14bd
00000040: 9bfb 293d bfde ae3d bac0 4f3e fac3 fd3d
00000050: 962c 843e 9392 96be 7da4 a83d adfb 55be
00000060: 82bf 61bd 50e3 813e 6c5a 363e d04e 3a3e
00000070: 4e93 16bd 6fc4 8cbe 89a3 adbd 1425 87be
00000080: d629 ae3d 49d6 a33c 996f 823e b706 dc3a
00000090: 019f 27bd 7480 3e3e b45d 83bd 6dc4 c63d
000000a0: 9a33 8a3c 9b27 403e de1a df3d 2481 ee3d
000000b0: 4c7d 9dbe ac33 883e 2432 6fbe e025 1cbd
000000c0: 70a2 673d 9cff 9d3e 809c c1bd 6f5d bdbd
000000d0: f13b 89be 32af 94be 59f8 63be 6a91 7b3c
000000e0: 6239 4f3e a8a0 3b3e 70be dc3d 71a0 823e
000000f0: c28a 59bd e10c c03d d10a 66be e82f 283e

model.encoder.conv2.bias f4 [64]
0.026481226 -0.012428414 -0.01298381 -0.009990985 0.011936155 0.0050780005 -0.026117265 -0.0038942213
0.0046201195 0.014824973 0.013656998 0.022388723 0.027693586 0.0032689953 0.013822388 -0.00088889414
0.025097322 0.0065950295 0.02334125 0.010016441 -0.02740463 0.0012440626 -0.018986827 0.0017226859
-0.016869327 0.0102904765 -0.00042401807 0.004298553 -0.033390816 0.0138954315 -0.008568202 -0.011020668
0.002805905 0.009882216 0.025469573 0.03415791 0.027333098 0.013421098 0.00084121677 0.011023502
0.040402304 -0.020270737 -0.0023701675 0.0040499317 -0.013573137 -0.0066560935 -0.0031701908 0.038265806
0.025401153 -0.0061220443 0.01680991 0.022070192 -0.013268821 -0.0089957705 0.00037713753 0.0062339013
0.0025350093 -0.005048664 0.01861772 -0.016375877 -0.0059357136 0.033230446 -0.012978037 0.0119724525
00000000: 28ef d83c 8ca0 4bbc 0cba 54bc 3ab1 23bc
00000010: dd8f 433c 5b65 a63b e0f3 d5bc 3136 7fbb
00000020: 5f64 973b 72e4 723c 9ac1 5f3c 8e68 b73c
00000030: a9dd e23c a43c 563b 4c77 623c ad04 69ba
00000040: e698 cd3c 1e1b d83b 2636 bf3c 001c 243c
00000050: ad7f e0bc d00f a33a 438a 9bbc bfcb e13a
00000060: 8b31 8abc 6399 283c be4e deb9 e0da 8c3b
00000070: cfc4 08bd aaa9 633c a561 0cbc 0890 34bc
00000080: 46e3 373b 05e9 213c 91a5 d03c 2ae9 0b3d
00000090: a9e9 df3c 2ae4 5b3c 1a85 5c3a eb9b 343c
000000a0: e37c 253d d10e a6bc d054 1bbb 4ab5 843b
000000b0: dd61 5ebc 5c1b dabb fac2 4fbb 9bbc 1c3d
000000c0: 1416 d03c 6e9b c8bb f0b4 893c 8ccc b43c
000000d0: 7865 59bc ff62 13bc 8bba c539 c145 cc3b
000000e0: 6622 263b 436f a5bb 3084 983c b426 86bc
000000f0: 6080 c2bb a61c 083d d5a1 54bc 1b28 443c

model.encoder.conv2.lin.weight f4 [64, 64]
0.12067556 0.060891893 -0.16596973 -0.023852896 -0.16570018 -0.16382256 0.0215499 -0.1934103
-0.09456771 0.22041053 -0.0136063425 -0.026419034 -0.06363792 -0.19031245 0.10740478 0.14683639
-0.0060439482 -0.13253576 -0.017618397 -0.024993496 0.03315632 0.1656108 0.2097063 -0.14304486
-0.16823627 -0.1822915 0.20819344 0.103643924 -0.17983583 0.050408002 0.066995226 0.026673064
-0.18638791 -0.03182992 -0.13585596 0.17905593 0.07986984 0.10603181 0.0010164226 0.080651335
-0.05916331 -0.22290604 0.123607635 0.029154118 0.16235065 0.0877707 0.14749315 -0.16456354
-0.0042453827 -0.18442696 0.029495593 0.14240108 -0.16529055 0.076640576 -0.0070533813 0.06200679
0.15589756 0.22405449 -0.11039968 -0.2018538 0.19001389 0.16834621 -0.14336303 -0.1546708
-0.041423857 0.044056065 0.20899525 -0.18499385 0.13779965 -0.18416443 0.082935676 -0.044305317
0.035458792 -0.19119602 -0.1351799 -0.039669167 -0.21928142 -0.16152269 0.13794239 0.11353001
-0.07791847 0.15127543 -0.14133377 -0.03593658 -0.042993825 -0.12963018 0.17864284 0.14051427
-0.11685811 -0.065496676 -0.16913237 -0.0049389177 -0.105251096 -0.07188119 0.079177275 -0.024916666
0.06819758 -0.030884448 0.2113705 0.010155758 0.015038229 -0.15445562 -0.06992754 0.18777996
-0.15667379 0.029026046 0.087983705 -0.06535333 -0.0017300228 -0.15303215 0.02163823 -0.20309411
-0.0005019422 0.16722925 -0.06963896 -0.179448 0.08996158 -0.1450353 -0.025130989 0.20449586
-0.07373047 0.12766732 -0.06952775 0.14076471 0.013933946 -0.047800314 0.14779188 -0.22361776
-0.02507484 -0.12257852 0.2109819 -0.057113867 0.08495741 0.14362338 0.21154012 0.14061186
0.17417912 -0.05866784 -0.09959942 0.19097228 -0.22611812 0.12531485 -0.19505705 -0.03178375
0.14064713 0.0877774 0.20866056 0.07069099 0.07578277 0.057056118 -0.21015361 0.10658804
-0.039767947 0.20210147 -0.113337725 0.10368179 -0.15802142 -0.08464724 -0.09814417 0.21446408
-0.122778125 0.0042255935 -0.08123824 -0.0008645748 -0.19228218 -0.19568278 0.012144039 0.13874662
0.124503605 -0.18747382 0.15369792 0.20554483 0.085340075 -0.18661667 -0.20776749 -0.11359211
-0.11070236 0.05008913 -0.21125548 0.18804409 0.20940347 -0.14510138 0.09336992 -0.045258734
0.07677153 -0.14799424 -0.10710124 -0.18114027 -0.055375956 -0.091381684 -0.20389834 -0.1746434
-0.007684636 -0.074211285 0.17038307 0.041926265 0.15669386 0.19538096 0.18814194 0.0041822717
-0.19324207 0.18909287 0.11117968 -0.09165238 0.02727529 0.026213696 0.008377199 0.19867955
0.14168587 -0.14259925 -0.14224516 -0.109509386 -0.15123966 0.04773753 -0.007785501 -0.05350886
-0.02967188 -0.21841235 -0.06776226 -0.042553008 -0.21453924 -0.14548574 -0.07871013 0.09852969
0.04914525 -0.07019088 -0.09314306 -0.05953212 0.093622155 0.2076889 -0.21340638 -0.04686707
0.036409773 -0.029473824 0.004521111 -0.091598935 0.14026329 -0.083238885 0.02078162 -0.060893126
0.03764206 0.069073655 0.029223893 -0.17492709 0.10303346 0.04030739 -0.004036125 0.1157919
-0.15731311 0.10571189 0.15577227 -0.13377477 -0.1088343 0.03770037 0.20804672 -0.03520878
00000000: bf24 f73d c769 793d f8f3 29be 2667 c3bc
00000010: 4fad 29be 1ac1 27be 6a89 b03c 5a0d 46be
00000020: b7ac c1bd 4cb3 613e 23ed 5ebc bb6c d8bc
00000030: 9954 82bd 44e1 42be 0af7 db3d 475c 163e
00000040: 500c c6bb 74b7 07be 7554 90bc 29bf ccbc
00000050: ecce 073d e195 293e 40bd 563e 5a7a 12be
00000060: 2146 2cbe 9faa 3abe a930 553e 4443 d43d
00000070: e226 38be 9f78 4e3d cb34 893d 7881 da3c
00000080: 79dc 3ebe 1760 02bd d31d 0bbe 705a 373e
00000090: cc92 a33d 3527 d93d 7c39 853a 872c a53d
000000a0: 3a55 72bd 7b41 64be 0026 fd3d 9ed4 ee3c
000000b0: 403f 263e 20c1 b33d 7208 173e 5883 28be
000000c0: da1c 8bbb 6cda 3cbe bea0 f13c 97d1 113e
000000d0: ed41 29be bcf5 9c3d 0d20 e7bb d5fa 7d3d
000000e0: 9ca3 1f3e 8a6e 653e 3a19 e2bd c3b2 4ebe
000000f0: 0093 423e f362 2c3e c2cd 12be 0662 1ebe
00000100: 10ac 29bd 2274 343d da02 563e 076f 3dbe
00000110: 5a1b 0d3e 9a95 3cbe 2eda a93d 7e79 35bd
00000120: 3d3d 113d e4c8 43be 9a6c 0abe 237c 22bd
00000130: 4f8b 60be 3466 25be c540 0d3e 6c82 e83d
00000140: b893 9fbd f2e7 1a3e cdb9 10be 3c32 13bd
00000150: 4b1a 30bd c6bd 04be 26ee 363e f9e2 0f3e
00000160: 4e53 efbd 1f23 86bd 0931 2dbe a5d6 a1bb
00000170: e38d d7bd 7236 93bd b227 a23d 091e ccbc
00000180: 2cab 8b3d 6201 fdbc 8271 583e 5664 263c
00000190: e762 763c 9d29 1ebe 2c36 8fbd 6449 403e
000001a0: 186f 20be 08c8 ed3c cd30 b43d f7d7 85bd
000001b0: efc1 e2ba 76b4 1cbe a842 b13c e7f7 4fbe
000001c0: c594 03ba 253e 2b3e df9e 8ebd 37c1 37be
000001d0: c73d b83d 2284 14be 81df cdbc 5d67 513e
000001e0: 0000 97bd 39bb 023e 9164 8ebd a024 103e
000001f0: 354b 643c 43ca 43bd c156 173e 0efc 64be
00000200: c069 cdbc 720a fbbd a40b 583e 3bf0 69bd
00000210: 27fe ad3d 0212 133e f99d 583e 8efc 0f3e
00000220: 035c 323e b04d 70bd c8fa cbbd 3d8e 433e
00000230: 828b 67be 8952 003e 09bd 47be ad2f 02bd
00000240: cd05 103e a3c4 b33d 1dab 553e 70c6 903d
00000250: ff33 9b3d adb3 693d 8232 57be d54a da3d
00000260: b7e3 22bd b0f3 4e3e 9c1d e8bd 1e57 d43d
00000270: 5ed0 21be 885b adbd d0ff c8bd 799c 5b3e
00000280: 1973 fbbd d976 8a3b 3c60 a6bd a2a4 62ba
00000290: 9fe5 44be 1161 48be cbf7 463c 9813 0e3e
000002a0: bffb fe3d 23f9 3fbe fd62 1d3e 587a 523e
000002b0: c7c6 ae3d 7118 3fbe 00c1 54be fba2 e8bd
000002c0: ebb7 e2bd 422a 4d3d 5b53 58be a18e 403e
000002d0: dd6d 563e 7595 14be bb38 bf3d 3961 39bd
000002e0: 643a 9d3d cd8b 17be e557 dbbd d67c 39be
000002f0: e6d1 62bd 5226 bbbd baca 50be b8d5 32be
00000300: 66cf fbbb 16fc 97bd e678 2e3e e0ba 2b3d
00000310: 5b74 203e f211 483e 48a8 403e 700b 893b
00000320: 40e1 45be 90a1 413e 2cb2 e33d 3eb4 bbbd
00000330: 6e70 df3c 1bbe d63c 8540 093c a772 4b3e
00000340: 1a16 113e 8a05 12be b7a8 11be 7546 e0bd
00000350: 92de 1abe 6e88 433d 841d ffbb 1b2c 5bbd
00000360: 7112 f3bc 7da7 5fbe f1c6 8abd 104c 2ebd
00000370: 2db0 5bbe 37fa 14be c732 a1bd efc9 c93d
00000380: 884c 493d 3cc0 8fbd cac1 bebd f4d7 73bd
00000390: f9bc bf3d 66ac 543e 3487 5abe aff7 3fbd
000003a0: 6a22 153d 1773 f1bc d425 943b 3998 bbbd
000003b0: 2ea1 0f3e 2679 aabd 373e aa3c 126b 79bd
000003c0: 902e 1a3d 7d76 8d3d f266 ef3c 1620 33be
000003d0: 3503 d33d 5d19 253d 7841 84bb 4e24 ed3d
000003e0: b016 21be 7a7f d83d c482 1f3e 41fc 08be
000003f0: 84e4 debd b46b 1a3d 330a 553e 1537 10bd

model.encoder.bn1.weight f4 [64]
1.0053734 1.0098902 1.0018451 0.99434257 1.0040565 1.0234745 1.0025121 0.9948758
1.0038537 0.99883467 0.98864776 0.99232197 1.0179101 0.9929842 0.9833493 1.004022
0.99810684 0.9951708 0.99315494 0.99702436 1.0042111 0.99141896 0.9994238 1.0116122
0.9944031 1.0062984 1.0121192 1.0029266 0.9958759 1.0003923 1.0047141 1.0013182
1.0021385 0.9985628 1.006168 0.9964262 0.9872785 1.0043033 0.99645853 1.0120705
0.9812823 1.0161424 0.9910517 0.98364747 1.002591 1.0036864 1.0108155 0.99636316
0.99998075 0.9908461 0.9956316 1.008118 1.0089878 0.9853416 1.0069292 0.9909447
0.9766124 1.0043958 0.9908472 0.997958 0.99520415 1.0047976 0.98817384 1.017201
00000000: 13b0 803f 1544 813f 763c 803f 3c8d 7e3f
00000010: ec84 803f 3601 833f 5152 803f 2eb0 7e3f
00000020: 477e 803f a1b3 7f3f 0518 7d3f d008 7e3f
00000030: e14a 823f 3634 7e3f c8bc 7b3f cb83 803f
00000040: ee83 7f3f 83c3 7e3f 673f 7e3f fd3c 7f3f
00000050: fd89 803f a2cd 7d3f 3dda 7f3f 827c 813f
00000060: 3491 7e3f 63ce 803f 1f8d 813f e65f 803f
00000070: b9f1 7e3f db0c 803f 799a 803f 322b 803f
00000080: 1346 803f d0a1 7f3f 1dca 803f ca15 7f3f
00000090: 49be 7c3f 038d 803f e817 7f3f 878b 813f
000000a0: 5135 7b3f f410 823f 90b5 7d3f 52d0 7b3f
000000b0: e754 803f cc78 803f 6762 813f a811 7f3f
000000c0: bdfe 7f3f 17a8 7d3f b6e1 7e3f 030a 813f
000000d0: 8326 813f 593f 7c3f 0ee3 803f 8dae 7d3f
000000e0: 4503 7a3f 0b90 803f 29a8 7d3f 2d7a 7f3f
000000f0: b3c5 7e3f 359d 803f f6f8 7c3f a433 823f

model.encoder.bn1.bias f4 [64]
-0.022129517 -0.013806844 -0.018498076 -0.0200578 -0.018431347 -0.03288411 -0.017915603 0.003847674
0.0033106513 -0.011540357 -0.031150643 -0.036387004 0.0014582223 0.0035481295 0.018772285 -0.013644574
-0.038303547 0.017138375 -0.009066888 -0.03221238 0.027933419 0.01017322 0.027813613 -0.005215483
0.0036929792 0.0063542877 0.018256519 0.015250432 0.0346593 0.012250056 0.025413876 -0.022066994
-0.018560952 -0.0058712563 0.009423811 0.002962863 -0.009151531 -0.0019382964 0.03149188 0.03048885
-0.022772862 -0.01529297 0.016976578 -0.008080909 -0.010041653 0.032337867 0.016556343 0.018512132
-0.009841775 0.0012199965 0.037405077 0.0028367303 0.008080007 0.0018639894 0.05923945 -0.008178508
-0.011064619 0.0015366344 -0.009034959 0.021500407 -0.024516694 0.0127250925 -0.014778093 -0.01305733
00000000: f648 b5bc 1a36 62bc 4789 97bc 4150 a4bc
00000010: 56fd 96bc 7db1 06bd bec3 92bc 4229 7c3b
00000020: 83f7 583b c413 3dbc a22f ffbc 8a0a 15bd
00000030: d221 bf3a bc87 683b 56c8 993c 7e8d 5fbc
00000040: 2ee4 1cbd c765 8c3c 498d 14bc 21f1 03bd
00000050: a0d4 e43c 94ad 263c 60d9 e33c a4e6 aabb
00000060: e905 723b a137 d03b b28e 953c f3dc 793c
00000070: e9f6 0d3d 75b4 483c c330 d03c d7c5 b4bc
00000080: 230d 98bc ab63 c0bb 5466 1a3c 982c 423b
00000090: 4ef0 15bc 6f0e feba a1fd 003d c1c3 f93c
000000a0: 278e babc 5e8f 7abc 7712 8b3c ca65 04bc
000000b0: bf85 24bc b674 043d 2ba1 873c c1a6 973c
000000c0: 653f 21bc 4ae8 9f3a 1136 193d 70e8 393b
000000d0: 0162 043c 1b51 f43a 11a5 723d 26ff 05bc
000000e0: 6048 35bc e568 c93a 5d07 14bc 9f21 b03c
000000f0: 3cd7 c8bc e87c 503c d11f 72bc 69ee 55bc

model.encoder.bn1.running_mean f4 [64]
-0.04958923 0.04457008 0.010652806 -0.030944228 0.018954301 -0.016322164 0.074437946 -0.052869774
-0.04679181 0.0039006188 0.031623 -0.063940346 0.03724632 -0.045408927 0.029733397 -0.03154679
-0.02384451 0.010899743 -0.005554297 -0.011260035 0.06149791 -0.008760824 0.017227385 -0.025611425
0.005518149 -0.058680456 -0.04199976 0.04360124 0.014964683 -0.026346717 -0.0035848704 -0.024257582
0.009408389 -0.042351402 0.016792888 -0.02580018 -0.030690687 0.07995001 -0.02700074 0.019098466
0.013212993 -0.011655114 -0.07038105 0.02098064 -0.05249279 0.05803873 -0.0012044841 0.053353805
0.031692393 0.018757613 -0.017570848 -0.027410073 -0.054644436 -0.031474672 0.0046362034 -0.012656853
0.023361696 -0.036908075 0.0246325 0.010319485 -0.057382386 0.08846334 -0.03239198 0.060830235
00000000: 141e 4bbd 1e8f 363d 1b89 2e3c c07e fdbc
00000010: 0d46 9b3c 0fb6 85bc ec72 983d fa8d 58bd
00000020: c5a8 3fbd 86a1 7f3b 1e87 013d 28f3 82bd
00000030: 998f 183d b6fe 39bd 7493 f33c 3537 01bd
00000040: 9055 c3bc d694 323c d200 b6bb 037c 38bc
00000050: 3ce5 7b3d 8f89 0fbc 7220 8d3c 0dcf d1bc
00000060: 97d1 b43b eb5a 70bd f107 2cbd 3797 323d
00000070: 6e2e 753c 12d5 d7bc 25f0 6abb d6b7 c6bc
00000080: a525 1a3c aa78 2dbd 3d91 893c e65a d3bc
00000090: 096b fbbc d5bc a33d a830 ddbc 6374 9c3c
000000a0: 4f7b 583c 17f5 3ebc f123 90bd 97df ab3c
000000b0: ae02 57bd 05ba 6d3d c8df 9dba 8589 5a3d
000000c0: e2cf 013d 91a9 993c bdf0 8fbc 178b e0bc
000000d0: d8d2 5fbd 96eb 00bd 4beb 973b b05e 4fbc
000000e0: 0761 bf3c ec2c 17bd 19ca c93c 0f13 293c
000000f0: cb09 6bbd 452c b53d 74ad 04bd 2029 793d

model.encoder.bn1.running_var f4 [64]
9.422172e-05 0.0006205487 7.500244e-05 4.5558492e-05 0.00012399806 0.00040260074 0.0015239536 0.0002447716
0.000110849935 0.00015665867 0.00011163524 0.00022482449 0.00018084729 7.58783e-05 0.0002754354 6.535535e-05
0.0004730064 0.00030232215 0.0005728351 0.00021169153 0.0016906386 0.00041981606 0.00011739709 0.00042252804
0.00023188039 0.00020071276 0.00024180964 5.2857442e-05 0.0007428747 0.0001311275 0.0007298088 0.0013959011
0.0002428104 0.00062217936 0.00034969862 3.5064273e-05 0.00013914102 0.00047302112 0.0004908206 0.0009127807
1.530098e-05 0.00282134 4.0970048e-05 0.0016684423 0.00020664146 7.727674e-05 0.00023751298 4.6471094e-05
0.00036835184 0.00028535476 0.0002846062 0.0002867207 8.1490936e-05 2.704723e-05 0.0020993599 9.7773685e-05
0.00022346694 0.00048504374 8.324975e-05 0.00078319915 6.722221e-05 2.1524194e-05 0.00047154512 0.00042879276
00000000: e798 c538 51ac 223a a14a 9d38 0f16 3f38
00000010: 7a05 0239 2814 d339 66bf c73a b054 8039
00000020: 1b78 e838 be44 2439 b71d ea38 ddbe 6b39
00000030: d3a1 3d39 da20 9f38 5068 9039 630f 8938
00000040: d8fd f739 fe80 9e39 502a 163a 83f9 5d39
00000050: 6b98 dd3a c21a dc39 1533 f638 c186 dd39
00000060: eb24 7339 6c76 5239 488e 7d39 3fb3 5d38
00000070: 7abd 423a 457f 0939 a450 3f3a abf6 b63a
00000080: ec9a 7e39 c019 233a c157 b739 fa11 1338
00000090: 62e6 1139 d2ff f739 6aaa 003a ad47 6f3a
000000a0: 9b5a 8037 3be6 383b 41d7 2b38 a2af da3a
000000b0: e5ad 5839 a20f a238 e80c 7939 f5e9 4238
000000c0: 591f c139 ab9b 9539 3337 9539 0053 9639
000000d0: 1de6 aa38 7ce3 e237 6a95 093b d90b cd38
000000e0: 7352 6a39 784d fe39 5f96 ae38 9b4f 4d3a
000000f0: a6f9 8c38 db8e b437 b739 f739 97cf e039

model.encoder.bn2.weight f4 [64]
0.9988627 1.0001618 1.0083431 0.98719513 0.986954 0.9944816 1.0010787 0.98775613
1.0045785 0.998763 0.9953117 0.98196286 0.9861206 0.99525255 0.9940219 1.0039833
0.9837233 0.98158884 0.99022305 0.9859196 1.0039423 0.9883002 0.99817157 0.99662316
0.9907834 0.9882235 0.99514616 0.9940448 1.002111 0.97905844 1.0123937 0.98002636
0.97990465 0.9951838 0.99793017 1.0023693 0.9975231 0.98046315 0.9934786 0.98878735
0.9896074 1.0013893 0.98522854 0.98662376 1.0043432 0.9946373 1.0014473 0.9910479
0.9874857 0.99771446 0.9939518 0.99081033 0.99391115 0.99106294 0.9917202 0.9933583
0.9927854 0.99263567 0.9927381 0.98231024 0.9859584 1.0013924 0.9870331 0.9949349
00000000: 77b5 7f3f 4d05 803f 6311 813f d2b8 7c3f
00000010: 04a9 7c3f 5996 7e3f 5923 803f 96dd 7c3f
00000020: 0796 803f efae 7f3f bfcc 7e3f eb61 7b3f
00000030: 6672 7c3f dfc8 7e3f 3878 7e3f 8682 803f
00000040: 4ad5 7b3f 6849 7b3f 427f 7d3f 3a65 7c3f
00000050: 2e81 803f 3e01 7d3f 2c88 7f3f b222 7f3f
00000060: fba3 7d3f 37fc 7c3f e6c1 7e3f b879 7e3f
00000070: 2c45 803f 93a3 7a3f 1e96 813f 02e3 7a3f
00000080: 08db 7a3f 5ec4 7e3f 5a78 7f3f a34d 803f
00000090: ad5d 7f3f a2ff 7a3f 9d54 7e3f 2b21 7d3f
000000a0: e956 7d3f 862d 803f f037 7c3f 6093 7c3f
000000b0: 518e 803f 8da0 7e3f 6d2f 803f 51b5 7d3f
000000c0: ddcb 7c3f 376a 7f3f a073 7e3f bfa5 7d3f
000000d0: f670 7e3f 4db6 7d3f 60e1 7d3f bb4c 7e3f
000000e0: 2f27 7e3f 5f1d 7e3f 1624 7e3f af78 7b3f
000000f0: c567 7c3f a02d 803f 34ae 7c3f 0eb4 7e3f

model.encoder.bn2.bias f4 [64]
0.020400371 -0.016263675 0.00096634065 -0.018894441 -0.0024026467 0.0032597648 -0.009750451 -0.020326924
0.013869244 0.009852985 0.0047144666 0.0005375195 -0.0034615032 -0.0032622095 0.0065236893 0.0030943204
0.0040401714 -0.0109725185 0.01000972 -0.011671063 -0.010496615 -0.014569891 -0.017296651 -0.0006235572
-0.025173882 -0.009364561 -0.005889473 -0.0023874044 -0.021095615 -0.0034978297 0.017158175 -0.018067094
-0.023790848 -0.0010751543 0.01258522 0.021902766 0.017447373 -0.017320033 -0.011547021 -0.006200655
0.024931526 -0.010544111 -0.02664833 -0.015943995 0.0025630873 -0.008666724 -0.0116730165 0.019507974
0.013555379 -0.006918569 0.008168037 0.0079798475 -0.0126160085 -0.01586774 -0.008744936 -0.005041213
-0.004660672 -0.0065806243 0.012293004 -0.028417265 -0.017132405 0.018766992 -0.021585245 -0.001394911
00000000: ae1e a73c 663b 85bc 0652 7d3a 84c8 9abc
00000010: b975 1dbb c7a1 553b 5bc0 1fbc a684 a6bc
00000020: d33b 633c 6a6e 213c d07b 9a3b 53e8 0c3a
00000030: 63da 62bb cbca 55bb acc4 d53b 15ca 4a3b
00000040: 6a63 843b 14c6 33bc cfff 233c fc37 3fbc
00000050: fff9 2bbc 8db6 6ebc b5b1 8dbc 3776 23ba
00000060: 7539 cebc d16d 19bc 7bfc c0bb 0076 1cbb
00000070: b6d0 acbc d83b 65bb 4d8f 8c3c 7101 94bc
00000080: 06e5 c2bc 31ec 8cba 3d32 4e3c 6e6d b33c
00000090: cbed 8e3c bee2 8dbc b72f 3dbc dd2e cbbb
000000a0: 333d cc3c 35c1 2cbc 994d dabc fb9c 82bc
000000b0: 78f9 273b e0fe 0dbc 2e40 3fbc 30cf 9f3c
000000c0: 6117 5e3c 2ab5 e2bb 3bd3 053c e8bd 023c
000000d0: 60b3 4ebc 10fd 81bc ec46 0fbc c230 a5bb
000000e0: 8db8 98bb 47a2 d7bb 9968 493c 53cb e8bc
000000f0: 4259 8cbc 3cbd 993c 8ad3 b0bc 72d5 b6ba

model.encoder.bn2.running_mean f4 [64]
0.09589529 0.15241447 0.657672 0.016823476 0.1424315 0.07658288 0.2519899 0.117550634
0.18142097 0.11953399 0.1453852 0.16408126 0.26429075 0.25392866 0.13209276 0.23543367
0.12698944 0.12836026 0.16012348 0.04332904 0.22552471 0.08270798 -0.045501173 0.08587872
0.020135831 0.12212808 0.15846571 0.4281918 0.15284698 0.047371168 0.11339201 -0.007946305
0.2131434 0.113290064 0.03592492 0.17212217 0.22341584 0.05770045 0.1323579 0.29945102
0.20366593 0.08883541 0.15152021 0.17723486 0.03193823 0.06107893 0.101859294 0.1390368
0.16215315 0.15163144 0.16401838 0.08863426 0.12468966 0.085436024 0.020559369 0.09263228
0.05448246 0.04089889 0.0066766 -0.003171553 0.07957438 0.1732462 0.28239098 0.21471997
00000000: c064 c43d 8a12 1c3e 315d 283f 63d1 893c
00000010: 90d9 113e 7cd7 9c3d d204 813e 63be f03d
00000020: 6bc6 393e 3dce f43d dcdf 143e eb04 283e
00000030: 1e51 873e f002 823e 5343 073e 8615 713e
00000040: 8509 023e df70 033e 69f7 233e cb79 313d
00000050: f3ef 663e cd62 a93d 705f 3abd 2fe1 af3d
00000060: e6f3 a43c 491e fa3d d644 223e f53b db3e
00000070: eb83 1c3e 4508 423d 123a e83d 3831 02bc
00000080: 4342 5a3e 9f04 e83d 0226 133d cb40 303e
00000090: 1fc7 643e 4f57 6c3d d488 073e a551 993e
000000a0: cd8d 503e 57ef b53d 1d28 1b3e 0e7d 353e
000000b0: a9d1 023d e62d 7a3d 9b9b d03d aa5f 0e3e
000000c0: 7a0b 263e 4645 1b3e 6ff4 273e e185 b53d
000000d0: 4b5d ff3d 15f9 ae3d 1f6c a83c feb5 bd3d
000000e0: 0029 5f3d 9885 273d 61c7 da3b d4d9 4fbb
000000f0: e4f7 a23d 7467 313e 8d95 903e 8ddf 5b3e

model.encoder.bn2.running_var f4 [64]
0.40811908 0.39572242 2.5990314 0.37767443 0.16182709 0.13742918 1.1868922 0.6438662
0.850671 0.31176242 0.66881454 0.39661068 0.61691964 1.1425637 0.21849431 0.5921458
0.08536949 0.45837164 0.81223303 0.28221965 0.8435302 0.53478503 0.18197773 0.48474985
0.33551532 0.34908003 0.7337352 1.2943558 0.687225 0.655533 0.3462805 0.42578375
0.91674244 0.11877895 0.052506547 0.4417747 0.9602067 0.25875625 0.5571753 0.8325383
0.32396573 0.5517416 0.66740483 0.4650271 0.09988009 0.25615454 1.0866586 0.41105023
0.30179903 0.5488752 0.6619148 0.32512805 0.36065203 0.5062532 0.34319678 0.3389307
0.1555952 0.35443872 0.051161118 0.16070269 0.68427205 0.36522132 1.700362 0.85096616
00000000: fcf4 d03e 219c ca3e 8856 2640 8b5e c13e
00000010: 00b6 253e 3cba 0c3e 15ec 973f 6ad4 243f
00000020: 93c5 593f 539f 9f3e 6e37 2b3f 8e10 cb3e
00000030: 72ee 1d3f 873f 923f f9bc 5f3e de96 173f
00000040: 33d6 ae3d b0af ea3e 81ee 4f3f 187f 903e
00000050: 98f1 573f ace7 083f 5f58 3a3e 2231 f83e
00000060: aac8 ab3e 9eba b23e 12d6 3b3f 73ad a53f
00000070: faed 2f3f 03d1 273f ad4b b13e 5400 da3e
00000080: a2af 6a3f 6142 f33d 1b11 573d 4b30 e23e
00000090: 1bd0 753f b37b 843e 0aa3 0e3f 3b21 553f
000000a0: d6de a53e f03e 0d3f 0bdb 2a3f 0818 ee3e
000000b0: ef8d cc3d b026 833e a117 8b3f 2d75 d23e
000000c0: 6785 9a3e 1683 0c3f 4073 293f 2f77 a63e
000000d0: 62a7 b83e cf99 013f 7db7 af3e 5388 ad3e
000000e0: 5954 1f3e fe78 b53e 528e 513d 3f8f 243e
000000f0: 742c 2f3f 4afe ba3e 76a5 d93f ebd8 593f

model.readout.fc.weight f4 [6, 64]
0.09479261 0.0068952655 0.06738748 -0.090907544 0.04127332 0.018480528 -0.006665692 -0.11645323
0.12980688 0.09196529 0.10042522 0.08001101 0.029205684 0.06980145 -0.13810976 -0.1055458
0.077576086 0.01755425 -0.045153834 -0.09549456 -0.04318365 -0.07513208 0.009351144 -0.0061022094
-0.07129967 -0.06935091 -0.10812137 0.0020456368 -0.10554315 0.020279009 0.002632275 -0.040096022
-0.021334076 0.049622316 -0.09782217 0.039661776 0.12060779 0.07717212 0.07279188 0.06997565
-0.017940015 0.09479488 -0.06100997 0.0535934 -0.08866718 -0.022288969 -0.030498926 0.05462131
0.055025022 0.09397397 -0.13025817 0.07727315 -0.041527033 0.010465029 0.0071517434 0.017417561
0.09694682 -0.027079262 -0.0007230809 -0.0026013197 -0.014545236 -0.086461574 -0.044550296 -0.089996845
-0.1174256 0.04441416 -0.038791504 0.06869317 -0.046474703 -0.049722522 -0.029253945 0.110818446
-0.0702776 -0.011306745 -0.056617487 -0.06759593 0.06278768 0.094168685 0.096491635 0.104252025
0.085911095 -0.049190395 -0.081981994 0.08416896 -0.06349588 0.04036285 0.10351637 0.0049237357
0.064055696 0.08833592 -0.057801444 0.09317269 0.028996598 0.04192879 -0.12875403 0.078490354
0.050431523 -0.04637296 -0.026285052 -0.114382386 -0.1016441 0.062286984 0.09245438 0.111530654
0.0605966 -0.12362975 0.0031410302 0.05812271 0.095761806 -0.041350093 -0.1238175 -0.12079105
0.054127328 0.0069891135 -0.037941903 -0.112818085 -0.10364476 0.056633703 -0.031093486 0.037519716
-0.08438876 -0.08169045 -0.023828171 0.076229475 0.036901318 -0.08538895 -0.049464695 -0.09144469
-0.023857959 0.13129076 0.0116523905 -0.09304162 -0.03786156 0.011117129 0.13041365 -0.02040872
-0.07365171 -0.0003715559 0.049527254 -0.08318898 -0.015315498 0.028745124 -0.035725802 0.090437695
-0.093277164 -0.09073887 0.023032758 -0.024108056 0.016132206 -0.03541462 0.03510073 -0.08001907
-0.0035165716 -0.0019643065 0.09633165 0.116054095 0.061825987 -0.05302564 -0.1116432 0.022466676
0.10280389 0.012303981 -0.08980883 -0.11331985 0.029968968 0.0857168 0.02823334 -0.009581369
-0.063017964 0.025089847 0.08051434 0.01025838 -0.0829282 -0.014143438 0.12345084 -0.05187239
-0.049470626 0.1126551 -0.045391366 -0.07231965 -0.038632344 -0.04977883 -0.033019867 -0.11941769
0.027935302 0.091417246 -0.052245867 0.04419259 -0.07391411 -0.043488227 -0.022387728 0.07865792
-0.004815648 -0.03864184 -0.09043009 0.0075333533 -0.084303945 0.071442194 0.10679055 -0.04784506
-0.015045845 0.0006083512 -0.06202249 -0.065919265 0.11072845 0.10814691 0.119398296 -0.09103924
0.0853543 -0.06473223 0.037994735 0.0274254 -0.024557067 0.022346448 -0.11838176 0.10024233
-0.0918063 -0.06672607 -0.046486605 0.014869607 -0.096299015 0.017960176 0.099546425 -0.09789534
-0.08817618 0.058094267 0.08348812 0.118855916 0.06037166 0.048777953 -0.037552893 -0.07235994
0.07802124 0.00083132205 -0.035134282 0.029732447 -0.08214227 -0.047459923 0.08909344 0.033565596
-0.020909235 0.059954245 -0.06197065 0.064252295 -0.04784453 -0.03558307 0.09176766 -0.013141558
0.07313389 0.0202599 -0.010290289 -0.06370759 -0.005764763 0.018916208 -0.10766698 0.050261885
00000000: a122 c23d aef1 e13b 7202 8a3d bc2d babd
00000010: 360e 293d 7a64 973c e16b dabb 087f eebd
00000020: 18ec 043e 4c58 bc3d bdab cd3d d0dc a33d
00000030: c240 ef3c 10f4 8e3d a56c 0dbe 6528 d8bd
00000040: 36e0 9e3d eecd 8f3c 3af3 38bd a792 c3bd
00000050: 57e1 30bd d9de 99bd 8a35 193c 0bf5 c7bb
00000060: 9005 92bd da07 8ebd bd6e ddbd 1710 063b
00000070: 0227 d8bd 2a20 a63c 3f82 2c3b ba3b 24bd
00000080: cdc4 aebc c540 4b3d fd56 c8bd 6374 223d
00000090: 3801 f73d 6b0c 9e3d e913 953d 654f 8f3d
000000a0: f0f6 92bc d123 c23d 97e5 79bd c184 5b3d
000000b0: 2397 b5bd 5b97 b6bc e2d8 f9bc 98ba 5f3d
000000c0: eb61 613d 6d75 c03d 6662 05be 6341 9e3d
000000d0: 4018 2abd 8375 2b3c 2c59 ea3b 46af 8e3c
000000e0: 0e8c c63d 54d5 ddbc 238d 3dba e77a 2abb
000000f0: 244f 6ebc c412 b1bd 5f7a 36bd 4450 b8bd
00000100: d57c f0bd 9feb 353d d7e3 1ebd 01af 8c3d
00000110: 425c 3ebd d8a9 4bbd f8a5 efbc c8f4 e23d
00000120: b4ed 8fbd ed3f 39bc bde7 67bd bc6f 8abd
00000130: d496 803d 83db c03d 689d c53d 1682 d53d
00000140: 28f2 af3d de7b 49bd 2de6 a7bd c760 ac3d
00000150: 210a 82bd 8453 253d 6400 d43d 4a57 a13b
00000160: a22f 833d 76e9 b43d 35c1 6cbd 53d1 be3d
00000170: 468a ed3c 86bd 2b3d 19d8 03be 8dbf a03d
00000180: 4991 4e3d 93f1 3dbd c053 d7bc 5041 eabd
00000190: c82a d0bd a320 7f3d b958 bd3d 2f6a e43d
000001a0: 2434 783d 9831 fdbd bed9 4d3b 1412 6e3d
000001b0: c41e c43d b75e 29bd 0894 fdbd 4c61 f7bd
000001c0: 9eb4 5d3d ef04 e53b f868 1bbd 2b0d e7bd
000001d0: b443 d4bd bef8 673d c4b7 febc 46ae 193d
000001e0: 04d4 acbd 534d a7bd 4c33 c3bc 331e 9c3d
000001f0: d625 173d 67e0 aebd 7e9b 4abd 5b47 bbbd
00000200: c471 c3bc 1671 063e abe9 3e3c 9b8c bebd
00000210: b914 1bbd 9e24 363c 288b 053e 3030 a7bc
00000220: b5d6 96bd 64cd c2b9 17dd 4a3d fc5e aabd
00000230: dbed 7abc e57a eb3c 3855 12bd 6637 b93d
00000240: 1908 bfbd 4dd5 b9bd 32af bc3c 427e c5bc
00000250: b027 843c ec0e 11bd c8c5 0f3d 0ae1 a3bd
00000260: 4876 66bb 98bb 00bb 8749 c53d c5ad ed3d
00000270: 3f3d 7d3d 6a31 59bd 31a5 e4bd 090c b83c
00000280: d98a d23d a396 493c b1ed b7bd 3d14 e8bd
00000290: 7b81 f53c 4a8c af3d 9b49 e73c 2dfb 1cbc
000002a0: 900f 81bd 3989 cd3c b4e4 a43d c412 283c
000002b0: 43d6 a9bd e1b9 67bc cbd3 fc3d 2578 54bd
000002c0: b6a1 4abd b8b7 e63d 4cec 39bd 531c 94bd
000002d0: f33c 1ebd e3e4 4bbd d73f 07bd 4391 f4bd
000002e0: 93d8 e43c f738 bb3d c3ff 55bd 4a03 353d
000002f0: 4860 97bd b620 32bd 7866 b7bc 6717 a13d
00000300: 95cc 9dbb e846 1ebd 6933 b9bd 59da f63b
00000310: 8ca7 acbd 4950 923d 01b5 da3d 2ef9 43bd
00000320: d982 76bc c279 1f3a 4b0b 7ebd ae00 87bd
00000330: 99c5 e23d 217c dd3d 1887 f43d c872 babd
00000340: 3cce ae3d 5592 84bd 5ea0 1b3d 3cab e03c
00000350: e72b c9bc e60f b73c 2372 f2bd da4b cd3d
00000360: f104 bcbd aea7 88bd bd68 3ebd a79f 733c
00000370: 6b38 c5bd 3821 933c ffde cb3d 5a7d c8bd
00000380: b795 b4bd 41f4 6d3d d2fb aa3d bb6a f33d
00000390: 4648 773d 64cb 473d 10d1 19bd 7331 94bd
000003a0: 9ac9 9f3d 14ed 593a f7e8 0fbd 7691 f33c
000003b0: 353a a8bd 5665 42bd 9f76 b63d 147c 093d
000003c0: d849 abbc 9592 753d f0d4 7dbd b596 833d
000003d0: a0f8 43bd 8ebf 11bd aff0 bb3d b04f 57bc
000003e0: 39c7 953d 17f8 a53c 9a98 28bc 2079 82bd
000003f0: 56e6 bcbb 2af6 9a3c 8180 dcbd 68df 4d3d

model.readout.fc.bias f4 [6]
0.0017972764 -0.024834009 -0.09278622 -0.05480444 -0.05901282 0.0022602072
00000000: 9792 eb3a b170 cbbc b406 bebd 9f7a 60bd
00000010: 6db7 71bd fc1f 143b
