lightning_logs/version_29/checkpoints/epoch=13-step=392.ckpt (torch, 128059 bytes, 40 tensors)

model.encoder.conv1.bias f4 [64]
00000000: 382f 093a 2bbe a1b9 c5a8 573b 3079 08bc
00000010: 0000 0000 c837 ebb9 504d 333c 6df8 4b3c
00000020: 482a f9ba 0000 0000 0d2c 0eb9 d32c 1fbb
00000030: e08d b8b7 933f 50bb f9d7 a4bb ccb8 803b
00000040: 0000 0000 a33e 573a fb10 1d3b d34d 8f3b
00000050: 2ed8 eb3a 1a7f b2bb fdca 1d3a 2781 74ba
00000060: 1319 7dbb f534 6c3b 7fe0 99ba 0a88 113c
00000070: 1cca a43a 9a63 9e3b 0000 0000 bd7c 0d3a
00000080: 77af eabb f19e 27bb 3810 41bb a86c 1fbb
00000090: 4621 14b9 3263 aa3b 0476 003b 0000 0000
000000a0: ffc5 bf3a eec9 0cbb e90d 0fba 0000 0000
000000b0: ed9d 8abb 2055 66bc eeae da3a 0000 0000
000000c0: 29d6 ccbb 0511 3ebb a783 a6bb afe3 f0ba
000000d0: f1f0 1cbb 8b4a e4ba 687f b83a 5be0 8139
000000e0: e00b 36ba 83b5 19bb ca82 bfbb c92d 2bba
000000f0: faeb 033b 6e5b 243b 4c50 87bb 3b17 2dbb
0.00052331714 -0.0003085 0.003290699 -0.008329675 0.0 -0.00044864253 0.010943726 0.012449366
-0.0019009793 0.0 -0.00013558585 -0.0024288192 -2.2000575e-05 -0.0031776174 -0.0050306288 0.0039282795
0.0 0.0008210933 0.002396642 0.004373291 0.0017993504 -0.0054472806 0.00060193223 -0.00093271065
-0.0038619682 0.0036042307 -0.0011739879 0.008882532 0.001257244 0.004833651 0.0 0.00053973106
-0.0071620303 -0.0025576914 -0.002945913 -0.0024326239 -0.00014126775 0.0051998133 0.0019601593 0.0
0.0014631151 -0.0021482664 -0.000545709 0.0 -0.004230252 -0.014058381 0.0016684213 0.0
-0.006251116 -0.0029001844 -0.005081612 -0.0018378402 -0.0023947323 -0.0017417235 0.0014076056 0.00024771955
-0.00069445185 -0.0023454137 -0.0058444487 -0.0006529955 0.0020129667 0.002507891 -0.004129445 -0.0026411552

model.encoder.conv1.lin.weight f4 [64, 3]
00000000: a149 bb3d be34 483e 3cfc 953e be15 d93d
00000010: b634 8ebe 8876 ac3d 41e9 663e e38d e0bd
00000020: d4c2 2fbd a7d6 3c3e c840 9bbe 3a65 d23c
00000030: 2649 58be a78c 85be 9063 4ebe e28a 47be
00000040: bc14 18bd 2b86 023d d4bd 20be c0da 6f3d
00000050: c881 833d 061e 7cbe 3b63 833e a83a 093c
00000060: fc09 353b f25b 383e 2438 483e 1079 d7bc
00000070: 18d7 69bd 3cc1 65bd e728 943e 9241 c73d
00000080: dbd7 07be 7b11 193e 1993 c7bd b3b4 eb3d
00000090: 9756 5c3e 84b5 983c 9de0 5fbe 4a7a 683d
000000a0: ed95 6a3e b1e9 8abe c120 613d e474 9dbe
000000b0: 8167 18be 8642 0ebe c711 3d3c d8c1 373e
000000c0: 40ab 8fbb 4046 b3bc 0480 4abe 2fff 053c
000000d0: 5530 013e 6a9f 493e 1a1d 893e 9b9b 103e
000000e0: 9ff5 673c 5554 87be d0a6 903e 5108 963d
000000f0: 70f2 98be 6e13 82be f5eb 093d 017b 82be
00000100: b605 28be 7b4b 3c3e 8f5f 95be 4536 1f3e
00000110: 8678 173d 229b 1a3e 019d 913e f1dc ed3d
00000120: db64 73bd a769 693e c8e1 803e 01bc 103e
00000130: f778 91be 1be9 453e c217 6bbe 50a4 b63b
00000140: a230 4e3d 58dd 913e 70e1 29be b79f e1bd
00000150: f98e d6bd 6116 c53c 27ce 1c3d 89ca 113e
00000160: c419 9bbd c616 5abe efff 92be f12f 35be
00000170: 1e0c 4abe 3026 8fbe cf5f b1bd 0844 c93d
00000180: 9f57 8c3d 911a 8cbe 83e6 743e cfe4 8a3e
00000190: daca 2f3d f418 223e aaf4 93be db43 3b3e
000001a0: bc30 463e 9e20 36bd 1497 963d cc11 073b
000001b0: 0d29 41bd 4a16 f63d 9f57 e53d cbdc 24be
000001c0: 7048 973e fc3d 463e c219 73be 6edd b8bd
000001d0: 3fb1 8c3e 20a0 8bbe 006e 4abb 0904 80be
000001e0: fc49 47bd 76d4 29bd 79e6 4a3e fdcf a2bd
000001f0: f0aa 8b3d a2d7 63be ee70 9dbd e814 873d
00000200: b1c1 c53d c069 f3bb d03d 31be 4019 91bc
00000210: 0f32 853e e14e 793e 3b21 e1bd 8d89 2a3e
00000220: 15aa 063e fc2f 98be 4c60 b83b 7cc0 bd3d
00000230: c876 693e aead 81be 82a5 54be 1d04 64be
00000240: 542a d33d 973c 1b3d 106a c0bd d6e6 8fbe
00000250: e412 183e 840b b63d 62b8 6b3d 5343 243d
00000260: 8b42 1a3e 0cf5 823e 769f e63c e2ca 82be
00000270: a773 533e a8ba 283e 6594 673c 122a bfbd
00000280: a8c2 85be 69b2 a33d 605f 80be 33be 5fbe
00000290: a7d2 073e 9ffa e63d 92e5 d5bd c552 b2bc
000002a0: 19b4 9fbd d2a6 cd3d 9e5e 0ebe 3da2 d7bd
000002b0: d1b0 fbbd 820e 863e f364 d1bd 45f3 8d3e
000002c0: 2f33 90be eff9 7cbd 1a6f 453c 49f4 3fbd
000002d0: 47fd 0ebe f24c 29be b9af 1d3e b0a2 fd3d
000002e0: d09e 6a3e eecf 74be 536a 66be 8e55 503e
000002f0: cfce 413d 0fa0 903e 8294 8d3e 9964 6fbc
0.09144903 0.1955137 0.29294002 0.1059985 -0.2777459 0.084210455 0.22549917 -0.10964563
-0.042910412 0.18441258 -0.30322862 0.025683034 -0.21121654 -0.26083872 -0.20155168 -0.19486573
-0.03712915 0.031866234 -0.15697414 0.058558226 0.06421238 -0.24620828 0.25661644 0.008375801
0.002762436 0.18003824 0.19552666 -0.026302844 -0.057089895 -0.056092486 0.28937456 0.097293034
-0.13265936 0.14948075 -0.097448535 0.11509075 0.21517406 0.01864124 -0.21863027 0.05675725
0.22908755 -0.27131417 0.054962877 -0.30753243 -0.14883234 -0.13892564 0.011539883 0.1794504
-0.0043844283 -0.021884084 -0.19775397 0.008178516 0.12616093 0.19689718 0.26780015 0.14121859
0.014157682 -0.26431528 0.28252268 0.07325805 -0.29872465 -0.2540545 0.03367229 -0.2548447
-0.16408429 0.18388169 -0.29174468 0.15548046 0.036980174 0.15098241 0.28440097 0.11614407
-0.059422355 0.2279421 0.25172257 0.14134218 -0.284126 0.19327204 -0.22958282 0.005573787
0.05033935 0.28489184 -0.16589904 -0.11016791 -0.104764886 0.024058523 0.03828254 0.14237417
-0.07573274 -0.2129775 -0.28710887 -0.1769407 -0.19731185 -0.27958822 -0.08660852 0.09827429
0.0685265 -0.2736402 0.23916058 0.27127692 0.042918064 0.15829831 -0.288976 0.18287604
0.19354528 -0.0444647 0.073530346 0.0020609973 -0.04715829 0.1201597 0.11198353 -0.16099851
0.29547453 0.19359583 -0.23740295 -0.09026609 0.27478978 -0.27270603 -0.003088832 -0.2500308
-0.04865454 -0.041462384 0.19814481 -0.07949827 0.06819713 -0.22250226 -0.07687555 0.065957844
0.09656084 -0.007428378 -0.17308736 -0.017712235 0.26014754 0.24346496 -0.10992666 0.16654034
0.13150819 -0.2972411 0.005626714 0.09265229 0.22799218 -0.2532782 -0.20766261 -0.22267194
0.10310808 0.03789958 -0.0939523 -0.281058 0.14850956 0.08888915 0.057548888 0.040103268
0.15064447 0.2557758 0.028152209 -0.25545412 0.20649587 0.16477454 0.014134501 -0.09334196
-0.26125073 0.079930134 -0.25072765 -0.21849899 0.13263951 0.11278271 -0.10444178 -0.021767983
-0.07798023 0.10041584 -0.13903281 -0.10528991 -0.122895844 0.26182944 -0.10224333 0.27724662
-0.2816405 -0.061761793 0.012050414 -0.046863828 -0.13963805 -0.16533259 0.15399064 0.12384546
0.22912145 -0.23907444 -0.22501497 0.20345137 0.04731637 0.28247115 0.27652365 -0.014611387

model.encoder.conv2.bias f4 [64]
00000000: c1bb fc3b 1349 1c3c 8e49 353b 4d42 e8bb
00000010: 4349 61bb 9b97 d9bb e58f b3b9 fe50 d2bb
00000020: bcd8 c6b8 2402 6f3b acb3 07bc 095b 2ebc
00000030: 6bee 593b 64c6 903b ade8 d8bb 1e93 8dba
00000040: e6af a8bb 2c11 6ebc 4504 84bc 6c4c 323c
00000050: f9da 073c fffc 0d3c b2bf 5fbc 4546 9abb
00000060: b2d6 223b dbe8 6cbc fe20 edbb 8cc7 363a
00000070: 57bc 733b d7c2 d13a b3e2 6b3a 72ed 81bb
00000080: aebe 91bb 2cd5 1fbc 7422 26bc c370 863a
00000090: b3a2 d1bb 0c09 d9b6 f7f5 cb3b b201 b8bb
000000a0: a0f0 993b e7c5 16bb e19b bfbc ab15 5ab9
000000b0: f824 57ba 9dca 863a 6278 ff3b c63b 1fbb
000000c0: d567 b8bc e3ba f5bb b6dc 2ebb 136f 1dbc
000000d0: 65c5 67bc 7c52 e03a 1eb4 a53a 7aae f23b
000000e0: fde4 65bc 67c7 5cbc 14c5 95bb cd88 abbb
000000f0: 348d 583a 2162 9abb 086d 79bb c096 32ba
0.0077128117 0.009538907 0.002766225 -0.007087982 -0.0034375943 -0.0066403872 -0.0003424875 -0.0064183464
-9.481746e-05 0.0036469782 -0.008282583 -0.010641822 0.003325368 0.0044181813 -0.006619534 -0.0010801291
-0.005147922 -0.014530461 -0.016115317 0.010882478 0.008291953 0.008666276 -0.013656544 -0.004708084
0.0024847207 -0.014459814 -0.007236599 0.0006972484 0.0037191117 0.0016003501 0.00089983194 -0.0039650733
-0.0044477796 -0.009755414 -0.01014005 0.0010256994 -0.006397569 -6.468157e-06 0.0062243897 -0.0056154365
0.004697874 -0.0023006143 -0.023389759 -0.00020798172 -0.0008207108 0.0010283772 0.007796333 -0.0024297102
-0.022510448 -0.0074990853 -0.0026681847 -0.009609002 -0.014146184 0.0017114426 0.001264218 0.007406053
-0.014031646 -0.013475276 -0.0045706127 -0.005234814 0.0008260787 -0.004711405 -0.0038059372 -0.00068126246

model.encoder.conv2.lin.weight f4 [64, 64]
00000000: a88e 613d da00 5cbe 5cba 5fbe ebd0 383e
00000010: b3bf 1d3e 1840 373e 8063 1ebe 52af b73d
00000020: ad80 1fbc 4f82 50bd 60f8 33be 321f 413e
00000030: 1e04 1cbe 4255 103c 2a47 40be db10 b33d
00000040: bd3b 2a3e 0d84 0d3d c95e 82bc c2a8 503e
00000050: 01d8 413d bdfa 48be 0737 fe3d c8f7 99bc
00000060: a843 1d3e f21d 133e 5d62 2abe b6cf c8bd
00000070: 79c4 313e 23ae 9d3d be43 43be 5065 1fbd
00000080: b25b 1bbe 4af4 5a3d 43c0 153e 1201 11bc
00000090: 04fc babd 0a64 01bd 9757 d93d 9198 ffbd
000000a0: 9e5b f13d a82b 5dbd cfca 433e 6a25 19be
000000b0: aac5 463e 1f4f 8fbd 09ae 0ebe 78aa 61be
000000c0: 5ca1 0e3e 7af9 67bd 0228 26be 842b f7bc
000000d0: 81d0 663d 4544 443e 4d0f d3bd bba2 09be
000000e0: 215b 4cbe 97fa f93d 1c09 0a3e beef b4bd
000000f0: cbff 7cbd b19f 5abd 2037 10be 33ea 02be
00000100: 3881 1d3e 1f80 55bd 1555 65be 4a84 0abe
00000110: a406 41be ed79 82bd 7c18 0c3e 7e63 d3bd
00000120: 8c65 843d 7984 4a3e a62e 1f3e 5744 7abd
00000130: 65cf d43d e2ed c7bd f235 7d3b 764e 2b3e
00000140: 0aab ef3d 3f29 ccbd e990 53be 66f9 2a3e
00000150: fa26 0a3e c166 c53d 8ba0 f03d 4eeb fa3d
00000160: 2334 e9bc 6f89 263e d437 533e 9522 cd3a
00000170: 57eb 4bbe 300c 04be 7d7e f43d efda 44bc
00000180: 596c 9e3b 602d 2ebe e77b 48be 93b4 f33d
00000190: 5c08 ccbc 796f 213c 05ac 4a3e a958 e7bd
000001a0: 5a8e 1c3e fd1c 6c3c eb53 2ebd 6492 99bd
000001b0: 072d e0bc 37d3 3ebd 7e79 9f3d b358 2abe
000001c0: 156b 91bd 34ca 00be 5b35 f23c 5543 29bd
000001d0: d021 a93d 0feb f7bd fc7d e4bd 447f dabc
000001e0: bf26 24be e5f6 c23d 6a83 8b3d 1c21 79bd
000001f0: 7c96 15bd f12c 90bc 9b70 0e3e df82 153e
00000200: d34a 7e3c d3dc 00bc 4a08 d63d b864 78bc
00000210: 828e b0bd 9d78 9cbd 7d27 fb3c fb52 c53c
00000220: ac78 e93d c242 323e 1142 c53d a2b5 d43c
00000230: 6405 58be 3d19 223e 7a55 5f3d 7d41 3c3e
00000240: 9ba8 233c b18c d33d 7e13 4a3e 77dc 2c3d
00000250: 59f6 353e c4e8 ff3d 2a73 3f3e b6d8 453e
00000260: 2be7 cd3d 24c1 0bbe 1038 683c dadc 043e
00000270: 43f2 0c3d d541 2ebe ed1a 97bd 2b51 3f3e
00000280: 3ea6 cb3d 144a 003e 1b85 5ebd 38b8 d3bd
00000290: 91e1 5e3c 987e e83c e9e8 583e 40c8 393e
000002a0: 03f4 3fbc 83be 0bbd 59d7 803d 3b3b 2fbe
000002b0: 9466 aabd d8fa 91bd f848 0fbe 938e 163d
000002c0: 9923 ba3b d68e cdbd 3d49 bbbd 926f 253e
000002d0: 8629 4bbe b891 923d ddf4 41bc d387 e2bd
000002e0: b7f5 f33d 69aa 9ebd 8fa3 993d 6a8b 1a3e
000002f0: e7df 873d faa1 0fbe d2de 11be 21e9 0cbe
00000300: 2818 793d 2997 2fbe 8dab 12be 1d2c 0fbe
00000310: 6eb5 32be ac32 05bd fb2b 5c3d dd6c c5bc
00000320: e9be 723b ec2b b5bd 6ae8 013e 0d6f 8dbc
00000330: 2115 c7bd 837a 09be 7ec8 b4bd fc6c 26be
00000340: 6df9 1a3e fea5 55bd 9e64 bcbd f879 a2bd
00000350: ed5b 0a3e a38d 73bd ba0a 413d 5bd7 4ebd
00000360: 6b5a c73d 65ed 603e f1dd 5cbe 9513 41be
00000370: cd15 c2bb b8ad 37be fcbf 4b3e 6c49 363e
00000380: 2986 cebc 774d a0bd 3601 e6bd 1053 f33d
00000390: 6c56 fe3c 3477 303e bf05 0f3e 948b 423c
000003a0: 3821 f43d aca8 c53c 5f10 253e abbc 633d
000003b0: 2e9d 50be 9287 33be 8c8e ecbc 2dc5 293e
000003c0: 91b3 33be d320 20be c64d c63c f568 d83d
000003d0: a717 19be 14ed 4abd 1e69 193e 8002 d63d
000003e0: 4063 a3bc d36e 343e 9df1 653a d20b 173e
000003f0: 5447 0a3e 77f4 64ba 8ac3 073e a6b1 e7bd
0.05506769 -0.214847 -0.21848434 0.18048446 0.15405159 0.17895544 -0.15467644 0.089689866
-0.009735269 -0.050905522 -0.17575216 0.18859556 -0.15235946 0.00880939 -0.18777147 0.08743449
0.16624351 0.03454976 -0.015914338 0.20376876 0.047325138 -0.19626899 0.124128394 -0.01879491
0.1535784 0.14366892 -0.16639085 -0.09805243 0.17360105 0.076992296 -0.1906881 -0.03891498
-0.15171698 0.05345563 0.14624123 -0.008850353 -0.091300994 -0.031589545 0.106124096 -0.124802716
0.11785053 -0.053996712 0.19120334 -0.14955679 0.1941134 -0.06997513 -0.13933577 -0.22037685
0.13928741 -0.056634404 -0.162262 -0.030172117 0.05635119 0.19166668 -0.10305653 -0.13440983
-0.19956638 0.12205999 0.13480037 -0.0883479 -0.06176738 -0.05337495 -0.14083529 -0.12784652
0.15381324 -0.05212414 -0.22395737 -0.13527027 -0.1885019 -0.06370912 0.13681215 -0.10321711
0.06464681 0.19777097 0.15545139 -0.06110033 0.1039112 -0.097621694 0.003863689 0.16729149
0.11702545 -0.099688046 -0.20660748 0.166967 0.13491431 0.096387394 0.11749371 0.12251912
-0.028467244 0.16263364 0.20626765 0.0015650565 -0.19913994 -0.12895274 0.11938188 -0.012015088
0.0048346934 -0.17009497 -0.19578515 0.11899676 -0.02490633 0.009853237 0.19792183 -0.112962075
0.15288678 0.014411208 -0.0425605 -0.07498625 -0.02736522 -0.04658815 0.07786845 -0.16635399
-0.071005024 -0.12577134 0.029566457 -0.04132398 0.08258402 -0.12105381 -0.11156842 -0.026672013
-0.16030405 0.09519748 0.068121746 -0.06082259 -0.036520466 -0.017599555 0.13910143 0.14600705
0.015520769 -0.007865149 0.104508 -0.015160732 -0.08620931 -0.07640193 0.030658478 0.02408742
0.113999695 0.17408279 0.09631742 0.025965516 -0.21095806 0.1582994 0.054524876 0.18384357
0.009988929 0.10329569 0.19733998 0.04220244 0.17769755 0.124955684 0.18696275 0.1932095
0.100538574 -0.13647896 0.014173523 0.12974873 0.034410726 -0.170173 -0.073781826 0.18683307
0.099438176 0.12528259 -0.054326158 -0.10337871 0.013603584 0.028380677 0.21182598 0.18142796
-0.011715892 -0.034117233 0.06291074 -0.17112438 -0.083203465 -0.07127923 -0.13992679 0.036757063
0.005680513 -0.100370094 -0.091448285 0.16155842 -0.19840059 0.071567 -0.011838165 -0.11061063
0.11912101 -0.07747347 0.075018995 0.15092245 0.06634503 -0.14026633 -0.14245155 -0.13760807
0.060814053 -0.17147507 -0.14323254 -0.13981672 -0.17452022 -0.032519028 0.05375288 -0.024099762
0.003704006 -0.08846268 0.12686315 -0.017264867 -0.09720827 -0.13425641 -0.08827303 -0.16252512
0.15134211 -0.052160256 -0.09198879 -0.0793342 0.1351163 -0.059461247 0.04712937 -0.050498348
0.09734043 0.21965559 -0.21569039 -0.18855126 -0.005923009 -0.17937362 0.19897455 0.17801446
-0.025210457 -0.07827275 -0.112307 0.11881077 0.031047069 0.17232972 0.13967036 0.011874098
0.119203985 0.02412828 0.16119526 0.05559985 -0.2037246 -0.17532185 -0.028876565 0.16579123
-0.17548968 -0.15637521 0.024207007 0.10566894 -0.14950429 -0.0495425 0.14981505 0.104496956
-0.019944787 0.17620401 0.000877166 0.14750603 0.13503772 -0.0008733938 0.13258186 -0.113131806

model.encoder.bn1.weight f4 [64]
00000000: a7a0 7f3f 89ef 803f f2d6 7e3f 8c02 813f
00000010: 0000 803f b5db 7f3f f3c7 7e3f 6c13 7f3f
00000020: 77a7 7d3f 0000 803f 9b97 803f 6d45 7f3f
00000030: d07a 803f e601 803f 8d53 813f f563 803f
00000040: 0000 803f d892 803f 215a 803f 1c11 813f
00000050: 6284 803f 4142 803f 7229 803f a0a4 803f
00000060: 2118 803f 4d3f 803f 1664 803f 0fb0 7e3f
00000070: edd0 803f 9771 803f 0000 803f f593 7f3f
00000080: 8c81 803f e6f4 7f3f 0a02 7f3f d742 7f3f
00000090: 1c75 7d3f 0b28 7f3f b651 803f 0000 803f
000000a0: 1b99 803f 78a8 7f3f 04e1 7e3f 0000 803f
000000b0: 94b2 7f3f e8eb 7e3f 893e 7f3f 0000 803f
000000c0: db1a 803f 2241 803f 169f 7f3f fc00 803f
000000d0: ad43 7e3f 6778 7f3f 939b 803f 0dd0 7f3f
000000e0: 7a28 803f 44e6 7e3f 09c7 7f3f fe2a 7f3f
000000f0: 1f33 7e3f df72 7f3f 012c 7e3f 248e 7e3f
0.9985451 1.00731 0.9954673 1.0078902 1.0 0.9994462 0.9952385 0.9963901
0.99083656 1.0 1.0046266 0.9971531 1.0037479 1.0000579 1.0103623 1.0030504
1.0 1.0044813 1.0027505 1.0083346 1.00404 1.0020219 1.0012648 1.005024
1.0007364 1.0019318 1.0030544 0.99487394 1.0063759 1.0034665 1.0 0.9983514
1.0039535 0.9998306 0.99612486 0.99711365 0.9900682 0.99670476 1.0024936 1.0
1.0046724 0.9986644 0.99562097 1.0 0.99881864 0.99578714 0.99704796 1.0
1.0008196 1.0019877 0.9985212 1.00003 0.99322015 0.99793094 1.0047477 0.99926835
1.0012352 0.9957011 0.9991308 0.99674976 0.99296755 0.99784654 0.99285895 0.9943564

model.encoder.bn1.bias f4 [64]
00000000: ab2d 973c 0521 8c3c f47e 5b3b b43b 5b3c
00000010: 2439 563c 55e4 603c de95 9d3c 396d 9e3b
00000020: 615b 6a39 e321 683c 4219 1cbc d443 19bc
00000030: c956 a33c c2c5 3cbc d128 6a3c 0754 3d3c
00000040: 7811 893c bb2e e53b 4983 42bc b2a4 5cbc
00000050: ac6b 9bbc ad86 513c 3000 6238 6b52 f339
00000060: dcee 293c 2a23 85bb c164 0bbc 80fc 60bc
00000070: 2daa 16bc 638f 7cbc d2a0 64bc 1b54 283c
00000080: 0c0a ee3b d694 583c b41e d0bb 5191 753c
00000090: 0dd2 f4bb 6be7 8f3b 8a43 763c e95f 6c3c
000000a0: 8ac1 b23c ac2d 9f3b 4d33 3a3b be09 49bc
000000b0: 9499 f43b d8cd 0c3b 0b53 74bc 6f99 85bb
000000c0: d6c5 623c 1576 a4bb cbf7 3b3c 4e21 60bc
000000d0: 1cfa 6fbc 1041 3b3c 5af3 37bc 624c 41bc
000000e0: f0e0 dab9 919b 61bc ab07 abbb aaf0 483c
000000f0: ac49 ce3b 2a0b 8cbb 08a4 3fbc 41f4 393c
0.018454393 0.017105589 0.0033492418 0.013380934 0.013075147 0.013726314 0.019236501 0.0048347977
0.0002235002 0.0141682355 -0.009527506 -0.00935455 0.019938843 -0.0115217585 0.014291958 0.011555678
0.016731963 0.006994096 -0.011872121 -0.013467001 -0.01897224 0.012788457 5.3882773e-05 0.00046409978
0.01037189 -0.00406303 -0.008507908 -0.013732076 -0.0091958465 -0.015415045 -0.013954358 0.010273959
0.0072643813 0.013219079 -0.0063513163 0.014988259 -0.007471329 0.004391601 0.015030751 0.014427164
0.021820802 0.0048577394 0.0028411925 -0.012270389 0.007464597 0.0021484997 -0.014912377 -0.0040771286
0.013841113 -0.0050189593 0.011472653 -0.013679815 -0.014647033 0.011429086 -0.011227453 -0.011797996
-0.00041747792 -0.01377 -0.00521942 0.01226441 0.0062954035 -0.004273792 -0.011696823 0.011349739

model.encoder.bn1.running_mean f4 [64]
00000000: 9ec1 183e e84e a73c 2c64 9e3d bc36 1d3d
00000010: 0000 0000 1ffa ad38 7f3e 8c3c 9228 ad3d
00000020: f143 c23d 0000 0000 20a7 373e 18e3 423d
00000030: 75ae d93d 1900 073e 7bc9 e43b 25e7 d93b
00000040: 0000 0000 81f6 953d d733 4a3e 106c b83d
00000050: 158f c237 593f 8d3a ad36 1b3d 4cde 5a3e
00000060: 4ca5 ca3d 8a66 083d ca59 b63a 29d9 c23d
00000070: 48bd a93b c48e 453d 0000 0000 1db1 f039
00000080: 6607 513c f0ad 193e b1db 493d dd40 c53c
00000090: 1884 4a3d 1512 e93d 9c61 793b 0000 0000
000000a0: 6c7c 903b 1ed7 8a3c 33c9 aa3c 0000 0000
000000b0: 3c2a 703e eb50 fe3d 0e20 6a3d 0000 0000
000000c0: ee26 713d f8e1 123d 19b3 3e3d 2ec8 023e
000000d0: 002a 343e e3cb 9439 5305 043a 22b8 003d
000000e0: fc72 fb3c 9c21 7f3b 1e24 cd3d 0808 ea3a
000000f0: 55d7 963a d151 2c3e 6f19 6c3d add9 873e
0.14917609 0.020423368 0.0773395 0.038382277 0.0 8.2958715e-05 0.017119644 0.08455004
0.09485615 0.0 0.17934847 0.047579855 0.10628978 0.13183631 0.006982026 0.006649869
0.0 0.073224075 0.19746338 0.09004986 2.319323e-05 0.0010776325 0.03789394 0.21373862
0.09894809 0.033300914 0.0013912257 0.09514076 0.005180035 0.048231855 0.0 0.00045908327
0.012758112 0.15007758 0.04928178 0.02407878 0.04944238 0.11380402 0.0038052564 0.0
0.0044093635 0.016948279 0.020847892 0.0 0.23453611 0.12417778 0.057159476 0.0
0.058875017 0.03586003 0.04655752 0.12771675 0.17594147 0.00028380667 0.0005036194 0.031425603
0.030694477 0.0038929945 0.100166544 0.0017855177 0.0011508266 0.16828085 0.057641443 0.2653326

model.encoder.bn1.running_var f4 [64]
00000000: 1f9f d73a 871e b53a 3cf4 e03b 14d0 793b
00000010: a3a2 aa21 e60a ba35 9629 333a a897 213c
00000020: 784e 693b a3a2 aa21 16a1 b03b 4830 3e3b
00000030: 83d8 9a3b 5545 863b 0360 9639 7696 b739
00000040: a3a2 aa21 673e e73a 1db5 263b f017 393c
00000050: 384f 4e35 e5df bc38 0a60 543b e72d 1b3b
00000060: 93e5 e13b e35d 3a3b da05 9f37 1d9c 393c
00000070: 0362 d338 7955 3c3b a3a2 aa21 0fdc ac37
00000080: dc46 613a 8ff6 b93b 4198 993b cfaa 343a
00000090: 81d0 023b 2247 4b3c 76fa ec39 a3a2 aa21
000000a0: 50b2 c239 c6d4 163a 3216 2f3a a3a2 aa21
000000b0: b487 0a3b ba06 a63a cb07 a93a a3a2 aa21
000000c0: 2722 303a b387 3e3b 2b74 4839 350f d23b
000000d0: f5ae 5f3a 5044 4b37 ebdc 0b38 1cba da3a
000000e0: f1cd b13a 3214 e639 d972 223c d9cf 8a37
000000f0: 303e b338 ecfa 303b 66fe b03b 06b4 e53a
0.001645062 0.0013818302 0.0068650525 0.003811841 1.1562698e-18 1.3861252e-06 0.0006834505 0.009862818
0.003559975 1.1562698e-18 0.0053902967 0.0029020477 0.0047255172 0.0040976205 0.00028681764 0.00035016582
1.1562698e-18 0.0017642499 0.0025437542 0.011297211 7.685626e-07 9.006242e-05 0.0032405877 0.0023678483
0.0068938225 0.0028437309 1.8957002e-05 0.011328724 0.0001007952 0.002873747 1.1562698e-18 2.060647e-05
0.0008593628 0.005675144 0.0046873395 0.00068919075 0.0019960704 0.012407096 0.00045200036 1.1562698e-18
0.00037135417 0.00057537516 0.00066790276 1.1562698e-18 0.0021138014 0.00126668 0.0012895999 1.1562698e-18
0.0006718956 0.0029072582 0.00019116762 0.006410504 0.00085328455 1.2115648e-05 3.334593e-05 0.0016687545
0.0013565404 0.00043884065 0.009915077 1.6547669e-05 8.5469685e-05 0.002700503 0.0054014204 0.0017524965

model.encoder.bn2.weight f4 [64]
00000000: bf8a 7f3f 3944 803f b465 7f3f 223c 803f
00000010: b3aa 803f c63f 813f 2bce 803f 966e 813f
00000020: 9641 803f 2d80 813f f79c 803f 3a07 813f
00000030: f8eb 7f3f d675 7f3f 86e2 7f3f aab8 7f3f
00000040: 20af 803f a87c 813f f041 813f c985 7e3f
00000050: 3e02 803f e9df 7e3f b8b3 813f e0b5 803f
00000060: 2c90 7f3f 5b72 813f d8bc 803f 2083 7e3f
00000070: 31ef 7e3f 1de0 7f3f 6f81 7f3f 3e65 803f
00000080: 9bec 7f3f 59f7 803f 58bf 803f 2f46 803f
00000090: 09a4 803f a625 7f3f 4d16 7f3f 2dda 803f
000000a0: 9d38 7e3f 691d 803f 6012 833f c903 803f
000000b0: b6d9 803f eb11 803f 1591 7f3f 6446 803f
000000c0: 678a 823f cba2 803f 6420 803f 4f42 803f
000000d0: 4a4b 803f d4a6 7f3f 3bd5 803f 7fdf 803f
000000e0: 7e28 813f 9395 813f cb53 803f 2bd4 803f
000000f0: 4d08 7f3f d6d6 803f 01fc 7f3f df97 7f3f
0.99821085 1.002082 0.9976456 1.0018351 1.0052093 1.0097587 1.0062917 1.0111873
1.0020015 1.0117241 1.0047902 1.008033 0.99969435 0.9978918 0.9995502 0.9989115
1.0053444 1.0116167 1.0098248 0.9942289 1.0000684 0.9956041 1.0132971 1.0055504
0.99829364 1.0113024 1.005763 0.9941883 0.9958373 0.99951345 0.99806875 1.0030897
0.99970406 1.0075485 1.0058393 1.0021418 1.005006 0.9966682 0.99643403 1.0066582
0.99305135 1.0008975 1.0239983 1.0001155 1.006644 1.0005468 0.9983075 1.0021482
1.0198487 1.004968 1.0009885 1.0020236 1.0022976 0.99863935 1.0065073 1.0068206
1.0090482 1.0123771 1.0025572 1.0064749 0.9962204 1.0065563 0.999939 0.9984111

model.encoder.bn2.bias f4 [64]
00000000: 79d8 443b bcd9 1e3c 665c 5738 dfcd afbb
00000010: e4fe e73b 84dd 2c3c f75b 1d3c 47f3 ee3b
00000020: b607 773b 37bf 553c d769 4c3b 09b7 3f3b
00000030: 1bfa e93a a180 a9b9 7e66 7abb f810 06bb
00000040: e88e c43b c42e 8c3b 2402 8b3b 6f5a 16bb
00000050: 2c29 d23b df80 0c3b a852 433c e1c7 823b
00000060: 498f 35ba 75a7 f83b 63cd 513b b18f c5bb
00000070: 45e3 9fbb 4fb2 943a 8021 ddba 1bce 0d3b
00000080: 4d79 0dbb e660 663b bc8e b63a 0a63 863b
00000090: ef12 3a3b 17a8 7cbb dac1 28ba 3316 e03b
000000a0: eb4f afbb cf53 7eb8 e622 b03c 346a b039
000000b0: db25 e33b b480 f73a 3b45 de3b 184f 2f3a
000000c0: 8ebe 643c 75d0 8e3a 8374 afba 3b30 83bb
000000d0: ab9c abbb 5849 8db9 3aa0 d23b 95fd 653c
000000e0: 2183 0bb8 1174 303c d965 a8b9 b22b a43b
000000f0: 2b9f bfbb e362 c73b bad9 acbb 61b9 06bb
0.0030036254 0.009695467 5.1346047e-05 -0.005365118 0.007079946 0.01055086 0.009604446 0.0072921845
0.0037693805 0.013046077 0.0031191015 0.0029253385 0.0017851026 -0.00032330028 -0.0038208063 -0.0020456892
0.005998481 0.004278036 0.0042421985 -0.0022942086 0.0064135995 0.0021439118 0.011921562 0.0039911126
-0.0006925953 0.007588322 0.003201329 -0.0060290922 -0.0048793876 0.0011344644 -0.0016870946 0.002163774
-0.0021587193 0.003515297 0.0013928036 0.004101162 0.0028392633 -0.0038552338 -0.00064375775 0.006838584
-0.005350103 -6.0636372e-05 0.021501016 0.00033648463 0.006932003 0.0018882961 0.0067831553 0.0006687506
0.013961447 0.0010895865 -0.0013386164 -0.0040035523 -0.005237182 -0.0002694826 0.006427792 0.014037509
-3.3262306e-05 0.01076986 -0.0003211934 0.0050100917 -0.0058478317 0.0060847863 -0.0052749785 -0.0020557272

model.encoder.bn2.running_mean f4 [64]
00000000: 6e6b 923e cdef b73e 4170 933e dc99 f73e
00000010: 338a d83e e0fa d33d bd24 313e fb45 0d3e
00000020: a2cd 613e eb2a ac3e d4a9 a33e e1d0 023d
00000030: 16f1 ca3e e3c9 a93e c9cf e83e 89c6 a83e
00000040: eb58 173e 10a2 843e 6345 f63d b57a a33e
00000050: b8b8 a43e 44a7 913e fff6 023e 2644 a23e
00000060: 1d8e 573e 63b6 783d 32c6 3d3f 85ff 183e
00000070: 1f23 613e 4296 6c3e 2450 293f 55fd 313e
00000080: 633f ef3e 23c7 6d3e cd4b 8b3e 7a88 8b3e
00000090: aa79 593e 1ac0 803e f478 d03d a248 4f3e
000000a0: a0d4 053e 5d91 293f 8390 cf3d b7ed 063e
000000b0: fba8 673e 6ced 823e 30f2 833e 090e 503e
000000c0: 603a 083e 1dcc 0c3e 63ca dc3d 9753 1c3e
000000d0: 4965 6c3e d00d b93e 1c25 103e b794 a43e
000000e0: a2f9 873e 0903 223e 07bb 8b3e a9cf e23e
000000f0: 2982 743e 64f3 013e 1777 fb3d ff7b c93e
0.28597587 0.3592514 0.2879658 0.48359573 0.42292938 0.10350585 0.17299171 0.13796227
0.22051099 0.33626494 0.31965506 0.031937484 0.3963706 0.3316184 0.45471027 0.3296397
0.14780013 0.25904894 0.12024953 0.31929556 0.3217218 0.28447926 0.12789534 0.31692618
0.21050306 0.060720813 0.7413055 0.14941223 0.21986054 0.23104194 0.6613791 0.17381795
0.46728048 0.23220496 0.2720627 0.2725256 0.21237817 0.25146562 0.1017932 0.20242551
0.13069391 0.6623743 0.10134985 0.13176619 0.22623055 0.25571764 0.25770712 0.20317854
0.13303518 0.13749738 0.1078079 0.15266262 0.23085512 0.3614335 0.14076656 0.3214471
0.26557642 0.1582147 0.27291128 0.44299057 0.23877777 0.12690502 0.12278574 0.39352414

model.encoder.bn2.running_var f4 [64]
00000000: 64a4 223e fdd2 b13e 9c1f ba3e a9e2 513f
00000010: d1d7 823e e65b c33c 39b8 2c3d 93cf 5e3d
00000020: e463 483d a853 8a3e 4385 a73e ef46 733b
00000030: f10f 4e3e dfce 743e 7cf2 2a3f 4b7c 783e
00000040: 6bbd c03c 02ff 843e d48c dc3c cc41 e53d
00000050: da66 9d3e c2be 6a3e d89d 993c 625d 913e
00000060: aba4 d43d ded3 5f3c a4b2 8c3f ef06 093e
00000070: 0c67 c93d 0387 043e 8bed 433f fb43 193d
00000080: b03c e43e cabf 483d 32aa 263e ed0c 553e
00000090: 7280 eb3d 557c c83d 09fe bf3c 7d0a 053e
000000a0: 0459 713c 25cf 313f bd50 783c 32c5 303d
000000b0: bf09 9e3d ee34 903e 46b4 3e3e fc2a 493e
000000c0: 46ea bd3c 0c3e 493c 27d4 a43d 1b52 cf3d
000000d0: 8eba 963d 830c c83e 3d5d d83d 4982 573e
000000e0: d0bd ae3d 9ca0 963c 557f cb3d 0bc1 4e3e
000000f0: 2447 8a3d 8a4a 1c3d 9f16 0d3d 45c7 d43e
0.15883023 0.34731284 0.3635224 0.8198648 0.2555528 0.023847532 0.042167876 0.054397177
0.048923388 0.2701695 0.32718858 0.0037121137 0.20123269 0.2390704 0.6677625 0.24266164
0.023527822 0.25975806 0.02692262 0.111941904 0.30742532 0.22924331 0.018752024 0.28391558
0.103829704 0.013661353 1.0992017 0.13381551 0.09834108 0.12942128 0.76534337 0.037418347
0.4457755 0.04901103 0.16275862 0.20805712 0.114991084 0.097893395 0.023436563 0.12992282
0.014730696 0.694567 0.015155968 0.04315681 0.07716703 0.28165382 0.18623456 0.19645303
0.023183 0.0122828595 0.08048277 0.10123082 0.07359801 0.39072046 0.10564659 0.21045794
0.085322976 0.018387131 0.09936396 0.20190828 0.0675185 0.038157023 0.0344454 0.4155828

model.readout.mlp.0.weight f4 [64, 64]
00000000: 8525 92bc e96a b2bd 6297 5abd adcf f03c
00000010: 83e5 74bd 90c4 be3d f21a 5abd 066b 08bd
00000020: 32ff 00be a25a 36bd 7ef0 79bd 2f51 42bd
00000030: d5aa d73d 208a 79bd b71b 973d e91b 003d
00000040: 2496 d63d a2d4 b83d e1c3 edbd dd14 aebd
00000050: 7910 4f3b b78c dcbd f0ff 0fbc e8c3 d73d
00000060: 0a23 2a3d b634 a33d 7c77 543b c4c5 7a3c
00000070: 62a0 51bd 7a28 81bd 3a30 c1bd 15ae cf3c
00000080: b891 e23c f82f 80bc 4e4d 823d 7fc0 e7bd
00000090: 841c c53b b3b9 c5bd 5610 f2bc d58c 213c
000000a0: 4ea2 8b3d de29 bbbd d685 99bd 15e4 6abd
000000b0: 2952 0b3d 99c8 343d 6ce3 283d d8b9 ac3d
000000c0: 22cf afbd aefa d1bb 23c4 59bd bf28 a13d
000000d0: b60b c83d e2dc bc3d b278 a7bc 160e bdbd
000000e0: 6823 30bd 78ee 0dbd b745 713d 5cb4 4abd
000000f0: 1763 21bd 8723 043e 6a53 a83c fd81 ddbd
00000100: e73d ff3c 361e fbbd fba2 5abd 46db dc3c
00000110: aea8 9dbd 2422 bf3d 9f12 ce3d 89c9 d23d
00000120: e379 053d 04fe b33d b765 ab3d 2424 24bd
00000130: f5d8 6fbd d035 6ebd 95e4 35bd bedc 1bbd
00000140: dadf 203d 25b7 06be aa44 8ebd 7fb5 98bd
00000150: b565 3cbd db9d bf3c 1070 1d3d 8c2f 99bd
00000160: ef2c 9b3d 2c86 0b3c d587 e4bc 4c5a ce3d
00000170: 13aa 6e3b c51e c4bd 8e53 ee3d fe2e 683d
00000180: 4238 c33d 8ec0 e83d c0a2 7bbd cca3 b3bc
00000190: d613 e0bc 239b 8b3d a348 8fbd 287d 4ebd
000001a0: 224b 1e3d 6c04 d1bd e78a ce3d 424a eebd
000001b0: 1596 5dbd 5c84 a6bd a7f7 32bb 193b cbbc
000001c0: 4058 36bc 88ae 183d 8bee da3d bf67 ba3d
000001d0: 2895 06bd 28e3 0b3d 1b92 53bc 8b14 a53d
000001e0: 83db 8c3d 701e 033e 2314 3dbd 0669 913c
000001f0: 947a 8b3d 12e6 bdbd 43c8 d7bd bf84 36bc
00000200: 6ec8 adbd 4944 c03d 18c0 41bc 9ef7 fbbc
00000210: 25e6 c2bb 6fdb 91bc 1342 ea3d 3a43 07bc
00000220: a040 85bd e66e 813d bc4a 11bc d7bb a1bd
00000230: 2717 be3c ff5b adbb f556 fbbd be38 bbbd
00000240: e9fe 583d 0a3c 21bd 0cb2 64bd 0bc8 6b3c
00000250: 2382 d9bd d044 23bd 6bbc cf3d 1b4d 99bd
00000260: 2645 963d 18fb d5bd ef6d 873d 13dd b63d
00000270: 3882 f83d 99ea 03bd b184 9cbd bdc7 e03c
00000280: 47fe 60bd 3e5c 84bd 8f82 b0bd ee24 f43d
00000290: 2064 a3bd e68a 1ebd b95b e0bd b533 38bd
000002a0: 915a b4bd 177b 29bd 9672 19bb 7e23 603d
000002b0: 2d24 ee3a 3100 203d 1075 023d b280 83bd
000002c0: e1c8 eebd 2e32 6b3d 01fb 2bbd 3706 f5bd
000002d0: 6e1a 85bb c9cd f23d 4d62 ab3c 3313 b53d
000002e0: 4175 773c 7228 9e3d 819c ae3d a64f ef3d
000002f0: be79 d6bd 1394 06bc 1413 133d 1a55 d1bd
00000300: 4bbc 81bc c64a 02be 93a3 bebd 47f4 a9bd
00000310: 49b0 963d ecbd 8f3d e594 3ebd c45c 863d
00000320: ad0d 83bc 1e4f 6ebd da5a cfbd c665 e0bd
00000330: e090 143d de43 bd3d 4627 f0bd 6ab5 d1bc
00000340: 4050 403d 4fa8 cc3c 98f1 cdbc b582 a9bd
00000350: afe5 9f3c cde5 133c f54d 7bbd 70b8 8abd
00000360: 11bb dbbd 65c0 33bc 8ecf bd3b ecdb e43d
00000370: 1648 cbbd bf7e ccbc d8e0 b2bd 22ad ccbd
00000380: 51ea 063d f9c4 a93d b1c8 f23d b758 5ebc
00000390: 93da 5d3d 14da c83d 4224 6dbc 5d13 9c3d
000003a0: acc5 4b3c 5b3b cf3c 5d6a ca3d 5133 8e3b
000003b0: e514 c23c b875 a0bd dd88 c83c 8f9f 863d
000003c0: 00d8 7e3d bfe3 f53c 054a 363d 7365 853d
000003d0: 3fc8 97bd 9d83 58bd c312 81bd 9d89 86bd
000003e0: 85f6 ef3d 70f5 e3bd 7559 dcbd 661b 82bc
000003f0: 894f 623d e69d b0bd b4bc 73bd 0516 483d
-0.017840156 -0.08711798 -0.053367026 0.029395903 -0.059789192 0.09314835 -0.053248353 -0.03330519
-0.1259735 -0.044520028 -0.061020367 -0.047440704 0.105306305 -0.060922742 0.07378333 0.031276617
0.10477856 0.090249315 -0.116096266 -0.08500073 0.0031595512 -0.10769027 -0.008789048 0.10535413
0.041537322 0.07969038 0.003241985 0.01530594 -0.051178344 -0.063065484 -0.094330266 0.025351563
0.027657375 -0.015647873 0.06362401 -0.113160126 0.006015362 -0.0965456 -0.029548805 0.009860237
0.068180665 -0.09138845 -0.0749623 -0.057346422 0.0340139 0.044136617 0.04123251 0.084338844
-0.08584429 -0.006408057 -0.053165566 0.078691 0.09767859 0.092218176 -0.020443294 -0.09231202
-0.043002516 -0.03465125 0.058904376 -0.04948841 -0.03940114 0.12904178 0.020547587 -0.10815809
0.031157447 -0.12261622 -0.053378087 0.026960026 -0.07698189 0.09332684 0.100621454 0.10292346
0.032586943 0.08788684 0.0836901 -0.04007353 -0.058556516 -0.05815679 -0.044407446 -0.038052313
0.03927598 -0.13155802 -0.069466904 -0.07456493 -0.045995433 0.023390701 0.03843695 -0.07479772
0.0757693 0.008515876 -0.027896801 0.100758165 0.003641729 -0.09576181 0.116370305 0.05668544
0.09532215 0.11364852 -0.061434507 -0.02192869 -0.027353209 0.06816699 -0.06996276 -0.050412327
0.03864587 -0.102059215 0.10085087 -0.11635257 -0.054098208 -0.08130714 -0.0027308257 -0.024808453
-0.011129439 0.03727582 0.1069003 0.09101819 -0.03285709 0.03415218 -0.012913252 0.08060559
0.06877806 0.1280458 -0.046161782 0.017750274 0.06810489 -0.09272398 -0.10536244 -0.011140048
-0.084854946 0.09388024 -0.011825584 -0.030757722 -0.0059478455 -0.01780483 0.11438384 -0.008255774
-0.06506467 0.0631998 -0.008867916 -0.07897156 0.0232044 -0.005290508 -0.12272445 -0.09141682
0.052977476 -0.0393639 -0.05583386 0.014390956 -0.10620525 -0.039860547 0.1014336 -0.0748541
0.07337408 -0.10448283 0.06612765 0.08928885 0.12134212 -0.03220615 -0.076424964 0.027438993
-0.054929998 -0.06462906 -0.08618652 0.11921106 -0.07978082 -0.038706683 -0.10954995 -0.044971187
-0.08806337 -0.041377153 -0.0023414246 0.054721348 0.001816874 0.039062683 0.03184992 -0.06421031
-0.11659408 0.057420902 -0.041987423 -0.11964076 -0.0040619886 0.11855657 0.020920897 0.088415526
0.015103639 0.07722558 0.085259445 0.116851136 -0.10472439 -0.008214015 0.035906866 -0.1022131
-0.015836855 -0.12723836 -0.09308543 -0.08298545 0.073578425 0.070186466 -0.046528716 0.065606624
-0.015997732 -0.05818092 -0.101247504 -0.10956912 0.036270976 0.0924146 -0.11726241 -0.0255992
0.046951532 0.0249826 -0.025139615 -0.082768835 0.019518701 0.009026957 -0.061353642 -0.0677346
-0.107290395 -0.010971163 0.0057925647 0.11174759 -0.09925859 -0.024962781 -0.08734292 -0.0999396
0.032938305 0.08289523 0.11854685 -0.013570956 0.054163527 0.0980722 -0.014473977 0.07620881
0.012437265 0.025296858 0.098835684 0.0043396135 0.023691604 -0.07834953 0.024479324 0.06573402
0.062217712 0.030015824 0.044504184 0.065134905 -0.07411241 -0.05285989 -0.06302407 -0.065692164
0.11716942 -0.11130798 -0.1075925 -0.015882205 0.055251632 -0.08623867 -0.059506133 0.048849124

model.readout.mlp.0.bias f4 [64]
00000000: 1a8d 7cbd b9fa ea3c ea19 c2bc 996a 723d
00000010: bc16 223d f5be 2ebd 9cdb c0bd f62d 5cbc
00000020: 0ac0 8abd 4142 dd3d 7fdf 3fbd 53b9 fc3d
00000030: 4bd4 d7bd d505 20bd 6201 8ebd f2e2 5dbc
00000040: 0d2c 4abc 5e22 9bbd 8b4e 1f3d ec4c 913c
00000050: c6fe d83d eada d53d 2aa9 1c3d b3d4 183d
00000060: 0e7e a63d a9cf 9b3d abee a2bc d302 f7bd
00000070: 0afc a4bd 42ea 7cbd eb54 f3bc ab6e a0bd
00000080: 0516 f53d bed9 c4bd dc4b 96bd dce9 4f3d
00000090: 8535 90bd 06dc 01bd 48c1 cf3d 9948 d4bd
000000a0: 4aa4 0f3c 7ebe fbbc 3ef6 8abd 683f fb3c
000000b0: a70b bcbd d8db b1bd a236 c83d 3da9 b23d
000000c0: 8ccb d93c cc54 4b3c c193 413c 3625 75bc
000000d0: 782c 96bd e727 cbbd 02eb e03d dd4e e6bd
000000e0: af90 e3bd 49be 41bd 2bb8 89bd ca30 ed3d
000000f0: a3a5 9fbd e27d ddbd e8ee 6b3d 2a0c 783d
-0.061658002 0.028684007 -0.023693997 0.05918369 0.039572462 -0.04266258 -0.09416887 -0.013438692
-0.0677491 0.108036526 -0.046844 0.12340035 -0.105385385 -0.03906806 -0.069338575 -0.0135428775
-0.012339604 -0.075749144 0.038893264 0.017736875 0.10595469 0.10442145 0.038247265 0.03731222
0.08129512 0.076079674 -0.019889196 -0.120610856 -0.08055885 -0.061746843 -0.029703578 -0.07833608
0.119670905 -0.096118435 -0.07338688 0.050760135 -0.07041458 -0.03170397 0.10144287 -0.103654094
0.008767197 -0.030730482 -0.06785248 0.030669883 -0.0918191 -0.0868451 0.097760454 0.08723686
0.026586317 0.012410354 0.011815012 -0.014962485 -0.073327005 -0.0991972 0.10982324 -0.11245511
-0.111115806 -0.04730061 -0.067245804 0.115815714 -0.077952646 -0.10815026 0.057600886 0.060558476

model.readout.mlp.2.weight f4 [2, 64]
00000000: 72b8 00be d89d f2bd 7b80 f83d 980c 9b3d
00000010: 8db1 8c3d ae99 d63c 9f0e f0bc 214d 143d
00000020: 89dd a73d 5a77 9d3d 53a5 febc fb66 a6bd
00000030: 53c9 87bc 360d f53d cf50 75bd ea29 ff3d
00000040: 7d97 d1bd 6685 943d ac9d d83c b5fc f43c
00000050: 02a6 d6bd ece5 d83d 0619 01be f162 673c
00000060: e0d1 9b3d 2958 78bd acea b23d 84d7 d33d
00000070: 81f7 f5bd c331 693b 2bb3 ccbd 7a2a af3c
00000080: ed4c e6bd f97a a0bd b80b 94bd e944 e7bd
00000090: 0040 bf3d 1c5d ecbd 39ca f2bd 797d 5ebd
000000a0: 8f45 523d 8274 14bd 0e44 efbd 8b03 cfbd
000000b0: 9e92 ee3d 424b e4bd fd71 c13b f4fb 083d
000000c0: 2636 c2bd 15e9 963b ec4d 633d 6c07 a73d
000000d0: 4caf ffbd 71a7 483d 1f2b 3bbd 6199 e7bd
000000e0: 1dd6 25bc fc11 62bc 65e6 f23d 0d65 4abd
000000f0: 8d3d 8d3b a62a 533c 0f68 c63d e68d 00be
00000100: c70e 053e eec3 d63c 5bda 263d 2ff8 563d
00000110: 0669 473d 1dc1 5cbb 12d4 d83d e5b2 ecbd
00000120: 80e2 4e3b de1e ec3d 861e 70bc 6ce8 f0bb
00000130: fbac 893d a142 193d 47e1 a5bd e6c4 dcbd
00000140: d166 4dbd e37b 343d 64b6 ee3d cf6e d13d
00000150: bc78 0ebd fa24 e0bd 5f67 593d 93fd e73d
00000160: 3acd c4bd c4fb cf3c 6ac9 a43d 0b6f 4c3c
00000170: ad54 b4bd 58fc 003d ab90 ca3d 994d b53d
00000180: 46c6 ff3b dfe9 44bd 0082 48bc c344 ae3d
00000190: 6e17 b03b 6ef6 9a3d 7172 80bd d1bd aabd
000001a0: 7cbc 003d 1e54 f13d 5b16 633c a0c8 1ebd
000001b0: c52e 81bc f108 363d a15d c4bd b0b9 003e
000001c0: ebd9 8d3c 43fc 9abd 0f72 d8bd b6d9 1fbd
000001d0: f60a 8d3c f0dc 87bc f795 8cbc d3ac 92bd
000001e0: b6c5 00bd 2f16 c53d f284 06be 5ea4 ec3d
000001f0: c406 84bd 373d cabd 92bc 553d 532a 8c3d
-0.1257036 -0.118465126 0.12133881 0.075707614 0.068698026 0.026196327 -0.029303847 0.03620637
0.08196551 0.0768878 -0.031084692 -0.08125111 -0.016575491 0.119654104 -0.05989152 0.12459166
-0.10233972 0.07252006 0.026442371 0.029905656 -0.10480882 0.10590729 -0.12607202 0.014122711
0.0760839 -0.06063095 0.08736166 0.10343841 -0.12010098 0.0035582639 -0.09995111 0.02138256
-0.11245141 -0.07835955 -0.07228798 -0.112924404 0.09338379 -0.11541197 -0.11854977 -0.05431888
0.051335867 -0.036243923 -0.11682902 -0.10108098 0.11649059 -0.11147167 0.005903481 0.033443406
-0.09482984 0.0046054223 0.055494234 0.081557125 -0.12484607 0.04898781 -0.04569542 -0.113085516
-0.010121849 -0.013798233 0.118603505 -0.049412776 0.004310316 0.012888586 0.09687816 -0.1255413
0.12993918 0.026216473 0.040735584 0.05248278 0.048684143 -0.003368444 0.10587324 -0.11557559
0.003156811 0.11529325 -0.014655715 -0.0073519256 0.067224465 0.037417058 -0.08099609 -0.10779743
-0.05014688 0.04406346 0.11655882 0.10226213 -0.03478311 -0.10944553 0.053077098 0.11327662
-0.09609456 0.025388606 0.08046229 0.012477647 -0.08805213 0.031490654 0.098908745 0.08852691
0.0078056185 -0.0480746 -0.012238026 0.08509209 0.005373887 0.07566534 -0.06271828 -0.08336986
0.031429753 0.11783622 0.01386031 -0.03876555 -0.015769372 0.04444212 -0.09588171 0.12570834
0.017315825 -0.07567646 -0.1056863 -0.039025985 0.01721714 -0.016584843 -0.017161353 -0.0716187
-0.03143855 0.09623372 -0.13136652 0.11554788 -0.06446603 -0.09874957 0.052181788 0.0684401

model.readout.mlp.2.bias f4 [2]
00000000: a2f4 663d 6627 313d
0.056385644 0.043250464

exp_avg f4 [64]
00000000: d996 ab33 5152 69bc 0660 0e3c 20bd 6f3c
00000010: 0000 0000 d7b2 27bd 7272 e3bc 6ed8 bf3a
00000020: fd35 5a32 0000 0000 e7c7 d6ba 2fce 953c
00000030: e6d1 cdbb f1ff 303a 3f2e 03bc eac9 37bd
00000040: 0000 0000 24ce 4932 fca6 fe33 296a ddba
00000050: b9a0 d2bc 72a6 e13c 4d5c 29bc 957c 7ab3
00000060: 27f4 b53a 0137 073c 7df4 eabd f664 76bb
00000070: 1157 e9bc 0037 9a3a 0000 0000 7c43 14bd
00000080: 0dc4 963c cb95 e0b2 84b3 333a a143 033d
00000090: 8961 93ba 16a2 013b 8ef2 2c3c 0000 0000
000000a0: f10c e1bb f8fd eebc 6f55 273d 0000 0000
000000b0: 134a a73b 023a b238 4e7e 8fb3 0000 0000
000000c0: d5d5 76bb ffb3 963c 1ca0 7eb4 c6dc 233c
000000d0: 1020 cd33 88a6 b33a a9c0 2dbb f1eb be3c
000000e0: 7bb3 bc3c 3aba 9b3c e450 043c 3312 b13c
000000f0: bf8e 083d 64d7 483b 86d7 b2ba d60a 1cba
7.990247e-08 -0.014240817 0.008689886 0.014632493 0.0 -0.04094204 -0.027764533 0.0014636645
1.2701546e-08 0.0 -0.001638648 0.018286793 -0.0062811254 0.00067520054 -0.008006631 -0.044870295
0.0 1.1746611e-08 1.1858171e-07 -0.00168926 -0.025711404 0.027545188 -0.010336948 -5.8320968e-08
0.0013881967 0.00825286 -0.11472414 -0.0037596799 -0.0284839 0.0011765659 0.0 -0.03619717
0.018404031 -2.614515e-08 0.0006855058 0.032046918 -0.0011244278 0.0019780449 0.010555876 0.0
-0.006867998 -0.029173836 0.04085296 0.0 0.005105266 8.498506e-05 -6.681931e-08 0.0
-0.0037664075 0.018396376 -2.3713841e-07 0.010001367 9.5518885e-08 0.0013706246 -0.002651254 0.023305865
0.023034802 0.019009698 0.008075926 0.021615123 0.03333926 0.003064596 -0.0013644553 -0.00059525424

exp_avg_sq f4 [64]
00000000: 426d 3c28 5bc7 7f3a badf 193a dd97 d53a
00000010: 0000 0000 accf 063d a73d 583b d077 8739
00000020: a4fd ce25 0000 0000 8506 5b38 9446 763a
00000030: 9cb3 ad3a 279c 9e39 dfeb 2b3b 32e4 313d
00000040: 0000 0000 dac1 1127 fac6 7d28 793f 5839
00000050: f8c7 823a 0f6a 8c3b c93d 503a 2eaf 8627
00000060: b541 c23a ad8b 073b 991a a03e d288 da3a
00000070: ace0 cc3c 8127 7a3b 0000 0000 a39f 983c
00000080: e2fe 243b 3875 a826 9139 c039 cbd1 173d
00000090: 7929 393b 36ef c639 2aa1 413b 0000 0000
000000a0: 3888 1e3c 97af 8e3b f8c4 973b 0000 0000
000000b0: 6533 6438 c4a0 163a 1bb6 0d28 0000 0000
000000c0: 20b7 803b a64e d039 4060 c92a 5c31 ae3a
000000d0: dddf 3e28 3e6d fa3a 43b0 ca3a 98a1 513b
000000e0: e344 d03a f313 1d3c cffc f23a 93dd 3d3e
000000f0: df68 223c 2661 9b39 4686 6a39 88cc 6136
1.0459788e-14 0.00097571843 0.00058698247 0.0016295869 0.0 0.032912895 0.0032995732 0.00025838474
3.5907177e-16 0.0 5.221974e-05 0.0009394672 0.001325238 0.0003025245 0.002623312 0.043430515
0.0 2.022788e-15 1.40874674e-14 0.0002062301 0.0009977808 0.004285104 0.0007943777 3.73824e-15
0.0014820608 0.0020682618 0.31270292 0.0016672856 0.025009476 0.0038170519 0.0 0.018630808
0.0025176336 1.1689114e-15 0.00036663984 0.03706531 0.002825348 0.0003794373 0.0029545524 0.0
0.009676032 0.004354428 0.004631635 0.0 5.44073e-05 0.0005746002 7.86656e-15 0.0
0.00392808 0.0003973145 3.577156e-13 0.0013289857 1.0595661e-14 0.0019106043 0.0015463907 0.0031987187
0.001588967 0.009587276 0.0018538478 0.18541555 0.0099126985 0.00029636285 0.00022366 3.3646666e-06

exp_avg f4 [64, 3]
00000000: 2751 74ba 85d8 bbbb 1f07 893b 8594 c9bb
00000010: e02b 8dbb aa59 dbbb f399 513b c7fc 003c
00000020: 49f5 26bb 8621 1f3c c337 b53b 5ac1 04ba
00000030: 0000 0000 0000 0000 0000 0000 1dde bc39
00000040: 43d6 a4bc ff82 90bc 7440 07bc 8894 90bc
00000050: b3ed 6b39 5ae3 e939 ea5a be39 8756 dbb9
00000060: 30ff a13a 9fed 9dba 3924 923a 0000 0000
00000070: 0000 0000 0000 0000 b513 fbba d16d d13a
00000080: 7b4b 44bb 3c9f 053c 2115 393c 8bf9 55ba
00000090: 941e 7738 bf50 cbba 81b9 50b7 593d 8e3b
000000a0: 5afa 24bb e04c 9dba f3b5 62bb a643 0f3a
000000b0: 9b59 59ba 2005 0bbc 9c0f 18bd 0170 6cbb
000000c0: 0000 0000 0000 0000 0000 0000 adb5 f538
000000d0: 426f c93b 8d47 7ebb e2aa 2a3c 683a a0bc
000000e0: 059f a7ba 0387 8fba 93e8 89ba 1ba6 1b39
000000f0: 0000 0000 0000 0000 c4f8 cbbc 94f1 14bb
00000100: c596 6f3c 3f17 603c b5dd 61bb cc1f c0bb
00000110: de75 35bb 0100 0e3b 050a ec39 38fd 85bb
00000120: 0223 173a af87 7dba fdc2 823a f526 193c
00000130: 5519 133b b5ef 72bb 2f35 e339 529d dcbd
00000140: 3ade 25bc 00db acba 05c4 ddba d2a1 97ba
00000150: 08e2 edbb c43f 8ebc 42ad b6bc d8f2 15ba
00000160: 4975 6d3b 611f ddba 0000 0000 0000 0000
00000170: 0000 0000 31c9 1a3c c648 0fbd 3fd8 1bbc
00000180: 0dc5 b43c 4acf 663a 3565 97bb 0d2b 403a
00000190: ea30 cb3a 491c e0ba 07c1 0739 1dbb 43bb
000001a0: b4c7 463b 7f7a 653c 3bca 1d3c adf0 c03b
000001b0: 15b5 d5ba 9972 a4b9 5bb0 00ba 580e 9c3a
000001c0: fa0b b2b8 7162 8a3a b8e1 eebb 39fd 883c
000001d0: 6085 813a 0000 0000 0000 0000 0000 0000
000001e0: bf7b d33b c70e f2bb 5783 01bb cf9c 32bc
000001f0: 170f 59bc fd94 a038 c530 c43c fe45 3e3b
00000200: 4d06 923c 0000 0000 0000 0000 0000 0000
00000210: dfc4 62bc 4a58 8b3c 0354 a03b 6730 c9bb
00000220: 62eb b43b 054f 75ba 558f 4e3b 4c62 2fbc
00000230: 6d81 853b 0000 0000 0000 0000 0000 0000
00000240: d2f4 ebba 1d24 a43b e8f5 843a af62 a23b
00000250: b5d9 b13b e539 ea3b d17b c6bd b157 e23d
00000260: ee78 f13b bccf 5aba 4894 df3b 566a 3eb9
00000270: 9bad 813c f832 a1bc b328 0bbb f682 043a
00000280: 2fac 4cb9 deb9 0d3a 22cf cc39 d2d5 81ba
00000290: b7e9 ecba 0d56 363c 47e6 463c c335 61ba
000002a0: 47b6 713c 96a2 e73b 1af1 4bbb a7c5 a63c
000002b0: 4e7b f1bb 877f dc3b d5c2 d63b ea3a dd3a
000002c0: 0a12 60ba 0fd4 903b e34d 4f3d 133d 803b
000002d0: b991 a43c 36cd 67bb 219e 8a3c 3788 183c
000002e0: a28f 7ebb e3a1 9e3a f3f3 bcba b723 06bb
000002f0: ee05 ed3a f9f2 ecbc b305 f13c 6bdd baba
-0.0009319954 -0.0057325982 0.004181757 -0.006151738 -0.004308209 -0.0066940384 0.003198263 0.007872767
-0.0025475791 0.009712582 0.005530329 -0.0005064212 0.0 0.0 0.0 0.00036023642
-0.0201217 -0.017640589 -0.008255113 -0.01764895 0.00022499896 0.00044610613 0.0003630736 -0.00041835403
0.0012359377 -0.0012048966 0.0011149711 0.0 0.0 0.0 -0.0019155653 0.0015978162
-0.0029952216 0.00815564 0.011296541 -0.000816249 5.8917867e-05 -0.0015511735 -1.2440957e-05 0.0043408093
-0.0025173635 -0.001200106 -0.0034593313 0.00054650975 -0.00082912453 -0.008485109 -0.03712426 -0.0036077502
0.0 0.0 0.0 0.0001171635 0.006147296 -0.0038799972 0.010416718 -0.0195591
-0.001278848 -0.0010950271 -0.0010521583 0.00014843831 0.0 0.0 -0.024898894 -0.0022727
0.014623349 0.013677417 -0.0034464423 -0.0058631655 -0.0027688663 0.0021667483 0.00045020893 -0.004089024
0.00057654094 -0.00096714025 0.0009976324 0.009347667 0.002244552 -0.0037069146 0.0004333644 -0.10772194
-0.010123784 -0.0013187826 -0.001691938 -0.0011568612 -0.007259611 -0.01736439 -0.022299413 -0.00057200855
0.0036233237 -0.0016870314 0.0 0.0 0.0 0.009447382 -0.03498151 -0.009512006
0.022066617 0.0008804692 -0.004620219 0.0007330634 0.0015502248 -0.0017098273 0.00012946512 -0.0029866167
0.0030331435 0.014006256 0.009630735 0.005888066 -0.0016304577 -0.000313659 -0.00049090915 0.001190613
-8.489932e-05 0.0010557902 -0.0072900914 0.016722308 0.0009881668 0.0 0.0 0.0
0.0064539607 -0.0073870155 -0.0019762123 -0.010901644 -0.013248227 7.657146e-05 0.023949036 0.0029033418
0.01782527 0.0 0.0 0.0 -0.013840883 0.017009873 0.0048928275 -0.006139803
0.005521224 -0.0009357783 0.0031518538 -0.010704588 0.0040742666 0.0 0.0 0.0
-0.0018002039 0.005009188 0.0010144087 0.0049556117 0.005427564 0.007148015 -0.09691585 0.11051882
0.0073691523 -0.0008346995 0.0068230964 -0.00018159425 0.015829852 -0.019677624 -0.0021233975 0.0005054915
-0.000195191 0.00054064195 0.00039064238 -0.0009905642 -0.0018075024 0.011128915 0.012139863 -0.000859108
0.014752931 0.0070689423 -0.003111905 0.02035792 -0.0073694354 0.0067290696 0.0065539875 0.001687852
-0.000854761 0.0044198106 0.050611388 0.0039135306 0.020089017 -0.0035370118 0.016921105 0.00930982
-0.0038842936 0.0012102689 -0.0014415964 -0.0020468065 0.0018083432 -0.028924452 0.029421663 -0.0014256662

exp_avg_sq f4 [64, 3]
00000000: e838 5c3a b273 cb3a 3c47 d339 736a 143a
00000010: fc38 9538 c5f7 be38 aa89 6c38 bda8 7739
00000020: 3707 0138 15ef 2a3a d0c7 6839 85f2 2138
00000030: 0000 0000 0000 0000 0000 0000 f3bd 1f36
00000040: 3633 453b a727 853c e47a 8f39 a239 123b
00000050: ac11 873a ebbc 5b38 b55d 3e38 a745 2c38
00000060: 75ce 8637 c916 3d39 a7ce 1c39 0000 0000
00000070: 0000 0000 0000 0000 84f7 0b39 2c71 063a
00000080: 758c be38 3aa6 7039 2ffc a839 73b7 7139
00000090: 7f4c ae38 ecf4 d83a 8d50 4f38 814e 5b3a
000000a0: 6378 1c39 2fe4 fb37 99ee de3a 5112 2f38
000000b0: 273a 2138 2dd7 b73a 7b9e 363d 61d1 c63a
000000c0: 0000 0000 0000 0000 0000 0000 f164 5339
000000d0: 0f9b 3a3a c44d 9239 7f26 c039 ab02 cb3a
000000e0: df44 1c3a 47e1 2738 e2e9 1a38 3c5c 9938
000000f0: 0000 0000 0000 0000 a03c 653a ce32 7338
00000100: 3fab 773a e229 833a 9fa0 b038 3094 9739
00000110: cce2 0939 2976 223a ff7a b838 5963 8239
00000120: 1e2c 643a 6cb6 0239 8a4e 4f38 56ca 7c3a
00000130: 0669 7d39 c4bf 0a39 cdf9 2535 e1b6 8f3e
00000140: 45e3 133c df4d 5d39 0e5d 303a 928f b938
00000150: 1be6 1f3a 3c11 d03c 85da df3b 9179 e639
00000160: a094 df3a 4b96 c537 0000 0000 0000 0000
00000170: 0000 0000 c3b4 b839 42ff 263b af5f fd3b
00000180: 9916 873b 0a0b 1e39 1f4f 173a 7d62 8638
00000190: 6645 a938 288d 7139 75a9 6a38 ed77 a139
000001a0: 9612 8039 ccd7 4d3c c855 ac3b fd97 073b
000001b0: 561e b63a f0d6 f239 5330 9e39 a17d 2239
000001c0: c156 5a38 0333 e737 53b6 f839 52d6 093a
000001d0: ce02 043a 0000 0000 0000 0000 0000 0000
000001e0: 8622 133a d572 953b cfd2 cb39 7589 473a
000001f0: b591 c73a d3f9 2e38 7dab 4c3a c138 983b
00000200: ac5e a63a 0000 0000 0000 0000 0000 0000
00000210: c708 a43b 1037 bc3b afa1 f238 26d8 393b
00000220: 035b 843b cb45 8038 da88 343b e9c7 d03b
00000230: 278b 723a 0000 0000 0000 0000 0000 0000
00000240: 0ba2 463b 3045 3b3c 18a9 2b3a dc1e 4238
00000250: ad35 4339 d54f bb38 a8a7 1e3e 9b79 d53d
00000260: 5496 b63b c6b5 ad38 fe05 c73a 6117 4f38
00000270: e71f ac3a 0c07 143b 61ce 0d39 966b 7039
00000280: e398 b636 1b72 5d3a 8579 9b38 098a 0638
00000290: c0f2 443a 6a9b 303a 1ef7 6d3a a9cd af38
000002a0: 70a3 f539 8b06 aa39 a37a 3538 29fb ef3a
000002b0: 09fe 0a3b c966 a03a 16b3 613a 138c 3339
000002c0: 1c3d 7c38 eff7 5039 811f 0b3e 6001 893a
000002d0: 3b43 083b 2e09 103a 6d7a 2f3b 96f4 c23a
000002e0: 1cbf 203a a719 2838 05d1 3d38 d13f 7f38
000002f0: 662e 1538 c60a 2a3c 6cf0 323c a252 d239
0.00084008137 0.0015522151 0.0004029813 0.0005661614 7.115488e-05 9.106057e-05 5.6394994e-05 0.00023618616
3.0762716e-05 0.00065206114 0.0002219968 3.8611255e-05 0.0 0.0 0.0 2.3803411e-06
0.0030090339 0.01625426 0.00027366646 0.0022312184 0.0010304949 5.2389612e-05 4.53868e-05 4.1072864e-05
1.6070184e-05 0.00018032933 0.00014954303 0.0 0.0 0.0 0.0001334828 0.0005128558
9.086068e-05 0.00022950108 0.00032231348 0.00023051891 8.311215e-05 0.0016552485 4.9427665e-05 0.0008365885
0.00014922167 3.0027788e-05 0.0017008364 4.174031e-05 3.843955e-05 0.0014025919 0.044584733 0.0015168601
0.0 0.0 0.0 0.00020160132 0.00071184424 0.0002790523 0.00036649776 0.0015488466
0.00059611903 4.002571e-05 3.693428e-05 7.3127885e-05 0.0 0.0 0.00087446906 5.798303e-05
0.000944782 0.0010006989 8.422252e-05 0.00028911373 0.00013149827 0.0006197417 8.7967135e-05 0.00024869552
0.0008704084 0.00012465724 4.942579e-05 0.00096431875 0.00024167084 0.00013232144 6.18308e-07 0.28069213
0.009026353 0.00021105212 0.00067277334 8.8482295e-05 0.0006099657 0.025398843 0.0068314695 0.00043959593
0.0017057844 2.3554216e-05 0.0 0.0 0.0 0.00035229893 0.0025481735 0.0077323536
0.004122567 0.00015072167 0.0005771983 6.407963e-05 8.0714744e-05 0.00023036136 5.5947767e-05 0.00030797665
0.0002442791 0.012563657 0.0052592494 0.0020689957 0.0013894539 0.00046317978 0.00030172113 0.00015496324
5.2056046e-05 2.75611e-05 0.00047438088 0.00052580715 0.00050358183 0.0 0.0 0.0
0.00056127494 0.004560808 0.00038876242 0.000761173 0.0015225919 4.17175e-05 0.0007807536 0.0046454375
0.0012693009 0.0 0.0 0.0 0.005005929 0.0057438686 0.00011569575 0.0028357594
0.0040391698 6.1165156e-05 0.002754739 0.0063714874 0.00092523027 0.0 0.0 0.0
0.0030308987 0.01143007 0.0006548329 4.6281944e-05 0.00018616645 8.931725e-05 0.15493643 0.10423585
0.0055721197 8.283141e-05 0.0015184281 4.937442e-05 0.0013132066 0.0022587208 0.0001352369 0.00022928262
5.441821e-06 0.0008447484 7.413611e-05 3.2076645e-05 0.0007512979 0.00067370257 0.0009077656 8.3829575e-05
0.00046851812 0.00032429802 4.3267977e-05 0.0018309104 0.0021208546 0.0012237664 0.0008609755 0.00017122952
6.0138394e-05 0.00019928788 0.13586237 0.001045268 0.0020792026 0.0005494532 0.0026775852 0.0014873918
0.0006131993 4.0078212e-05 4.5255776e-05 6.085617e-05 3.556758e-05 0.010378545 0.010921579 0.00040115888
