lightning_logs/version_96/checkpoints/epoch=16-step=255.ckpt (torch, 50747 bytes, 40 tensors)

model.encoder.conv1.bias f4 [32]
0	0xbd83afe9	-0.064300366
1	0x3c03fa73	0.008055317
2	0x3d39b01d	0.04533397
3	0xbc4be792	-0.012445347
4	0xbcbd4dab	-0.023108324
5	0x3d054bd5	0.032543022
6	0xbd1eb0b8	-0.03874275
7	0x3d117538	0.03551218
8	0xbd12c5ec	-0.035833284
9	0xbd06b915	-0.03289135
10	0xbb9bcf16	-0.004754911
11	0x00000000	0.0
12	0x3bee57f8	0.0072736703
13	0x3d3f16c7	0.04665258
14	0xbc9f57b7	-0.019451005
15	0x00000000	0.0
16	0xbcac9858	-0.021068737
17	0xbb8c9c52	-0.004291096
18	0xbc25cf7f	-0.010120272
19	0x3cf89764	0.030345626
20	0x3b9dde41	0.0048177545
21	0xba853321	-0.0010162332
22	0x3d019783	0.031638633
23	0xbbfce221	-0.0077173864
24	0x3c564c8d	0.013079775
25	0xbb5fbb7a	-0.0034138844
26	0x3c17f1e3	0.009273979
27	0x3bbe5d9d	0.0058094994
28	0xbd1901c3	-0.037355196
29	0x3bce536a	0.006296565
30	0x3b756255	0.0037442644
31	0xbaf2dfb8	-0.0018529808

model.encoder.conv1.lin.weight f4 [32, 3]
0	0x3e333b57	0.17503105
1	0xbe9d8ffd	-0.30773917
2	0xbcd8bc8a	-0.02645709
3	0xbe25becc	-0.16186064
4	0x3dc696d3	0.09696736
5	0xbe7e25bb	-0.2481908
6	0x3e13839b	0.14405672
7	0xbe0825e5	-0.13295706
8	0xbdcb24e4	-0.09919146
9	0xbd09e0b6	-0.033661567
10	0x3e158dcd	0.14604874
11	0x3dede454	0.11615816
12	0xbe877e26	-0.2646343
13	0x3eb15a81	0.34639362
14	0x3daa1fad	0.08306823
15	0xbe22b902	-0.15890887
16	0x3eb59ae9	0.3546975
17	0xbec207db	-0.37896618
18	0x3e4bfa6f	0.19919752
19	0xbdebcef1	-0.1151408
20	0x3e9a1704	0.30095685
21	0xbc813709	-0.015773313
22	0x3edc1193	0.42982158
23	0x3ec02a92	0.3753248
24	0xbe8f8e05	-0.2803804
25	0x3eb1a055	0.34692636
26	0xbc044311	-0.0080726305
27	0x3ea09003	0.31359872
28	0x3e97815d	0.29590884
29	0xbe707523	-0.23482184
30	0x3ed5de73	0.41771278
31	0x3e3a38c6	0.1818572
32	0x3e9fa7dc	0.31182754
33	0xbe2b3e72	-0.1672304
34	0xbe20b2be	-0.15693185
35	0xbeb0cb68	-0.34530187
36	0xbde4b47f	-0.111672394
37	0xbca6b67c	-0.020350687
38	0x3e9fbddb	0.31199536
39	0x3eac12d4	0.33608115
40	0xbdc89a07	-0.097950034
41	0x3e7f9f72	0.24963167
42	0xbe333e17	-0.17504154
43	0x3e352be7	0.17692529
44	0x3ec9f362	0.394435
45	0xbdbd9d20	-0.09258485
46	0xbd0e4260	-0.03473127
47	0xbdf86240	-0.12128115
48	0x3e98afc6	0.29821604
49	0x3e42964f	0.1900265
50	0x3eae6274	0.3405949
51	0xbe92a9ab	-0.2864507
52	0xbe69f886	-0.2284871
53	0x3d8d0184	0.06885055
54	0x3e853b80	0.26021957
55	0x3ddee197	0.108828716
56	0x3e822187	0.25416204
57	0xbe91f345	-0.28505912
58	0x3edd28f7	0.43195316
59	0xbe1ffe53	-0.1562436
60	0xbe056323	-0.13026099
61	0x3e498260	0.1967864
62	0x3c8197fd	0.015819544
63	0x3c92087d	0.017826313
64	0xbda8e44e	-0.08246671
65	0x3eaae335	0.3337647
66	0x3e880ca7	0.26572153
67	0xbe27e2f0	-0.16395164
68	0xbdea284c	-0.11433467
69	0x3df3a673	0.11896982
70	0x3e717c57	0.23582588
71	0x3ea5503f	0.32287785
72	0xbec073cb	-0.37588343
73	0xbe248d37	-0.16069494
74	0x3dd9428c	0.10608396
75	0xbe615de9	-0.2200848
76	0xbdf19a61	-0.117970236
77	0x3d87f85a	0.06639166
78	0xbeba8899	-0.3643234
79	0xbd9f9ca6	-0.0779355
80	0x3dce56db	0.1007516
81	0x3de363c9	0.11103017
82	0xbae5eba9	-0.0017541546
83	0xbe336a90	-0.17521119
84	0xbecd610b	-0.401131
85	0x3d8cf651	0.068829186
86	0xbe50e048	-0.20398057
87	0xbe6ba69c	-0.23012775
88	0xbde57747	-0.11204391
89	0x3ed1cdbe	0.4097728
90	0xbe281fce	-0.16418383
91	0xbe087407	-0.13325511
92	0x3cc6dc12	0.02427486
93	0x3e6a3990	0.22873521
94	0x3da50299	0.08057136
95	0x3e1f1565	0.15535505

model.encoder.conv2.bias f4 [32]
0	0xbd862581	-0.06550122
1	0x3d126b07	0.0357466
2	0xbd064d03	-0.032788288
3	0xbd9a04d9	-0.07520456
4	0xbd48265e	-0.048864715
5	0x3c205740	0.009786427
6	0x3c39df0f	0.011344685
7	0xbda0fb75	-0.078604616
8	0xbc8d4750	-0.017245919
9	0xbdad6731	-0.08466948
10	0x3d14cf3d	0.03633045
11	0x39d2a0fd	0.00040174267
12	0xbd7ac32f	-0.061221298
13	0x3bc0332b	0.0058654747
14	0xbd6a35ab	-0.057180088
15	0x3d6171b7	0.055040088
16	0x3caa471e	0.020785864
17	0xbd87c910	-0.066301465
18	0x3b7334f6	0.0037110425
19	0xbc9dc646	-0.019259583
20	0xbd892839	-0.06697125
21	0xbdaa9279	-0.08328719
22	0xbc92f628	-0.017939642
23	0x3cad508e	0.021156576
24	0xbd26c5ed	-0.0407161
25	0xbd807bec	-0.06273636
26	0xbd48a42e	-0.0489847
27	0xbc03fe99	-0.008056306
28	0x3bc2bcd6	0.005942921
29	0xbd8295ff	-0.06376266
30	0x3c2f116d	0.010685307
31	0xbd4f2e72	-0.050581403

model.encoder.conv2.lin.weight f4 [32, 32]
0	0x3da47e97	0.080319576
1	0x3e4ca76d	0.19985743
2	0xbd498964	-0.04920329
3	0x3da8a7dd	0.082351424
4	0xbe2ef1ec	-0.17084473
5	0xbb58a7ec	-0.0033059074
6	0x3e77197c	0.24130815
7	0x3e0b6c2f	0.13615488
8	0xbe2e3605	-0.17012794
9	0x3c9b155b	0.018931082
10	0x3e01b1f3	0.12665538
11	0xbe857554	-0.26066077
12	0xbdd37c48	-0.10326439
13	0x3e668cc0	0.2251463
14	0x3e7ec466	0.24879608
15	0x3eb7981e	0.35858244
16	0xbc95e422	-0.018297259
17	0x3ea1ab05	0.3157579
18	0xbde83631	-0.11338461
19	0x3e5670cb	0.20941465
20	0x3e96880c	0.2940067
21	0xbe2769ae	-0.16348907
22	0x3d699d05	0.05703451
23	0xbe4b7631	-0.19869305
24	0xbd1f30bd	-0.03886484
25	0x3e8bf7fe	0.2733764
26	0xbc9015a2	-0.01758844
27	0xbea9033c	-0.3301028
28	0xbd8a6aa5	-0.06758622
29	0x3d861d71	0.06548584
30	0x3e4f5b1d	0.202496
31	0x3d28c27d	0.041201103
32	0xbdc1659e	-0.0944321
33	0xbdd2883f	-0.10279893
34	0xbe88c235	-0.26710668
35	0x3dcb3605	0.09922413
36	0xbe1213f4	-0.14265424
37	0xbe2a2cc4	-0.16618639
38	0x3d1b7c41	0.037960295
39	0x3e658e5d	0.22417589
40	0x3e0da234	0.13831407
41	0xbd729abe	-0.059229605
42	0xbdb16f6a	-0.08663829
43	0x3e84ab5a	0.2591198
44	0x3e6a4716	0.2287868
45	0x3dbbef7b	0.09176537
46	0x3de8e032	0.11370887
47	0x3e8b22f4	0.27175105
48	0xbe2e2077	-0.17004572
49	0x3d8dace9	0.069177456
50	0x3e0bfd6e	0.13670895
51	0xbe84db9d	-0.25948802
52	0x3e9ade70	0.3024783
53	0xbd9f93d9	-0.077918716
54	0xbe532128	-0.20618117
55	0xbe46a87e	-0.19400212
56	0xbe5b9cfc	-0.21446604
57	0x3e3171b0	0.17328525
58	0xbe7717a8	-0.24130118
59	0x3e7feeaa	0.24993387
60	0xbd89a163	-0.06720235
61	0x3e9566ba	0.29179937
62	0x3e155a5f	0.14585255
63	0x3e1c98d1	0.1529267
64	0xbddbabc5	-0.10726122
65	0x3e7b108c	0.24518031
66	0xbe14b1c4	-0.14520937
67	0xbe2eacd4	-0.17058116
68	0x3ecf6279	0.40504816
69	0x3e401fe9	0.18762173
70	0x3eb6d907	0.35712454
71	0xbe95a374	-0.29226267
72	0xbe1ca6bd	-0.1529798
73	0xbe667f78	-0.22509563
74	0x3e875eff	0.26439664
75	0xbe88a246	-0.26686305
76	0xbdbe8467	-0.093025975
77	0x3e496acc	0.19669646
78	0xbe483ef3	-0.19555263
79	0xbe232ee2	-0.15935853
80	0x3ea3a7eb	0.3196405
81	0xbc6236f8	-0.013807051
82	0x3e8c4ed3	0.27403888
83	0x3ed7681a	0.4207161
84	0x3e380a76	0.1797274
85	0xbe6df5e3	-0.2323833
86	0xbe43fb28	-0.19138777
87	0xbe042499	-0.12904586
88	0x3d50e49a	0.05099926
89	0xbe03addf	-0.12859295
90	0x3d186b5a	0.037211753
91	0x3ea2beca	0.31786186
92	0xbe81d596	-0.25358266
93	0x3e513e73	0.20433979
94	0x3dad2bdd	0.08455632
95	0x3de8bfe0	0.11364722
96	0xbdeec39c	-0.11658403
97	0x3e2254a9	0.15852608
98	0x3e20d037	0.15704428
99	0xbdee5308	-0.11636931
100	0xbde66b03	-0.112508796
101	0xbdb20972	-0.08693208
102	0xbe5583c3	-0.20851044
103	0xbd5a2f38	-0.053267688
104	0xbdd000aa	-0.10156377
105	0xbe0d1da6	-0.13780841
106	0xbe0537d3	-0.13009576
107	0x3dd5866b	0.10426029
108	0x3e91d462	0.28482348
109	0x3e987569	0.29777077
110	0x3df5461f	0.11976265
111	0xbd8dfd20	-0.069330454
112	0xbe42d05c	-0.19024795
113	0xbdba85d0	-0.09107554
114	0x3e153238	0.14569938
115	0x3d962e10	0.073330045
116	0xbc3d4f1d	-0.011554507
117	0x3e0a91a5	0.13532121
118	0xbbcfb187	-0.0063383016
119	0xbe729d31	-0.23692776
120	0xbd87e6de	-0.06635831
121	0x3e12a0d1	0.14319159
122	0xbe336217	-0.17517887
123	0xbe59d983	-0.2127438
124	0x3e88024b	0.2656425
125	0xbda11c08	-0.07866675
126	0x3e4600db	0.19336264
127	0xbdf56faa	-0.11984189
128	0xbdeac5b9	-0.11463494
129	0xbe39d138	-0.18146217
130	0x3dd59d05	0.1043034
131	0x3dae5fef	0.08514392
132	0xbd95b29e	-0.07309459
133	0xbd67df52	-0.05660946
134	0x3e85cdbf	0.26133534
135	0xbe8b86f9	-0.27251413
136	0x3a0ee925	0.00054516114
137	0x3db060dc	0.086122245
138	0xbd74ef26	-0.059798382
139	0xbea23135	-0.31678167
140	0xbe134ca3	-0.14384703
141	0xbe7066e1	-0.23476745
142	0xbe508320	-0.2036252
143	0x3e6253d2	0.22102287
144	0x3df9ded5	0.12200705
145	0xbe57f2a9	-0.21088661
146	0x3d81afd6	0.06332366
147	0x3e8bb962	0.27289873
148	0x3e06f2ec	0.13178605
149	0x3ea3f533	0.3202301
150	0x3e2439d5	0.16037686
151	0xbc66a43b	-0.0140772415
152	0x3e969baf	0.29415652
153	0xbe100529	-0.14064468
154	0xbe8c60eb	-0.27417693
155	0x3e10799d	0.14108892
156	0x3e3912ea	0.18073621
157	0xbdfe4121	-0.12414766
158	0x3de4eeda	0.1117837
159	0xbdcf6b5e	-0.101279005
160	0xbd9ca702	-0.07649042
161	0x3dec0977	0.11525243
162	0x3e04ae41	0.12957098
163	0xbe595c58	-0.21226633
164	0xbe1a4997	-0.15067135
165	0x3e41aa99	0.18912734
166	0xbdcbec82	-0.0995722
167	0xbd766ee7	-0.06016436
168	0xbe8ebf1c	-0.2788018
169	0x3e51bf0c	0.20483035
170	0xbe61b437	-0.22041403
171	0x3e949650	0.2902093
172	0x3e9f2f91	0.31090978
173	0x3e0aaaa0	0.13541651
174	0x3ea41518	0.32047343
175	0x3e3a89c6	0.18216619
176	0xbd83d248	-0.06436592
177	0x3c51b5f4	0.012799729
178	0x3d2f9e53	0.0428756
179	0x3d37a070	0.04483074
180	0x3e7aa70e	0.24477789
181	0x3dca6aa7	0.098836236
182	0xbe1510ea	-0.14557233
183	0x3c922de7	0.017844154
184	0xbe22f909	-0.15915312
185	0x3e66d86f	0.225435
186	0x3e4a5433	0.19758682
187	0x3e5473c8	0.20747292
188	0xbe32955a	-0.17439786
189	0xbd985177	-0.07437413
190	0xbc6fb9fa	-0.014631743
191	0xbd646750	-0.05576259
192	0x3d37db95	0.044887144
193	0xbe13898f	-0.14407943
194	0xbd098bf3	-0.03358073
195	0x3e750170	0.2392633
196	0xbd18e799	-0.037330244
197	0xbe49e620	-0.19716692
198	0xbea0fe1b	-0.31443867
199	0x3e3996fe	0.18124005
200	0xbe3cb30c	-0.18427676
201	0x3e75fb7f	0.2402172
202	0x3e0a8e42	0.1353083
203	0x3e5d29c4	0.21597964
204	0xbe18561e	-0.14876601
205	0x3e2bbd4d	0.16771431
206	0xbd8b20c5	-0.0679336
207	0xbc1ef8fc	-0.009702917
208	0x3d725785	0.059165496
209	0x3e855ffd	0.26049796
210	0xbd8cb877	-0.068711214
211	0x3e7b438d	0.24537487
212	0x3e69331a	0.227734
213	0xbe9f3790	-0.31097078
214	0xbe10e788	-0.14150822
215	0xbe4febcb	-0.20304792
216	0x3cb087bc	0.021549098
217	0xbd7e8e9f	-0.062147733
218	0x3e72b9b6	0.23703656
219	0x3e00c783	0.12576108
220	0x3c9d9a7a	0.0192387
221	0xbe869d8e	-0.2629208
222	0x3e95bc7c	0.29245365
223	0xbe658922	-0.22415593
224	0xbd0e5420	-0.034748197
225	0x3cbe29b0	0.023213238
226	0xbda761fe	-0.081729874
227	0xbdcd0b59	-0.1001193
228	0x3db3d677	0.0878114
229	0xbc9dfb69	-0.01928492
230	0x3e28b5b0	0.16475558
231	0xbdf51caa	-0.11968358
232	0x3e0e365b	0.13887922
233	0x3e42fdee	0.19042179
234	0xbc92f1be	-0.017937537
235	0x3e2431cd	0.16034622
236	0x3e7b1466	0.245195
237	0xbcde2478	-0.027116999
238	0xbdac8417	-0.08423632
239	0xbdf04c2d	-0.117332794
240	0xbc3d726a	-0.011562923
241	0x3e2b4abf	0.16727732
242	0xbe7f8ef5	-0.24956878
243	0xbe7a1782	-0.2442303
244	0x3e3b428e	0.18287107
245	0xbe2e5b4d	-0.17027016
246	0xbe646221	-0.22303058
247	0x3e4725e0	0.19448042
248	0xbd24cdfe	-0.040235512
249	0x3e14a238	0.14515007
250	0xbe93a12a	-0.28833896
251	0x3ac3d8c8	0.0014941925
252	0xbe943c02	-0.28952032
253	0x3cb8bb46	0.022550236
254	0x3e65dcce	0.22447512
255	0x3ead124a	0.33803016

model.encoder.bn1.weight f4 [32]
0	0x3f835215	1.0259424
1	0x3f803a8e	1.001787
2	0x3f7bdc89	0.98383385
3	0x3f80ef68	1.0073061
4	0x3f7e0e13	0.99240226
5	0x3f7f99cb	0.99844044
6	0x3f80c716	1.0060756
7	0x3f7a5f1b	0.9780137
8	0x3f808f0f	1.0043658
9	0x3f7a4f07	0.97776836
10	0x3f80497b	1.0022424
11	0x3f800000	1.0
12	0x3f81dc1f	1.0145301
13	0x3f7b8501	0.9824982
14	0x3f83c705	1.0295111
15	0x3f800000	1.0
16	0x3f7e7966	0.9940399
17	0x3f80588e	1.0027025
18	0x3f819529	1.0123645
19	0x3f7eace6	0.9948257
20	0x3f7fad85	0.99874145
21	0x3f78fb71	0.9725867
22	0x3f7f88b9	0.99818
23	0x3f809d4c	1.0048003
24	0x3f824966	1.017865
25	0x3f7fe0c5	0.99952346
26	0x3f8106a0	1.0080147
27	0x3f7ad0a8	0.97974634
28	0x3f88fe61	1.070263
29	0x3f7d1034	0.9885285
30	0x3f7e41cf	0.99319166
31	0x3f7ebb3a	0.99504435

model.encoder.bn1.bias f4 [32]
0	0x3d9a95bb	0.0754809
1	0xbcbbecee	-0.022940125
2	0x3ca73ca1	0.020414652
3	0xba0bd56d	-0.0005334232
4	0x3b741245	0.0037242335
5	0x3cec8367	0.028871251
6	0xbd24f1fd	-0.04026984
7	0x3d25f289	0.040514503
8	0xbd07967d	-0.0331025
9	0xbc5e5562	-0.013570162
10	0xbd438177	-0.04773089
11	0x3b10dad5	0.002210309
12	0xbd2d182c	-0.04225938
13	0xbd0ecd68	-0.03486386
14	0x3d3db8ed	0.046318937
15	0xbc6418f6	-0.013921967
16	0x3b8e8001	0.0043487553
17	0x3c0c8699	0.008577012
18	0x3d91963e	0.071087345
19	0x3d99a017	0.07501238
20	0xbc61d4a2	-0.013783606
21	0x3cbb5430	0.022867292
22	0x3c7d9706	0.015477901
23	0xbd02592c	-0.031823322
24	0xbd01b32c	-0.031665012
25	0xbcc429fc	-0.023945801
26	0x3cfc38fe	0.030788895
27	0x3d1ec2d3	0.038760018
28	0x3b405cf9	0.002935229
29	0x3d10a597	0.03531417
30	0xbd7b06ab	-0.061285656
31	0xbc80586d	-0.015667165

model.encoder.bn1.running_mean f4 [32]
0	0x3ca4dc3b	0.020124545
1	0x3cbd58ae	0.023113575
2	0x3d878b89	0.06618411
3	0x3d5bdc36	0.053676806
4	0x3dc78b94	0.09743419
5	0x3e12e2bd	0.14344306
6	0x3d49c0ca	0.049256124
7	0x3e796f0f	0.24358772
8	0x3dae4147	0.085085444
9	0x3e84b511	0.25919393
10	0x3e9621a5	0.29322544
11	0x00000000	0.0
12	0x3bc4166e	0.005984119
13	0x3e330673	0.17482929
14	0x3d4aceb1	0.049513523
15	0x00000000	0.0
16	0x3e6421e3	0.22278552
17	0x3822e91c	3.884091e-05
18	0x3e31d365	0.17365797
19	0x3e22d3a8	0.15901053
20	0x3d880ffa	0.06643672
21	0x3c0a84d8	0.008454524
22	0x3dd91aed	0.10600839
23	0x3e306888	0.17227376
24	0x39a1d48c	0.00030866673
25	0x38abf0f8	8.198799e-05
26	0x3a06cd86	0.000514232
27	0x3d69029c	0.056887254
28	0x3b731a21	0.0037094431
29	0x3bac94fb	0.0052667833
30	0x373fc432	1.1430167e-05
31	0x3e1a4b92	0.1506789

model.encoder.bn1.running_var f4 [32]
0	0x3acc451a	0.0015584559
1	0x3aad1742	0.0013205784
2	0x3b9be1d1	0.004757144
3	0x3b2026ce	0.0024437192
4	0x3c6500f4	0.013977278
5	0x3ca08bfb	0.019597998
6	0x3b6faf65	0.003657305
7	0x3cb96a4f	0.0226337
8	0x3c49988f	0.012304439
9	0x3b3f550e	0.0029194984
10	0x3be33f76	0.0069350554
11	0x2c171559	2.147024e-12
12	0x3a602453	0.00085503346
13	0x3c8e706e	0.017387595
14	0x3b96c8b8	0.0046015643
15	0x2c171559	2.147024e-12
16	0x3b036778	0.0020050686
17	0x35eecbb7	1.7791671e-06
18	0x3b35f7bf	0.0027766076
19	0x3ceb8a15	0.028752366
20	0x3baeae15	0.005330811
21	0x3a59ca5b	0.00083080464
22	0x3c423236	0.0118527915
23	0x3afc480c	0.0019247546
24	0x37a4a219	1.9625806e-05
25	0x363a7e05	2.7789513e-06
26	0x37ea953d	2.7964468e-05
27	0x3abd81c9	0.0014458235
28	0x38b89c79	8.802949e-05
29	0x3a7beeda	0.0009610482
30	0x3490fe23	2.7007e-07
31	0x3b20d229	0.0024539328

model.encoder.bn2.weight f4 [32]
0	0x3f838190	1.0273914
1	0x3f7a47d6	0.9776586
2	0x3f7c6707	0.9859471
3	0x3f82f5ab	1.0231222
4	0x3f829a8d	1.0203415
5	0x3f77b3f7	0.9675898
6	0x3f806863	1.0031856
7	0x3f8774d2	1.0582526
8	0x3f79b7fe	0.97546375
9	0x3f84061c	1.0314364
10	0x3f81634b	1.0108427
11	0x3f83a895	1.0285822
12	0x3f80d12c	1.0063834
13	0x3f82b0b2	1.0210173
14	0x3f854bd7	1.041377
15	0x3f791038	0.9729037
16	0x3f829a12	1.0203269
17	0x3f860e2d	1.0473076
18	0x3f855188	1.0415506
19	0x3f80a3ab	1.0049948
20	0x3f83a18f	1.0283679
21	0x3f8aec3b	1.0853342
22	0x3f85ba75	1.0447527
23	0x3f732d6e	0.94991195
24	0x3f835401	1.0260011
25	0x3f83fc2e	1.0311334
26	0x3f815341	1.0103532
27	0x3f7fe475	0.9995797
28	0x3f8041f2	1.0020125
29	0x3f8322f0	1.0245037
30	0x3f828111	1.0195638
31	0x3f82da14	1.0222802

model.encoder.bn2.bias f4 [32]
0	0xbc10ebd8	-0.008845292
1	0x3c95cc83	0.018285995
2	0xbd20a74f	-0.039222058
3	0xbc8de554	-0.017321266
4	0x3bb5dd4b	0.005550062
5	0xbc7ca042	-0.015419068
6	0x3cda0911	0.026615651
7	0x3cdf48d5	0.027256409
8	0xbd6d4044	-0.057922617
9	0xbba60f17	-0.005067717
10	0x3d52aae2	0.051432498
11	0x3d049cdb	0.03237615
12	0xbca4e18f	-0.020127086
13	0x3d2f3d98	0.04278335
14	0x3cf2b5da	0.02962773
15	0xbbe4c3d0	-0.0069813505
16	0x3d207dea	0.03918258
17	0x3c965845	0.018352637
18	0x3d4f8163	0.050660502
19	0xbbcb7b51	-0.006209769
20	0xbb9d80ba	-0.004806605
21	0x3d4deb11	0.050273005
22	0x3cfefc7f	0.031126259
23	0xbc30c502	-0.010789158
24	0xbcf533d1	-0.029931935
25	0xbc076858	-0.008264624
26	0xbd082e6c	-0.033247396
27	0xbc81821c	-0.015809111
28	0xbc45ea8f	-0.012079849
29	0xbba1e322	-0.0049404064
30	0x3d0a1a74	0.033716634
31	0x39f5bbc6	0.00046869944

model.encoder.bn2.running_mean f4 [32]
0	0x3dfc2899	0.12312431
1	0x3deebf0f	0.11657535
2	0x3eb4c6aa	0.3530782
3	0x3daaacd1	0.08333743
4	0x3e4dd490	0.20100617
5	0x3dbfbb12	0.09361853
6	0x3e8da9de	0.2766866
7	0x3c657229	0.014004269
8	0x3e4f110c	0.20221347
9	0x3e8fd8fb	0.2809523
10	0x3e432ee5	0.19060858
11	0x3edf95ca	0.43668967
12	0x3e79ee2f	0.24407266
13	0x3e9557a8	0.2916844
14	0x3e036c4e	0.12834284
15	0x3f2856f9	0.6575771
16	0x3eea1690	0.4572034
17	0x3dd2056b	0.1025494
18	0x3db92bc3	0.0904155
19	0x3e80775e	0.2509107
20	0x3ecd5294	0.40102065
21	0x3db08275	0.08618633
22	0x3df14337	0.11780398
23	0x3e8da2a4	0.27663147
24	0x3d71c125	0.059022088
25	0x3ec1eb78	0.3787496
26	0x3dfa4150	0.122194886
27	0x3e0e068d	0.13869686
28	0x3e33fe16	0.17577395
29	0x3e8a35e1	0.2699423
30	0x3eba025b	0.36329922
31	0x3e66ac33	0.22526626

model.encoder.bn2.running_var f4 [32]
0	0x3d995676	0.07487194
1	0x3e11ebca	0.14250103
2	0x3e942cf5	0.2894055
3	0x3d82ebae	0.063926086
4	0x3dd7e181	0.10541058
5	0x3dab7408	0.083717406
6	0x3d6dd5c9	0.05806521
7	0x3b1f79ae	0.0024334001
8	0x3da1e356	0.07904689
9	0x3e86750d	0.26261178
10	0x3e519d51	0.20470168
11	0x3eb02c2a	0.34408695
12	0x3e2ec5f0	0.17067695
13	0x3dd7815f	0.105227225
14	0x3ccb9430	0.024850935
15	0x3f14e8cf	0.5816774
16	0x3e83f62c	0.25773752
17	0x3d365069	0.04451028
18	0x3cc77c79	0.024351345
19	0x3ddd61ab	0.10809644
20	0x3eec17c9	0.46111897
21	0x3d1fe2fa	0.03903482
22	0x3cd9078f	0.026492862
23	0x3e3c84b5	0.18409999
24	0x3d074171	0.033021394
25	0x3efe12e5	0.4962379
26	0x3d9f8c9e	0.077904925
27	0x3d77af67	0.06047001
28	0x3e435cda	0.19078389
29	0x3e93f05d	0.2889432
30	0x3e6135fb	0.21993248
31	0x3e3e761e	0.18599746

model.readout.mlp.0.weight f4 [32, 32]
0	0xbd0bb390	-0.03410679
1	0x3e1583b0	0.14601016
2	0xbcc3a490	-0.02388218
3	0x3e227cbd	0.15867896
4	0x3c819000	0.015815735
5	0xbcec66c6	-0.0288576
6	0xbd9eeee0	-0.077604055
7	0xbd88fd22	-0.06688906
8	0xbca1d7cc	-0.01975622
9	0x3dc61aa2	0.096730486
10	0xbbb8ecc0	-0.005643457
11	0xbc9c68d0	-0.019092947
12	0xbdfa2731	-0.122145064
13	0x3d9242ac	0.07141623
14	0x3d18d0a0	0.037308335
15	0xbe1d91b6	-0.15387616
16	0xbe1f11b4	-0.15534097
17	0xbdb8860c	-0.090099424
18	0xbd0ebc08	-0.03484729
19	0x3d2c3414	0.042041853
20	0xbe1e5a8b	-0.15464227
21	0xbdccfa5a	-0.10008688
22	0xbe3b3faf	-0.18286012
23	0xbd8f3eee	-0.06994425
24	0xbe375f95	-0.17907555
25	0x3d55cb27	0.052195694
26	0xbe12b3b9	-0.14326371
27	0xbd214395	-0.039371092
28	0xbe32ffbf	-0.17480372
29	0xbc967d8b	-0.01837041
30	0x3d1379ac	0.036004707
31	0x3c5be4d6	0.013421258
32	0xbda5fc61	-0.08104778
33	0x3da5fca1	0.08104826
34	0xbcd1aa59	-0.025593923
35	0xbd853424	-0.06504086
36	0x3dc9178c	0.09818944
37	0x3b532848	0.0032220054
38	0x3e3cb238	0.1842736
39	0x3c9901f6	0.018677693
40	0xbddac04a	-0.106812075
41	0xbd8cb505	-0.06870464
42	0x3d726ce3	0.059185874
43	0xbd3bf75e	-0.045890205
44	0xbd97b7e5	-0.07408122
45	0xbddd35a2	-0.10801245
46	0xbd45e8a6	-0.048317574
47	0xbd1ed84a	-0.038780488
48	0x3e0500d4	0.12988597
49	0x3cd6a8dd	0.026203567
50	0x3e11f9ae	0.14255401
51	0x39c1e4b2	0.0003698222
52	0x3d592ef1	0.053023282
53	0xbe14b1a0	-0.14520884
54	0x3d2a7dbf	0.041623827
55	0xbe0bc636	-0.1364983
56	0x3d99dbaf	0.075126044
57	0x3dce10f7	0.100618295
58	0x3dabe90f	0.08394062
59	0x3bfe5043	0.007761033
60	0x3d15a027	0.036529686
61	0x3dc1a5ee	0.09455477
62	0x3da07f3d	0.07836769
63	0x3cd2ab71	0.025716515
64	0xbd990d04	-0.07473186
65	0xbcbec7ca	-0.023288626
66	0x3d9e329b	0.07724496
67	0xbe03372e	-0.12814018
68	0x3e06c917	0.13162647
69	0xbdfdc300	-0.12390709
70	0xbdd4f186	-0.103976294
71	0xbe5d3e44	-0.21605784
72	0xbdaa20a7	-0.08307009
73	0xbda91ea5	-0.08257798
74	0x3d6d6186	0.057954334
75	0x3d45bd9f	0.04827654
76	0x3db0ad43	0.08626797
77	0x3d2ca7b3	0.042152118
78	0x3d747ab6	0.05968734
79	0x3cfc497a	0.030796755
80	0x3e1b3a31	0.15158917
81	0x3d13cc89	0.03608373
82	0x3da02762	0.07820012
83	0xbde9d611	-0.11417783
84	0x3ddca262	0.107731596
85	0x3ce10539	0.02746831
86	0xbc8a99e1	-0.016919078
87	0x3df3cd08	0.11904341
88	0xbda18cac	-0.07888159
89	0xbcf664fc	-0.03007745
90	0xbe2e9586	-0.17049226
91	0x3c89c22b	0.01681622
92	0xbb7d882b	-0.0038685899
93	0x3e34906b	0.17633216
94	0x3d4aae98	0.04948291
95	0x3e50bcc7	0.20384513
96	0xbe16beb3	-0.14721183
97	0x3cac9a33	0.021069622
98	0xbdfc9b1c	-0.12334272
99	0xbe2c81c8	-0.16846383
100	0xbdf3d130	-0.11905134
101	0xbd5bfe6f	-0.053709444
102	0x3d4768b2	0.04868383
103	0xbdb9e847	-0.090775065
104	0xbda97a30	-0.082752585
105	0x3e0f2728	0.1397978
106	0x3de1d022	0.11026026
107	0xbe28a248	-0.16468155
108	0xbd9af0d0	-0.075654626
109	0x3c865071	0.01639578
110	0xbe30e332	-0.17274168
111	0x3e0aa833	0.13540725
112	0xbd460718	-0.04834661
113	0x3e28b78f	0.16476272
114	0xbe0f3055	-0.13983281
115	0x3d8d01fe	0.068851456
116	0xbdb49a72	-0.088185206
117	0xbe052cde	-0.13005397
118	0xbd96b2bd	-0.0735831
119	0x3c0ec478	0.008713834
120	0x3cddfec7	0.027099026
121	0xbdcafd0a	-0.099115446
122	0x3db600dc	0.08886883
123	0xbc9ba9c4	-0.019001849
124	0x3dc01310	0.09378636
125	0xbe113753	-0.14181261
126	0x3db42cec	0.08797631
127	0x3d91937f	0.07108211
128	0xbdfb8f52	-0.122831956
129	0xbbd69813	-0.0065488904
130	0x3dff9f0b	0.12481507
131	0xbdd071d1	-0.10177959
132	0x3d06e18e	0.03292995
133	0xbbd7be5b	-0.0065839714
134	0xbd6f55ea	-0.058431543
135	0xbccd5a75	-0.025067547
136	0x3e2b0673	0.16701679
137	0xbe0b995a	-0.13632718
138	0x3db011c7	0.08597141
139	0xbe245fd8	-0.16052186
140	0x3cd753a7	0.026285006
141	0x3e2e10e6	0.16998634
142	0xbc9e04f5	-0.019289473
143	0xbdc8ebbb	-0.09810587
144	0x3e45b327	0.19306622
145	0xbd92fcf6	-0.07177155
146	0x3dc1d8f1	0.094652064
147	0x3e038100	0.12842178
148	0x3e3749c2	0.1789923
149	0x3c31cfbc	0.01085275
150	0xbde9c922	-0.11415316
151	0x3c10f4e5	0.00884745
152	0xbdcf687b	-0.1012735
153	0x3e1623ed	0.14662142
154	0x3cd8bd83	0.026457554
155	0xbc79688b	-0.015222679
156	0xbdb252db	-0.0870721
157	0xbe086f04	-0.13323599
158	0x3ce2d4fc	0.02768945
159	0xbe15f43f	-0.14643954
160	0x3de33c5e	0.110954985
161	0x3e42d4ec	0.19026536
162	0xbd9c4940	-0.07631159
163	0x3cef527e	0.02921414
164	0x3d720e46	0.059095643
165	0xbde9d356	-0.11417262
166	0xbd9f89d0	-0.077899575
167	0xbe1b9cd6	-0.15196547
168	0x3e19b5d2	0.15010765
169	0x3dfd7273	0.12375345
170	0x3e4b7f3c	0.19872755
171	0x3e336988	0.17520726
172	0x3e1c5c03	0.15269475
173	0x3d0e4e41	0.034742597
174	0xbe2989c5	-0.16556461
175	0xbd4864fb	-0.048924427
176	0x3d4de070	0.05026287
177	0x3e1bac5f	0.15202473
178	0x3e3eb1b5	0.18622477
179	0xbdc9c4f1	-0.09852017
180	0xbd15c858	-0.036568016
181	0x3d0cb6fe	0.034354202
182	0xbdde347a	-0.10849853
183	0xbe118d71	-0.14214112
184	0xbdad5f79	-0.084654756
185	0x3db66cbf	0.089074604
186	0xbdc29436	-0.09500925
187	0x3cb5afb8	0.022178516
188	0x3c011fe5	0.007881139
189	0x3e00c74c	0.12576026
190	0xbdd0fadd	-0.102040984
191	0x3c5689d6	0.013094386
192	0xbd98472c	-0.0743545
193	0xbcfd74b9	-0.030939447
194	0x3e1cd04b	0.15313832
195	0xbdd2755c	-0.10276291
196	0x3cd20a82	0.025639776
197	0x3d9ea37c	0.07746026
198	0x3c5dcfd2	0.013538318
199	0x3e4a111c	0.19733089
200	0x3d453e59	0.048155162
201	0x3c2b95c2	0.010472717
202	0x3df51bf3	0.119682215
203	0x3de6dac1	0.11272193
204	0xbde367f5	-0.111038126
205	0xbdcbcfba	-0.0995173
206	0x3dc72ab7	0.09724944
207	0xbe3744a9	-0.17897286
208	0xbd14212e	-0.036164455
209	0x3d68c5d5	0.056829292
210	0xbd9075bd	-0.07053707
211	0xbe1f8829	-0.15579285
212	0xbd9462df	-0.07245421
213	0xbe51e21a	-0.20496407
214	0xbdb7a436	-0.089668676
215	0x3d9fbf97	0.07800215
216	0x3d96db96	0.073661014
217	0xbe20c312	-0.15699413
218	0xbddf2ae5	-0.10896853
219	0x3c66a470	0.014077291
220	0xbe077e8c	-0.13231868
221	0xbe25f562	-0.16206887
222	0xbe04649f	-0.12929009
223	0xbdfb4b4c	-0.12270221
224	0x3d21230c	0.039340064
225	0xbc816be8	-0.015798524
226	0xbca306f5	-0.019900778
227	0x3db76720	0.089552164
228	0xbb869dab	-0.004108151
229	0x3e081cd5	0.13292249
230	0xbd52d8d3	-0.05147631
231	0x3d9a7a33	0.07542839
232	0x3dbf4f8a	0.09341343
233	0xbc5a50a7	-0.013324893
234	0xbd7f9a20	-0.062402844
235	0xbe2996fc	-0.16561502
236	0xbccc3d58	-0.024931595
237	0x3e3b7046	0.18304548
238	0x3e0e2563	0.1388145
239	0x3ddc5c69	0.10759813
240	0x3df927a7	0.12165766
241	0x3cf68a1d	0.030095154
242	0xbd100d40	-0.035168886
243	0x3d4b8598	0.04968795
244	0x3dc3a385	0.09552673
245	0xbd2a086b	-0.041511934
246	0x3d8008bd	0.06251667
247	0x3c875529	0.0165201
248	0xbd5883d5	-0.0528601
249	0xbddd06ce	-0.107923135
250	0x3e39f437	0.18159567
251	0x3c36226e	0.011116607
252	0xbe091940	-0.13388538
253	0xbd2013df	-0.03908145
254	0x3dbf618e	0.09344779
255	0x3dd707fc	0.1049957

model.readout.mlp.0.bias f4 [32]
0	0x3d965eb5	0.07342283
1	0xbdf5497f	-0.11976909
2	0xbca18376	-0.019716006
3	0x3d318953	0.043343853
4	0xbcfb3650	-0.030665547
5	0x3da22176	0.079165384
6	0xbc3bf6d0	-0.011472419
7	0xbe2e5bfb	-0.17027275
8	0xbd89cf06	-0.0672894
9	0x3dac61f8	0.084171236
10	0xbd8f2527	-0.06989508
11	0x3d69568b	0.0569673
12	0x3dd9cc4c	0.1063467
13	0x3e2f4563	0.17116313
14	0x3da8a35a	0.08234282
15	0xbc9a1def	-0.018813102
16	0x3d86ebcb	0.06587943
17	0x3e04c263	0.12964778
18	0xbdf0afec	-0.117523044
19	0xbd89cbdd	-0.06728337
20	0x3e414bd5	0.18876584
21	0xbd5899c7	-0.05288103
22	0x3e0998e2	0.13437226
23	0xbcfdc798	-0.030978963
24	0xbb303796	-0.00268886
25	0x3d5ffc8d	0.05468421
26	0xbcada888	-0.021198526
27	0x3da7112b	0.081575714
28	0xbd8c7e33	-0.06860008
29	0x3dc80f17	0.09768503
30	0x3c9dfe5f	0.019286333
31	0xbd668731	-0.056281272

model.readout.mlp.2.weight f4 [6, 32]
0	0xbd98b4e0	-0.07456374
1	0xbda862b2	-0.0822195
2	0x3da09bec	0.0784224
3	0xbd7946a0	-0.06085837
4	0xbe5ac913	-0.21365766
5	0x3db83586	0.08994584
6	0x3d05b061	0.03263891
7	0xbd029ee2	-0.031889804
8	0x3ac8b3ac	0.0015312335
9	0x3e18547e	0.14875981
10	0xbda21ac6	-0.07915263
11	0xbdddec69	-0.10836107
12	0xbd72d848	-0.059288293
13	0xbd978499	-0.07398338
14	0x3df424c6	0.119210765
15	0xbe013561	-0.12618019
16	0x3e17f8ca	0.14840999
17	0xbe2a17d3	-0.1661065
18	0x3de73d14	0.112909466
19	0xbd53fe77	-0.05175635
20	0xbe37351e	-0.17891356
21	0x3e2425e2	0.16030076
22	0x3d15a707	0.036536243
23	0x3adb08ff	0.0016711055
24	0x3daa7fdc	0.083251685
25	0x3d68bc7b	0.056820374
26	0x3cbd3805	0.023098001
27	0x3cf86423	0.030321186
28	0x3e2de659	0.16982402
29	0x3dc5b562	0.09653737
30	0x3c7ec1ad	0.015549106
31	0x3ccd7d55	0.025084177
32	0xbe1a5bfa	-0.15074149
33	0x3d86ada4	0.06576088
34	0xbd1891ae	-0.037248306
35	0xbd37c43a	-0.04486487
36	0xbe3f3849	-0.18673815
37	0x3e45cd73	0.19316654
38	0xbe90ad5b	-0.2825726
39	0xbe0fa9e0	-0.14029646
40	0xbc8982f7	-0.016786082
41	0x3db13001	0.08651734
42	0x3ddbb416	0.10727708
43	0xbd8e3ec2	-0.06945564
44	0xbcd6e60a	-0.026232738
45	0x3dc3b1ec	0.0955542
46	0xbd62c2a3	-0.0553614
47	0x3d45dff9	0.0483093
48	0x3d6b4b7e	0.05744504
49	0x3cb9c7c5	0.022678265
50	0xbe1c973b	-0.15292065
51	0xbe28139c	-0.1641373
52	0xbd2cf55a	-0.042226173
53	0x3c3627f0	0.01111792
54	0xbe8260e9	-0.25464562
55	0xbdae3668	-0.08506471
56	0x3e276020	0.16345263
57	0x3d0bbf82	0.034118183
58	0x3c0d0e58	0.008609377
59	0xbdbca53d	-0.09211204
60	0xbe745c5a	-0.23863354
61	0x3e28636f	0.16444181
62	0xbe117445	-0.1420451
63	0x3cf5c1ec	0.029999696
64	0x3e06e491	0.13173129
65	0x3da846a0	0.08216596
66	0x3e4a6dcb	0.19768445
67	0xbcc15ef3	-0.023604846
68	0xbdb9510e	-0.09048663
69	0x3d94e646	0.07270484
70	0x3e0ebfa3	0.13940291
71	0x3d30f5d5	0.043203194
72	0x3dd4411d	0.10363982
73	0xbe8de28e	-0.2771191
74	0xbe132425	-0.14369257
75	0x3cd00267	0.02539177
76	0x3d126617	0.03574189
77	0x3e1b22d2	0.15150002
78	0xbdfe0ba6	-0.124045655
79	0xbe0c29df	-0.13687848
80	0x3d6b3793	0.057426047
81	0xbc9d7b1e	-0.019223746
82	0x3d7c1ae0	0.061549067
83	0xbcde5639	-0.027140724
84	0xbe663a36	-0.22483143
85	0x3de5a0b2	0.11212291
86	0x3d888277	0.06665509
87	0xbdf07969	-0.11741907
88	0xbc4367bd	-0.011926589
89	0xbafd8ca4	-0.0019344282
90	0x3e67b752	0.22628525
91	0xbe01c3b7	-0.12672316
92	0xbe4ad146	-0.19806394
93	0xbdfd7c91	-0.12377275
94	0xbe1b0157	-0.1513723
95	0xbdb25f58	-0.087095916
96	0x3d931f52	0.07183708
97	0x3ddb56de	0.10709928
98	0xbdb640bc	-0.08899066
99	0xbc79d3be	-0.015248237
100	0xbe3719b6	-0.17880902
101	0xbdb3bcc9	-0.08776242
102	0xbe4190dd	-0.18902917
103	0x3e114d7c	0.14189714
104	0xbcbf1673	-0.023326134
105	0xbc992e58	-0.018698856
106	0x3ca7cbad	0.020482862
107	0xbe106c05	-0.14103706
108	0xbe42b763	-0.19015269
109	0xbc786dd5	-0.015162905
110	0xbe4805af	-0.19533418
111	0x3de2bab0	0.11070764
112	0xbe145a0e	-0.14487478
113	0xbd93da43	-0.072193645
114	0xbdbcba1a	-0.092151836
115	0xbd91ba63	-0.071156286
116	0x3ddbeadb	0.107381545
117	0xbd957e0c	-0.07299432
118	0x3ca45105	0.020058164
119	0xbdf39c64	-0.118950635
120	0x3dc6cec6	0.09707408
121	0x3c507f41	0.012725652
122	0xbdc28aa9	-0.094991036
123	0xbe261c50	-0.16221738
124	0xbd463492	-0.04838998
125	0xbdef7237	-0.11691707
126	0x3e102559	0.14076747
127	0x3e204510	0.15651345
128	0xbd198c57	-0.037487354
129	0xbb171c11	-0.00230575
130	0xbe2ab1ed	-0.16669436
131	0x3dfd3aee	0.123647556
132	0xbc91178a	-0.01771142
133	0x3cf8dc00	0.030378342
134	0xbe00babd	-0.12571235
135	0xbe24a9e6	-0.16080436
136	0x3e0304e1	0.1279483
137	0xbded0982	-0.11574079
138	0x3d17fa4c	0.037103936
139	0xbe27d63e	-0.1639032
140	0xbce5a6a3	-0.02803356
141	0x3d6f0ec2	0.058363684
142	0x3e19a10d	0.15002842
143	0xbe131d00	-0.14366531
144	0xbe3727ea	-0.1788632
145	0xbbc0ac11	-0.005879887
146	0xbe15a512	-0.1461375
147	0xbc94b1be	-0.01815116
148	0x3d6eb3c7	0.058276918
149	0xbe0b2fc4	-0.1359244
150	0xbccdf809	-0.025142686
151	0x3e248d7a	0.16069594
152	0xbe4b6a16	-0.19864687
153	0xbc7ed8de	-0.015554635
154	0xbdc88be9	-0.09792311
155	0x3e38c234	0.18042833
156	0xbcdaad0a	-0.02669384
157	0xbc69fe24	-0.014281783
158	0x3c8ecdb5	0.017432073
159	0xbdbba4e8	-0.09162313
160	0xbd0c21dc	-0.03421198
161	0x3d306adf	0.04307067
162	0xbe2c7b08	-0.16843808
163	0xbd0d4fdb	-0.034499984
164	0xbe3a899c	-0.18216556
165	0xbe415c2f	-0.18882822
166	0xbbca9e66	-0.0061834333
167	0x3e24e5f8	0.16103351
168	0x3cad861e	0.021182116
169	0x3ca8051e	0.020510253
170	0x3e32218b	0.17395608
171	0xbdaf1ef3	-0.08550825
172	0xbccf3588	-0.02529408
173	0xbe2790d4	-0.16363841
174	0xbc67f98c	-0.014158618
175	0x3dc2bd48	0.09508759
176	0xbe19f13b	-0.15033428
177	0x3c363033	0.01111989
178	0x3da495be	0.080363736
179	0x3b3ed8b4	0.0029120864
180	0xbe0efd75	-0.13963874
181	0x3d676c79	0.056499932
182	0x3dd8e2b2	0.10590114
183	0xbe15f4ef	-0.14644216
184	0x3d429621	0.047506455
185	0x3e4891e0	0.19586897
186	0x3ce716e3	0.028209155
187	0xbd86d6b3	-0.065839194
188	0x3e05edec	0.13079041
189	0x3dd06a3a	0.10176511
190	0xbdb4aa46	-0.088215396
191	0xbe3e4ec8	-0.1858474

model.readout.mlp.2.bias f4 [6]
0	0x3df5b1f3	0.11996832
1	0x3d4fd588	0.05074075
2	0x3de44cca	0.11147459
3	0xbd9c2176	-0.0762357
4	0x3d8acbec	0.06777176
5	0x3d8a0358	0.06738919

exp_avg f4 [32]
0	0xbbf9f37d	-0.007627903
1	0xbbb7c917	-0.0056086886
2	0xbd51b5f5	-0.05119892
3	0xbc55ef2e	-0.013057513
4	0x3cdffc45	0.027341971
5	0x3a95e4a5	0.0011435939
6	0xbc414542	-0.0117962975
7	0x357982d4	9.295011e-07
8	0x3c15865f	0.009126275
9	0xbb928ac6	-0.0044721095
10	0x324679f4	1.1552846e-08
11	0x00000000	0.0
12	0x3d2ac8c6	0.04169538
13	0xbc00cb34	-0.007860947
14	0xbcf04708	-0.029330745
15	0x00000000	0.0
16	0x3420a38e	1.4960662e-07
17	0xbcf111c4	-0.029427417
18	0xb3610e15	-5.2399702e-08
19	0xbc193a47	-0.009352273
20	0x3d3a898a	0.045541324
21	0xb9ce5d06	-0.0003936069
22	0xbd6dc21b	-0.05804644
23	0xb382acd2	-6.0850326e-08
24	0x3c0971fd	0.008388993
25	0xbdb1ba2c	-0.086780876
26	0x3c6a7afc	0.014311548
27	0xb887bfa9	-6.473001e-05
28	0xbcd310fa	-0.025764931
29	0x3c6c49be	0.014421878
30	0xbda3607b	-0.079773866
31	0x335e0cfd	5.1700216e-08

exp_avg_sq f4 [32]
0	0x3b00ed31	0.0019672627
1	0x3af331a8	0.0018554227
2	0x3b03f91f	0.0020137501
3	0x3b836dae	0.0040108776
4	0x3a09fdfc	0.0005263982
5	0x392f60f5	0.0001672542
6	0x3b33cceb	0.0027435373
7	0x38151558	3.5544246e-05
8	0x3ab0ca64	0.0013488051
9	0x39df1e96	0.00042556663
10	0x268a3dfb	9.592473e-16
11	0x00000000	0.0
12	0x3c210aa4	0.009829197
13	0x39b93118	0.00035322527
14	0x3b16e35c	0.00230237
15	0x00000000	0.0
16	0x282ee897	9.709375e-15
17	0x3bf73d04	0.0075451154
18	0x28817751	1.4373622e-14
19	0x3a67a0d9	0.0008835919
20	0x3b7b08e0	0.003830485
21	0x3caae9e5	0.020863483
22	0x3b361abe	0.0027786936
23	0x28b59c3e	2.0162796e-14
24	0x3c013e0e	0.00788833
25	0x3ca6e72b	0.020373901
26	0x3d8a32aa	0.06747945
27	0x3b72cad5	0.0037047167
28	0x3dfbc475	0.122933306
29	0x3a121010	0.00055718515
30	0x3d9b2718	0.07575816
31	0x29259c7f	3.67731e-14

exp_avg f4 [32, 3]
0	0xbc06e36b	-0.008232932
1	0xbb288982	-0.0025716727
2	0xba14e027	-0.0005679153
3	0xbb781eda	-0.0037860186
4	0xbb53ddf2	-0.0032328335
5	0x3a9f13eb	0.0012136673
6	0xbc9bf6df	-0.019038616
7	0xbd12f573	-0.03587861
8	0xbaa0b210	-0.0012260098
9	0xbbaf03bd	-0.005341022
10	0x3c40c494	0.011765618
11	0xbca2090a	-0.0197797
12	0x3c425d7f	0.0118631115
13	0x3c23005b	0.009948815
14	0x3b44a23f	0.0030003933
15	0xb8c340a6	-9.310366e-05
16	0x3ac7dce0	0.0015248321
17	0x3ad8a949	0.0016529943
18	0xbc3f6c81	-0.011683584
19	0x3b9c10d4	0.0047627483
20	0x3beeb092	0.0072842324
21	0xbb441fa6	-0.002992609
22	0x3b8a9c3b	0.00423005
23	0xbba9c0c7	-0.0051804516
24	0x3a2fa153	0.00066997594
25	0x3a7be307	0.000960872
26	0x3bf072d9	0.0073379097
27	0x3b82b7be	0.003989189
28	0xba1ea0e1	-0.00060511945
29	0x3bdda4ae	0.006764016
30	0x3baace15	0.005212555
31	0xbbd6ce70	-0.006555371
32	0xbb5a9b67	-0.0033356787
33	0x00000000	0.0
34	0x00000000	0.0
35	0x00000000	0.0
36	0xbac0f41b	-0.0014721187
37	0x3d27bcfd	0.040951718
38	0x39be1562	0.00036255555
39	0xb9eefb9d	-0.00045582364
40	0xbbcd19c9	-0.0062591773
41	0xba2892ff	-0.00064305955
42	0xbc8a8388	-0.016908422
43	0x3ba9cf32	0.0051821703
44	0xbc430ab6	-0.011904409
45	0x00000000	0.0
46	0x00000000	0.0
47	0x00000000	0.0
48	0x3d08adb5	0.033368785
49	0xbd189f53	-0.03726132
50	0xbc1976b7	-0.009366683
51	0xb9bd40b6	-0.00036097103
52	0x38d35fc6	0.00010079103
53	0xbcf30755	-0.029666582
54	0x3d2aca82	0.041697033
55	0xbc08b280	-0.008343339
56	0xbd268320	-0.040652394
57	0x3a83d9de	0.0010059436
58	0xbb1ce582	-0.0023940508
59	0xbc0cc171	-0.008591042
60	0x3c53fdca	0.012938926
61	0x3b672af7	0.0035273412
62	0x3ccf1daf	0.025282709
63	0x3cb4166f	0.021983353
64	0xbccd4043	-0.025055056
65	0xbc072b80	-0.008250117
66	0xbcc1abb0	-0.023641437
67	0xbd4b87b1	-0.049689952
68	0x3b0fa202	0.0021916633
69	0x3cde5db7	0.027144296
70	0xbd66e175	-0.056367356
71	0x3cf353a8	0.029702976
72	0x3b409620	0.0029386356
73	0xbb86f3fe	-0.0041184416
74	0xbb721bf8	-0.003694294
75	0x3a0e4832	0.0005427628
76	0xbc9aa292	-0.018876348
77	0xbd855696	-0.065106556
78	0xbb2696f6	-0.002541957
79	0x3c3f954d	0.011693311
80	0x3c302a5a	0.010752285
81	0xbafeebe8	-0.0019448968
82	0x3ab6f191	0.001395749
83	0xba119540	-0.0005553551
84	0xac08e9b8	-1.9456502e-12
85	0xbd4bfd1d	-0.049801935
86	0xb9f67c02	-0.0004701317
87	0x3c133dfc	0.008986946
88	0x3a73349e	0.0009277555
89	0x3b9d1d5d	0.00479476
90	0x31861750	3.9025636e-09
91	0xb9b94f11	-0.0003534486
92	0xbda2fc30	-0.07958257
93	0xbd103530	-0.035206974
94	0xbcacbfe9	-0.021087604
95	0x3d72e0c8	0.0592964

exp_avg_sq f4 [32, 3]
0	0x3a864c8f	0.0010246205
1	0x39397548	0.00017686666
2	0x37997dd1	1.829761e-05
3	0x3971e2b5	0.00023068006
4	0x3a4d79e3	0.0007838292
5	0x36ba57bb	5.553445e-06
6	0x3997cf25	0.000289553
7	0x3a68fe02	0.0008887948
8	0x37cc79dc	2.437544e-05
9	0x3b298984	0.002586932
10	0x3a7d223e	0.00096562866
11	0x3a80b2e2	0.0009818936
12	0x39268c22	0.00015883197
13	0x390ef425	0.00013633126
14	0x38ecc17d	0.00011289397
15	0x38a44447	7.832847e-05
16	0x37900f44	1.7173246e-05
17	0x365efd51	3.3228027e-06
18	0x3ae5dd1c	0.0017537209
19	0x3a653001	0.000874281
20	0x3a0e7fd6	0.0005435919
21	0x38367c43	4.350791e-05
22	0x388bd909	6.6684624e-05
23	0x38b1c214	8.4761676e-05
24	0x3997012a	0.00028801832
25	0x39b8e8bf	0.00035268624
26	0x38c7103d	9.492084e-05
27	0x3ba0dba3	0.0049089952
28	0x3bbefa15	0.005828152
29	0x391a6880	0.00014725514
30	0x37fb4098	2.995161e-05
31	0x3809685f	3.276055e-05
32	0x38ad97c6	8.277553e-05
33	0x00000000	0.0
34	0x00000000	0.0
35	0x00000000	0.0
36	0x3a40b1f9	0.0007350739
37	0x3c0edaff	0.008719205
38	0x385405f3	5.055028e-05
39	0x381fa397	3.806091e-05
40	0x39591eda	0.00020706226
41	0x388cc898	6.713084e-05
42	0x39bd5ec8	0.00036119507
43	0x3b098ea1	0.0020989554
44	0x3989225d	0.0002615628
45	0x00000000	0.0
46	0x00000000	0.0
47	0x00000000	0.0
48	0x39ffe5ad	0.00048808512
49	0x3982ff45	0.00024985723
50	0x399f82af	0.0003042421
51	0x367c5342	3.7599389e-06
52	0x39117ca9	0.00013874717
53	0x3bc7c74c	0.006096756
54	0x3aec0f79	0.0018009982
55	0x3a13e059	0.00056410354
56	0x3b16e9cc	0.0023027537
57	0x39dc9aae	0.00042076915
58	0x38fea240	0.00012141885
59	0x38acd780	8.241739e-05
60	0x3ade23bc	0.0016947906
61	0x3a657cae	0.00087542355
62	0x3a6d19ce	0.0009044678
63	0x3c80715d	0.015679056
64	0x3b8e7adc	0.004348142
65	0x39ac4668	0.00032858853
66	0x39e200dd	0.00043106722
67	0x3ab22d73	0.0013593867
68	0x384907f7	4.7929552e-05
69	0x3b09bbee	0.0021016556
70	0x3bc5220c	0.0060160216
71	0x3b01f4c1	0.0019829723
72	0x380375b0	3.134244e-05
73	0x3a20f0a7	0.00061393756
74	0x3b49ab1e	0.003077216
75	0x373493cc	1.0763248e-05
76	0x3a8656dc	0.0010249275
77	0x3c4fda65	0.012686347
78	0x38892c62	6.540936e-05
79	0x3cb07443	0.021539813
80	0x3c5d5ffd	0.013511655
81	0x389eb9be	7.568624e-05
82	0x3b8229bc	0.0039722603
83	0x37b49ddb	2.153118e-05
84	0x343ce3ed	1.7591783e-07
85	0x3dcafc33	0.099113844
86	0x360a128c	2.0574398e-06
87	0x3884fd63	6.3414474e-05
88	0x399584b7	0.00028518375
89	0x38177f12	3.611955e-05
90	0x353a2409	6.934284e-07
91	0x378f42ed	1.7078093e-05
92	0x3d9ab64f	0.07554304
93	0x3adc433c	0.0016804705
94	0x3b4b5391	0.0031025151
95	0x3bd15f71	0.0063895513

exp_avg f4 [32]
0	0xbb30f056	-0.002699872
1	0xbb33af0c	-0.0027417568
2	0x3a04a2d6	0.0005059665
3	0xba7c33a1	-0.00096207304
4	0x3b32245a	0.0027182312
5	0x38c0aaba	9.187074e-05
6	0x3b2ae5d7	0.0026076937
7	0x3da4b3ab	0.080420814
8	0x3b5533c1	0.0032532068
9	0x3ad1154f	0.0015951785
10	0xbb2ce1f0	-0.0026379786
11	0x3a090bef	0.00052279135
12	0x3b06dc31	0.0020578022
13	0x3a7b5cf8	0.00095887436
14	0x3bdc5bd2	0.006724813
15	0xba44130d	-0.00074796454
16	0x3ab0139b	0.0013433577
17	0x3aa94861	0.0012915247
18	0x3bac9f6e	0.005268029
19	0x39bc2b91	0.00035890614
20	0x3adb92e5	0.0016752152
21	0x3bc4c0fb	0.0060044504
22	0x3ae8a743	0.0017750043
23	0x39370b2a	0.00017456399
24	0x3b46ec16	0.003035312
25	0x3a9934cf	0.0011688712
26	0x3b1399f7	0.002252219
27	0x3b3c174e	0.0028700414
28	0x3a4a408a	0.00077153055
29	0x3aeb000b	0.001792909
30	0x3a65863f	0.0008755661
31	0x3ae9d430	0.0017839726

exp_avg_sq f4 [32]
0	0x375e0a37	1.32346095e-05
1	0x377faa94	1.52389e-05
2	0x35dd6e6f	1.6497924e-06
3	0x3761b96d	1.3454218e-05
4	0x36e80503	6.9147222e-06
5	0x37c9f37e	2.4074452e-05
6	0x37557320	1.2722594e-05
7	0x3b365569	0.0027821905
8	0x36e0a29f	6.694652e-06
9	0x360f0bf8	2.1315627e-06
10	0x37b24bec	2.1254607e-05
11	0x35f12b26	1.7968457e-06
12	0x37078eed	8.079905e-06
13	0x3784e29b	1.5841148e-05
14	0x3856540a	5.1099843e-05
15	0x35e77fea	1.7248069e-06
16	0x368260b8	3.8855615e-06
17	0x37c65e13	2.3647246e-05
18	0x387db482	6.048801e-05
19	0x36ec188c	7.0362057e-06
20	0x36eb0d59	7.0050996e-06
21	0x3813a573	3.5201618e-05
22	0x383946f7	4.417353e-05
23	0x3693ad41	4.401111e-06
24	0x395db6ad	0.00021144254
25	0x363cd5b3	2.8138572e-06
26	0x37e47be4	2.7237409e-05
27	0x3716370e	8.953515e-06
28	0x36b09cfe	5.263485e-06
29	0x36cb21ea	6.0538196e-06
30	0x36232afb	2.431391e-06
31	0x3782c001	1.5586616e-05

exp_avg f4 [32, 32]
0	0x3a3fccb0	0.00073165726
1	0x3b11c612	0.0022243303
2	0x3aa9ab5b	0.0012944745
3	0x3874da67	5.8377536e-05
4	0x3ab57f68	0.0013847174
5	0x3a63cc24	0.0008689782
6	0xba13ae74	-0.00056336005
7	0xb9df59cf	-0.00042600787
8	0x3afe8a84	0.0019419943
9	0x3ab66f60	0.001391869
10	0xba5598f0	-0.00081480946
11	0xb71aa0e9	-9.21658e-06
12	0xbb81160c	-0.003939396
13	0x38ddff16	0.00010585615
14	0xb9973edd	-0.000288478
15	0x37fb0274	2.9922674e-05
16	0xbaff3ad5	-0.0019472489
17	0xbb190933	-0.002335143
18	0xbabf7cae	-0.0014609301
19	0x3a944ad1	0.0011313801
20	0x3a95782a	0.001140361
21	0xbb89bdd3	-0.004203537
22	0x3aa98909	0.0012934516
23	0xbad3217c	-0.0016108002
24	0xbba94a77	-0.0051663476
25	0xbb505fb3	-0.0031795322
26	0xbbb182fc	-0.005417226
27	0xb8a29507	-7.7525205e-05
28	0x3be469c1	0.0069706147
29	0xbba0819d	-0.0048982636
30	0xba2d7dac	-0.0006618153
31	0xba4eab1d	-0.0007883774
32	0x3a932cc3	0.001122855
33	0x3b0e6203	0.00217259
34	0x3a3fca04	0.00073161745
35	0x3a21390a	0.0006150162
36	0x3ae8cf9c	0.0017762068
37	0x3932c74a	0.00017049644
38	0x3b2332b0	0.0024902038
39	0x38dbc16b	0.00010478761
40	0x3b00fafb	0.0019680846
41	0xbada5fc9	-0.0016660626
42	0x3802aca7	3.115521e-05
43	0xb6e6b5c0	-6.8756926e-06
44	0x3aab444e	0.0013066621
45	0x39b8378e	0.00035136606
46	0x3b3bc8e7	0.0028653683
47	0x37f278dc	2.8904928e-05
48	0x396a76ec	0.00022360281
49	0x3a27b9d7	0.0006398237
50	0xb86bec4d	-5.624844e-05
51	0x39f353f6	0.00046411128
52	0x3a891eaf	0.0010461415
53	0x3ada1a5a	0.0016639933
54	0x3a3356d1	0.0006841245
55	0x39be8040	0.00036335178
56	0x3adc5eca	0.0016812917
57	0x3a921cc1	0.0011147485
58	0x39f369e5	0.0004642747
59	0xba125ffc	-0.0005583761
60	0x3af5e077	0.0018758912
61	0x3a4ae20d	0.00077393727
62	0x398d0c27	0.0002690267
63	0xb885ab70	-6.373867e-05
64	0xba9b7bf8	-0.0011862507
65	0xb93c208a	-0.00017941199
66	0x38e93765	0.00011120624
67	0xb9e1630f	-0.0004298915
68	0xb99fde51	-0.00030492482
69	0xb9b3ea8d	-0.00034316294
70	0xb9d6d1c5	-0.0004097355
71	0xb83e20d3	-4.53301e-05
72	0xb98bdb61	-0.00026675596
73	0x3a5fc5f1	0.00085362705
74	0x3950bf2b	0.00019907641
75	0x3536e0b8	6.812729e-07
76	0xb8a3d557	-7.812183e-05
77	0x363bf08a	2.8005184e-06
78	0xb9a154cd	-0.00030771494
79	0xb68bd322	-4.167102e-06
80	0x392f63b4	0.00016726443
81	0x386658f5	5.491912e-05
82	0x39181f1e	0.00014507442
83	0xb9c43f24	-0.00037431077
84	0xb9cba6ec	-0.00038843544
85	0xba5155fd	-0.00079855305
86	0x3906a692	0.00012841288
87	0xb8c51c1b	-9.398927e-05
88	0xb8e4e9e2	-0.00010915451
89	0x37d06ec4	2.4847111e-05
90	0xb818a30e	-3.639148e-05
91	0x39eb853f	0.0004492197
92	0xb870576b	-5.7301873e-05
93	0xb79f47c7	-1.8987701e-05
94	0x3789965b	1.6401687e-05
95	0x393b274f	0.00017848353
96	0x398561cb	0.00025440598
97	0xbb9a4fde	-0.004709228
98	0xb9051a09	-0.00012693567
99	0xba51626a	-0.0007987382
100	0xbb2625f9	-0.0025352223
101	0xbb5aba61	-0.003337525
102	0x3adfa882	0.0017063769
103	0xba7b5a59	-0.0009588353
104	0xbb51ea5b	-0.0032030556
105	0xbb47d49c	-0.0030491715
106	0x3b144c33	0.0022628426
107	0xb6825e2c	-3.885265e-06
108	0x3becb49a	0.007223678
109	0x3afb7ae3	0.0019186403
110	0x3a2ef66b	0.00066742924
111	0x37961b1a	1.7894014e-05
112	0x3b6a797c	0.0035777977
113	0x3ac4ad22	0.0015005211
114	0x3b3ae7aa	0.002851943
115	0xbb3bcbc6	-0.0028655394
116	0xbb18f058	-0.0023336615
117	0x3ba02e44	0.004888328
118	0xb82d0e49	-4.125972e-05
119	0x3a55adaa	0.0008151183
120	0x3b770469	0.0037691838
121	0x3b0b04cc	0.0021212576
122	0x3b9f7a9b	0.0048669106
123	0x3a60a720	0.00085698254
124	0xbb9eaa0b	-0.004842048
125	0x3bef7610	0.0073077753
126	0x3a6f88ca	0.00091375096
127	0x3b0c6e4d	0.002142805
128	0xbb031f38	-0.0020007621
129	0xba28bd07	-0.00064368587
130	0x3900005a	0.00012207162
131	0xba82b9f9	-0.0009973637
132	0xba57ab60	-0.0008227136
133	0xba2b57a4	-0.0006536192
134	0x39326677	0.00017013574
135	0xb87c9e51	-6.0228926e-05
136	0xba43a29d	-0.0007462891
137	0x3a3678e9	0.0006960766
138	0x3a46bda5	0.000758136
139	0x369bf69d	4.6480695e-06
140	0x3a41c6ec	0.00073920074
141	0x39d74b16	0.0004106394
142	0xba198fa0	-0.00058578886
143	0xb79e6528	-1.8882172e-05
144	0x3a8cec7d	0.0010751631
145	0x3761dca0	1.3462413e-05
146	0x3a709a14	0.0009178233
147	0xba4f1cd4	-0.0007900719
148	0xba81d6ef	-0.0009905974
149	0xb5ea4dde	-1.7457021e-06
150	0x3945bb9b	0.00018857273
151	0x39a6216f	0.00031686897
152	0xb9440ee8	-0.0001869757
153	0xb8a650c2	-7.930539e-05
154	0xb921e1d3	-0.00015438283
155	0x39e71a8d	0.00044079535
156	0xb9b93d4d	-0.00035331622
157	0x3a221f2b	0.0006184454
158	0xb88ea080	-6.800983e-05
159	0x3a3e32d1	0.0007255497
160	0x39c22acb	0.00037034447
161	0xbb005f38	-0.0019588005
162	0x3b0f89cc	0.0021902202
163	0xbac03b7e	-0.0014666168
164	0xbb2afa07	-0.002608897
165	0xbb442f5c	-0.0029935455
166	0x3b17c905	0.0023160588
167	0xbabbeb90	-0.0014337171
168	0xbb3344b4	-0.0027354183
169	0xbb1e2f5c	-0.0024137115
170	0x3b0c3b19	0.002139753
171	0xb6bc5f20	-5.6139106e-06
172	0x3b737be4	0.0037152702
173	0x3b5ad2b5	0.0033389751
174	0x3957fe3e	0.0002059871
175	0x37c9855e	2.4023171e-05
176	0x3b3657ff	0.0027823446
177	0x3a338998	0.0006848811
178	0x3b230193	0.0024872764
179	0xbb3564cf	-0.0027678495
180	0xbb209a09	-0.0024505875
181	0x3b81b822	0.003958718
182	0x3b1769a8	0.0023103748
183	0x38d92e62	0.00010356006
184	0x3a8796af	0.001034459
185	0x3a1cc7cc	0.00059807
186	0x3aab8e4b	0.0013088671
187	0x39d81381	0.00041213262
188	0x3b98af97	0.004659604
189	0x3b5ab5d7	0.0033372545
190	0x39f9d42d	0.00047651064
191	0x3b0889e0	0.0020834133
192	0xba8e883b	-0.001087434
193	0x3bd12c04	0.006383421
194	0xba45fee1	-0.00075529335
195	0x3b377859	0.0027995317
196	0x3b90766d	0.0044086487
197	0x3b554b95	0.003254627
198	0xba7b7066	-0.0009591639
199	0x3b22af5a	0.0024823756
200	0x3ba21d5e	0.0049473485
201	0xbafa0b92	-0.0019076935
202	0xbb857dd8	-0.0040738396
203	0x3756f74e	1.2812974e-05
204	0xba005f2b	-0.00048969936
205	0xbb0ed030	-0.002179157
206	0x3b9e8a40	0.004838258
207	0xb837f400	-4.3857843e-05
208	0xbb89de61	-0.004207418
209	0xb7e98991	-2.7839824e-05
210	0xbb7ad9e9	-0.0038276857
211	0x3b803da9	0.0039136005
212	0x3b767e45	0.0037611884
213	0xba5ba38e	-0.00083785586
214	0xba3b7167	-0.0007150382
215	0x3a872c3b	0.0010312864
216	0xb976c900	-0.00023535267
217	0xb90c865a	-0.0001340149
218	0xb8e4bf3c	-0.000109075074
219	0xbb413b43	-0.0029484786
220	0x3c2cd46f	0.010548695
221	0xb96dd966	-0.00022683069
222	0xb94ecf0b	-0.0001972282
223	0xbb7c604e	-0.003850955
224	0xbbbeb96f	-0.0058204453
225	0xbd1f501a	-0.03889475
226	0xbbef96ec	-0.0073116925
227	0xbae8c781	-0.0017759652
228	0xbca77058	-0.020439312
229	0xbcfeb2f3	-0.031091189
230	0x3c0c32cd	0.008557034
231	0x3c092213	0.00836994
232	0xbcf06887	-0.029346718
233	0xbd73ef77	-0.059554543
234	0x3bc39fb2	0.005969965
235	0x398d13d2	0.00026908383
236	0x3d88061a	0.06641789
237	0x3c225abb	0.009909327
238	0x3ca9663d	0.020678634
239	0xba88f29b	-0.0010448279
240	0x3cf54f09	0.029944913
241	0x3b2145ba	0.002460821
242	0x3cbb66c4	0.02287615
243	0xbcb4d1c3	-0.022072678
244	0xbc901f25	-0.017592976
245	0x3d510b7c	0.051036343
246	0xbb984e39	-0.0046479967
247	0x3cd42da6	0.025900673
248	0x3b069f27	0.002054164
249	0x395770dd	0.00020546043
250	0x3b9c7557	0.00477473
251	0xbc25c8e3	-0.010118696
252	0xbcb287ab	-0.021793207
253	0x3d5aa6a2	0.05338157
254	0x3afd40d7	0.0019321692
255	0x3c089cae	0.008338137
