lightning_logs/version_233/checkpoints/epoch=6-step=105.ckpt (torch, 66595 bytes, 46 tensors)

model.encoder.conv1.lin_l.weight f4 [32, 3]
000000 9e cb e8 be 8a 18 c7 3e 9f cd ea be fe 29 0e bf
       -0.45467848 0.3888591 -0.4586 -0.55532825
000010 e6 80 ec be ed 8e 57 bd e1 20 1a be 34 88 fd be
       -0.46192092 -0.05262654 -0.15051605 -0.49517977
000020 dc 01 79 3d 64 da ce be b4 98 08 3f be fd f4 be
       0.06079279 -0.40400994 0.53358006 -0.4784984
000030 d8 cb 6a 3d 94 51 f6 3d 8f 55 f2 3d 3c c5 41 bc
       0.057323307 0.120272785 0.11832725 -0.0118268095
000040 48 d6 01 bf 8c d4 c7 3e e6 32 44 be d9 01 a7 be
       -0.5071759 0.39029348 -0.19160041 -0.32618597
000050 96 eb ce 3e 7c 6a d5 be b4 c9 da be da 7f 94 3e
       0.40414113 -0.41682804 -0.42732012 0.29003793
000060 32 c0 41 3e 6b b5 62 be 7d 9b a0 be 13 53 90 3e
       0.18920973 -0.22139518 -0.31368628 0.2818838
000070 14 5f 11 bf 29 88 07 bd 5d 4c 52 be b2 9a 4e be
       -0.567857 -0.033088837 -0.20536943 -0.20176199
000080 ec 72 43 be 95 12 06 bf e2 8d 8c 3b 6e ea 57 be
       -0.19086808 -0.52372104 0.0042893747 -0.21085522
000090 89 f1 2d 3e ac 59 f8 bc c6 f5 0a 3f d0 9b 33 be
       0.1698667 -0.030316196 0.5428127 -0.17539907
0000a0 4b f0 91 bc de 20 fb 3c b2 00 ee be 0b 7f 97 be
       -0.017814776 0.03065532 -0.46484905 -0.29589114
0000b0 80 ad a1 3c 58 74 77 be 2b be 1f bd 5e ba 39 3e
       0.019736052 -0.24165475 -0.038999718 0.181375
0000c0 9e 7b f2 be 62 5d 9b 3e ed bb 4d be bc 4f fb be
       -0.47359937 0.30344683 -0.20091219 -0.4908427
0000d0 0f 61 2d 3e 33 e6 12 bd fe b0 0c 3f 0b ec 96 3e
       0.16931556 -0.035864066 0.5495757 0.29476961
0000e0 d2 3d 66 be 37 bf 59 bc 34 ca 87 3e e7 b1 bb 3e
       -0.2248452 -0.013290218 0.26521456 0.36659166
0000f0 57 16 ee be 1d 1f 8e be ae 14 0c 3d 73 e2 84 3e
       -0.4650142 -0.27758113 0.03419941 0.25954017
000100 9d a4 4b be 58 07 ab 3e cd 50 ea 3e e4 cf b2 bd
       -0.19887014 0.3340404 0.4576477 -0.08731058
000110 8b be 5e 3d 49 ed d1 3e 7b 9d d8 3d 92 8d 94 3d
       0.054380935 0.41001347 0.10576912 0.07253565
000120 08 ba 8d 3b c4 02 86 3e 1b 92 cc 3e 46 ca 02 be
       0.004325155 0.26173985 0.3995522 -0.12772474
000130 4f d6 f3 3e ae c8 38 bd 69 c4 f7 3a fd 74 2c 3e
       0.47624442 -0.045113258 0.0018903139 0.16841502
000140 53 0e 66 3e 42 4d 3d 3e 82 2c 18 3e 8f 55 ac 3e
       0.22466402 0.18486503 0.14860728 0.33659026
000150 ad b5 5e bc 18 09 13 3f 69 89 e4 be 08 4e 1d be
       -0.01359312 0.5743575 -0.44636086 -0.15361798
000160 61 3c 08 3f c3 fb ab 3e 59 76 18 3d 13 21 02 bf
       0.5321713 0.33590516 0.03722224 -0.5083172
000170 8c 21 55 be 47 06 00 3f c5 9d 38 3d 2c a9 6e 3e
       -0.20813578 0.5000958 0.045072336 0.23306721

model.encoder.conv1.lin_l.bias f4 [32]
000000 47 9c 13 bf 21 c5 e0 3e ca df 8f be 58 39 0b be
       -0.57660335 0.43900397 -0.28100425 -0.13596094
000010 c3 72 9a 3e 80 53 05 bf 12 ca 63 be d8 ef bb 3d
       0.3016568 -0.52080536 -0.22245052 0.09176606
000020 d6 dc c1 3e a9 48 08 3f ac e1 d6 3e 6a 64 c1 bd
       0.37863797 0.5323587 0.4196905 -0.094429806
000030 b2 dc 0f 3f e8 8a 92 be 4b 3c 11 bf e1 4b d6 3e
       0.5619613 -0.28621602 -0.56732625 0.41854766
000040 89 83 93 3d d4 2c 17 3e af 03 f7 3e 53 62 1c be
       0.07202823 0.14763194 0.48244998 -0.15271883
000050 79 5d 6e 3c 06 4a 32 be 56 9c 42 be be 25 db bd
       0.014548653 -0.1741105 -0.1900495 -0.10700558
000060 84 45 c5 3e bc 72 0f 3f a6 be cd 3d bb 76 ff bd
       0.385296 0.56034446 0.10046129 -0.12473818
000070 8a 41 01 bf 89 d8 66 3e aa 13 df be 3a bf 49 3e
       -0.5049063 0.22543539 -0.4356969 0.19701853

model.encoder.conv1.lin_r.weight f4 [32, 3]
000000 2e 91 0f bf 06 b9 71 3e 04 96 ea be 86 95 8c be
       -0.560809 0.23605737 -0.45817578 -0.27457827
000010 8e c9 da bd f6 d5 bc 3c 5e 95 0e be 28 06 6a be
       -0.10682975 0.023051243 -0.13924167 -0.22853911
000020 f4 7a ea 3e 26 d9 87 3e b7 00 00 3e 8f 8d 91 be
       0.4579693 0.2653286 0.12500273 -0.28428313
000030 11 76 e3 3e fb 34 52 3e b3 9a e7 bd 8e a3 e2 3e
       0.44426015 0.20528023 -0.113088034 0.44265407
000040 4f 10 90 3e e0 35 0e bd c4 4f 8a bd 9d 9a 01 3d
       0.28137442 -0.034719348 -0.06753495 0.03164159
000050 33 56 dc 3b bb b5 1a 3d ed 89 a0 be 0f bd ba 3e
       0.006724143 0.037770968 -0.3135523 0.36472365
000060 76 b9 71 bb 4a 5d bc be 37 3f 8d be 7a 29 0a 3f
       -0.0036884225 -0.36789924 -0.27587292 0.5396954
000070 6b 15 a4 be 3b 57 1f 3e c4 2a 4e 3d 2f 4a 97 be
       -0.3204759 0.1556062 0.050333753 -0.29548785
000080 8a 85 db 3e 28 c8 dc 3e 32 31 33 3e 40 93 15 3d
       0.4287532 0.43121457 0.17499235 0.03651738
000090 2c c2 18 be 5c b2 56 be 31 d8 71 3e 98 09 3c 3e
       -0.1491782 -0.20966476 0.23617627 0.18363035
0000a0 52 86 8c 3e 9c 32 2b 3e 22 f4 07 be 00 30 66 ba
       0.27446228 0.16718525 -0.13276723 -0.0008780956
0000b0 9c 28 49 be 09 03 71 3e 87 1b 41 be 5f 54 17 3c
       -0.19644397 0.23536314 -0.18858157 0.009236424
0000c0 24 56 34 be 0b 40 a3 3e c2 56 99 3d 26 80 ba 3e
       -0.17610985 0.31884798 0.07487251 0.36425894
0000d0 05 b0 e3 be bb 55 0b bf f9 37 0a bf 19 41 ac be
       -0.4447023 -0.5442769 -0.5399166 -0.33643416
0000e0 58 ad a4 bc e8 44 02 3f de 46 fa 3d f5 25 1b 3d
       -0.020102188 0.5088639 0.12220548 0.037877996
0000f0 4e 16 1f be 91 db 0c bf 92 b9 13 3f d7 85 c2 be
       -0.15535852 -0.5502253 0.5770503 -0.37992737
000100 1c 65 e4 3e bc 9e 11 3f 79 23 87 3e 27 22 dc 3e
       0.4460839 0.56882834 0.2639425 0.42994806
000110 06 92 9e 3e 96 a0 2b 3e 74 ab 5c be 1e 9e 19 be
       0.30970782 0.16760477 -0.21549779 -0.15001723
000120 2c 52 8c be 16 cd 8b 3e 10 6b fd be 96 9c 90 3e
       -0.27406442 0.27304906 -0.49495745 0.28244466
000130 c7 8d 41 bd 4b 4c c7 be 04 ad db 3e 79 3c 9d 3d
       -0.04725435 -0.38925394 0.42905438 0.0767755
000140 4a 72 94 be f3 6c 4f 3e 85 6b 65 3e fe 6e f4 3e
       -0.28993446 0.20256405 0.22404297 0.4774093
000150 52 8f b0 be 18 55 dc 3e 50 c3 ca 3e 11 bf b5 3e
       -0.34484345 0.4303367 0.39602137 0.35497335
000160 11 00 86 be 5e 87 f9 3e 93 a0 bc be 68 5d dc 3e
       -0.26171926 0.4873609 -0.36841258 0.43040013
000170 18 ff 5b 3e 71 42 0e 3f 78 f3 ac 3e 5b 68 3b be
       0.2148403 0.5557013 0.33779502 -0.18301527

model.encoder.conv2.lin_l.weight f4 [32, 32]
000000 7f e4 0a be 2e ff 66 bd 0f 78 9e 3c d6 61 9d 3c
       -0.13563727 -0.056395702 0.019344358 0.01921169
000010 e5 25 86 bd f1 de 0d 3d e7 31 5f bd 3d 26 d6 bd
       -0.065501966 0.03463644 -0.05449095 -0.10456512
000020 e5 98 43 3d a5 96 9b bd 73 3b 08 3e f3 74 11 be
       0.047753233 -0.075970925 0.13303928 -0.14204769
000030 ec f6 29 3e e1 13 2c be e1 84 21 3d 24 75 55 3d
       0.165981 -0.16804458 0.039433364 0.052113667
000040 c3 4a ba 3b f0 56 29 3d de e2 82 3d 7a 18 42 3d
       0.005685182 0.041342676 0.06390928 0.047386624
000050 9d 80 73 3d 5c 03 33 be 11 e5 18 3e 1d 39 9a 3d
       0.059448827 -0.1748175 0.14931132 0.07530425
000060 e9 e5 f5 bd 1d 98 2e 3e 90 dc 75 3c 85 ea 0d be
       -0.120067425 0.17050214 0.0150061995 -0.13858993
000070 fc 1b 17 be 6a 2a 24 3e 49 94 eb bd ab 2d 34 3e
       -0.14756769 0.16031805 -0.115028925 0.17595546
000080 03 0c 03 3e 3f e7 0a bd d7 42 05 be 64 fe 02 3e
       0.12797551 -0.03391194 -0.13013779 0.12792355
000090 1d 01 f7 bd 15 f2 26 bc 40 57 2d 3e 16 6e f7 bd
       -0.12060759 -0.010189553 0.16927814 -0.12081544
0000a0 6a 8e 48 bc 56 ee 24 be 23 fe dd 3d 73 96 7b bd
       -0.012240985 -0.16106543 0.10839488 -0.061422776
0000b0 f9 01 33 be f4 24 15 3e 1d e4 2a be 9f 5e 36 bd
       -0.17481221 0.14564878 -0.16688581 -0.04452383
0000c0 af 20 ea 3c 2f 6c b0 3d a6 b3 c9 3c 23 0c 98 bc
       0.028580038 0.086143844 0.024621796 -0.018560475
0000d0 0b c1 e9 bb 92 ce 47 bd f9 a1 11 bc 94 41 3b bd
       -0.007133608 -0.048780985 -0.008888715 -0.045716837
0000e0 67 7d de 3c 3e cb fb 3d d7 5c c1 bd 1f d1 3a bd
       0.027159406 0.12294625 -0.09441536 -0.04560959
0000f0 8e 0e eb 3d 03 6e d0 bd c4 fc 9d 3d 6e 93 70 bc
       0.114773855 -0.10177233 0.07714227 -0.0146835875
000100 c2 5e 1c 3d 15 78 8f 3c 71 f2 0c be 5f f0 28 3e
       0.038176306 0.017513314 -0.13764359 0.16497944
000110 0c 58 aa 3d 8d b9 25 be 22 01 57 3c 3b e7 2d be
       0.08317575 -0.16184063 0.013122829 -0.16982739
000120 fc 38 eb 3d 7f 9c 0a 3e 52 92 94 bd c9 18 68 3d
       0.11485478 0.13536261 -0.07254471 0.056664262
000130 ba 9a dc bd 9c 54 25 bc 65 7c b9 3d 40 f2 02 be
       -0.10771699 -0.010090973 0.090569295 -0.12787724
000140 f1 b0 b0 3c 57 bf 47 bd 8e 1f 40 3c a0 92 2c be
       0.021568747 -0.04876646 0.011726273 -0.16852808
000150 70 76 0e be 70 47 14 3d 5f c0 91 3d b0 bd 24 bc
       -0.13912368 0.03620094 0.0711677 -0.010054991
000160 74 77 a5 3d 89 d7 c1 bd 49 f4 34 be d5 8c c4 3d
       0.080794245 -0.09464938 -0.17671312 0.09597174
000170 27 20 3c 3d f1 8c 56 3d 9c c8 ab 3d d8 f3 e3 3d
       0.0459291 0.052380506 0.083878726 0.11130494
000180 df d1 f7 bb e5 b7 d9 3d bf bb 31 be 34 70 b0 bd
       -0.0075628604 0.10630778 -0.17356776 -0.08615151
000190 4a d0 30 3d ef 6e ad 3d e4 be 2e bd 30 91 23 3e
       0.04316739 0.084684245 -0.042662516 0.15973353
0001a0 47 84 1c 3e 4c 67 fc 3b d0 22 8d 3c 6d 04 69 3d
       0.15284835 0.0077027436 0.017228514 0.056888986
0001b0 0b 19 b8 3d df 31 46 bd ab 4a a7 bd 83 13 d1 3d
       0.089891516 -0.048387405 -0.08168539 0.102088
0001c0 46 4d ac bd 86 d4 10 bc 39 05 09 be 16 54 08 be
       -0.08413176 -0.008839732 -0.13380899 -0.13313326
0001d0 8e 0d 16 be 80 ec 70 3d b8 d1 e2 3c 7d ec 0b 3e
       -0.14653608 0.058819294 0.027687892 0.13664432
0001e0 18 22 c0 bd ab 35 55 bc e4 8e 1e be 2a b4 26 be
       -0.09381503 -0.013013284 -0.15484196 -0.16279665
0001f0 45 26 dd 3c 9c 60 a7 3d 21 6b 14 3d b8 d1 f6 3d
       0.026995787 0.08172724 0.03623498 0.120517194
000200 06 31 d1 3c d4 b3 7d bd fd e9 16 bd bf 32 83 bc
       0.025536072 -0.061939076 -0.036844242 -0.016015409
000210 e0 06 8d bd 02 dd 03 3d 35 b8 07 3e 69 ee bb 3d
       -0.06886077 0.03219319 0.13253863 0.091763325
000220 8e d7 20 be 87 a7 de 3c 1c cd 01 3e b6 41 9e 3c
       -0.15707228 0.027179493 0.126759 0.019318443
000230 6e 16 f8 bd 90 41 46 bd bd d1 82 bd e0 f9 88 b7
       -0.12113653 -0.04840237 -0.06387661 -1.632882e-05
000240 15 94 d9 bc fe d0 06 3d 14 39 a5 3c ff b1 a2 3d
       -0.026559869 0.032914154 0.020168819 0.07944106
000250 cf d4 ae 3d c0 6f f8 bd 85 4b 05 be a2 eb 0a be
       0.08536684 -0.121306896 -0.1301709 -0.1356645
000260 09 93 01 be ea 0d 32 3e 75 b4 f1 bd 03 09 77 bd
       -0.12653746 0.1738812 -0.118019976 -0.06031133
000270 2e cb 3d 3c 42 41 2b 3e 52 d4 87 bd 50 b7 2c 3e
       0.011584086 0.16724113 -0.06632294 0.16866803
000280 dc 05 d1 bd e9 1e f8 3d 4e b8 af bc fe ff 2d bc
       -0.10206196 0.12115271 -0.021450188 -0.010620115
000290 d1 b8 01 be c5 c6 d6 3d bc 62 d3 3c 9d ed 19 3e
       -0.12668158 0.10487131 0.025803916 0.15032049
0002a0 f3 db b6 3c 1c dc c3 3d 5e f2 d3 bd 42 4d d2 bd
       0.022321677 0.09563467 -0.10348962 -0.10268642
0002b0 be 18 b8 bd dc 54 0e 3e 34 59 d5 bc df 74 a5 bd
       -0.08989094 0.13899559 -0.026043512 -0.08078932
0002c0 a9 be 93 bd c5 8e c5 3d 43 8a 18 be 2c e3 e8 3c
       -0.072141 0.09646372 -0.14896493 0.028428636
0002d0 b5 d6 de bd ce 46 1f 3d 7c 5f 0d 3d 1c ab c6 3d
       -0.10880796 0.038885884 0.03451489 0.09700605
0002e0 df ca d8 3d de c8 b7 3d a5 dc 9e 3d f3 5e e9 bd
       0.105855696 0.08973859 0.07756928 -0.11395063
0002f0 1e d9 ab 3d 52 6a 8b bd c2 86 33 be 04 03 ea 3d
       0.08391021 -0.06807388 -0.17531875 0.114263564
000300 43 ff 14 be 00 59 00 3e 72 9a be bc 97 31 f1 bd
       -0.145505 0.12533951 -0.023267005 -0.11777037
000310 55 9e 17 be b6 4c 27 3e 4f a4 57 bd 70 2c 9a bd
       -0.14806493 0.16337857 -0.05264693 -0.07528007
000320 0d 0a f2 bb cd 83 1a 3c 4c 03 df bd 67 5e a2 3d
       -0.007386452 0.009430838 -0.10889301 0.07928162
000330 77 21 d6 3d 98 da 2a 3e 4d a6 cc 3d fb e3 17 3e
       0.10455602 0.1668495 0.09992657 0.14833061
000340 6c 7b 52 bd 85 3c fa bd 46 19 92 3d 0a 53 05 bc
       -0.051387236 -0.122185744 0.07133727 -0.008137474
000350 34 a3 09 bc c3 42 10 be 2e 79 90 bd c4 b6 53 bd
       -0.008400727 -0.14087968 -0.07054363 -0.05168797
000360 80 2b 8d bc 5d a1 00 be 67 fe 8e 3d 86 b3 bd 3d
       -0.017232656 -0.12561555 0.06982117 0.09262757
000370 eb 55 2b 3e ff 4d 62 3d 1f 68 05 3e 52 03 12 be
       0.16731994 0.055250164 0.13028 -0.14259079
000380 c1 3b f9 3d cf cd ff 3d fa 57 01 be 75 81 1c 3e
       0.121696 0.12490427 -0.12631217 0.15283759
000390 6a 7b df 3d 73 bb 9d bc 37 28 08 bc b6 b1 48 bc
       0.10912211 -0.019254422 -0.008310369 -0.012249401
0003a0 5d 1c e1 3d c4 24 89 bc b3 f1 20 3e 19 cf 50 bd
       0.10991738 -0.016741164 0.15717201 -0.050978754
0003b0 07 f1 67 bc a0 6b d8 3c b7 ec d4 bc 34 73 c3 bd
       -0.0141565865 0.026418507 -0.02599178 -0.095434576
0003c0 49 b4 fb bd 4f ac e5 3d f2 9e b0 3d 15 47 e4 3d
       -0.12290246 0.11214506 0.086240664 0.1114637
0003d0 f0 b2 d0 3c ea 20 98 bd f6 69 23 be e2 81 c5 3d
       0.025475949 -0.07428153 -0.1595839 0.09643914
0003e0 bc 30 1c 3e 05 c6 de 3d 6f 9a 2f be 61 3c 02 3e
       0.15252966 0.10877613 -0.17148755 0.12718345
0003f0 e9 82 1e be 94 4a 56 bd 53 cb df bc b5 b7 ec bd
       -0.15479626 -0.052317217 -0.027318632 -0.11558477

model.encoder.conv2.lin_l.bias f4 [32]
000000 1c e6 d2 3d d4 c0 9b bd e0 05 aa bd 9f e8 d6 bd
       0.10297796 -0.076051384 -0.08301902 -0.10493588
000010 26 5f 50 bd b5 bc 84 bc ad 7f 58 3d d2 63 5f 3c
       -0.05087199 -0.016203264 0.052856136 0.013634639
000020 82 88 b8 bd 03 73 0a be 02 23 f2 bd bf ea 0a 3e
       -0.09010412 -0.13520436 -0.118230835 0.13566111
000030 ea 7a 37 3e 47 b4 f6 3d 0d 0f 21 3e e5 34 5a 3d
       0.17917982 0.12046104 0.15728398 0.0532731
000040 6f c4 25 be 91 a7 2b be 82 35 d6 3d 9f ca 2d bc
       -0.16188215 -0.1676314 0.104594246 -0.010607391
000050 d5 09 2c 3e 25 84 1e 3e e3 b7 5b 3d 0a 24 a6 3d
       0.16800626 0.15480097 0.053642165 0.08112343
000060 dd d8 d9 3c 56 3c c3 bc 65 b9 f2 bc a4 9d 91 3c
       0.026592666 -0.023832481 -0.029629419 0.017775364
000070 72 f1 20 be 4b f9 bf 3c 86 c8 15 be 42 a1 e0 3d
       -0.15717104 0.023434302 -0.14627275 0.109682575

model.encoder.conv2.lin_r.weight f4 [32, 32]
000000 f7 3f 17 3e a7 de 1e 3e 52 24 82 3a c0 e9 f6 3d
       0.14770494 0.15514623 0.0009929037 0.12056303
000010 ad 26 62 3d 0a 37 b0 bd 35 82 a7 bd b9 3f f0 3d
       0.055212665 -0.08604248 -0.08179132 0.11730904
000020 99 26 19 be b9 e9 7e 3d f8 ba ef bd 90 02 f6 3d
       -0.1495613 0.062234614 -0.11705583 0.120122075
000030 cb 08 13 be c5 3b 48 b9 03 7b 8d bd 90 f5 2a be
       -0.14358823 -0.00019095752 -0.06908228 -0.16695237
000040 3b b9 1b be dd 96 11 be 27 dd 28 be ce 7f 41 3d
       -0.15207379 -0.14217706 -0.16490613 0.047241025
000050 96 1d 18 be 85 f3 26 be ff 3a 05 be 26 70 9d bb
       -0.14855036 -0.16303833 -0.13010786 -0.004804629
000060 70 fb 15 be 13 f7 7d 3d ea 4e bb bd 75 db 92 bc
       -0.14646697 0.062003206 -0.09145911 -0.01792691
000070 27 eb 11 3e c0 c3 ad 3d 14 ee e6 bd bb b4 0f be
       0.1424986 0.08484602 -0.112758785 -0.14033787
000080 9c 07 eb bc 9e a4 32 bd 41 df 30 be 00 fa fa 3d
       -0.028690152 -0.043614022 -0.17272665 0.12254715
000090 4b 6e 91 3d cb 46 15 be a1 81 48 bd 03 d2 f7 bd
       0.07101115 -0.14577787 -0.04895175 -0.121006034
0000a0 1c e3 8b bb eb 88 fb bc 58 e6 09 be 60 90 31 be
       -0.004269017 -0.030704936 -0.13466775 -0.17340231
0000b0 42 2d 90 bd b3 0b 01 be e1 c8 0b 3d 37 6e 96 bd
       -0.07039882 -0.12602119 0.03412712 -0.073452406
0000c0 c7 54 34 3e b9 3e e8 3d da 13 c7 bd d1 b1 f2 bd
       0.17610465 0.113400884 -0.09720583 -0.11850322
0000d0 26 e7 27 3e 60 ee 5b bc 8d 86 41 bd 71 e9 d0 3c
       0.1639677 -0.013423532 -0.04724746 0.025501939
0000e0 fa 24 a3 3d 71 3f c3 3d 21 85 21 be ca 4e e8 3d
       0.07966037 0.09533585 -0.15773441 0.11343153
0000f0 1a 81 97 bd 0b 46 8f bd 5b 25 d6 bc 99 86 5d bd
       -0.07397671 -0.069957815 -0.02614086 -0.05408344
000100 76 10 cd 3d d8 9e 0a 3e 8b 95 89 bd 83 e6 8f bd
       0.10012905 0.13537157 -0.06717976 -0.070263885
000110 cf 65 87 3d 79 7a ef bd 53 86 b6 bd 23 59 db 3d
       0.06611215 -0.11693282 -0.08912339 0.10710361
000120 7f 02 a3 bd e1 3a 24 3e c7 d9 d4 bd 12 da 6f bd
       -0.079594605 0.16038086 -0.103931 -0.058557577
000130 61 e1 ac 3d a5 40 9f bd 79 fc fb bd 38 40 3e ba
       0.08441425 -0.07776002 -0.12304015 -0.0007257494
000140 ab 44 09 3e 83 64 c8 bd b9 7a f7 bd b7 d3 ac 3c
       0.13405101 -0.09784796 -0.12083954 0.021097047
000150 b2 f4 02 bd b0 32 25 3e f8 0e 96 3d 6f 84 47 3d
       -0.03197164 0.16132617 0.07327074 0.048710283
000160 1a 70 1c 3e 22 1e f7 3d ec 6e 11 3e fe 79 9f 3d
       0.15277138 0.12066294 0.1420247 0.0778694
000170 44 94 ca bd 8b 16 0d 3d 75 d1 1e be 74 ce b3 bd
       -0.09891561 0.034445327 -0.15509589 -0.08779612
000180 d9 18 8d bd 10 0c c1 3d c4 90 32 3b 88 57 fb bd
       -0.06889505 0.09426129 0.0027246932 -0.12272555
000190 86 67 0b be a6 c7 04 3e 2e 85 a7 bc 22 47 1a 3e
       -0.1361371 0.12966785 -0.020449247 0.15066198
0001a0 07 59 f1 bd 54 ef 1d 3d 28 85 d9 3d 7f 8a cd 3d
       -0.11784559 0.03855832 0.10621101 0.10036182
0001b0 1e 3c 1d bd b9 70 c9 bd f7 ba 79 3d ad b3 79 3d
       -0.03838741 -0.09835953 0.06096932 0.060962368
0001c0 60 9b 54 bc 17 20 c9 3d f6 bf 95 bd b9 c3 8d 3d
       -0.012976497 0.09820574 -0.07312004 0.06922097
0001d0 28 63 12 be 07 18 09 3e b9 87 2d 3e e6 d1 ae bc
       -0.14295638 0.13388072 0.16946305 -0.021340322
0001e0 f6 ed c1 3d 8c b1 06 3e 78 dc 2d bd 34 d8 f2 bd
       0.094692156 0.13153666 -0.042446584 -0.11857644
0001f0 7a e8 8d 3d 16 e0 2c bb 84 09 1d 3e 39 46 da ba
       0.06929107 -0.0026378683 0.15335661 -0.0016653008
000200 a3 af e1 3d 41 0f c4 bd 32 a1 ab bd 8d ce 04 bd
       0.11019828 -0.09573222 -0.08380355 -0.032423545
000210 3d dd 12 be d5 f5 cf bb 47 ba 60 bd 3f c3 40 3d
       -0.14342208 -0.006346444 -0.054865148 0.0470612
000220 70 32 9a 3d a8 19 c0 bc 33 d2 0c 3e fd 7b f3 bd
       0.075291514 -0.023449734 0.1375206 -0.11888883
000230 30 19 2d be 2b 75 ef 3b 6c 65 03 3e 7c 5b f2 3c
       -0.1690414 0.0073076687 0.12831658 0.029584639
000240 47 37 23 be ae f6 ce 3d 94 93 f1 bd 81 e4 6b bd
       -0.15939055 0.10105644 -0.117957264 -0.057590965
000250 82 1a 6a 3d bf 2a 54 bc 8b 53 31 bd 51 4f 9d bd
       0.057154186 -0.012949645 -0.043292563 -0.07681144
000260 54 34 8c bd 92 7a 2c bd 59 c1 16 3d ce 35 13 be
       -0.06845918 -0.04210908 0.036805484 -0.14375994
000270 81 0b 85 3c c2 74 b0 bb c2 7e c2 bd bc 06 67 bc
       0.016240837 -0.0053850124 -0.094968334 -0.014100727
000280 b6 5a 1d be 0a ff 1e 3e 81 1a 2e 3e 80 53 ef 3d
       -0.15366635 0.15526977 0.17002298 0.11685848
000290 cd 7b 87 bb de cb 1c be 31 2d 28 be f9 2e 8c 3d
       -0.0041346313 -0.15312144 -0.16423489 0.06844897
0002a0 cf 7b 0a 3d 16 90 ac 3c 93 31 2f bd c2 bb 28 be
       0.03380948 0.0210648 -0.042771887 -0.16477874
0002b0 7b 2a 14 be 18 19 19 3e 87 73 77 3b a2 e7 1e 3e
       -0.1446933 0.14950979 0.0037758069 0.15518048
0002c0 c0 aa e8 3d b3 13 92 3c 54 73 ee bd c3 04 36 be
       0.11360693 0.017831659 -0.11643091 -0.17775254
0002d0 44 21 f0 bd fb 9b 14 3e 88 87 f5 3b dc 38 56 bd
       -0.11725095 0.14512627 0.007492963 -0.05230032
0002e0 cc aa 0f be 04 e7 04 3e 97 6d 09 be 44 63 fb bd
       -0.14029998 0.1297875 -0.13420711 -0.12274793
0002f0 b0 06 07 3e c5 2a af bc fa 32 14 3e e0 ed 26 3c
       0.13186145 -0.021382699 0.14472571 0.01018855
000300 8e b0 85 3d dc 9d 69 bd 86 2d e6 3c a6 5a f4 bd
       0.06527816 -0.057035312 0.02809788 -0.11931352
000310 84 61 13 3e 8b 0d 80 bd a8 e1 3c 3d 3e 70 ce 3c
       0.14392668 -0.06252583 0.04611364 0.025200006
000320 39 fd 0b be 2b 44 b4 bd 10 54 0f 3e ab b5 19 3e
       -0.13670816 -0.088020645 0.13996911 0.15010707
000330 0c e7 12 3e 26 43 78 3d 6f ba eb bc 05 b6 ca 3d
       0.1434595 0.060610913 -0.028775422 0.09897999
000340 3d e4 1e bd 7f 53 1a be 8a ff 24 bd 4f e7 55 3d
       -0.038791884 -0.15070914 -0.040282764 0.052222546
000350 9f 4d 1a 3e fd 57 01 3d df cd 1a be 25 52 90 3d
       0.15068673 0.031578053 -0.15117596 0.07046918
000360 1d a6 fa 3b 7d 6c bd 3c c9 36 0d 3d fa 26 27 be
       0.007649197 0.02312302 0.034476075 -0.16323462
000370 dd 40 1f 3e 58 8d f5 3d 75 68 59 3d 8a df d7 bd
       0.15552087 0.1198985 0.053078134 -0.105406836
000380 d0 cb 19 3d 00 4f 00 be a7 7a 10 3e 4b 6c 0e 3d
       0.037547886 -0.12530136 0.14109288 0.034771245
000390 30 4b ca 3d fb 88 e7 3d a7 f7 52 3c 95 f9 92 bd
       0.09877622 0.11305424 0.012876428 -0.0717651
0003a0 3e bb 16 be 0f e7 aa bd 35 4f bd bc b5 8c 22 be
       -0.14719865 -0.08344852 -0.023109058 -0.15873988
0003b0 df 4a 1a be 78 0a 2d be 10 1e 33 3e 9f 33 1c 3e
       -0.15067624 -0.16898525 0.17491937 0.15254067
0003c0 44 16 60 3d 48 b6 c0 3d 25 3c 07 3d ab e3 12 be
       0.054708734 0.094097674 0.033016343 -0.14344661
0003d0 9f 55 ff bb 91 47 12 3e 26 e9 28 bd 2a 6f fd 3d
       -0.0077921893 0.14285113 -0.041237973 0.123747185
0003e0 1b 7c 0a be c5 34 bb bd f9 26 fb bd 7d cb c3 3d
       -0.13523905 -0.09140924 -0.12263293 0.09560297
0003f0 f5 46 71 bd 5e 91 c7 bd 84 41 18 3e cf ad 66 3c
       -0.05890556 -0.097445235 0.14868742 0.014079525

model.encoder.bn1.weight f4 [32]
000000 89 d9 7f 3f 50 c5 7f 3f ec 71 7f 3f 57 aa 80 3f
       0.9994131 0.9991045 0.99783206 1.0051984
000010 bb d8 7e 3f b6 a4 7e 3f 0a 27 80 3f 04 ea 7e 3f
       0.99549454 0.9947008 1.0011914 0.9957583
000020 5e 7e 7f 3f 68 01 80 3f 5e b3 80 3f de 04 80 3f
       0.99802196 1.0000429 1.0054739 1.0001485
000030 4f c4 7f 3f ac 98 7f 3f 00 00 80 3f 7e 02 80 3f
       0.9990892 0.99842334 1.0 1.000076
000040 36 7e 80 3f 7d 53 80 3f ea 3b 7f 3f 06 52 7f 3f
       1.0038517 1.0025479 0.99700797 0.9973453
000050 78 70 80 3f 04 6c 80 3f b4 f1 7e 3f 95 e4 7e 3f
       1.0034323 1.0032964 0.9958756 0.9956754
000060 a1 00 80 3f 40 86 7f 3f b7 8b 7f 3f 4c 2d 80 3f
       1.0000192 0.99814224 0.9982256 1.0013824
000070 d9 94 7e 3f d2 50 80 3f be 77 7f 3f e6 fc 80 3f
       0.99445873 1.0024664 0.9979209 1.0077178

model.encoder.bn1.bias f4 [32]
000000 d4 e6 77 3a 79 d3 84 3a b8 23 c0 bb 87 7e 19 bb
       0.00094566983 0.0010133825 -0.005863633 -0.0023421363
000010 8d d9 52 3a dc 27 2b 3b 94 9d 02 3b 45 26 de 3a
       0.0008043282 0.0026116287 0.001993035 0.0016948661
000020 7a 25 cf 39 c1 61 70 ba 8f 2b 09 bb 09 f7 b4 bb
       0.0003951004 -0.000916984 -0.0020930504 -0.005522613
000030 98 db 2c bb 6f 5a af 3a 86 0c 61 3b 4f 98 6c ba
       -0.0026376005 0.0013378392 0.003433974 -0.00090253813
000040 0c 0a 46 bb f2 5e a9 3b e6 ca b1 39 ae 52 c2 ba
       -0.003021839 0.005168789 0.00033911242 -0.0014825666
000050 f0 e2 2a ba 7e 55 99 bb 7c 86 b9 b9 9a f2 92 b9
       -0.00065188017 -0.004679381 -0.00035386148 -0.00028028042
000060 e0 8d 1f bb 0a 94 9b 3b 33 90 a9 bb fe 1c e1 ba
       -0.0024346039 0.0047478722 -0.0051746606 -0.0017174778
000070 49 57 6a bb ed e8 57 3a df 8c 29 3b fc e4 eb 3a
       -0.0035757592 0.0008236308 0.002587132 0.001799732

model.encoder.bn1.running_mean f4 [32]
000000 10 59 db 3b 42 f1 db 3b 50 76 84 3a 12 a9 31 3e
       0.0066939667 0.00671211 0.0010106061 0.17349651
000010 3e d3 34 3f fc e6 83 3a ab 18 3a 3a 29 1b 19 3c
       0.7063483 0.0010063346 0.0007099013 0.009344854
000020 70 d5 65 3e 0b 60 16 3f 1c 77 18 3e c9 40 1e 3d
       0.22444701 0.587403 0.14889187 0.038636003
000030 e0 7f f3 3e a3 d6 0c 38 00 00 00 00 52 66 a0 3e
       0.47558498 3.3578497e-05 0.0 0.31328064
000040 19 28 62 3e ab 21 e8 3d f8 a9 ea 3e 20 5f 94 3e
       0.22085609 0.11334547 0.458328 0.28978825
000050 39 a4 17 3c 8d 7a f7 3d 19 16 ae 3e 53 b3 3f 3e
       0.009255462 0.120839216 0.34001234 0.1872075
000060 f5 4b 01 3f 1f 95 54 3f 42 b2 dc 3e 5b 4a 87 3e
       0.50506526 0.8304004 0.4310475 0.26423916
000070 ff 74 15 3e 24 0d f5 3e f4 53 5c 3a 80 6f 67 3f
       0.14595412 0.47861588 0.0008404844 0.9040451

model.encoder.bn1.running_var f4 [32]
000000 89 c5 99 39 a8 11 bb 3a 69 05 35 39 e6 60 23 3d
       0.0002932961 0.001427223 0.0001726352 0.03988733
000010 a2 60 81 3c 3d 8d 51 39 11 b6 0c 39 58 cb 64 3b
       0.015793148 0.00019984409 0.00013419265 0.0034911241
000020 dd 64 4f 3d a7 32 95 3e ba 36 c1 3c 58 0d b1 3b
       0.0506333 0.29140207 0.023585666 0.005403202
000030 29 21 89 3c 8c 8d 87 37 8f 91 83 37 13 41 0b 3d
       0.016739445 1.6159167e-05 1.5684198e-05 0.033997606
000040 9c 69 89 3d 10 31 f8 3c 41 3e 5d 3c 3c 79 d3 3c
       0.067095965 0.030296832 0.013503612 0.025814645
000050 86 b1 7c 3b b9 6b cc 3c 4e 19 c2 3c 0f a1 1a 3d
       0.003855796 0.02495371 0.023693707 0.037751254
000060 d7 17 df 3d 65 e1 1a 3d a4 b5 de 3c 29 e9 49 3b
       0.10893219 0.03781261 0.027186222 0.003080914
000070 19 21 0e 3d d6 96 8e 3d 2d c1 31 38 11 d0 7f 3d
       0.034699533 0.069623634 4.2379997e-05 0.062454287

model.encoder.bn2.weight f4 [32]
000000 52 f1 7e 3f c7 a5 7e 3f 3a 50 80 3f cb 0a 80 3f
       0.99586976 0.99471706 1.0024483 1.0003294
000010 a1 b5 7e 3f a5 95 7f 3f 2f 3b 80 3f 2d 76 80 3f
       0.99495894 0.99837714 1.0018061 1.0036064
000020 68 f8 7e 3f 4f d2 80 3f d5 9c 80 3f f0 d7 80 3f
       0.9959779 1.0064181 1.0047861 1.0065899
000030 33 ed 7e 3f 63 7e 80 3f d7 a2 80 3f bf eb 7f 3f
       0.9958069 1.003857 1.0049695 0.99969095
000040 08 5c 80 3f e5 ac 80 3f 8e 95 7f 3f 17 04 81 3f
       1.0028086 1.0052763 0.9983758 1.0079373
000050 ba e7 7e 3f 12 e2 7e 3f 3e a7 80 3f e2 e2 80 3f
       0.99572337 0.99563706 1.0051038 1.0069239
000060 76 43 80 3f 09 66 80 3f 09 7b 7f 3f 41 5f 7f 3f
       1.0020587 1.0031139 0.9979711 0.9975472
000070 e5 81 80 3f 1d 00 80 3f 6d 7b 7f 3f 97 53 80 3f
       1.0039641 1.0000035 0.9979771 1.002551

model.encoder.bn2.bias f4 [32]
000000 9a 18 38 bb 92 63 95 bb 14 8d 86 3a 82 57 49 3a
       -0.0028090836 -0.004558989 0.0010265433 0.0007680581
000010 99 b7 8b bb 59 9e ce ba d2 5f 8e ba 05 24 4d 3b
       -0.00426383 -0.0015763744 -0.0010862297 0.0031301987
000020 b0 04 83 3a a6 8b d0 3b c2 94 9d 3b e6 79 d7 3b
       0.0009995904 0.0063643036 0.004808993 0.0065758107
000030 e3 84 21 bb b5 5e 84 3b a7 eb b0 3b 78 6c 03 ba
       -0.0024645857 0.0040396103 0.0053991857 -0.00050134165
000040 a4 cc c8 3a 3a 4b 24 3b b3 f3 76 3a b1 0f b9 3b
       0.0015319777 0.0025069253 0.0009420469 0.0056476225
000050 68 1e 7a bb dc da ec ba 13 d6 af 3a b7 56 e2 3b
       -0.0038165096 -0.0018070596 0.001341524 0.00690731
000060 a7 33 63 3b 6f f5 d7 3a 1d d1 bc ba 9a 1b e3 b9
       0.0034668238 0.0016476343 -0.0014405582 -0.0004331738
000070 cd 6a 8b 3b ad 39 f3 ba a6 78 c4 ba 12 bd 95 3b
       0.004254675 -0.0018556617 -0.0014989569 0.004569658

model.encoder.bn2.running_mean f4 [32]
000000 f4 ff 7c 3e be 53 02 3f 44 80 e4 3d e7 a8 0f 3e
       0.24707013 0.5090903 0.11157277 0.14029275
000010 80 b1 d7 3d 86 68 30 3e 4c b7 8d 3e a0 fb 61 3e
       0.10531902 0.17227373 0.27678907 0.22068644
000020 9d 0b 86 3e ab a1 59 3d 03 94 1a 3e 97 8e 85 3e
       0.26180735 0.053132694 0.15095524 0.2608535
000030 ae 3e 92 3e 0f 0a 89 3e ab 10 af 3e 4a 97 59 3e
       0.28563446 0.26765487 0.34192404 0.21249118
000040 94 23 c6 3e f2 7f 95 3e 2b df 99 3e 66 4c 62 3e
       0.3869902 0.29199177 0.30053076 0.22099456
000050 6d 67 a3 3e 2a 59 6f 3e d2 45 66 3e 0b 44 3f 3e
       0.31914845 0.23373857 0.22487572 0.186783
000060 a8 51 57 3e b0 ae a7 3e e4 42 88 3e 19 52 a0 3e
       0.21027243 0.32750463 0.26613533 0.31312636
000070 66 81 86 3e 38 ec 03 3e 72 83 45 3e d3 3d 8b 3e
       0.26270598 0.12883079 0.19288424 0.27195606

model.encoder.bn2.running_var f4 [32]
000000 dd d4 85 3d 8c ea fe 3e 98 ae 40 3d 28 34 aa 3d
       0.06534741 0.4978832 0.047041506 0.08310729
000010 bf af e6 3c d2 21 8f 3d 7e 6a 89 3e 52 67 1f 3e
       0.028159974 0.069888726 0.2683906 0.15566757
000020 e9 99 78 3e a5 de b2 3c da 23 06 3e 5d 04 1e 3e
       0.24277462 0.02183468 0.13099614 0.15431352
000030 e0 4a 16 3e 04 60 d1 3d ba 25 10 3e 64 c8 6f 3d
       0.14677 0.10223392 0.14076892 0.058540717
000040 8d c1 51 3e 81 51 7d 3e 78 86 29 3e 58 85 be 3d
       0.2048399 0.24738123 0.16555202 0.09302777
000050 b3 83 85 3e 70 cc 01 3e cb 51 8b 3e a9 4c e1 3d
       0.2607704 0.12675643 0.2721084 0.1100095
000060 8a 65 08 3e be 89 74 3e 25 0f 4a 3e 8a f1 11 3e
       0.13319984 0.2388067 0.1973234 0.14252296
000070 a3 28 ed 3d 94 f3 92 3d 94 d4 c1 3d 3e d0 b7 3d
       0.115800165 0.07175365 0.09464374 0.08975266

model.readout.mlp.0.weight f4 [32, 32]
000000 5a 5c f3 3d 2e 61 d8 bd ac f3 22 3e 47 c0 98 bd
       0.11882849 -0.105654106 0.15913266 -0.07458549
000010 8e ad f7 bd d6 ee ca bc f2 7b 07 bd 99 01 e3 bc
       -0.1209365 -0.024772089 -0.033077188 -0.027710723
000020 2b cf a0 bd 0b 84 af bd 36 c9 1b be 74 30 8d bd
       -0.07852014 -0.08570107 -0.15213475 -0.06894007
000030 41 ae 56 3d ee e1 92 bd 92 38 5f bd 9c a4 c8 bd
       0.052412275 -0.07171999 -0.05449731 -0.09797022
000040 d4 5c 08 3e 67 ab 85 3d f8 3a b7 bd 68 e1 35 3e
       0.13316661 0.06526833 -0.08946794 0.17761767
000050 ba 57 11 be 5e e5 ac 3c 0a a6 9e bd 57 45 df bd
       -0.14193621 0.021105465 -0.07746513 -0.109018974
000060 26 bb 0b bd c3 96 1a bd 8d 89 c5 3d 2b f2 05 3e
       -0.034114026 -0.037741434 0.09645376 0.13080661
000070 6d 82 10 bd d8 1b 37 3e 78 15 96 3c 57 5b a4 bd
       -0.035280634 0.17881715 0.018320784 -0.08025234
000080 b0 c5 2d 3c 32 52 c7 3d 9d df ce bb bd 04 0a be
       0.010606214 0.097324744 -0.006313278 -0.1347837
000090 27 76 a7 3c 3a a9 27 3e c8 62 9e 3d 5e 49 ba 3d
       0.020442082 0.16373149 0.07733685 0.09096025
0000a0 b7 cc 20 3e b9 28 97 3d 76 31 30 3c 7e 5e 38 3e
       0.15703093 0.07380814 0.01075398 0.18004796
0000b0 3b 8b 85 3c df c2 8d 3d 8c 4e 89 3c 22 ff 2f bd
       0.016301742 0.06921934 0.016761087 -0.042967923
0000c0 d8 6e 86 bd b0 03 79 3d 3d 0c 78 bd d2 26 c0 3d
       -0.065641105 0.060794532 -0.060558546 0.093824044
0000d0 40 11 12 be 8c d7 96 bd 9a 5d 00 be f4 0f a1 bd
       -0.14264393 -0.07365331 -0.12535706 -0.07864371
0000e0 78 b8 ee bd 2f 11 37 3e ba d4 cd 3d 28 e0 88 bd
       -0.11656278 0.17877649 0.1005034 -0.066833794
0000f0 10 3f 33 be ae 5e 94 3d 0e 4e 04 bc 07 e0 49 3d
       -0.17504525 0.07244621 -0.00807525 0.049285915
000100 bd 79 03 be c9 48 df 3d f8 03 b8 bc 24 4e c2 3b
       -0.12839408 0.109025545 -0.02246283 0.0059297252
000110 2a aa f9 3b 2d db d9 bd 4f ab ed 3d 57 96 e3 3d
       0.007619162 -0.106375076 0.1160494 0.111126594
000120 e3 39 a5 3d 07 be 26 3e 67 6f df 3d eb b1 30 3e
       0.08067682 0.16283427 0.1090992 0.1725537
000130 81 40 4f bd 43 31 2c 3c b9 8b 0e 3e 04 71 c2 bd
       -0.050598625 0.010509792 0.13920487 -0.09494212
000140 84 73 20 3e 02 6f cb 3d be f8 e9 3d d4 09 fb 3d
       0.15669066 0.099332824 0.11424397 0.12257734
000150 66 b2 93 bd e7 eb cb 3d 16 15 0e b9 76 74 8a bd
       -0.07211761 0.09957104 -0.0001355003 -0.067604944
000160 93 16 51 3d ed d6 6e 3d 6f 15 ba bc fb 9b dd bc
       0.05104692 0.058310438 -0.022715298 -0.027051916
000170 f2 06 b2 3c 8b fa 28 be 0a 0b da bd cf 12 32 3e
       0.021731827 -0.16501825 -0.10646637 0.17389987
000180 4f a8 7b bd 4e 30 36 3b d5 59 d9 3d 70 66 d5 bd
       -0.06143981 0.0027799788 0.10612837 -0.10419929
000190 68 c8 16 be 4c ad 50 bd bf 87 7f 3c 88 4b 0b 3e
       -0.14724886 -0.05094652 0.015596329 0.13603032
0001a0 05 83 c4 3d 90 9c 1f 3e 12 4f 20 3d 43 ae c2 bd
       0.095953025 0.15587068 0.039137907 -0.09505894
0001b0 ed 30 e7 3d 3c c4 a8 3d 11 21 0a bc 13 a0 cb bd
       0.11288629 0.08240554 -0.008430735 -0.09942641
0001c0 16 e5 be bd 7c 3d 05 3e c0 4e e4 3b af c2 38 bd
       -0.093210384 0.13011736 0.0069673955 -0.04510754
0001d0 f0 20 33 be 12 6a 08 3d cd 2b a2 bd ac d1 ee 3d
       -0.17493033 0.03330428 -0.079185106 0.116610855
0001e0 78 2b 01 bc 07 8b fd 3c a6 e2 aa 3d 66 94 7d bc
       -0.007883899 0.030950082 0.08344011 -0.0154772755
0001f0 b1 ec 58 bd 24 69 df bd dc 53 96 bd 90 2c 97 3c
       -0.0529601 -0.10908726 -0.07340214 0.018453866
000200 1e b8 e5 3d 16 86 07 be 34 a7 1a be f5 9f f8 3d
       0.11216758 -0.13234743 -0.15102845 0.121398844
000210 9e 45 bf 3d 20 0d 58 bd 53 c1 68 bd 0f 3d b9 bd
       0.0933945 -0.052746892 -0.056824993 -0.09044849
000220 df e3 2d 3e dd e9 81 bd 97 1b 4f bd 38 3d ff bc
       0.16981457 -0.06343434 -0.05056342 -0.031157121
000230 bc 48 27 be 8a 29 14 be c0 0e 93 3d a0 42 48 3d
       -0.1633634 -0.14468971 0.07180548 0.048891664
000240 be 16 52 bd a0 1c 7b bb 65 a2 10 3e ba 06 71 bd
       -0.05129122 -0.0038316622 0.14124449 -0.058844306
000250 59 4c be 3d 45 20 25 3e e6 1e 1e be 31 e6 14 3d
       0.09291906 0.16125591 -0.15441474 0.03635234
000260 9c 35 0b 3d 19 17 2d 3e 0d 4a 26 be a1 29 ee 3c
       0.033986673 0.16903342 -0.16239186 0.029072585
000270 a9 96 fd 3d 95 4c 66 3c e9 a5 04 3e 33 33 32 bc
       0.12382252 0.0140563445 0.12953915 -0.010876465
000280 cf 61 f5 3d a9 ac a6 3d 09 97 ea bd ba 06 23 be
       0.11981546 0.08138401 -0.11454589 -0.15920535
000290 5e a1 a3 3d ea b1 99 3d 63 10 da bd e2 5a 2d be
       0.07989763 0.075046375 -0.10647657 -0.169292
0002a0 7d 34 1a be de c4 cf bd 69 ea 22 be f2 14 26 be
       -0.15059085 -0.10144971 -0.15909733 -0.16218928
0002b0 4f 19 bb 3d 93 b7 d6 3c 1a 8f 10 3d 42 0f e3 bd
       0.091356866 0.026210582 0.035292722 -0.110868946
0002c0 36 33 04 3e 55 d5 91 3c df 50 17 be be 3c 96 bd
       0.1291016 0.01780192 -0.14776944 -0.073358044
0002d0 60 57 30 3e 09 6a 1b bd d8 e3 8c 3d 79 91 4e bd
       0.17220831 -0.03794292 0.06879395 -0.050431702
0002e0 bc b1 37 3d 23 93 a9 3d ff 7a 00 be 42 f7 8d bd
       0.044847235 0.08280017 -0.1254692 -0.06931926
0002f0 24 0c da bd cf 8e ed 3d 7d 71 e2 3d 32 f9 e5 3c
       -0.10646847 0.11599504 0.110568024 0.028072927
000300 32 9f 38 bd e7 f9 61 bd fd b1 38 3e c1 0f 9d bd
       -0.045073695 -0.055169966 0.18036647 -0.076690204
000310 a4 32 85 bd 40 02 05 be f4 17 aa 3c 78 95 20 be
       -0.065037996 -0.1298914 0.020763375 -0.15682018
000320 d4 0c d4 bd dd ae 07 be e1 2c 29 3d 86 e9 7e 3d
       -0.10354009 -0.13250299 0.041302565 0.062234424
000330 60 81 c2 3d 13 f7 27 be 02 93 d9 bd 9b 02 78 3d
       0.094973326 -0.16402845 -0.10623743 0.06054936
000340 8a 59 a0 3d 20 1f 5d bd c5 40 3a 3d 81 e2 c7 ba
       0.07829578 -0.05398476 0.045471925 -0.0015249999
000350 66 83 db bd d7 34 c6 bd 02 82 0f bc 9a 2f 0f 3e
       -0.10718422 -0.09678047 -0.008759024 0.13983002
000360 0e a2 65 ba 81 19 94 3c de 57 e0 3d 07 b4 b0 3d
       -0.0008759805 0.018078567 0.10954259 0.086280875
000370 a7 9e fe 3d 5a 49 1c 3e b9 e2 13 be 25 c4 c7 3d
       0.12432604 0.15262356 -0.14441957 0.097542085
000380 79 5d 57 3d 19 16 8d bd 36 fa bb 3d b5 36 f6 bd
       0.052579377 -0.068889804 0.09178583 -0.12022153
000390 ea ef 0d be 7e 86 00 3e 4e 6f 2b 3d e9 10 ab bd
       -0.13861051 0.12551305 0.041854195 -0.08352835
0003a0 ce 9f d8 bd 45 ee eb bd 06 34 69 bd e2 55 30 3e
       -0.10577355 -0.11520056 -0.05693438 0.17220262
0003b0 e4 db 27 3e f1 a0 20 bc 9b b8 9e bd e2 24 0e 3d
       0.16392475 -0.009803996 -0.077500544 0.034703143
0003c0 1a fa 2e bd a5 48 30 3e 2f 06 af 3d cc 96 38 3c
       -0.042718984 0.17215212 0.08546101 0.0112664215
0003d0 ce c1 e6 bc a8 7a 29 be 55 16 1e be 8f ea e5 3d
       -0.028168585 -0.16550696 -0.15438206 0.11226379
0003e0 01 06 2c be 52 87 cc 3d 74 eb 0c 3e b2 b5 21 be
       -0.16799165 0.09986748 0.13761693 -0.15791968
0003f0 92 86 32 bd 4a f9 f2 bd 86 41 14 be ee 2c eb 3d
       -0.043585368 -0.11863954 -0.1447812 0.11483179

model.readout.mlp.0.bias f4 [32]
000000 20 73 ad 3d ca c5 dd 3d 82 3d 8d 3d 38 31 bb bd
       0.08469224 0.10828741 0.06896497 -0.09140247
000010 71 24 2b 3e 87 a3 02 bc d2 f8 16 3e e0 80 30 3e
       0.1671312 -0.007973558 0.14743355 0.17236662
000020 ee 54 3e bd c4 6d 13 3d 32 3c 54 bd 3c f2 c4 bd
       -0.046467714 0.035993353 -0.05181522 -0.09616515
000030 65 50 d5 3d 45 67 21 bd ed 81 d4 3d 7e 3f 12 bc
       0.10415725 -0.039405126 0.10376344 -0.0089262705
000040 4b 83 1a 3e c7 ea 46 3d 9e 20 09 bd b6 54 16 3d
       0.15089147 0.048563745 -0.03347837 0.03670188
000050 7a 99 f8 bd ce 04 76 3b f5 25 2a 3e 2b e1 57 bd
       -0.12138648 0.0037539485 0.16616042 -0.05270497
000060 7d 9a 30 be 96 31 ad 3d 69 90 ca 3d 51 c1 00 be
       -0.17246433 0.084567234 0.09890825 -0.12573744
000070 c9 50 f8 bd 05 81 1e be a4 df 03 3e f8 25 0a be
       -0.121247835 -0.15478905 0.12878281 -0.13491046

model.readout.mlp.2.weight f4 [6, 32]
000000 77 2c 40 3d 17 67 a8 bd db 25 5d 3c 76 ea e9 3c
       0.046917405 -0.08222788 0.013497795 0.028554182
000010 c0 bf 0b be 30 35 a1 3d 30 fa 5d bd 0b 90 25 be
       -0.13647366 0.07871473 -0.054193676 -0.1616823
000020 bc 09 20 bd 75 86 0f 3d 2c cb a1 3d f0 92 be bc
       -0.039071783 0.035040338 0.0790008 -0.023263425
000030 0e 94 d2 3d d6 75 18 be 74 1c ac 3d 24 55 1d be
       0.102821454 -0.14888701 0.084038645 -0.1536451
000040 26 42 a0 3d 8d 07 09 3e 8f 21 0d 3d 8e 42 c0 bd
       0.07825117 0.13381787 0.034455832 -0.09387694
000050 1a ea 6a bd 77 1e 4d 3d 79 95 e1 3c e2 06 f8 bd
       -0.057352163 0.05007788 0.027537094 -0.12110688
000060 bd 71 6f 3c 13 5a 55 bc 85 68 50 3d bc 53 08 3c
       0.01461452 -0.013021964 0.050880928 0.008320745
000070 cb 8c a3 3d e9 e9 17 be c1 84 b2 bb ad a5 c6 3d
       0.079858385 -0.14835323 -0.0054479544 0.09699569
000080 93 75 d5 bc d6 e2 b5 bd 26 88 bb 3d 21 fb 2c 3e
       -0.02605704 -0.08881156 0.09156828 0.16892673
000090 24 b0 67 3d 5c 44 06 be 3b e8 02 3c b4 43 6f bd
       0.056564465 -0.13112015 0.007989938 -0.058414176
0000a0 91 2e 10 be b4 24 2f 3d d6 f7 d2 3d 56 4c c1 3d
       -0.14080264 0.042759612 0.10301177 0.09438388
0000b0 58 30 6c bd a8 3a 21 3d 95 7e ce bd 12 83 b3 3d
       -0.05766329 0.03936258 -0.10082737 0.08765234
0000c0 87 1e d5 3c 74 fd 59 bd 7e ee 0d be 3e bc 35 3d
       0.026015533 -0.053220227 -0.13860509 0.044368975
0000d0 e8 cd f7 bd 05 ee 21 be 03 e6 10 3e bf 9b 0e 3e
       -0.120998204 -0.15813453 0.14150243 0.139266
0000e0 6d 5d ed bd 8f 6a d2 3d b2 05 11 be 75 6b 2b 3e
       -0.11590085 0.10274231 -0.14162329 0.1674021
0000f0 19 4d b0 bd df 65 4c bb 83 03 8d bd c5 74 25 3d
       -0.08608455 -0.003118865 -0.068854354 0.040394563
000100 67 a9 15 3d 17 49 11 bd b0 fd d1 bc 46 c0 bd 3a
       0.036538508 -0.035470095 -0.025633663 0.0014476858
000110 dd 10 9c bd 62 0f 1d 3e bc 20 db 3d 63 ed 0f 3e
       -0.07620404 0.153379 0.10699603 0.140554
000120 09 fc 85 bd 49 bb 55 3d 36 2a 40 3c e8 81 ce 3d
       -0.065422125 0.052180562 0.011728814 0.100833714
000130 73 b5 28 3d 2e 76 85 3d 68 c4 be 3b 83 b9 f2 bd
       0.04118867 0.065166816 0.0058217533 -0.1185179
000140 6d b4 84 3b a3 be 20 bd 82 e1 15 3e 34 fd f5 bc
       0.0040498287 -0.039244305 0.14636806 -0.030027963
000150 c0 84 55 3d 19 53 27 3e 72 fc eb 3c 68 65 3b ba
       0.052128553 0.16340293 0.028806899 -0.00071485946
000160 77 6e d4 3d 53 f0 72 bd 99 36 15 3e 21 93 db bd
       0.10372632 -0.059311222 0.14571609 -0.10721422
000170 ce ec 8d 3b 28 8b 47 3d cf 15 ee 3d 27 9a 29 be
       0.004331208 0.048716694 0.116252534 -0.1656271
000180 36 34 33 be 2e e1 26 3e 70 17 1d be 1e dd 5e 3c
       -0.17500386 0.16296837 -0.15340972 0.013602523
000190 c1 5e d4 bc 41 5d 0b 3e 49 39 17 3e b2 88 59 3d
       -0.025924088 0.13609792 0.14767946 0.05310888
0001a0 de 23 f6 bd 0c 37 11 bc 37 36 28 be 9c e2 1f 3d
       -0.1201856 -0.008863222 -0.16426931 0.03903447
0001b0 23 4a 32 bd 8a c0 d6 3c 47 94 fc 3d 0f f7 01 be
       -0.043527734 0.026214857 0.12332969 -0.12691902
0001c0 e0 a9 25 3e b7 09 bf 3d ab 85 27 3e 95 37 31 3e
       0.16178083 0.09328025 0.16359584 0.17306359
0001d0 00 de b9 3c f5 04 e6 3d 2a ad 8c bd e1 d2 2e bd
       0.022688866 0.11231414 -0.06868966 -0.04268158
0001e0 af 1a ca 3c 03 1f 15 3e 21 c9 20 bd 65 c9 69 bd
       0.024670927 0.14562611 -0.03925431 -0.05707683
0001f0 2c 6d 2b 3d d7 76 0b be c3 b7 34 be 69 88 0b 3e
       0.04185216 -0.13619553 -0.17648225 0.13626255
000200 f0 d8 9e 3d 75 72 a5 3d 51 c5 97 3d 4a f8 9b bd
       0.07756221 0.080784716 0.07410682 -0.07615717
000210 76 30 16 be 45 46 96 bd 7c 47 10 3e eb 12 db bd
       -0.14666924 -0.073376216 0.14089769 -0.10696968
000220 bc 6d 81 bd 9e c0 13 3e 3b 8d cd 3d 74 30 88 bd
       -0.06319758 0.14428946 0.10036703 -0.06649867
000230 8f e6 d9 3c 73 95 fb bd 7e d6 29 3c af cb a0 bc
       0.026599197 -0.122843646 0.01036608 -0.019628374
000240 bc 6a 1c be b0 06 84 bd e6 48 f8 3d f3 30 f4 3c
       -0.15275091 -0.06446588 0.12123279 0.029808497
000250 a0 3e ee 3c 9d ae 32 3e e0 44 03 be 9f 48 2f 3e
       0.029082596 0.17449422 -0.12819242 0.17117546
000260 4c 7e 2c be ba f1 29 3e ea 7c da bd 40 85 75 bc
       -0.16845053 0.16596118 -0.10668357 -0.014985383
000270 a1 c4 3c bd 6a a5 41 bc 85 93 0c 3e 09 8c ff bd
       -0.046085957 -0.011819223 0.13728149 -0.124778815
000280 ff 00 03 bc 07 f0 ec 3d da b3 b1 3d bc 16 9b 3c
       -0.007995843 0.11569219 0.08676882 0.018931739
000290 e2 0d 01 3e dd 33 00 3e 71 1b 16 be e1 b4 13 3e
       0.12602952 0.12519784 -0.14658906 0.14424469
0002a0 1e 41 a9 3d 90 cc 05 bb b7 d7 ac bd 30 c5 c3 bc
       0.08264373 -0.0020416118 -0.08439582 -0.023897737
0002b0 52 c0 ef 3d 51 ee 92 3c 7a 0c e5 bc 74 88 95 bc
       0.11706604 0.017935904 -0.02796005 -0.018253542
0002c0 be 13 03 bd ac 82 aa bd 36 17 11 bd 89 43 bb bd
       -0.03200125 -0.08325705 -0.035422526 -0.09143741
0002d0 f7 81 2f 3e aa b4 72 bd 59 12 ca bd 57 c2 9f 3d
       0.17139421 -0.059254326 -0.09866781 0.07800739
0002e0 fe e2 25 3e a9 5e a1 3d 92 a1 ae bd f4 a9 12 3e
       0.16199872 0.07879383 -0.08526911 0.14322644
0002f0 73 66 0a be 9d e4 84 bc d5 d9 38 bc 63 6a 35 3d
       -0.13515644 -0.016222293 -0.011282404 0.04429091

model.readout.mlp.2.bias f4 [6]
000000 2a b0 04 3e da 2f 04 be 3e e8 6c bd d7 c3 d7 3c
       0.12957826 -0.12908879 -0.05783867 0.0263385
000010 8c 20 1f be b0 99 7e bd
       -0.1553976 -0.062158287

exp_avg f4 [32, 3]
000000 00 00 00 00 d5 fa 81 39 00 00 00 00 f9 e7 84 b9
       0.0 0.00024791682 0.0 -0.00025349835
000010 40 78 d9 bb 19 54 8d bb b5 9b 31 3a f2 df 44 3a
       -0.0066366494 -0.0043130037 0.00067752163 0.0007510177
000020 af e1 84 3a 84 ef 35 3b 4d 49 16 3b 23 10 00 3a
       0.001013806 0.002776117 0.0022931874 0.0004885217
000030 8f b9 88 3b 70 29 18 bb 7c 72 cc ba f4 d4 1c 3a
       0.004172511 -0.0023218058 -0.0015598084 0.000598266
000040 2d 69 97 39 5c 85 a6 b9 db b2 06 3a 0c 45 28 ba
       0.00028879326 -0.00031761348 0.0005138346 -0.000641898
000050 67 7e 80 ba ac 78 41 37 43 93 43 b9 7a e9 8a ba
       -0.0009803296 1.1531793e-05 -0.00018651508 -0.0010598146
000060 28 7e 36 b9 fa 26 ee ba 5c 1f 5b 39 20 f0 a9 b9
       -0.0001740387 -0.0018169575 0.0002089715 -0.000324131
000070 f9 eb c6 39 09 6a 29 b9 6f d7 97 ba 54 a4 1f ba
       0.00037941316 -0.00016156597 -0.001158459 -0.00060898555
000080 d9 9e 79 39 17 07 0b 3b 26 64 c6 3a 89 ba 7a 39
       0.00023805666 0.0021213943 0.0015136048 0.00023911348
000090 27 18 93 3b a9 de 8f bb 6a 12 18 ba 00 00 00 00
       0.004488963 -0.004390557 -0.0005801084 0.0
0000a0 0f 79 01 3b 54 42 ef 3b 00 00 00 00 00 00 00 00
       0.0019755994 0.007301608 0.0 0.0
0000b0 00 00 00 00 de d5 29 3a 4a d4 3d 3a 3a b9 31 ba
       0.0 0.0006478707 0.00072414114 -0.0006779615
0000c0 3a c9 4d 3a 74 35 28 3a e7 fe b3 b9 2c 20 e3 ba
       0.00078501145 0.00064166565 -0.00034331458 -0.0017328314
0000d0 e5 f7 f9 b9 e2 e8 4e 3a f4 16 76 3b 31 4d 7c bb
       -0.00047677677 0.00078929786 0.0037550302 -0.0038498158
0000e0 df 33 18 3a be d5 97 ba 6b b1 1d 3b 55 e5 f2 39
       0.0005806069 -0.0011584086 0.0024062048 0.00046328703
0000f0 e6 83 5e ba 92 94 86 39 d2 d0 46 38 71 74 a8 39
       -0.00084882823 0.00025669165 4.7401358e-05 0.00032130213
000100 7a 46 e1 bb 7a 2e 50 39 2e 22 2c 39 3d 68 09 b9
       -0.0068748565 0.0001985374 0.00016415931 -0.0001310417
000110 f8 3a 66 b9 50 4a 8c 37 ce 08 75 3a 1e 24 0d ba
       -0.00021956477 1.6723905e-05 0.00093473203 -0.0005384105
000120 cc 7d 9c 3a 9b d8 d6 b9 dd 7e 60 ba 1c 0d 39 bb
       0.0011939346 -0.00040978644 -0.0008563826 -0.0028236574
000130 8e 49 01 3b 5b d7 22 3a 22 ff d3 3a 0c 4b e9 ba
       0.001972768 0.00062119 0.0016174058 -0.0017798855
000140 4a 1c 34 b9 85 e5 ca 3c 2e 5a b6 bc 72 37 e6 ba
       -0.00017176676 0.024767647 -0.022259798 -0.0017564131
000150 3e d0 6f ba 97 81 d2 39 0e a3 04 3a e6 4e 5e ba
       -0.0009148157 0.00040150873 0.00050596974 -0.0008480385
000160 1a 8b 21 3b 22 88 c1 b8 a7 0e c0 3b 00 00 00 00
       0.0024649561 -9.228314e-05 0.0058611217 0.0
000170 00 00 00 00 9c d1 5c ba af 40 1d 3a 07 39 2a 3a
       0.0 -0.0008423568 0.00059987133 0.0006493483

exp_avg_sq f4 [32, 3]
000000 00 00 00 00 fa 76 34 35 00 00 00 00 22 7e 80 36
       0.0 6.722836e-07 0.0 3.829381e-06
000010 80 fc 7d 37 fd 6c 00 37 e6 c1 f7 35 ee 57 36 35
       1.5138765e-05 7.65477e-06 1.8459366e-06 6.792824e-07
000020 48 68 c2 35 91 f9 11 36 db a9 43 35 61 a9 0a 34
       1.4484476e-06 2.175195e-06 7.2890333e-07 1.2913871e-07
000030 64 84 10 37 a7 e7 00 37 ce d1 56 36 a5 6b 8b 36
       8.613893e-06 7.68333e-06 3.2010607e-06 4.1550543e-06
000040 5c 70 93 34 61 b5 1f 36 77 96 42 34 34 1c 00 35
       2.7462636e-07 2.3798423e-06 1.8122397e-07 4.7724757e-07
000050 a0 65 fa 36 c9 32 23 35 66 9d a5 35 aa ab 72 34
       7.4624113e-06 6.0796134e-07 1.2339267e-06 2.2600457e-07
000060 09 59 af 34 51 34 e9 35 44 18 0e 34 a0 c0 3c 34
       3.2661072e-07 1.7375079e-06 1.3233608e-07 1.7578941e-07
000070 5d c1 9c 34 ef a2 f8 33 89 5f 40 36 0c 3b b8 35
       2.9197955e-07 1.15780374e-07 2.8665838e-06 1.3726253e-06
000080 06 d2 a1 34 af d9 6b 36 0b b3 e6 37 d6 2e 1c 35
       3.01414e-07 3.5144437e-06 2.750151e-05 5.8182684e-07
000090 a9 35 27 37 a7 bc e7 36 b9 6c 1d 35 00 00 00 00
       9.966469e-06 6.9062985e-06 5.864527e-07 0.0
0000a0 90 59 56 37 0c 3e 60 38 00 00 00 00 00 00 00 00
       1.2776247e-05 5.3463547e-05 0.0 0.0
0000b0 00 00 00 00 31 40 be 36 0a 33 a0 36 eb f2 86 35
       0.0 5.669914e-06 4.7743133e-06 1.0054476e-06
0000c0 8c f9 18 35 75 4d 50 34 ef 2a 1d 34 47 39 00 37
       5.698755e-07 1.9399688e-07 1.4637384e-07 7.64273e-06
0000d0 13 65 18 34 e2 e0 44 34 6f 39 3f 37 56 03 3d 37
       1.4192874e-07 1.8335734e-07 1.1397859e-05 1.1266055e-05
0000e0 99 38 1d 35 cd 3d 89 36 3a 2a 86 36 d2 a9 a7 35
       5.856942e-07 4.0901127e-06 3.998427e-06 1.2491894e-06
0000f0 a5 e8 bf 34 42 9a 33 34 47 a5 5d 33 86 19 45 35
       3.5745794e-07 1.6726793e-07 5.160589e-08 7.342536e-07
000100 e2 42 60 37 37 0a 83 34 4b 1e ec 34 b3 d0 13 36
       1.3367013e-05 2.4408084e-07 4.3980467e-07 2.2026186e-06
000110 ba bb c3 35 9a a1 37 35 0a 48 b6 35 3c ef e5 33
       1.4583268e-06 6.8407974e-07 1.3581023e-06 1.070716e-07
000120 bd ce 0c 35 01 2c 9a 34 36 b8 87 34 ad 46 a1 36
       5.245491e-07 2.8716752e-07 2.527974e-07 4.8064016e-06
000130 bf 49 46 36 2d a0 18 35 49 a3 85 36 4d 0c 3b 36
       2.9547225e-06 5.68575e-07 3.9827178e-06 2.7872331e-06
000140 19 c3 57 35 9d 3b 44 39 17 8d 2c 39 bb f7 1c 36
       8.0377646e-07 0.00018714224 0.00016455758 2.339001e-06
000150 72 ae 2f 35 f0 e9 e9 33 a3 fa 98 33 90 e4 82 36
       6.544643e-07 1.0892461e-07 7.123642e-08 3.90091e-06
000160 66 26 92 36 e5 ee 19 35 08 bf 49 38 00 00 00 00
       4.3556092e-06 5.734458e-07 4.8100046e-05 0.0
000170 00 00 00 00 53 10 c8 34 78 26 77 35 b2 7c c3 34
       0.0 3.726478e-07 9.207065e-07 3.6412308e-07

exp_avg f4 [32]
000000 ac fa 81 39 0c 5f f3 bb c2 0f 20 3b da 14 b0 3b
       0.00024791562 -0.007427102 0.0024423455 0.0053735794
000010 b3 5e ba b1 dc 46 15 3a 7e 47 91 ba b5 3f 15 3a
       -5.4240785e-09 0.0005694458 -0.0011083928 0.0005693392
000020 db 57 ee ba 8f 04 03 b9 84 8c 9d ba 57 e6 61 3b
       -0.0018184142 -0.00012494832 -0.0012020026 0.0034469569
000030 1f 12 3e b1 71 ff 17 3c 00 00 00 00 b5 c5 98 3a
       -2.765894e-09 0.009277211 0.0 0.0011655601
000040 95 8a 84 3a c1 18 bf ba 90 08 eb 39 fe 0c 85 3a
       0.0010112101 -0.0014579521 0.00044829072 0.0010150967
000050 91 cc 0e ba e8 5c c0 bb 47 01 8f b9 fd c5 24 3a
       -0.0005447353 -0.0058704503 -0.00027276037 0.0006285606
000060 3b ec 12 37 47 49 73 b0 cb c9 ad b9 d8 7c c8 31
       8.75728e-06 -8.850702e-10 -0.0003314748 5.834959e-09
000070 56 35 f6 b6 90 77 d1 3a a9 0e c0 3b 1e 63 96 af
       -7.3375804e-06 0.0015981067 0.0058611226 -2.7355268e-10

exp_avg_sq f4 [32]
000000 fb 76 34 35 78 77 50 38 bc 24 c2 36 6e 04 ac 36
       6.7228365e-07 4.970233e-05 5.785927e-06 5.126515e-06
000010 61 ea 3d 24 7a 24 ff 36 42 48 48 37 3e 0e 1a 36
       4.118137e-17 7.6038386e-06 1.1937753e-05 2.2956078e-06
000020 af 1f bd 35 14 e1 9d 34 20 f3 b9 35 c2 a9 b3 37
       1.4090818e-06 2.9407295e-07 1.3854333e-06 2.1417512e-05
000030 84 af 80 24 13 0f e9 38 00 00 00 00 54 8e 71 35
       5.5808486e-17 0.000111131136 0.0 8.998661e-07
000040 bb 8b ab 35 b8 b1 f2 36 9d 41 28 34 26 3d e7 34
       1.278116e-06 7.232851e-06 1.5670089e-07 4.3071594e-07
000050 73 63 86 34 e3 f4 2a 37 af 15 4d 35 bf a9 d9 35
       2.5031804e-07 1.0189807e-05 7.6400005e-07 1.6217163e-06
000060 ef 32 b6 31 86 16 26 23 05 b7 bc 34 30 0d 88 26
       5.3026876e-09 9.0036476e-18 3.5150893e-07 9.44047e-16
000070 a1 88 95 35 62 19 62 35 08 bf 49 38 a4 58 ce 22
       1.1141129e-06 8.42285e-07 4.8100046e-05 5.5930264e-18
