lightning_logs/version_0/checkpoints/epoch=9-step=140.ckpt (torch, 170018 bytes, 30 tensors)

model.encoder.conv1.nn.0.weight f4 [64, 3]
000000 40 28 da 3d db 73 29 be 9d c4 b1 bd 3c e0 8c be
       0.10652208 -0.16548102 -0.08680079 -0.27514827
000010 36 f8 94 3e 1f 5e 00 be be 12 ef 3e bd 49 2e 3e
       0.2909562 -0.12535904 0.46693987 0.17020316
000020 be 54 f8 bd 9c f9 56 be fe 3a a6 3e e2 a3 93 3e
       -0.12125538 -0.20993656 0.32466882 0.2883597
000030 09 fa 0a 3f d6 fb 44 3e bf f6 8a 3c 03 be 0b bf
       0.54287773 0.19236693 0.01696336 -0.5458681
000040 57 9c fc 3e 0b ca 13 bf 2e dd c7 be 78 01 3a be
       0.49338028 -0.5773017 -0.39035934 -0.18164623
000050 93 8e f5 be 42 6e c2 3d 02 36 89 be 25 8e 95 3e
       -0.47960338 0.09493686 -0.26799017 0.2921001
000060 45 6e f2 3e 30 d6 05 bd be 94 0f bf 11 86 4f be
       0.47349754 -0.03267497 -0.5608634 -0.20265986
000070 72 af 8d be 8d 8a 14 3f f0 c2 56 3c 97 6a e4 3e
       -0.27672917 0.5802391 0.013108 0.44612572
000080 cc fa d7 3e 89 7e c0 3e 6e c1 00 bf 01 92 b5 3e
       0.4218353 0.3759654 -0.5029515 0.35462955
000090 b2 01 70 be 85 dc 48 3e bd b2 4a be fe d4 09 bf
       -0.23438147 0.19615372 -0.19794746 -0.53840625
0000a0 70 c3 bd bd 10 03 15 bd 72 68 c7 be ac e7 b9 3e
       -0.09265792 -0.036379874 -0.38946873 0.36309564
0000b0 ee 15 0f bd b9 82 de bd 3d 82 13 3e a4 dc 6c 3d
       -0.034933023 -0.10864777 0.1440515 0.057827607
0000c0 f6 44 c8 3e d3 6a 7a be aa b4 08 bf 20 54 ff be
       0.39115113 -0.24454813 -0.5340067 -0.4986887
0000d0 80 b5 c1 bc 20 7a 29 3d 30 97 4d bd 0c 99 ce 3e
       -0.023646116 0.041376233 -0.05019301 0.4035114
0000e0 50 2d db be 7e d6 81 bd 24 4f 80 3e b0 85 df be
       -0.42808008 -0.06339739 0.2506038 -0.43656683
0000f0 b6 22 e0 be 33 b2 8e 3e 2a a5 93 3e 76 f1 a5 be
       -0.43776482 0.2787033 0.28836948 -0.32410783
000100 a7 5a 37 3e 38 94 af 3e e4 1b a1 be 7e 38 4b be
       0.17905675 0.3429277 -0.3146659 -0.19845769
000110 e8 49 b8 be bc 1b 33 be ef f0 ae 3e 0f f1 01 bf
       -0.35993886 -0.17491049 0.34168193 -0.5075845
000120 e2 2c 20 3e ea bc 42 be 0c b0 dd 3c a9 d5 b1 3e
       0.15642121 -0.19017377 0.027061485 0.34733322
000130 75 30 55 bd 23 41 9c 3e e5 f7 c3 bc d4 d0 0e 3f
       -0.052048165 0.30518445 -0.023921916 0.55787396
000140 81 5d cd 3e 85 77 22 3e dc cf f0 be 02 10 08 bf
       0.401104 0.15865906 -0.47033584 -0.53149426
000150 f0 e5 86 bd 4e b0 f1 3e 0f 77 3d be 99 94 aa be
       -0.06586826 0.47204822 -0.18502448 -0.33316496
000160 b2 86 bc 3e d8 7a 4b be 82 5a 86 3e 8d 3f 0f bf
       0.36821514 -0.1987108 0.26240927 -0.55956346
000170 3e 35 c3 be 9e df 0f 3e 10 23 81 be 95 7d 00 3d
       -0.38126558 0.14050147 -0.25222063 0.031369764
000180 2a c1 e5 be 07 8a c6 3e 59 03 43 be 5a bc 09 be
       -0.44873935 0.38777182 -0.19044246 -0.13450757
000190 1b 12 d2 3e fc 55 ec 3e 5e 7c 51 3e 8c 6f 31 bc
       0.41029438 0.4615935 0.20457599 -0.0108298175
0001a0 2a dd a1 be 1f 7a c8 3d 01 0a 27 bd 3a 60 7b 3e
       -0.31614047 0.09788918 -0.040781025 0.24548426
0001b0 6f 54 36 3d 0d 18 ec bd 1f b6 7a 3d 50 c9 8e be
       0.044514116 -0.11528025 0.06120884 -0.27887964
0001c0 79 b4 97 3d 62 0e 8f 3e 4d d7 a1 be 3f f5 02 be
       0.07407469 0.2794066 -0.31609574 -0.12788866
0001d0 58 50 0f bc 89 45 f6 3e d3 f0 9d 3e 21 cd 4d 3e
       -0.008747183 0.48099926 0.30847797 0.20097782
0001e0 bd 42 66 be ba bb 10 3f 53 6d c3 3e db b3 cf bd
       -0.22486396 0.5653645 0.38169345 -0.101417266
0001f0 64 fb 94 3d de cd 3f bd ba 83 14 be fe 14 0c be
       0.072745115 -0.04682719 -0.14503375 -0.13679883
000200 2e f5 0a bf 35 f8 f6 be 38 d3 0c be 0e d5 0e bf
       -0.54280365 -0.48236242 -0.13752449 -0.55793846
000210 37 96 c8 bb e1 d1 08 bf b5 e0 5d be 0a 0b e7 3e
       -0.0061214226 -0.5344525 -0.2166775 0.4512561
000220 73 64 87 3e 2e 91 96 3e cd 06 08 3f 11 92 09 bf
       0.26443824 0.29407638 0.5313538 -0.53738505
000230 2f 91 c9 3d 86 95 a7 be 5c 7f 89 3e ee ec 04 3f
       0.09842145 -0.32731265 0.2685498 0.51924026
000240 a0 b9 3c be d0 f4 10 bf 68 cb 8c bd ff 6c e7 3e
       -0.18430185 -0.56623554 -0.06874734 0.45200345
000250 cb 00 e3 3e 60 b0 78 be 9d a3 de 3e 98 1d 14 3e
       0.44336542 -0.24286032 0.43484202 0.14464414
000260 a6 d9 40 be f4 e7 d0 bd e7 7a 09 bf d8 91 c9 be
       -0.18833026 -0.102004915 -0.5370316 -0.39369082
000270 0a 46 41 3e f1 39 29 be 67 63 87 3e 03 45 f3 be
       0.18874374 -0.16526009 0.26443025 -0.4751359
000280 d7 1b a7 be 0e 7b e3 3e cb 3e 74 3e d2 2d 00 3f
       -0.32638428 0.4442982 0.23852079 0.50069916
000290 8a c1 8f 3d 21 7a 0a bf 7d a1 15 3f c3 b8 15 3e
       0.070193365 -0.54092604 0.58449537 0.14621262
0002a0 b9 47 63 3e 2b 47 b8 3e 61 b7 52 be c2 ce 04 3f
       0.22195329 0.35991797 -0.20577766 0.5187799
0002b0 67 32 e5 be 07 67 0f 3f 62 f6 05 bf 4a 1b db be
       -0.44765016 0.5601658 -0.52329075 -0.42794257
0002c0 40 db af bd 67 a6 af be 3d a8 63 3d 2a 3f 48 3b
       -0.085867405 -0.34306642 0.055580366 0.0030555227
0002d0 91 54 f9 be f5 17 f0 3e 16 62 98 3e fc b1 f1 3e
       -0.48697332 0.46893278 0.29762334 0.47206104
0002e0 4b ce da 3d 96 2e 8b 3e 88 85 e8 ba 44 8a 3d 3e
       0.106838785 0.2718398 -0.0017739991 0.18509775
0002f0 dd 13 0a be bf 5c cc 3d 18 1f cf 3e f2 fc 63 3d
       -0.1348414 0.099786274 0.4045341 0.05566115

model.encoder.conv1.nn.0.bias f4 [64]
000000 4a 2e c0 3e 0f a3 a6 3d db 59 8d 3c 66 05 59 be
       0.37535316 0.0813657 0.01725476 -0.21193466
000010 30 d9 ef be 27 32 b0 3d ec be 17 be 49 9c a9 3e
       -0.46845388 0.08603316 -0.14818925 0.3312705
000020 eb 5e f0 3d 9a a8 9a 3e 71 5c f7 3e 24 dc 0f bb
       0.11736854 0.30206758 0.48312715 -0.0021951282
000030 d8 e8 0c bf 40 f3 7f bd 3f 67 cb 3e 51 22 b2 3e
       -0.5504279 -0.06248784 0.39727208 0.34791806
000040 f5 fc 54 3e 22 f2 f8 be 6f 66 9f 3e 61 84 b3 bd
       0.2079962 -0.48622233 0.31132838 -0.08765484
000050 a3 69 b3 be 77 39 b3 3e ee 0a 5f be 6d 14 4a 3e
       -0.35041532 0.3500478 -0.21781513 0.19734354
000060 31 73 c3 3e e7 8a a3 be eb 07 79 3e 3d e2 aa 3e
       0.38173822 -0.31941912 0.24319427 0.3337573
000070 75 59 43 3e 6d d6 c3 bd 5b 21 39 3e ec 10 0a bf
       0.19077094 -0.09562383 0.1807913 -0.5393207
000080 d7 a5 0c 3f bd c4 80 3e b2 d2 5e be 22 6b 80 3e
       0.5494055 0.251501 -0.21760061 0.25081736
000090 1c 1a 41 3e 23 7e 66 be 11 f0 bb 3e b9 fa b5 3c
       0.18857616 -0.22509055 0.36706594 0.02221428
0000a0 df 4f fb 3e 46 c5 8f be 5f af 8d be 15 b8 0d 3f
       0.49084374 -0.28080195 -0.2767286 0.5535901
0000b0 97 f2 0d 3f 55 c0 b6 3e cf 53 8e be bd da 5d bd
       0.5544829 0.35693613 -0.27798316 -0.054163683
0000c0 40 b8 0a 3d 39 e3 9f be d0 25 ea 3d 7c 2e 07 bf
       0.03386712 -0.31228045 0.114329934 -0.52805305
0000d0 da 42 38 be af f0 14 3e 61 8e e9 3e 27 ea ed 3e
       -0.17994252 0.14544939 0.4561644 0.46467707
0000e0 58 8f cd be 4a 0d 07 3f 40 75 db 3c 3f 92 ae 3e
       -0.40148425 0.5275465 0.026789308 0.34095952
0000f0 fb 9f af be 79 72 01 3f a6 5d 80 3e 6d 55 46 bd
       -0.34301743 0.50565296 0.25071448 -0.048421312

model.encoder.conv1.nn.2.weight f4 [64, 64]
000000 68 db 0c 3d 90 13 bd 3d 80 f8 0d bb 70 d0 f8 3d
       0.03438893 0.09232247 -0.002166301 0.12149131
000010 34 e0 fe 3d c0 d9 86 bb 56 41 91 bd 3c b1 83 bd
       0.12445107 -0.0041153133 -0.0709254 -0.06430289
000020 80 6b ef bc 64 e8 69 bd c0 1a cc bd e0 a7 85 bd
       -0.029226065 -0.05710639 -0.0996604 -0.0652616
000030 be 9c ce 3d 8e 73 a7 3d 7c 4e 7f 3d 70 46 2b 3d
       0.1008849 0.08176337 0.062330708 0.04181522
000040 e0 14 8d 3c 60 30 f7 bb 00 aa 1b 3d 10 4b ab 3d
       0.017221868 -0.0075436085 0.03800392 0.083639264
000050 fe c4 c9 bd 18 50 08 bd 60 0e 93 3c ec c5 f1 bd
       -0.098520264 -0.03327951 0.01795119 -0.11805329
000060 18 4f c1 3c 2e c0 e3 3d 04 3b b6 3d 58 39 46 bd
       0.023597285 0.1112064 0.08897975 -0.04839453
000070 d0 b3 e1 3c ca 02 d0 3d a8 e7 bb bd 1c 1b e8 bd
       0.027551562 0.10156782 -0.09175044 -0.11333296
000080 e8 7f 5d bd 10 7c 1e bc f2 d5 aa bd f0 df e5 3d
       -0.05407706 -0.0096731335 -0.08341588 0.11224353
000090 20 ca ab bd f8 e6 de bc 1c 02 87 3d 30 2a 0a 3c
       -0.08388162 -0.027209744 0.06592199 0.00843291
0000a0 3a 0f c9 bd d4 13 f9 bd 92 35 d8 3d fc 93 f4 bd
       -0.09817357 -0.12161985 0.10557093 -0.11942288
0000b0 68 8c 65 3d 38 6b 8c bd 3c 50 cb 3d 08 30 57 3d
       0.056042105 -0.06856388 0.09927413 0.05253604
0000c0 7a c9 89 3d 2e c8 f5 bd a2 79 ae 3d 82 fc e9 3d
       0.06727882 -0.12001072 0.08519293 0.11425115
0000d0 08 db 69 bd da 33 fe bd f0 63 a0 bc 1c 8a 3e 3d
       -0.05709365 -0.12412234 -0.019578904 0.04651843
0000e0 1a 66 94 bd e0 e0 48 3c 58 5c bb bc 60 7b 8a bc
       -0.07246037 0.012260646 -0.022871181 -0.016904533
0000f0 84 5c 80 bd e4 b0 07 bd 90 81 3f bc f4 69 d8 bd
       -0.06267646 -0.03312768 -0.011688605 -0.10567084
000100 c4 79 c5 bd d4 95 40 bd f8 58 9f 3c 58 27 b2 3c
       -0.096423656 -0.047017887 0.019451603 0.021747276
000110 58 e8 83 3c 58 ca dd bc f2 c9 9e 3d c0 bf b4 bc
       0.016102001 -0.027074024 0.07753362 -0.02206409
000120 b0 08 27 bd f0 74 98 bd 40 5b 18 3b 04 ff 1b 3d
       -0.04077977 -0.07444179 0.0023247749 0.038085
000130 b8 67 d2 bd ee 4f a4 bd ba 2b 9c bd 3e be e6 bd
       -0.10273689 -0.08023058 -0.07625528 -0.112667546
000140 18 73 a5 3c 44 33 2f bd ee 18 91 3d de ed d3 3d
       0.020196483 -0.0427735 0.07084833 0.10348104
000150 46 6a ed bd 68 9c cf 3d b8 ee b8 bd ba a7 80 bd
       -0.11592536 0.10137254 -0.09029907 -0.06281991
000160 28 fe e8 bc 14 47 0e bd 20 a7 50 3c 78 18 ab 3d
       -0.028441504 -0.034735754 0.012735158 0.083542764
000170 1a 8b 86 3d a6 95 d9 3d 7a 82 94 3d b8 4a 50 bd
       0.065695 0.10624246 0.07251449 -0.050852507
000180 3e a7 da bd b6 5d bd 3d 58 7d dd 3d 1c 8e 09 3d
       -0.1067643 0.092463896 0.10814923 0.03358279
000190 28 ec e2 bd 28 d5 cc bd 32 4c e1 3d 34 3c cf bd
       -0.110801995 -0.10001594 0.11000861 -0.10118905
0001a0 fc 25 3c bd 84 d0 c3 bd f0 5f 46 bd 28 29 e3 bc
       -0.045934662 -0.095612556 -0.048431337 -0.027729586
0001b0 44 b1 67 bd d8 96 89 bd 00 fb 42 bd 80 d5 eb bd
       -0.056565538 -0.06718224 -0.047602654 -0.11515331
0001c0 00 4f 89 3a 2c 87 e1 3d b0 f9 fb bc 1a 91 c1 3d
       0.0010475814 0.1101211 -0.030758709 0.09451504
0001d0 ae 9f 8e bd 48 75 5f 3d 9c c3 67 bd 00 6c 6f 3b
       -0.0696405 0.054555207 -0.056583032 0.003653288
0001e0 d4 3f d8 bd e0 e8 a9 3b f0 b6 f1 3c a0 1f c9 3b
       -0.10559049 0.0051852316 0.029506177 0.006137803
0001f0 58 c4 ce bc 60 76 84 bc 0e c1 af bd 3e 26 8d bd
       -0.025240108 -0.016169727 -0.08581744 -0.0689206
000200 25 61 32 3c 6e d4 92 bd c1 a5 34 bd 24 b6 73 bd
       0.010887419 -0.07169424 -0.044103388 -0.059499875
000210 25 48 2d bd 0b c1 23 3d 34 61 6a bd 4d 20 11 3e
       -0.04230513 0.039979022 -0.057221606 0.14172478
000220 07 e4 c8 3c 28 dd 86 3d ed 25 78 3d 33 42 01 3e
       0.024522794 0.06585151 0.060583044 0.12622909
000230 92 d9 dd bd c0 5c e6 bb 44 86 c8 bd 66 0a 19 bd
       -0.10832514 -0.0070300996 -0.09791234 -0.037363432
000240 98 1d ce 3d cc 5e c2 3d 16 71 ea bc 1e 5a dd bc
       0.10064238 0.09490737 -0.028618377 -0.02702051
000250 a0 28 80 bd 49 3d 0e 3c dc d7 ea bd 8e d0 f9 bc
       -0.062577486 0.008681604 -0.11466953 -0.030494954
000260 07 89 fd 3c b8 f1 1c bd 3f 5d 60 39 c3 0d a1 3b
       0.030949129 -0.03831646 0.00021397042 0.0049149706
000270 1b 84 4d 3d 0e fb ff bd 50 2c 4d bc 9f 47 92 bd
       0.050174814 -0.12499057 -0.012522772 -0.07142567
000280 83 b2 8f 3d cd ed 99 3d 83 e9 4c bd 60 65 c2 bd
       0.0701647 0.0751606 -0.05002738 -0.09491992
000290 53 50 94 3d d8 1d 85 3b 6b ec 37 bc 98 b5 05 3d
       0.07241883 0.0040623955 -0.0112258 0.032643884
0002a0 30 14 8b bd 58 2e f5 bd a2 df e3 3d 00 ed ae 3d
       -0.0679096 -0.1197173 0.11126639 0.08541298
0002b0 89 28 16 3d 36 da 61 3c 56 21 6f 3d 3d d5 84 3d
       0.03665975 0.013784936 0.0583814 0.064859845
0002c0 18 5c b1 bd 07 5e 8d bd 55 ce f4 bc 00 78 30 3d
       -0.086601436 -0.069027 -0.029883543 0.04308319
0002d0 f0 27 ee 3d b1 4f 12 3e 99 e2 12 be e9 45 18 bd
       0.11628711 0.14288212 -0.14344253 -0.037176047
0002e0 2a 62 71 3d 0d 92 c5 bc 8a 77 e0 3d 46 58 13 be
       0.058931507 -0.024117494 0.109603 -0.14389142
0002f0 74 14 5d 3d a6 85 c0 3d 01 01 cc bd 4d 03 db bd
       0.053974584 0.094004914 -0.09961129 -0.10693989
000300 95 69 0b 3e f3 8e ae 39 61 3b 08 3c 0b b4 c7 bd
       0.13614495 0.00033294372 0.008314938 -0.09751137
000310 94 3b ad bc a7 1e 35 3c a0 ff af 3d 1b 6f 86 bd
       -0.021146573 0.011054671 0.085936785 -0.065641604
000320 62 fe 12 bd e0 74 a7 3c a7 ed 07 3d 32 42 08 be
       -0.03588713 0.020441473 0.033185627 -0.13306502
000330 47 cf 34 bd 20 01 9c bd 87 29 2e bd 51 7c 9d 3d
       -0.044142988 -0.07617402 -0.042520072 0.07689727
000340 f9 65 03 3d c4 dd fd bd f8 7b b5 3d e1 86 7e 3d
       0.03207967 -0.12395814 0.08861536 0.06214035
000350 30 10 a7 bd 31 85 e7 3d 1e 31 f3 3d 73 ed 95 3d
       -0.081573844 0.11304701 0.11874603 0.073206805
000360 f5 c1 ef 3c 2f 77 19 3d c5 6a 1b 3d c5 a4 3d ba
       0.02926729 0.037467178 0.03794362 -0.00072343304
000370 b3 c1 c2 3d 82 e2 cc 3c c8 10 35 3d 9f 03 7e 3d
       0.095096014 0.025010351 0.044205457 0.062015172
000380 62 5a 7e bb e2 36 d5 3d 9c 82 8f bd 46 22 cb bd
       -0.0038811197 0.10410859 -0.07007334 -0.099186465
000390 27 3f 48 bd 65 17 20 bd b0 ad 41 bc c2 79 b9 bc
       -0.04888835 -0.03908481 -0.0118211955 -0.022641066
0003a0 ac fc dc 3d 26 85 f3 bc 98 fa d5 3c 6e 37 c8 3d
       0.10790381 -0.029726576 0.026120469 0.097761974
0003b0 ba d1 83 bd fe 1e 30 3d 1e fb 85 3d be 64 04 bd
       -0.064364865 0.042998306 0.065420374 -0.032322638
0003c0 40 f9 f1 3b 0b bf 00 bd 4f 2b b8 ba 94 a1 75 bd
       0.0073844492 -0.031432193 -0.0014050993 -0.059968546
0003d0 70 1e f8 bc d1 ea 1b 3b fd 41 53 bd 1f 28 cf 3d
       -0.030287951 0.0023791085 -0.051576603 0.10115074
0003e0 52 5c d1 bd f9 03 9e bd e4 8e 5e 3d 24 d0 33 3d
       -0.10222687 -0.077156015 0.05433549 0.04389967
0003f0 93 fa 08 3d 84 e4 a0 bd f8 35 c8 3d a6 95 c4 bd
       0.03344209 -0.07856086 0.09775919 -0.09598856

model.encoder.conv1.nn.2.bias f4 [64]
000000 b6 06 b4 bd 3c 2d 4f 3d 98 8d 3c bd ce 72 c5 bd
       -0.087903425 0.05058025 -0.04603347 -0.09641038
000010 12 ef de 3c 84 ba 53 bd bd ca 72 3d 86 3a 76 bd
       0.027213607 -0.051691547 0.059275378 -0.060114406
000020 7c 77 9e 3d 4f bc 00 3e 18 b5 16 bd 08 8e 24 3d
       0.077376336 0.12571834 -0.0367938 0.040174514
000030 d4 f3 9e 3b ba 7a e2 3d bc 3f 82 3d 3c 50 20 3b
       0.004850844 0.110585645 0.063598126 0.0024461886
000040 da 17 ad bd 8a 1e 9a 3d 2c 9f 62 3b 91 66 ff 3d
       -0.08451815 0.07525356 0.0034579737 0.12470735
000050 48 a7 87 3c fb fa 86 3d 1e 7f 3c bc f3 76 c7 bd
       0.016559258 0.065908395 -0.0115049165 -0.09739485
000060 8b 2c e9 3c b1 09 61 bd a7 8c a8 3d b3 b5 dc 3d
       0.028463623 -0.054940883 0.08229952 0.10776844
000070 93 f8 c8 3d 8e 3a bc 3d 00 d9 e3 bd 20 ce 06 bd
       0.09813037 0.09190856 -0.11125374 -0.03291142
000080 fb b4 4d bd 95 d5 5c 3d ce cf b8 3b cf 33 f9 3d
       -0.050221425 0.053914625 0.0056400066 0.12168085
000090 be 62 a0 3d cd 96 af 3d 59 07 88 3c 0d 8b de bd
       0.078313336 0.08573685 0.016605066 -0.108663656
0000a0 f5 a0 c5 3b e8 eb cf bd 5b 8a 6b 3d 9b eb fe bd
       0.0060311505 -0.101524174 0.057504993 -0.12447282
0000b0 1d bd 68 3d 07 0f 0b 3d df 20 64 3d 1b 82 e1 bd
       0.056820977 0.033949878 0.05569541 -0.11011144
0000c0 3a ab 8d 3d 19 33 00 3d 0d 70 a0 bd ff 72 8b 3d
       0.069174245 0.03129873 -0.07833872 0.06809043
0000d0 3e 88 0f bd 2c e1 5c 3d 8f ee 1e 3d 4b 80 fa bd
       -0.03504204 0.053925678 0.038801726 -0.12231501
0000e0 c0 61 00 bd 1b f1 0e 3d d4 d3 06 bd 88 37 a6 3c
       -0.03134322 0.034897905 -0.03291686 0.020290151
0000f0 7b 95 8d bd 64 4c e9 3d 58 bb f0 3d 5e cb ad 3d
       -0.06913277 0.113915235 0.11754483 0.08486055

model.encoder.conv2.nn.0.weight f4 [64, 64]
000000 98 89 b7 bc 80 80 64 bb 70 bc 29 bd e2 eb ee 3c
       -0.022404477 -0.003486663 -0.041439474 0.029165212
000010 8d b3 8c bd b8 c1 8a bd 37 51 c4 3c 96 69 d9 3d
       -0.06870184 -0.0677523 0.023964508 0.10615842
000020 83 d2 cf 3d 23 d0 e6 bd 52 23 87 3d 98 2d cb 3c
       0.10147574 -0.11270168 0.06598534 0.024802014
000030 61 49 45 3d 71 10 3c 3d 0d 7c f5 3d 74 f7 9d bd
       0.048165683 0.045914117 0.119865514 -0.077132136
000040 50 b8 97 3d 89 b3 e9 bc 89 37 7f 3c ac ac 78 3b
       0.07408202 -0.028527992 0.015577205 0.0037944717
000050 36 d5 c4 bd 18 63 d3 bc 8d c2 40 bd 25 67 96 3b
       -0.09610979 -0.025804088 -0.047060538 0.0045899325
000060 b7 ce b1 3d 17 24 ac 3d 59 c0 99 3c 54 5e 13 bd
       0.08682006 0.08405321 0.018768476 -0.03597863
000070 7e 0e b0 3d 29 e8 0e 3c fe fc c6 bd 67 e2 b6 3d
       0.08596514 0.0087223435 -0.09716223 0.089299016
000080 06 82 4d bc e4 6c 40 bd 4b 85 23 3d 89 fe 77 bd
       -0.012543207 -0.046978846 0.03992204 -0.060545478
000090 72 f0 0f 3d 86 39 a6 3d 08 b2 0f bd bb a7 31 bd
       0.035141416 0.081164405 -0.035081893 -0.04337285
0000a0 d8 1a 8c 3d 5f e8 b3 3d 1f c5 9b 3c ca 84 aa bd
       0.068410575 0.08784556 0.019014893 -0.08326109
0000b0 e9 68 f4 bd 32 a7 d3 bc f1 0e ab 3d 79 2e ee bd
       -0.119340725 -0.02583656 0.08352459 -0.11629958
0000c0 02 ab b3 3d 5d eb c9 bb 27 50 e5 3d ea 9b a9 bd
       0.087728515 -0.0061620907 0.111969285 -0.08281691
0000d0 6d 13 cb bd 72 7b fa 3d 18 9a dc bc 9d 40 bf bd
       -0.099158145 0.122305766 -0.026928946 -0.09338496
0000e0 00 54 66 3c a5 96 fb 3d 70 5d 94 bc ac 28 09 bd
       0.014058113 0.122845925 -0.01811096 -0.033486053
0000f0 da 7f 8a 3c 71 f1 a6 3d 63 90 b6 bd 33 09 cd 3a
       0.016906668 0.0815152 -0.08914258 0.0015643
000100 a8 63 cb bd 70 34 81 3d 38 8b ec 3d 13 b4 07 be
       -0.09931117 0.0630883 0.11549991 -0.13252287
000110 70 39 fb 3d d2 c1 83 3d 41 2f 02 be c0 2c 9d 3d
       0.12266815 0.06433453 -0.12713338 0.07674551
000120 2f c1 7d 3d 84 ea b1 3d c0 e4 ae bc 48 4a d7 bd
       0.061951812 0.086873084 -0.02134931 -0.10512215
000130 8b d9 56 bd e8 28 b9 bd 37 63 a0 3d 9d a9 85 3b
       -0.05245356 -0.090410054 0.07831424 0.0040790574
000140 d8 92 02 bc fa 28 b4 bd 14 c3 b4 bc ab 68 fe 3d
       -0.007969581 -0.08796878 -0.022065677 0.124223076
000150 d7 30 eb bc 1e 7c 58 3d ce 97 53 bd ac 25 db bc
       -0.028709812 0.052852742 -0.051658444 -0.026751362
000160 e2 0c 00 3d 31 e4 36 bc 9e 98 3a bb 7d a7 69 bd
       0.031262286 -0.0111628035 -0.0028472315 -0.057044495
000170 f6 ea 4a 3c fe 1b cb bd 20 dd 52 3c f3 b6 fc bc
       0.012385121 -0.099174485 0.012870103 -0.030848956
000180 a3 ea 7f 3d 3b 40 cb 3d d2 06 4f 3d 3b 56 8c bb
       0.062479626 0.0992436 0.050543614 -0.0042827404
000190 99 16 e5 bd b5 3e a6 3d 1d 11 95 3d 2d 6c d2 bd
       -0.11185951 0.08117429 0.07278655 -0.10274539
0001a0 ff 2e f5 3d d0 f0 3f 3d fd 9f 9d bd 9b 00 78 3c
       0.119718544 0.046860516 -0.07696531 0.015136863
0001b0 08 17 99 3d d4 a6 ef 3d 21 ed 75 bd 5b 27 bf bd
       0.07475096 0.11701742 -0.060040597 -0.09333678
0001c0 00 89 04 bd 2e d5 9b 3d cc aa a7 bd bf d9 c3 bd
       -0.032357216 0.0760902 -0.08186874 -0.09563016
0001d0 3c 06 4a bd 1b 03 98 3b 30 5c e9 3c 07 dc da bd
       -0.04932235 0.004639042 0.028486341 -0.10686498
0001e0 ec 9e 0c bd 3e 02 3c bb 47 87 9b bd 2c 19 d0 bd
       -0.034331247 -0.002868786 -0.075941615 -0.10161051
0001f0 c1 2c f2 3d 9d c1 b2 bd de 28 e0 bd 6d 72 bc 3d
       0.118249424 -0.08728335 -0.10945295 0.092015125
000200 68 19 98 3c 88 f0 fa 3d d6 5d eb bd 87 31 e0 bd
       0.018566802 0.12252909 -0.11492507 -0.109469466
000210 ad 16 cd bd 0c 1d f4 bd 28 fb 15 bd e8 12 fd bd
       -0.10014091 -0.11919603 -0.036616474 -0.12357122
000220 53 64 16 3d 93 56 9e 3c c0 d2 d1 bc da 69 8b bd
       0.03671677 0.019328391 -0.025613189 -0.06807299
000230 33 ae b0 3c d6 99 17 3d 2b 3a 9f bd e5 f4 c1 bd
       0.02156744 0.037011944 -0.077747665 -0.09470538
000240 3d 94 8d 3d 8b d7 48 bc b3 26 c5 3d ac 00 ea bc
       0.0691304 -0.012258421 0.09626522 -0.028564773
000250 93 d7 4a 3d b2 5e a2 bd 71 fd 35 3d c6 e7 fb bd
       0.049521994 -0.07928218 0.044431154 -0.12300067
000260 43 12 b0 bd 8e 48 81 3d 6a 72 e1 3d 99 bc 86 3d
       -0.08597233 0.06312667 0.11008151 0.06578941
000270 56 1e db 3d ed 92 25 bd 8c 41 b0 3d d7 9e 6e 3d
       0.106991455 -0.040423322 0.08606252 0.05825695
000280 9c 6a 50 3c 40 02 eb 3d fc 12 b5 3d c7 cd df 3a
       0.01272073 0.114750385 0.088415116 0.0017074876
000290 2a cb ad bd 5c 16 3b bd 87 f8 f3 bd e0 3f fb bd
       -0.08486016 -0.04567562 -0.11912637 -0.122680426
0002a0 2c de c9 bb 45 f3 b5 bd d9 ef aa bc a3 52 f5 3c
       -0.006160518 -0.088842906 -0.020866321 0.02994663
0002b0 f2 97 65 bd 26 cc 86 bd 57 61 fb 3b de 55 d0 3d
       -0.05605311 -0.06581907 0.007671516 0.10172628
0002c0 82 dd ab bd 10 c9 f3 bd 8d 2a d8 3d b6 01 50 bb
       -0.08391859 -0.11903584 0.10554991 -0.00317393
0002d0 b1 66 d4 bd f4 ac 0a bd 9f f7 9a 3d 09 7b 1e bd
       -0.10371149 -0.033856347 0.07566761 -0.038691554
0002e0 0c 3c e5 bd 07 ce e7 3d e0 93 a1 3b 2d bf f6 3c
       -0.11193094 0.113185935 0.004930958 0.030120457
0002f0 a1 6f 34 3d f9 35 e2 3d 07 9c da 3d ae 08 22 3d
       0.04405177 0.11045451 0.10674291 0.03955906
000300 c4 3d ec bd d0 d2 41 3d b1 e9 19 3d 4e 87 d7 3d
       -0.11535218 0.047320187 0.03757638 0.10523854
000310 5c f8 48 bd a0 4d e0 bb 11 e3 93 bd fd c7 91 3d
       -0.04906498 -0.006845191 -0.07221044 0.07118223
000320 09 8d e3 3d 48 e8 a9 bd a0 fc 8c bb f6 80 f1 3d
       0.11110885 -0.08296257 -0.004302576 0.117921755
000330 a5 8f a2 3c bd 52 c1 3d 02 48 d6 3c 47 17 6a bd
       0.019843886 0.09439609 0.026157383 -0.057151105
000340 af b4 be bd d0 c5 4a 3d 66 f8 e3 3d 3b ce cb bd
       -0.093118064 0.049505055 0.111313626 -0.09951445
000350 16 b0 30 3d 06 ae dc 3b 1b 67 fe bb b4 7a 69 bd
       0.04313668 0.0067346124 -0.007763756 -0.057001784
000360 96 9a 2e 3d 4a 0a 9d bd b5 40 51 3d 00 27 50 bc
       0.042627893 -0.07667978 0.0510871 -0.012704611
000370 f5 88 d4 bb 02 68 ce 3d ba b7 84 bd 7a 7d 9e 3d
       -0.006486053 0.10078432 -0.064803556 0.077387765
000380 f1 9e e8 bd d8 36 c3 bc 0c aa d8 bc f4 e3 f8 3d
       -0.11358441 -0.023829862 -0.026448272 0.121528536
000390 71 9d 8a bd a1 c7 e9 bc 86 c2 03 3d 75 1a 18 bd
       -0.06768311 -0.028537573 0.032167934 -0.037134606
0003a0 12 03 92 bd 89 38 16 3d f6 e0 12 bd 33 17 b3 bd
       -0.07129492 0.03667501 -0.03585907 -0.08744659
0003b0 f6 0e 8c bd c9 34 ad 3c 2f fe ff 3b 87 ed 8e bd
       -0.06838791 0.021143334 0.0078122835 -0.069788985
0003c0 cc 45 32 bd 00 50 e5 bd d7 a6 4a 3d f0 ff 6e bd
       -0.043523595 -0.111968994 0.049475517 -0.05834955
0003d0 7b 28 d6 3d a0 cb 9b 3d 42 92 c1 3d b6 61 85 bc
       0.1045694 0.07607198 0.094517246 -0.016281944
0003e0 80 c3 e7 3d bd a2 ff 3b 30 92 8d 3d 71 85 16 3d
       0.113165855 0.0078013823 0.06912649 0.036748353
0003f0 f2 24 71 bd 65 08 e6 bd 7e 9f e5 3d bc 08 ad bd
       -0.058873124 -0.1123207 0.11212061 -0.084489316

model.encoder.conv2.nn.0.bias f4 [64]
000000 21 85 ac bd f8 46 ba bd 96 14 cf bd ba 7e f4 bd
       -0.0842383 -0.090955675 -0.10111348 -0.11938234
000010 e0 58 e7 3c 47 e1 e9 bd 58 91 d7 3d 6d 06 c3 3d
       0.028240621 -0.11419921 0.10525769 0.0952271
000020 98 1e dd bc be 27 e5 3d 26 98 95 bd f2 92 9b bd
       -0.026992127 0.11189221 -0.07304411 -0.07596387
000030 bd ca 8b bd 44 b9 0f 3e 28 57 61 ba 23 25 f6 3d
       -0.06825779 0.14035517 -0.0008596056 0.12018802
000040 d6 36 93 3c 53 c8 6c 3d 26 0c cf 3b ba 76 b4 bd
       0.017970484 0.05780823 0.006318587 -0.08811708
000050 d6 57 ef 3d 56 08 d6 bb 86 33 05 3e c2 c0 46 bd
       0.11686675 -0.0065317554 0.13007936 -0.048523672
000060 26 0b 6d 3d 8e 0f 7a bc 44 a7 1d 3c b8 d3 7e 3c
       0.05787196 -0.015262498 0.009622399 0.015553407
000070 ec e5 b5 bd 04 f4 89 bd d5 a9 92 bd 5f f6 83 3d
       -0.08881745 -0.067359954 -0.07161299 0.06443476
000080 31 51 87 3d 64 6b 27 bc 0f 61 cd bd d0 da 54 bd
       0.06607283 -0.010218475 -0.10028278 -0.05196649
000090 ee 4f 0e bd e6 da 8f 3d 6e 54 a8 3d 78 8e 13 3d
       -0.034744196 0.070241734 0.08219229 0.03602454
0000a0 3a c7 db bd e9 af be bd a0 50 da bd 32 07 b9 3d
       -0.10731359 -0.09310896 -0.10659909 0.090345755
0000b0 2f 0c c7 3d f7 ef fb 3d d2 04 5f 3d c3 95 03 be
       0.09719121 0.12301629 0.054447956 -0.12850098
0000c0 06 8a ab bd a6 1a c9 3d 64 78 74 bc 5c 5c 2f bd
       -0.08375935 0.09819536 -0.0149212815 -0.04281269
0000d0 63 01 89 3d 80 2e 04 be 0a 44 c3 bd 28 10 da 3d
       0.066897176 -0.12908363 -0.09534462 0.10647613
0000e0 16 b5 00 be 62 e9 97 3c d7 cf 2b 3b 6f 9d d7 bc
       -0.12569079 0.018543903 0.0026216411 -0.026320187
0000f0 82 2e de 3d 9b a6 60 3d 0b ea ed 3d b5 ad 76 3d
       0.108487144 0.054846387 0.11616906 0.060224254

model.encoder.conv2.nn.2.weight f4 [64, 64]
000000 d7 95 7a bd 68 b8 e5 bd b2 d8 bd 3d d1 a2 37 3b
       -0.061178055 -0.11216813 0.09269847 0.002802063
000010 60 2d d4 3b b0 cd 26 3d 3b bf f8 bd 1a 90 32 bd
       0.0064751357 0.040723503 -0.12145849 -0.043594457
000020 1c 31 8f 3d 57 31 f2 bd 9a df 8e 3d 2c a7 ee bd
       0.06991789 -0.11825817 0.06976242 -0.11652979
000030 24 ce cd bd 8f be 24 be 2d 03 ac bd 25 fe ba bd
       -0.10049084 -0.16088317 -0.08399043 -0.091305055
000040 b7 fd 5a b9 f1 e6 fa bd 8c b8 de 3d 42 14 4a 3d
       -0.00020884616 -0.1225108 0.10875043 0.049335726
000050 4a b6 80 bd 27 b2 89 bd ad fe d5 bd 38 92 ce 3d
       -0.06284769 -0.06723433 -0.10448966 0.10086483
000060 c8 77 e5 3d 04 b4 d8 3d 0f fb b5 3d e2 c0 97 bd
       0.11204487 0.1058121 0.08885776 -0.07409836
000070 cc fc 36 bc 3d 49 bc 3d 98 ce 80 3d c0 e0 12 3c
       -0.01116867 0.091936566 0.06289405 0.008964717
000080 db b5 92 bd a2 d3 dc bd 1c 20 42 3d 44 82 c4 3d
       -0.071635924 -0.10782553 0.047393903 0.09595159
000090 b7 7a 8b 3c 2f 4d 75 3d fc ca 01 3e 10 0d c5 3d
       0.017026288 0.05988806 0.12675089 0.09621632
0000a0 e8 72 be bd 70 45 c6 3d 04 cf a5 3d 0b 89 d4 3d
       -0.092992604 0.09681213 0.08096126 0.10377701
0000b0 21 e2 08 3d 50 ee c4 bc ec b7 2a 3d ab 6a 8b 3d
       0.03341878 -0.024039418 0.041679308 0.06807455
0000c0 a2 da c6 3d 50 8e 5f 3b bf aa 85 bd 00 5c 4f bd
       0.0970967 0.0034111924 -0.06526708 -0.050624847
0000d0 8f d4 81 3d 40 a0 52 3c 94 d2 8b 3d 9e 13 e9 3d
       0.063393705 0.012855589 0.06827274 0.11380695
0000e0 2e cd b1 3c 18 e0 41 bd 0c c2 bf 3d f5 45 db bd
       0.021704283 -0.047332853 0.093631834 -0.107067026
0000f0 34 12 8f bd b1 4a df bd 43 53 b9 bd 90 b9 9c bc
       -0.06985894 -0.10902918 -0.09049084 -0.019131452
000100 af 70 bf 3d e1 46 8c 3d d5 0a 59 bc 62 fd 08 3e
       0.093476646 0.068494566 -0.013247211 0.13377908
000110 4e 97 88 bd 90 33 bc 3d 86 12 6b bd 6e eb 02 3d
       -0.06669484 0.09189522 -0.057390712 0.031962804
000120 31 b3 ec 3d 93 7e 2b 3d e8 f8 8c 3d 5e d9 8a bd
       0.115576155 0.041868757 0.068834126 -0.06779741
000130 b0 13 66 3d 48 de b6 bd 07 38 e3 3d 6f b8 01 be
       0.05617112 -0.089291155 0.11094671 -0.12668012
000140 b2 0e 89 3d 4d 8a 60 bd 0f 55 a5 3d 79 de ca 3d
       0.06692256 -0.054819394 0.08072864 0.099057145
000150 0f a9 83 3d 5d d3 d6 3b 40 96 52 3d 5d cf dd bd
       0.0642873 0.006555958 0.05141282 -0.10830567
000160 e2 fb 5d 3b bc 46 c8 bd f5 2a 7e 3c 3d 92 bf bd
       0.0033872058 -0.097791165 0.015513171 -0.093540646
000170 ab d0 12 3d d7 02 26 bd ff e6 e6 3d 93 03 d7 bd
       0.035843533 -0.040530052 0.11274528 -0.104987286
000180 71 7f c5 bc 80 b1 84 3d 66 e0 28 bd 10 9d b1 3d
       -0.02410862 0.06479168 -0.041229628 0.086725354
000190 08 49 d5 bd 2a dc 4e 3d e3 63 bf bd ba 63 ae bd
       -0.1041432 0.050502934 -0.09345224 -0.08515115
0001a0 5e 57 fb bd c7 36 9a 3d 08 dc 34 bd 48 3f dc 3d
       -0.12272523 0.07529979 -0.04415515 0.107542574
0001b0 bb ae d1 bd df a4 9a bd c0 01 8b bd 5d ab cc bd
       -0.10238405 -0.07550978 -0.06787443 -0.099936225
0001c0 a1 03 67 bb 82 0c db bd ec 38 58 3d 92 0e 8f bc
       -0.0035249966 -0.10695745 0.05278866 -0.017463002
0001d0 f7 43 ca bd c2 b5 85 bb 94 f7 8c bd 13 91 d3 bd
       -0.098762445 -0.004080505 -0.06883159 -0.10330405
0001e0 9f 9d 80 bd 25 5c c9 bd da 55 2d 3d 08 f0 da 3d
       -0.06280064 -0.09832028 0.042318203 0.106903136
0001f0 2e 4e 81 bd 0a 30 22 bd 5a 7a 9e 3d ce d7 b8 3d
       -0.0631374 -0.039596595 0.077381805 0.090255365
000200 32 22 ba ba 5d 0b 32 bd 5f 87 5d bc 01 40 42 3d
       -0.0014200865 -0.043467868 -0.0135210445 0.04742432
000210 38 1e 72 3d df 42 25 bd 55 95 6f bd ac d7 cb 3d
       0.05911085 -0.040346976 -0.058492023 0.099532455
000220 4e 6f ec 3d 50 ec b8 3d 3c 93 f9 bd ae 6f df bd
       0.11544667 0.09029448 -0.12186286 -0.10909973
000230 64 21 a9 bc c1 55 68 bd d3 b4 a5 3c a3 72 61 3c
       -0.020645805 -0.056722406 0.020227825 0.013760242
000240 f2 cd 3c 3d 7d 66 37 3c 45 62 e0 bd 82 54 f4 bd
       0.046094842 0.011193869 -0.109562434 -0.11930181
000250 cf 2c 00 bd fe 20 2a 3d 3e 55 02 3c 65 e1 81 3d
       -0.031292733 0.04153537 0.007954894 0.06341819
000260 86 b8 be 3d 2b f6 83 3d e6 df 55 bd 98 1b bb 3d
       0.09312539 0.06443437 -0.05221548 0.091361225
000270 ac f6 c9 bd 1d c0 00 be bc a6 2f bc b8 3f 7d bd
       -0.09861502 -0.12573285 -0.010720905 -0.061828345
000280 49 78 56 3c d1 8f c0 3c cd ea 36 3d 18 62 d0 bd
       0.013090202 0.023506077 0.044657517 -0.1017496
000290 2d 3c ab bd ad 39 b6 bb 2c bd 9b 3d 9c 09 fb 3d
       -0.08361087 -0.0055610747 0.07604441 0.12257692
0002a0 68 2d 5d bd 52 92 92 3d 27 b3 71 bd 92 88 4c 3d
       -0.05399838 0.07156815 -0.059008744 0.04993493
0002b0 d0 92 79 bd cf b3 84 3d 26 ba 93 bd 6d 70 47 3d
       -0.060931027 0.06479608 -0.07213239 0.048691202
0002c0 89 a3 86 bd e4 87 bd 3c 62 3a e8 bd 7c ca 02 be
       -0.065741606 0.023136087 -0.11339261 -0.12772554
0002d0 b4 13 71 3d 2b bf 80 bd 58 86 ca bc 90 94 ef 3d
       0.05885668 -0.062864624 -0.024722263 0.11698258
0002e0 f5 82 90 3d e6 3c 82 bd 42 06 82 38 27 1e 81 bd
       0.07056228 -0.06359272 6.200049e-05 -0.06304579
0002f0 90 9c f5 3d 3f ed 95 3d 2a 9b f7 bc 95 92 8c ba
       0.119927526 0.07320642 -0.030225355 -0.0010724837
000300 46 59 9e 3d 58 60 aa 3d f0 2d ad bc 0c 04 4d 3d
       0.07731871 0.08319157 -0.021140069 0.050052688
000310 a8 13 59 bd fb 23 4a bb 52 2a 93 3d e2 1e 25 bd
       -0.05299726 -0.00308442 0.07185806 -0.040312655
000320 7a c3 90 bd df 9b d0 3c ba ac f5 bd be 9b f2 3d
       -0.07068534 0.02546495 -0.119958356 0.11846112
000330 59 92 d1 bc 7d 3a 04 be 8c 00 c3 3d 2e fa f3 bd
       -0.02558248 -0.12912937 0.09521589 -0.11912952
000340 9b bb d1 3c 73 89 56 3d fb ef 9f 3d bf e1 e0 bd
       0.025602153 0.052377176 0.078094445 -0.10980558
000350 72 8d 95 3a 74 05 92 bd cd e5 c7 bd e2 c2 df 3d
       0.0011409952 -0.07129946 -0.09760628 0.10925843
000360 16 92 a2 3d 15 9f 86 bd 39 a4 53 bd 6e 7d e2 bd
       0.0793802 -0.06573311 -0.051670287 -0.1105908
000370 c6 0f f7 bc e5 a1 f5 bd b7 7a e1 bd c5 da b6 3d
       -0.030158889 -0.119937696 -0.11009734 0.08928446
000380 d5 e5 88 3d 53 c2 7e 3d 37 60 d9 bc b4 10 80 3d
       0.06684462 0.06219704 -0.026535137 0.06253186
000390 c6 9d 6a bd 5c 1b 3e 3d e9 3f 34 3d 66 0d 9c 3d
       -0.05727937 0.04641281 0.044006262 0.07619743
0003a0 36 1f 8f bd ac 3d fe bd 12 d4 79 bd 4a 0e f1 bd
       -0.06988375 -0.12414107 -0.06099326 -0.117703035
0003b0 ad a7 bb 3d f3 01 02 bd d0 00 bb 3b 97 ad 22 bb
       0.09162841 -0.03174014 0.005706884 -0.0024822706
0003c0 3f d3 8f 3d 6e a0 ce bb 67 3a eb 3b 15 69 6b 3d
       0.07022714 -0.006305746 0.007178593 0.05747326
0003d0 90 9a c1 3d 1c 8a ba 3d 30 7d fe 3d d6 eb d5 bc
       0.094533086 0.091083735 0.12426221 -0.026113432
0003e0 76 4a 34 bc a2 d3 a4 bd 3e f2 ed bd 84 cd c7 3d
       -0.011004081 -0.08048178 -0.1161847 0.09755996
0003f0 8c 33 93 3d de f6 cc bc 84 06 b5 3b 6c 85 bb 3d
       0.07187566 -0.02502006 0.0055244584 0.091563076

model.encoder.conv2.nn.2.bias f4 [64]
000000 fe 78 96 3d 4e 74 30 3d ea ff 5e 3d 5d 4d ef 3d
       0.07347296 0.043079667 0.054443277 0.11684678
000010 37 39 9c bd bb 55 67 3d 8d 91 f6 bd a3 db 45 3d
       -0.076281 0.056478243 -0.1203948 0.048305165
000020 80 4e e0 3c 18 e6 e8 3c a8 52 cb bc 8c f6 e2 3d
       0.027381182 0.02843003 -0.024819687 0.11082181
000030 00 cd c5 3d 8c fe 5d bd 9b 60 04 be 77 a0 44 3d
       0.09658241 -0.054197833 -0.12927477 0.048004594
000040 52 0b 70 3d 68 2d 8e bd cd 07 7c 3d 02 04 9a bc
       0.058604546 -0.06942254 0.061530877 -0.01880074
000050 75 7b d9 3d 64 41 a0 3c de 35 8f 3d b4 a5 01 be
       0.10619251 0.01956243 0.06992696 -0.12660867
000060 c1 b0 2b 3d 3a dd b2 3d eb 10 b8 3d 38 f4 0d 3d
       0.041916613 0.08733602 0.08987602 0.034656733
000070 48 cc 6f bd 3b 3a ea 3d 58 73 77 3d 6c f9 01 bc
       -0.058544427 0.11436888 0.060412735 -0.007933002
000080 77 57 ca bd 8f 77 f2 3d f1 a7 59 3d ff 86 a4 bd
       -0.09879964 0.1183921 0.053138677 -0.08033561
000090 44 f7 fb bd 40 71 44 bb 10 88 85 3d 27 86 42 bd
       -0.123030216 -0.0029974729 0.065200925 -0.04749122
0000a0 00 b7 ae bd 46 fa 83 3d 52 05 b9 3d 9d 43 46 bc
       -0.08530998 0.0644422 0.09034218 -0.012101081
0000b0 cd 4e 98 bd 15 55 70 bd 7f 35 d1 3d 68 51 9b 3d
       -0.07436905 -0.05867489 0.10215282 0.075838864
0000c0 dc 0e eb 3d d8 2e a0 3d 4d 58 ad 3d e5 0b 1c 3d
       0.114774436 0.07821435 0.08464108 0.03809728
0000d0 00 89 49 3a c1 92 b3 3d 2e d5 7c 3d d8 45 d9 3b
       0.0007687956 0.087682255 0.06172674 0.0066306405
0000e0 8f 39 87 bd a8 7e ef 3d f2 20 d7 3d 16 25 84 bc
       -0.06602775 0.1169408 0.10504331 -0.016130965
0000f0 14 bd 3b 3d 2d 1f d9 bc 05 90 c3 bd 10 20 26 bd
       0.045834616 -0.026504124 -0.09548954 -0.04055792

model.classifier.weight f4 [2, 64]
000000 0b 7d d7 3d 68 42 5e bd ef 73 53 3d 48 b3 03 3e
       0.10521897 -0.05426255 0.051624235 0.12861359
000010 66 87 c2 3c 85 98 b6 3d 53 ec d6 bc ce 25 06 3c
       0.023746204 0.089158095 -0.026235735 0.008187724
000020 2c 91 93 bd 1f 3a 89 bd 8a 60 d5 bd 72 8c 49 bd
       -0.07205424 -0.06700539 -0.10418804 -0.049206205
000030 5c 0d d2 bd 9c 34 a5 bd 66 62 bf 3d 41 f3 cf 3d
       -0.10256454 -0.08066675 0.0934494 0.10153819
000040 13 9f 96 3d d0 f2 e8 3b 68 1f d3 3d bb 87 c2 bb
       0.0735456 0.0071090236 0.10308725 -0.0059365905
000050 44 c0 ec 3c ad 02 15 3c 93 0f d8 3d c1 63 3e 3d
       0.028900273 0.009094876 0.105498455 0.04648185
000060 40 68 eb 3d ea 88 4f 3d db ea da 3d 55 a3 72 3d
       0.114944935 0.05066768 0.106893264 0.059237797
000070 5e ab 0d be d0 1e 89 bd 88 34 e2 bd 94 8f 01 bc
       -0.13834903 -0.0669533 -0.11045176 -0.007907767
000080 b1 36 19 3d 98 16 3a 3d 6b 60 01 be 98 ae b7 3d
       0.037405673 0.045431703 -0.12634437 0.08968848
000090 8c 79 0e 3d ee 73 b9 3d eb a1 d9 3d 12 1a 0f 3d
       0.034783885 0.09055315 0.106265865 0.034936972
0000a0 00 31 5a bc a6 17 33 3d d0 7b 2a 3d 7f 07 dc bd
       -0.013317347 0.043723725 0.041621983 -0.10743617
0000b0 72 85 42 3b e3 2c 69 bd 06 35 55 3d 30 51 bf bc
       0.002968159 -0.056927573 0.05205252 -0.023354143
0000c0 5f 38 2b 3d 5c e5 06 bd 01 c2 07 3d ff 93 f4 3d
       0.041801807 -0.032933578 0.033144 0.119422905
0000d0 f8 22 c8 3d 14 2e 76 3d de 28 da bd 8d 50 90 bd
       0.09772295 0.060102537 -0.10652326 -0.07046614
0000e0 34 4d f6 bd 56 24 af 3d b8 31 5b bd 98 c8 d8 3d
       -0.12026444 0.085518524 -0.053514212 0.10585135
0000f0 2c 33 73 3d 4b e0 e1 3d a3 a4 45 3d 82 ab ce bd
       0.059374973 0.110291086 0.048252713 -0.10091306
000100 a6 f7 a8 bd 1f a0 6b 3d b5 ab c4 bd 50 5e 02 bd
       -0.0825036 0.05752575 -0.09603063 -0.031828225
000110 c1 b0 c5 3c 69 05 f8 3c 7d 9e 18 be e0 0d b1 3d
       0.024132134 0.030276017 -0.14904208 0.086452246
000120 76 7c 94 3d 10 8e 9e 3d 1e 9e f2 3c a1 31 d4 bd
       0.072503015 0.0774194 0.029616412 -0.103610285
000130 04 7f 24 3e 6c a9 56 bc 69 3d ae 3d 9f 41 0a 3d
       0.16064078 -0.013101917 0.08507807 0.033753987
000140 51 31 e5 3d 01 2e df bd 59 db 60 bc c3 85 66 3d
       0.11191047 -0.108974464 -0.013724172 0.05627991
000150 ee 6e cb 3c 77 e6 dd bc 9d 01 fa bd 78 a2 34 3d
       0.024833169 -0.027087433 -0.12207339 0.044100255
000160 08 8a d0 3d dd 47 e8 3d c2 64 bf 3d 21 2a 7f 3d
       0.10182577 0.11341832 0.0934539 0.062296037
000170 cd 75 90 3d 36 ab 08 3e 8b 57 a6 3d 10 bf 24 bd
       0.07053719 0.13346562 0.08122166 -0.040221274
000180 67 ec e7 bd 07 fa b4 bc d6 e4 c5 bd d1 1d 84 3d
       -0.11324387 -0.022091879 -0.096627876 0.064509995
000190 ae 13 91 bd fa 2b c6 3d fb fa 1f bd 9a a4 f6 bd
       -0.07083832 0.096763566 -0.039057713 -0.12043114
0001a0 b2 9a b1 bd 90 03 a3 bd 30 0f 95 bd c0 60 b0 3d
       -0.08672084 -0.07959664 -0.072782874 0.086122036
0001b0 06 2e 01 3d 3c 8e 14 3e 97 dc 35 bc 2f 11 e8 bd
       0.031538032 0.14507383 -0.011099956 -0.113314025
0001c0 d2 71 c2 bd ae 6e a9 ba e1 06 ee bd b1 3d a3 3d
       -0.09494366 -0.0012926662 -0.11622406 0.07970751
0001d0 a8 6b 7e 3d c2 63 ec bc 86 b1 d2 bd c6 ed 84 3d
       0.062114388 -0.028856162 -0.10287766 0.06490664
0001e0 bb 7f 3f bd 7c 15 b8 3d 2e f4 cf bd 68 df 1e 3d
       -0.046752673 0.08988473 -0.101539955 0.038787276
0001f0 e8 83 2b bd c4 cb 36 bd 78 b5 e1 bc ea fb 86 3d
       -0.041873842 -0.04462792 -0.027552351 0.065910175

model.classifier.bias f4 [2]
000000 90 ad fc bd 90 29 7b 3c
       -0.12337792 0.0153297335

exp_avg f4 [64, 3]
000000 2f 86 0a 3b 27 08 38 3b 98 5a d2 b9 e5 cf 88 3a
       0.0021137109 0.002808103 -0.0004012182 0.0010437934
000010 97 e0 cc 3a 45 6f ac 36 c1 b1 1c 3b a5 69 39 3b
       0.0015630898 5.138953e-06 0.002390966 0.0028291729
000020 75 a9 68 b9 84 e1 43 b9 1e b1 06 39 74 29 29 38
       -0.00022188372 -0.0001868066 0.00012845217 4.0331346e-05
000030 0c b9 05 3b 7e 05 21 3b b3 eb 7f ba 37 d9 b3 b9
       0.0020404486 0.0024569924 -0.00097626 -0.00034303378
000040 75 c2 49 b8 70 1d 69 39 00 00 00 00 00 00 00 00
       -4.8103237e-05 0.00022231578 0.0 0.0
000050 00 00 00 00 2b 1b 82 b8 69 c7 28 3a 27 01 2f 3a
       0.0 -6.2039435e-05 0.0006438406 0.0006675892
000060 e4 0b e8 3a bf be 20 3b ff ec 07 b8 7f 60 ed 39
       0.0017703739 0.0024527756 -3.2407228e-05 0.00045276058
000070 b8 fd ed 38 9a 47 44 3a 11 84 81 ba 4b 0d 54 ba
       0.000113482994 0.0007487476 -0.0009881278 -0.0008089139
000080 de 8f ca 38 cb ae 17 3a 51 60 e8 39 d8 3a 5a 3a
       9.658908e-05 0.0005786239 0.0004432225 0.00083248084
000090 96 fe 87 b7 44 62 32 ba 8d 7f 1a b8 00 00 00 00
       -1.6211805e-05 -0.0006804804 -3.6835252e-05 0.0
0000a0 00 00 00 00 00 00 00 00 15 75 0e b9 8e 91 77 b9
       0.0 0.0 -0.00013585792 -0.00023609979
0000b0 50 96 18 39 68 3e d2 3a f4 e9 26 3b df 29 56 b8
       0.00014551845 0.0016040327 0.0025469037 -5.106057e-05
0000c0 e3 a4 e8 3a 80 da 0c 3b d8 b9 7f b7 00 00 00 00
       0.0017749335 0.002149254 -1.52424545e-05 0.0
0000d0 00 00 00 00 00 00 00 00 7b 4b 41 3a d3 1d 28 ba
       0.0 0.0 0.0007373613 -0.00064131356
0000e0 c6 e8 e9 38 33 a2 2d 3a 28 d6 6f 3a b1 75 de 38
       0.00011153663 0.0006623596 0.0009149038 0.00010607707
0000f0 fb 27 e0 38 ff 46 9f 39 48 ab f2 b8 ca 8b 96 ba
       0.00010688599 0.0003037974 -0.00011571363 -0.0011485752
000100 e8 da 90 ba 56 7a c4 b9 00 00 00 00 00 00 00 00
       -0.0011051567 -0.0003747518 0.0 0.0
000110 00 00 00 00 f6 d1 48 bb 4b 0a 03 bb e4 6a 09 3a
       0.0 -0.0030642725 -0.0019995149 0.0005242063
000120 ab 40 7e 3a 2d fe 1b 3b a2 26 49 3a 96 53 a2 3a
       0.00096989673 0.0023802624 0.0007673298 0.001238453
000130 1b 67 d3 3a f0 c1 8d b9 27 26 7b 3a c5 b9 0e ba
       0.001612875 -0.0002703811 0.0009580575 -0.0005444552
000140 17 fa b0 ba 8d 3a 68 38 88 9a 80 39 fc a3 c8 37
       -0.0013502267 5.536764e-05 0.00024529197 2.3918219e-05
000150 b4 92 ec ba 50 22 ac 3a 69 33 c2 b9 f2 38 be b9
       -0.0018049092 0.0013132785 -0.00037040867 -0.00036282052
000160 b8 98 08 3a f5 98 2e 39 c6 47 8c 39 a9 fb 15 3a
       0.0005210745 0.00016650914 0.00026756356 0.0005721399
000170 77 c8 d6 38 13 a5 7c ba 14 a9 0f 39 4d a4 e1 38
       0.00010241655 -0.0009637635 0.00013700529 0.000107594395
000180 73 80 3d b7 30 22 0c b9 06 c6 98 b8 17 5d cf b9
       -1.1295185e-05 -0.00013364176 -7.2848095e-05 -0.00039551474
000190 16 78 00 b9 d8 91 7b 39 26 fe b6 3a d4 3c 38 3a
       -0.00012251767 0.00023991556 0.001396124 0.0007028107
0001a0 05 67 25 b8 61 56 ce 39 2e 59 bb b9 c4 47 0c 3a
       -3.943501e-05 0.0003935574 -0.00035733863 0.000535127
0001b0 a4 4d 74 39 a3 d0 93 b9 0c 72 ee 39 fa 59 2b 38
       0.00023298577 -0.0002819347 0.0004547987 4.0853374e-05
0001c0 e2 79 ae 39 8d 34 8f 37 17 4a f0 b6 5b e4 17 38
       0.00033278676 1.70714e-05 -7.1611826e-06 3.6213878e-05
0001d0 e3 19 1a b9 7d 59 74 3a e2 ee 67 3a 74 ac 9f ba
       -0.00014696228 0.0009321196 0.0008847547 -0.0012182132
0001e0 f3 46 32 bb 8c eb ea ba 8f 9a 80 39 12 22 6e 37
       -0.0027202934 -0.0017922982 0.00024529218 1.4193838e-05
0001f0 85 f3 2b b8 d1 96 95 37 00 00 00 00 00 00 00 00
       -4.0996372e-05 1.7832414e-05 0.0 0.0
000200 00 00 00 00 a2 9b b2 b4 20 5c 52 ba 00 00 00 00
       0.0 -3.3268321e-07 -0.0008024592 0.0
000210 3d 90 2c bb 56 80 76 3a 58 63 70 39 d4 8e 13 3b
       -0.002633109 0.0009403279 0.00022925192 0.0022515552
000220 65 a8 d5 3a 52 18 fa b9 d8 fe 76 b9 8f 60 57 3a
       0.0016300796 -0.00047701836 -0.00023555325 0.00082159875
000230 1b 35 b4 3a dd 6a 0b ba fb 24 1b ba c6 6d 16 ba
       0.0013748737 -0.0005318353 -0.0005918291 -0.00057384034
000240 00 00 00 00 00 00 00 00 00 00 00 00 0d da bb 3a
       0.0 0.0 0.0 0.0014331952
000250 59 15 01 3b 20 ff 3b b8 dc fb d6 39 1e cd e7 39
       0.0019696562 -4.4821878e-05 0.0004100491 0.00044212578
000260 43 95 8d b9 00 00 00 00 00 00 00 00 00 00 00 00
       -0.00027004824 0.0 0.0 0.0
000270 6e 20 43 3a af 59 1f 39 6c a8 58 3a 53 b5 b9 b8
       0.0007443492 0.00015196831 0.0008264843 -8.855262e-05
000280 0b 5a 21 b9 17 df 8b b9 97 74 24 3a a0 a8 85 3a
       -0.000153877 -0.0002667836 0.0006273477 0.0010197349
000290 90 32 15 b9 0c 82 44 ba 1b a5 0f ba 58 48 a5 b9
       -0.00014228583 -0.0007496185 -0.000547962 -0.00031525153
0002a0 56 7d 95 39 47 fe 70 ba e8 72 8b b8 88 7a f9 3a
       0.00028512877 -0.0009193164 -6.6494395e-05 0.001903371
0002b0 49 8f 1e 3b a4 31 23 39 00 00 00 00 00 00 00 00
       0.0024194291 0.00015563384 0.0 0.0
0002c0 00 00 00 00 f0 af 0b b8 32 43 2b 39 72 0d 8f 39
       0.0 -3.3304037e-05 0.00016332863 0.00027285103
0002d0 94 67 4e 39 75 b8 d7 38 d1 32 75 b9 43 0a 2f 3b
       0.00019684277 0.00010286357 -0.00023383951 0.0026708997
0002e0 4b a1 39 3b 77 96 89 ba 14 fe 17 3a 02 26 0a 3b
       0.0028324898 -0.0010497113 0.00057980535 0.0021079783
0002f0 9e 5c 79 ba 90 d4 ed b8 10 3f 62 ba 57 43 6a ba
       -0.0009512397 -0.000113406335 -0.0008630613 -0.0008936426

exp_avg_sq f4 [64, 3]
000000 bf fc 94 37 5c 98 16 37 1a 05 0e 34 ff b9 dd 35
       1.7760669e-05 8.976171e-06 1.3226636e-07 1.6519915e-06
000010 fc f0 45 37 82 fb ab 33 d1 02 0c 38 c3 dd f4 36
       1.1798224e-05 8.008557e-08 3.3381224e-05 7.297583e-06
000020 6f b3 4f 34 51 37 28 34 d8 de ad 35 c4 0c 85 33
       1.9343655e-07 1.5666343e-07 1.295436e-06 6.195617e-08
000030 90 45 d9 38 6f 0f 8a 38 99 54 09 35 8c 8f c5 35
       0.00010360323 6.5832275e-05 5.1159583e-07 1.4719421e-06
000040 46 d5 c5 37 f5 d1 ec 33 00 00 00 00 00 00 00 00
       2.3583543e-05 1.1027797e-07 0.0 0.0
000050 00 00 00 00 58 b3 c0 38 ed 52 b1 35 95 14 05 35
       0.0 9.188679e-05 1.3211662e-06 4.957631e-07
000060 29 aa bb 37 d2 88 f6 37 b4 dd cc 32 0e 6e 00 35
       2.2371374e-05 2.9389197e-05 2.3849545e-08 4.7843866e-07
000070 01 9e ba 32 39 e4 15 35 47 40 87 37 2c 32 25 37
       2.1725102e-08 5.5838933e-07 1.6123186e-05 9.846448e-06
000080 6e e6 c6 34 5b 63 5d 38 bb 5d 21 35 96 07 95 34
       3.7048034e-07 5.2783038e-05 6.011357e-07 2.7758932e-07
000090 11 da f5 30 e9 f8 73 35 88 dc 0c 30 00 00 00 00
       1.7888074e-09 9.0886766e-07 5.1245097e-10 0.0
0000a0 00 00 00 00 00 00 00 00 6d 36 74 34 2f d7 f1 35
       0.0 0.0 2.2744071e-07 1.8018526e-06
0000b0 b7 93 8a 33 20 14 97 36 4e 03 5f 37 42 2f 3a 34
       6.452995e-08 4.5024935e-06 1.3292605e-05 1.7339792e-07
0000c0 d4 7d 40 37 a2 a0 c3 36 e1 e1 68 32 00 00 00 00
       1.1473388e-05 5.830153e-06 1.3555536e-08 0.0
0000d0 00 00 00 00 00 00 00 00 74 22 59 37 a3 cb d0 36
       0.0 0.0 1.294223e-05 6.2225895e-06
0000e0 9e 63 b8 33 02 30 11 35 d3 61 17 36 22 7d c6 32
       8.586288e-08 5.408657e-07 2.2557695e-06 2.3107138e-08
0000f0 9e f8 cf 33 fd 48 3e 36 b2 a7 00 34 4d 15 75 35
       9.684412e-08 2.835469e-06 1.1981936e-07 9.130061e-07
000100 0f 8c 9b 36 fd 29 7c 35 00 00 00 00 00 00 00 00
       4.635665e-06 9.3938417e-07 0.0 0.0
000110 00 00 00 00 b0 2d a7 37 22 35 e4 38 8e f7 eb 34
       0.0 1.9929226e-05 0.00010881784 4.395228e-07
000120 2a e7 60 38 6d 2d ee 36 da 26 79 35 e0 73 3a 37
       5.362105e-05 7.098241e-06 9.2816265e-07 1.1113443e-05
000130 2b f3 f7 36 52 02 7e 34 5c ad 06 38 a9 43 74 37
       7.389482e-06 2.3656438e-07 3.2109543e-05 1.4559287e-05
000140 b2 b6 94 35 5b 19 7a 37 c0 d9 96 33 8b 3c e4 31
       1.1080031e-06 1.4907065e-05 7.024528e-08 6.6425563e-09
000150 af cb 8e 37 46 6e d4 36 c3 2f 59 33 df 8c 6f 35
       1.7022567e-05 6.33093e-06 5.056769e-08 8.923943e-07
000160 4a 62 4b 37 4e 0d bd 33 cd ad bb 38 16 ad 9b 35
       1.2122628e-05 8.8034184e-08 8.949228e-05 1.1598775e-06
000170 39 95 9e 33 b6 13 08 38 1a 27 0e 32 ff 3a 2e 32
       7.384592e-08 3.2443284e-05 8.2743785e-09 1.0141547e-08
000180 16 5c 97 34 00 1d a6 36 dc 8c 3f 33 ab 7f 82 36
       2.8192943e-07 4.9505616e-06 4.4598764e-08 3.8891644e-06
000190 b7 eb 37 37 68 e4 81 34 69 1b 81 37 b6 73 85 35
       1.0962532e-05 2.419431e-07 1.5390762e-05 9.942949e-07
0001a0 a1 4b ed 30 ad 53 e5 37 ea 63 dd 36 8b 51 1d 35
       1.7265515e-09 2.7337892e-05 6.597945e-06 5.860572e-07
0001b0 a0 ff 16 38 64 f8 7f 36 bc 14 3c 34 b1 ce bf 32
       3.6000856e-05 3.8142543e-06 1.7516408e-07 2.2329319e-08
0001c0 27 ee 0b 36 b9 59 51 34 25 f6 b1 30 c9 4c 51 33
       2.0851237e-06 1.9497283e-07 1.2948403e-09 4.873144e-08
0001d0 a9 85 bc 33 18 c5 f1 38 85 d7 8c 37 77 e2 61 35
       8.778745e-08 0.00011528487 1.678966e-05 8.414858e-07
0001e0 f1 80 1d 37 69 b6 fa 37 dd f4 d4 34 ed 05 da 32
       9.387951e-06 2.9887264e-05 3.966624e-07 2.5381235e-08
0001f0 7f ac 9d 35 03 77 34 30 00 00 00 00 00 00 00 00
       1.1747615e-06 6.5652744e-10 0.0 0.0
000200 00 00 00 00 1c a1 77 2a 70 6a c2 33 00 00 00 00
       0.0 2.1993903e-13 9.05319e-08 0.0
000210 6d 61 45 39 6a 73 32 35 2e 01 a4 34 cc 43 8c 38
       0.00018823678 6.6478117e-07 3.054824e-07 6.6883484e-05
000220 7b cd dd 37 95 a5 46 34 4c 8c 5a 39 38 d1 2e 36
       2.6440937e-05 1.8500425e-07 0.00020842365 2.6049802e-06
000230 1b 00 f3 35 23 88 8d 34 9a de 7d 36 48 7a fc 34
       1.8104942e-06 2.636235e-07 3.782951e-06 4.702763e-07
000240 00 00 00 00 00 00 00 00 00 00 00 00 5b 2a 44 38
       0.0 0.0 0.0 4.6769488e-05
000250 a2 db e6 36 3e b8 50 34 5a 14 97 36 4e 62 59 37
       6.880103e-06 1.9438536e-07 4.50252e-06 1.2957096e-05
000260 5f ee 9d 33 00 00 00 00 00 00 00 00 00 00 00 00
       7.354242e-08 0.0 0.0 0.0
000270 3d 9c e2 36 40 83 07 35 fe 02 d0 34 e1 3a c3 32
       6.7535134e-06 5.0482413e-07 3.8745196e-07 2.2727763e-08
000280 85 22 cb 33 f8 19 d6 34 48 24 9c 37 44 88 ec 35
       9.459203e-08 3.98795e-07 1.8613544e-05 1.7623029e-06
000290 42 45 a4 34 57 61 11 36 66 4a dd 37 19 bf 43 35
       3.0597772e-07 2.1663343e-06 2.6379897e-05 7.2921245e-07
0002a0 99 ba 25 38 96 6b 0e 36 67 48 16 33 83 5b 25 38
       3.9512848e-05 2.1222272e-06 3.4990446e-08 3.9424292e-05
0002b0 bd 58 82 36 f8 0f f1 34 00 00 00 00 00 00 00 00
       3.8846324e-06 4.4901367e-07 0.0 0.0
0002c0 00 00 00 00 99 4e 55 34 68 ce c0 36 8b 61 a5 34
       0.0 1.9865765e-07 5.7460747e-06 3.0804617e-07
0002d0 e2 c1 c3 33 6f 65 a1 35 c3 c2 8f 33 67 0b 5f 38
       9.115662e-08 1.2024956e-06 6.6943834e-08 5.3177962e-05
0002e0 ca 57 8c 38 95 f6 1f 35 99 e7 44 39 11 71 12 38
       6.692072e-05 5.959094e-07 0.00018778293 3.4914414e-05
0002f0 80 65 bf 34 07 77 0a 38 0a 78 29 36 29 d8 bc 34
       3.5650373e-07 3.3012617e-05 2.5252834e-06 3.5175006e-07

exp_avg f4 [64]
000000 72 66 73 3a 29 bd 14 3a 50 3e 9e 3a 8d 06 f2 b7
       0.000928498 0.0005673939 0.0012073014 -2.8851699e-05
000010 89 40 99 3a ff b2 2c b9 00 00 00 00 68 a8 9e b7
       0.0011692207 -0.0001646988 0.0 -1.8913488e-05
000020 c2 28 72 3a 79 f3 83 39 5f 09 c3 b9 4a 3b 51 39
       0.0009237641 0.00025167668 -0.0003720028 0.0001995388
000030 41 90 00 b9 00 00 00 00 49 6c c1 b8 d3 90 7a 3a
       -0.0001226077 0.0 -9.223127e-05 0.00095583237
000040 1c 8b 4e 3a 00 00 00 00 26 e3 41 38 98 52 9e 39
       0.0007879005 0.0 4.6226334e-05 0.00030197646
000050 51 5a 2d 38 3f 1a 14 ba 00 00 00 00 5b 9c a8 ba
       4.1330528e-05 -0.0005649663 0.0 -0.001286398
000060 34 cc 39 3a e0 7c 1c 3a 9d 03 17 39 50 eb 44 b8
       0.00070876186 0.00059695356 0.00014401828 -4.6949193e-05
000070 da bb df 37 dc 50 b6 b7 46 82 a7 b8 11 19 8c b9
       2.6671147e-05 -2.1733744e-05 -7.987446e-05 -0.00026721557
000080 37 de 23 b8 64 30 1d b9 d9 f2 11 3a 82 77 00 39
       -3.9069182e-05 -0.00014990714 0.0005567498 0.00012251551
000090 ed fb 91 b8 24 b4 81 38 65 cf af b7 86 1b 08 3a
       -6.9610636e-05 6.184753e-05 -2.0958201e-05 0.00051920896
0000a0 3f 6f 8b ba e5 e9 88 b7 00 00 00 00 66 9c 98 b9
       -0.0010638012 -1.6321379e-05 0.0 -0.00029108225
0000b0 1d 56 25 ba 73 45 73 3a 54 ef bd 37 13 2f a2 b9
       -0.00063070824 0.0009280063 2.2642002e-05 -0.0003093412
0000c0 00 00 00 00 6f ee 4a 3a d2 13 5e 39 00 00 00 00
       0.0 0.0007741218 0.00021178953 0.0
0000d0 b2 5c 75 39 9f e0 98 b8 8a 5a ea 39 71 b9 08 ba
       0.00023399552 -7.289764e-05 0.00044699415 -0.0005215621
0000e0 ae ff 1a b8 f7 26 3b 3a 00 00 00 00 50 fa 55 b7
       -3.695458e-05 0.000713929 0.0 -1.275407e-05
0000f0 07 e6 6f 38 e9 a1 ac 3a e4 93 4d 3a aa 96 22 b9
       5.719627e-05 0.0013170812 0.0007842167 -0.0001550565
