lightning_logs/version_221/checkpoints/epoch=19-step=300.ckpt (torch, 45797 bytes, 30 tensors)

model.encoder.conv1.bias f4 [32]
00000000: 6b2f 49bc 2a5b dd3a 0000 0000 8233 4ebb
00000010: b6b6 be3b e793 c5bb 5d66 6f3b f8ad 63bb
00000020: deaa 823b ec5f d4bb 4e34 bcba 3297 a1b9
00000030: 9121 713c b9c2 9cba 5f1d 723b ef4d 13bc
00000040: f40f 823c 08d9 7f3a 0000 0000 d993 cdbb
00000050: 77df 163c f43a d9bb 0000 0000 0000 0000
00000060: 0834 273c 0000 0000 3b24 693c 3a59 54bc
00000070: 8b82 493b a2e0 023c b969 303c ecf0 4239
-0.012279372 0.0016888131 0.0 -0.0031463807 0.0058201207 -0.006029594 0.003652952 -0.0034741145
0.003987654 -0.0064811613 -0.001435885 -0.00030820962 0.0147174755 -0.0011959887 0.0036943776 -0.008990749
0.015876748 0.0009759818 0.0 -0.0062737283 0.009208552 -0.006629342 0.0 0.0
0.010205276 0.0 0.014229829 -0.012960726 0.0030747976 0.007988127 0.010767394 0.00018591032

model.encoder.conv1.lin.weight f4 [32, 3]
00000000: 0038 f0bd f617 813c a326 58bd e29c d1be
00000010: 3101 973d b5af 54be b507 57be 7cb9 37be
00000020: 8f72 28be bc79 043d 8902 a4bd 3812 ff3d
00000030: 4e68 9dbe 70d8 6d3e 2e18 7c3e dee4 253e
00000040: f1e6 ac3d 4b04 babd a183 44be 9a9b 4c3e
00000050: 219c 933e 439b 983b 8156 293d 13d0 843e
00000060: 926b 21be c943 8f3e 2bf6 9b3e ff26 763e
00000070: 9840 5c3e 3223 373e 2630 c33e 6b07 bf3e
00000080: a8ad c93e 5905 053d 0a79 173e 0179 b63e
00000090: 8427 efbc 89d4 c5bd 535f 6e3e 932f 913e
000000a0: 097d 1b3e dfd4 60be 1275 563e 95ef 6a3e
000000b0: 55e1 be38 1daa a9be 8e07 4a3e 5f03 7bbe
000000c0: 83a2 d7bd e3e7 703c d6f3 803e ecee 173e
000000d0: a775 0b3e abc6 843e d8e8 b3be 2ce3 c7bd
000000e0: 0218 80be e9ef 163e 9e41 da3d 74ed cb3d
000000f0: cb36 853e 2682 61be 84e6 c8bd 5157 ccbe
00000100: 0be9 a83e 1454 c63e a78d bcbe cd6e a2be
00000110: 5433 c2bd ec9c 87bd c16a 62be 5ca6 e2bd
00000120: 5e90 13be 62fe 293e 7bc0 a63d a039 13bd
00000130: 840c b9bd 0c71 8bbd 1a9a ad3d 5eca bcbe
00000140: df37 913d 3381 fdbd f18d 47be 5f23 833d
00000150: d2f2 b93e ddb3 323e 476a a4be 4d62 7fbe
00000160: 3e45 9b3e 0f8a d93e 3690 943e cee9 a1be
00000170: d348 863e 4aef c43e 7bfa b33e d8a6 803e
-0.11729431 0.015758496 -0.05277122 -0.40940005 0.07373274 -0.20770152 -0.20999034 -0.1794185
-0.1644995 0.032342657 -0.08008296 0.12454647 -0.3074364 0.23227096 0.24618599 0.16200587
0.08442486 -0.0908285 -0.19190837 0.19981232 0.28830054 0.0046571805 0.041342262 0.25939998
-0.15763691 0.27981403 0.3046125 0.24038313 0.21509016 0.1788452 0.38122672 0.37310347
0.39390302 0.032475803 0.14792266 0.35639194 -0.029193647 -0.096596785 0.23278551 0.2835661
0.15184416 -0.21956204 0.20943096 0.22942956 9.1018774e-05 -0.331376 0.19729444 -0.24513005
-0.105290435 0.014703724 0.25186032 0.14837235 0.136191 0.25932822 -0.35138583 -0.097601265
-0.25018317 0.14739956 0.10657047 0.099574 0.26018366 -0.22022304 -0.09809592 -0.39910367
0.32990298 0.38736022 -0.36826822 -0.3172516 -0.09482446 -0.06621727 -0.22111036 -0.11066887
-0.1441054 0.16600946 0.081421815 -0.035943627 -0.0903559 -0.06808671 0.08476658 -0.36873144
0.07090735 -0.123781584 -0.1948774 0.06403231 0.3631807 0.17451425 -0.32112333 -0.24939843
0.30326265 0.42488143 0.29016274 -0.3162369 0.26227435 0.38463813 0.3515204 0.25127292

model.encoder.conv2.bias f4 [32]
00000000: 7d55 283c 7e2c d43b 62c4 d6bb eda7 f23b
00000010: 44e3 673b a95a 84bb f9a9 5fbb 04aa 9fbb
00000020: 0000 0000 0910 fa3a 75d6 a23b f75f 643c
00000030: 6a30 c6bb 1911 c1bb d353 53bb 004a f5ba
00000040: 91ac e23a d3cc bb3b 5767 1b3b 9ea1 1dbb
00000050: 764c 94bb 4ae1 003c 0bac 86ba 0000 0000
00000060: 770e f43a 0087 dd3a 0000 0000 528f 59ba
00000070: 7d66 55bb 41c3 7439 5f21 adbb 8aca c23b
0.010274288 0.0064750304 -0.0065541724 0.007405272 0.0035383264 -0.004039128 -0.0034128411 -0.0048725624
0.0 0.0019078265 0.004969413 0.013938895 -0.006048252 -0.005891931 -0.0032246008 -0.001871407
0.001729386 0.005731204 0.0023712718 -0.002405263 -0.0045257164 0.007866213 -0.0010274661 0.0
0.0018620034 0.0016901195 0.0 -0.00082992495 -0.0032562308 0.00023342391 -0.005283519 0.0059445547

model.encoder.conv2.lin.weight f4 [32, 32]
00000000: 424e dfbd bb1b 6d3e f6b9 a8bd b6f3 103e
00000010: 66c4 0f3e 2938 d9bc 9b7c f5bc 59e0 92bd
00000020: 1245 573e 89bf 44be 862f 15be def0 4a3e
00000030: 7a5b d4bd ff8a 513d b2d0 b4bd 8bd2 c6bd
00000040: 1081 bebd f00b 0abe 572c 8c3e 61aa 0bbe
00000050: 6195 403e 91ac 11be d38c 21be ed21 913e
00000060: 7609 fa3d fa77 523e 9701 e2bd 9650 60be
00000070: d501 8d3d e534 983e bf88 433e acc4 373e
00000080: 2811 823e 8fa1 53be 803f 323c ec2a 533e
00000090: 08a5 77be 60dc 7a3e f6c8 7c3e fb78 efbd
000000a0: f5bb a6bd dfd8 5c3d f0de f2bc 8085 2dbe
000000b0: 100c 44bc 53dd e5bd 1d38 d43d 7a14 973d
000000c0: 07b3 493e 1803 e3bc 0df2 833e ffdf 833e
000000d0: bd5a 97be 2c61 16be 4ef6 483e cae1 1a3e
000000e0: 607e 68bd b45b cc3d ad2d 4f3d c010 9d3d
000000f0: efa3 27be c9e3 27be 49a8 b53d 924d c13d
00000100: b9fc 57be 8e61 07be 20c6 1bbd ccca 7ebd
00000110: f0f4 f2bd eb50 88be 39e5 57be 8fe5 3abd
00000120: d0da 21be ba4f 3e3e 0d67 8ebe 7c48 6b3d
00000130: 158d 88be 557b f6bc 1da8 1ebd 879c 433e
00000140: cd59 49be a8e0 923e bcf3 e43d d956 573d
00000150: c71d 5a3a f640 8f3e 6e33 613e 6cba 1a3e
00000160: 9bb5 6dbe c313 8b3e ca4b 8c3c e961 52be
00000170: 56ac 18bd 9b62 8c3e 14e7 14be c3c0 4a3d
00000180: 536e 56be 581d 83be 171e 963e 34ca 833d
00000190: 0e2f f6bd 04ba 8ebe aa16 88bd d399 783e
000001a0: a278 56bc 9706 453d f64e e3bd 27b7 4f3e
000001b0: 9442 3e3e 22d4 46be c831 963e 1d07 8fbe
000001c0: ea66 773c ea66 353d 9b0e 68be 4a36 4dbe
000001d0: 36fe f33d 8aa3 4c3e 08bf 15be 66c0 3b3e
000001e0: 9ad9 a13e 9f4f 833e 464f 29be 3bfe 02bd
000001f0: d003 5d3e ce7d 1b3e 3408 af3d 121b 5239
00000200: a0b5 4bbe bfea adbd a01a 8abe 129e 633e
00000210: 5973 aabc 644d 003c 18f3 fe3d ffef 37bd
00000220: f1d8 e23d 1177 463e 7227 153e 7fdc f5bd
00000230: 4066 843d 4b12 353e cf7c 87be 26b6 4bbd
00000240: c75b 4b3e c7a3 6bbc 7ed7 b8bd 7b46 49be
00000250: 6bf7 713e c8b7 6cbe f8d2 393e d075 91bc
00000260: a4a5 3d3e 37b9 883e 9777 413d c466 60be
00000270: f2fa bdbd 6ed0 703d d2f6 b73d bf90 993e
00000280: 1188 153e 4cbc 973d d434 f5bd 22cf 43be
00000290: d05b bdbc a5ce 553e 0cd7 4dbe 567e 91be
000002a0: c37e 1a3c d8d3 b4bd 5dff 2b3e b779 0b3e
000002b0: a931 d0bd 4039 733e 5f95 13bd 1f53 66bc
000002c0: 97a5 ed3d 6c5a 523e 4088 b7bb f168 973e
000002d0: 7bc1 8e3e c5a0 363b a0f8 8abc 805a 1bbe
000002e0: 1318 b53d 8c13 ebbd 8588 82be 100c 7e3e
000002f0: 0f76 2c3e 4099 8abe 9086 683e 510c cc3d
00000300: 17bc 333e 283d 1f3e 302d c1bc ed01 5cbd
00000310: 9312 75be ed57 5abe 5aac 76bd e61a 88bd
00000320: d675 9fbe 8e12 403e 6eeb 733e 7ff7 2e3e
00000330: bb49 8d3e d801 a23d 9ebb 3dbe e82a 83bd
00000340: 9389 8d3e fab3 543e ce4e 523e 457c 8abe
00000350: c474 183e 14be efbd be54 363e c025 cb3d
00000360: e18a 9dbe 68f2 103e 0d40 c93d 1aa8 943e
00000370: 29b7 90be 53fb 4bbe 67a7 073d 4c5e 563e
00000380: 1ac2 133e 6cc8 743c 90b5 9abe 238d 40be
00000390: 028e 893d f138 dfbd 077a d3bc ff80 46bd
000003a0: 5834 893e 457c 033e d9d7 8ebe 76a9 bcbd
000003b0: 9834 433e 1e51 733c 1b7b 10be 378a 3dbe
000003c0: 0729 c23c 1df0 ea3d f8fe bd3d 05f2 08be
000003d0: 54fc 493e cc02 483d ee42 5d3e 17d2 80be
000003e0: 98c3 c13d 06cd dcbd 875f 94be 6c2f 7a3e
000003f0: efd3 9bbe a960 d8bd d2a9 c03d 1ecf c13d
-0.10903598 0.2315511 -0.08238594 0.14155468 0.14039764 -0.026516037 -0.029966643 -0.07171697
0.21022442 -0.1921369 -0.1456891 0.19818446 -0.1036901 0.051157948 -0.08828868 -0.09708127
-0.093019605 -0.13481116 0.2737758 -0.13639213 0.18806984 -0.14225985 -0.15776376 0.28346196
0.12208836 0.2055358 -0.110354595 -0.21905741 0.06885115 0.29727855 0.19095133 0.17946118
0.25403714 -0.20667098 0.010879397 0.20621842 -0.24184048 0.24498129 0.24686036 -0.11692997
-0.08141319 0.053917762 -0.02964732 -0.16945457 -0.011965767 -0.11223855 0.10362265 0.073769525
0.196972 -0.027711436 0.25770608 0.25756833 -0.29561415 -0.14685506 0.19625208 0.15125194
-0.056761146 0.099784285 0.05058067 0.076692104 -0.1637113 -0.16395487 0.088699885 0.094386235
-0.210925 -0.13220808 -0.038030744 -0.06220512 -0.11863124 -0.26624236 -0.21083535 -0.04562908
-0.15806127 0.18585101 -0.27812997 0.057442173 -0.26670137 -0.030088106 -0.038734544 0.19102679
-0.19663163 0.28687024 0.11179301 0.05257306 0.0008320477 0.2797925 0.21992275 0.15110177
-0.23213808 0.27163514 0.017125983 -0.20545162 -0.037273727 0.2741898 -0.14541274 0.04950024
-0.20940523 -0.25608325 0.29319832 0.064350516 -0.12020694 -0.27876294 -0.06644948 0.2427743
-0.013090285 0.048101988 -0.11099045 0.20284711 0.18580085 -0.1941686 0.29334855 -0.27935115
0.01510022 0.0442876 -0.22661822 -0.20040241 0.11913721 0.1998426 -0.14623654 0.18335113
0.3161133 0.25646684 -0.16534147 -0.031980734 0.21583486 0.1518471 0.085464865 0.00020037245
-0.19893503 -0.0849204 -0.26973438 0.22228268 -0.020806955 0.007830951 0.1244871 -0.044906612
0.110765345 0.19381358 0.14565828 -0.12004947 0.06464815 0.1768276 -0.2646241 -0.049734257
0.19859229 -0.014382309 -0.09025477 -0.19655792 0.23629539 -0.23116982 0.18146884 -0.017756373
0.18520218 0.26703808 0.04723319 -0.21914202 -0.0927638 0.058792524 0.08982624 0.29993245
0.14602686 0.07408962 -0.11972967 -0.19121984 -0.023115069 0.2087961 -0.20101565 -0.284167
0.009429636 -0.088294685 0.16796632 0.1362065 -0.10165722 0.23752308 -0.036031123 -0.014057904
0.116038494 0.20542306 -0.005600959 0.2957225 0.2788199 0.0027866822 -0.016964257 -0.15171242
0.088424824 -0.11478338 -0.2549478 0.24809289 0.16841911 -0.27070045 0.22707582 0.09963287
0.1755222 0.15550673 -0.023581117 -0.053712774 -0.23932867 -0.21322604 -0.06022296 -0.066457555
-0.3114459 0.18757078 0.23820278 0.170866 0.27595314 0.07910508 -0.18528602 -0.06404668
0.27644023 0.2077178 0.20537874 -0.27047935 0.14888293 -0.117061764 0.17805764 0.099193096
-0.3077002 0.1415497 0.0982667 0.290345 -0.2826474 -0.19920091 0.03311863 0.20934409
0.14429513 0.014940362 -0.30216646 -0.1880384 0.06716539 -0.108995326 -0.025815023 -0.048462864
0.26797748 0.12840374 -0.27899054 -0.092120096 0.19063032 0.014850883 -0.14109461 -0.18509756
0.023701204 0.11471579 0.09277147 -0.13373573 0.19725162 0.048830792 0.21607563 -0.25160286
0.09461135 -0.107812926 -0.28979132 0.24432153 -0.3043513 -0.105653115 0.09407391 0.094633326

model.pooling_fn.gate_nn.0.weight f4 [32, 32]
00000000: ea43 e23d 38cd 2dbe f7e9 003e 7186 2f3e
00000010: 9957 22be 11ab a4bd d949 283e b0e3 d5bc
00000020: aa84 bb3d 66dd ce3d 3c83 3d3d f032 663d
00000030: 92c2 de3d e698 abbd 78ed a1bc 9e87 f63d
00000040: f0a8 7e3c f8c4 b33c 56b4 c23d cc78 16be
00000050: 3584 a8bd a0d1 b9bd 5b55 92bd 1f60 303e
00000060: 0148 0a3e 2895 c8bd 3b97 a9bd 9c12 0bbe
00000070: 8216 ff3d 8b32 00be ea4b c53d 571b 9dbd
00000080: 96e9 f93d 777e 163e fda8 b3bd 32eb 0abe
00000090: c0c7 7fbb 2ad4 10be da73 c23d 63e1 313e
000000a0: e64b 853d b018 5abc 9b14 25be ecaa 1bbd
000000b0: deaf e0bd 673a 8dbd a56d c8bd 2040 2cbc
000000c0: 6099 4dbc 6282 12be 0098 a13c a08e 853d
000000d0: 8035 c03b 543d e8bd 30d7 36bc 60aa 843c
000000e0: 84b4 2cbe 33a0 2f3e b137 133e 01e6 27be
000000f0: 906f 153c 1dbd 143e 7117 1d3e 0a94 9f3d
00000100: 9017 4c3d d00f 833c c863 1a3d 1dd2 0e3e
00000110: 6063 1b3d 00d1 4dbb a284 873d abef 273e
00000120: 7226 df3d c0e6 233b 84af 0e3d a30a 0f3e
00000130: b038 913d 4ecc e2bd d1e5 313e 2693 cf3d
00000140: dc18 c6bd 678e 1dbe f084 23be 2084 d9bb
00000150: 507d 523d 5384 cfbd eb2b 0abe b40b 3bbd
00000160: 3d6f 0a3e 206f 8fbd 751e 053e 4775 07be
00000170: 4296 d13d a019 3b3c e7f9 2b3e b69c b33d
00000180: 4201 d03d 38d6 84bc f0d3 0fbc b212 f33d
00000190: 1b22 09be 5ff3 a5bd 5815 4a3d 8036 a43c
000001a0: 2698 d73d 7235 79bd ec0b 6a3d a5ae 083e
000001b0: 26a8 acbd 33a5 313e 60d8 e13c 7217 ea3d
000001c0: 345d bcbd bdb2 e8bd bbb7 193e 05f4 12be
000001d0: 0009 bb3a 2445 2ebe 54ad 3ebd b055 80bc
000001e0: fbca 31be 2f61 01be 5c5a 2fbd 2438 2e3d
000001f0: cbca 92bd 8973 cebd d19c 0dbe 814e 9fbd
00000200: a007 363d ec82 e4bd a0bf 8e3c 6cf0 443d
00000210: 3cfe bebd e050 f7bb c8f2 0fbe a593 05be
00000220: 7b02 0dbe 0daa 2abe cb5e 323e 3060 49bd
00000230: 46fd fbbd 280a 273d 2649 efbd 7ab7 55bd
00000240: 4832 83bc 8a37 d73d 90ec e6bc a3ad c2bd
00000250: a218 1fbe d424 423d bcde 90bd f853 95bc
00000260: c072 e1bb 645b 1cbe fe1e d6bd aa7f 62bd
00000270: 409b b93b 08e0 9bbc 7091 363d 89a3 173e
00000280: 820c 053e 2328 c2bd 84a7 fe3d 3d2b e53c
00000290: 00dc 15be 05f8 df3a bca0 64bc f7e1 583c
000002a0: 6171 1fbe ed3e e43c bf46 603d eb95 a03c
000002b0: cd6b 573d 9654 cdbd 4cc3 83bd 5597 79bd
000002c0: 5e28 1a3d b4de e53c 7303 fd3d 4513 adbd
000002d0: 7298 493c 962b a83d d1b9 853b 83cf c2bd
000002e0: 9e35 18be 5c96 1dbc 473d 273e 7b21 0ebd
000002f0: f285 9f3b 0b63 ba3d d790 573c 559d 70bd
00000300: a052 af3d f5ad 02ba 2ba4 35be 639d 51bd
00000310: b51d 05be 6a14 11be d7c6 ed3d 0bc4 213e
00000320: b80e 4e3d e904 3fbe d1a8 a1bc ea80 c6bd
00000330: 5ba5 abbd 6953 76bd 4e89 39bd fd0b 4b3d
00000340: 5217 363e 6119 1b3e 55bf b3bc 81d6 0f3e
00000350: eca5 5f3c 2687 0ebe d5ee 5ebd 6a3c ca3d
00000360: a14f 453e c29c abbd 6084 aa3b 61f9 31bd
00000370: 19b6 6b3c eece b7bd f42d eabb c4ff d23d
00000380: 577c 89bd 080c 623d ca23 c23d c019 263d
00000390: 0042 363b c072 6abb d240 e53d 2294 c43d
000003a0: 9bd9 20be d8d7 9b3c f0c3 b1bc d814 35bd
000003b0: 03b5 97bd c676 e83d 4bb6 8abd 8a18 a43d
000003c0: b06f 79bc 00e4 66bc 14a5 bfbd aab2 f33d
000003d0: 53c6 bfbd d56e 313e 51c1 343e a7a1 dfbd
000003e0: 0879 f0bc 0502 29be d1a8 8abd 47c7 093e
000003f0: 67a1 25be f3f2 093e 64db 22be a67a c2bd
0.1104811 -0.16972816 0.1258925 0.17141129 -0.15853728 -0.08040441 0.1643442 -0.026109546
0.09156163 0.10100822 0.046267733 0.05620092 0.10876955 -0.083787724 -0.019766554 0.12037586
0.0155432075 0.021944508 0.095070526 -0.14694518 -0.082283415 -0.09073186 -0.071451865 0.17224167
0.1350403 -0.09794074 -0.08280798 -0.13581318 0.12455465 -0.1251928 0.0963362 -0.0767123
0.12202756 0.1469668 -0.08772466 -0.13566282 -0.0039028972 -0.14143434 0.09494753 0.17371134
0.06508617 -0.01331155 -0.16121142 -0.0380048 -0.10971044 -0.06895905 -0.09786538 -0.0105133355
-0.0125487745 -0.1430755 0.0197258 0.06521344 0.0058657527 -0.113398224 -0.011159703 0.016194522
-0.16865736 0.17150955 0.14376713 -0.16396333 0.009120837 0.14525266 0.15340973 0.07791908
0.04982716 0.01599875 0.037692815 0.1394734 0.03793657 -0.0031405091 0.066170946 0.1640002
0.10896005 0.0025009364 0.034835353 0.13968901 0.070908904 -0.11074124 0.17372824 0.10135488
-0.0967271 -0.15386353 -0.1596868 -0.006638065 0.05138904 -0.10132661 -0.13493316 -0.045665458
0.13518997 -0.07003617 0.129999 -0.13228332 0.102337375 0.011419684 0.16794549 0.087701246
0.1015649 -0.016215429 -0.008778557 0.118688 -0.13391916 -0.0810306 0.04933676 0.020045519
0.10527067 -0.060841985 0.057140276 0.13347872 -0.08430509 0.17348175 0.027568996 0.11430253
-0.091974646 -0.113622166 0.15011494 -0.14350899 0.001426965 -0.17018563 -0.046552017 -0.015665859
-0.17362587 -0.12634729 -0.042810783 0.04253401 -0.07167586 -0.1008063 -0.13829352 -0.07778645
0.044440866 -0.11157784 0.017425358 0.048080847 -0.09325835 -0.007547483 -0.14057457 -0.13044603
-0.13770477 -0.16666432 0.17418973 -0.049163997 -0.123041674 0.04078117 -0.11683874 -0.05217693
-0.016015187 0.1050864 -0.028188974 -0.09505775 -0.1553674 0.047398403 -0.07073733 -0.018228516
-0.0068801343 -0.15269238 -0.1045513 -0.05529753 0.005664259 -0.019027725 0.044572294 0.14808477
0.12993053 -0.09480312 0.12434295 0.02797472 -0.14634705 0.0017087465 -0.013954338 0.013237468
-0.15570594 0.027862037 0.05475497 0.019602736 0.05259304 -0.10025899 -0.06433734 -0.060935337
0.037636153 0.028060295 0.123541735 -0.08450941 0.012304412 0.08211438 0.004080989 -0.09512236
-0.14864203 -0.009618368 0.16331969 -0.0346999 0.0048682624 0.09100922 0.013157091 -0.058743794
0.08560681 -0.0004985028 -0.17738406 -0.051175486 -0.12999614 -0.14167944 0.11610191 0.1579744
0.050307006 -0.18654217 -0.019733818 -0.09692557 -0.083811484 -0.06013814 -0.04529696 0.04957198
0.17782333 0.151464 -0.02194182 0.1404667 0.013650399 -0.13918743 -0.054426987 0.09874804
0.19268657 -0.083795086 0.0052037686 -0.043450717 0.014386677 -0.089750156 -0.0071465913 0.1030269
-0.06713169 0.055187255 0.094794825 0.0405519 0.0027810335 -0.0035773963 0.11194004 0.095985666
-0.1570801 0.01902382 -0.021699876 -0.04420933 -0.07407572 0.11350779 -0.06773051 0.08012493
-0.015224382 -0.014092445 -0.09357658 0.11899312 -0.09363999 0.17327435 0.1765187 -0.109195046
-0.029354587 -0.16504677 -0.067704804 0.13454925 -0.16174851 0.13471584 -0.15904003 -0.094960496

model.pooling_fn.gate_nn.0.bias f4 [32]
00000000: bf3e 25be 0e1e 13be 018f 01be d06a 7b3c
00000010: 47f8 13be 8cbd 003e 7d73 123e 133e 1dbe
00000020: 3d00 343e 5452 1cbe 25ee 0f3e 64fa 02bd
00000030: 074b 13be d060 b03d 288c 183d d910 053e
00000040: a82f 67bc 7ff2 a6bd c908 18be 804f ff3b
00000050: 89ea f4bc d99e 3bbc 19b4 e0bd e59b 12be
00000060: 9969 013e a921 92bd c399 563c 4b67 93bd
00000070: 9b63 fa3d f689 8b3b 8632 76bd 2217 75bd
-0.16137217 -0.14366934 -0.12652208 0.01534529 -0.14450179 0.12572306 0.14301868 -0.1535571
0.17578216 -0.1526578 0.14055689 -0.031977072 -0.1438409 0.086122155 0.03724304 0.12994708
-0.014110483 -0.08151721 -0.14847101 0.0077914596 -0.029896991 -0.011451446 -0.10971851 -0.14317282
0.12637939 -0.071353264 0.013098183 -0.07197436 0.122260295 0.0042583896 -0.060106777 -0.059836514

model.pooling_fn.gate_nn.2.weight f4 [1, 32]
00000000: 5c16 0c3d 4468 48bd 6c76 073d f359 273e
00000010: 3874 5c3d 8949 c33d ee92 0fbe 3c0e 8f3d
00000020: cf95 483e d728 34be 4eff 113e 2f80 33be
00000030: d233 c13d 4a70 9c3d 456b 25be 9221 ae3d
00000040: 0589 19be d291 f6bd bfb8 06be 2444 f3bd
00000050: 0c6c 143d 7934 8c3c 0fd9 19be 40f0 563c
00000060: f2c9 14be f3a6 31be 064e bb3d 5543 e1bd
00000070: 29b6 b53d 07dd edbd cc04 133d c05f 30bd
0.03420101 -0.04892756 0.03307192 0.16342907 0.053821772 0.0953551 -0.14020893 0.06985137
0.19588397 -0.17593704 0.14257547 -0.17529367 0.09433712 0.07638605 -0.16154201 0.08502497
-0.14993675 -0.12039532 -0.13156413 -0.11878231 0.036235854 0.017114865 -0.15024208 0.0131188035
-0.14530161 -0.17348842 0.09145741 -0.10999171 0.08872635 -0.11614423 0.035893247 -0.043060064

model.pooling_fn.att_pool.gate_nn.0.weight f4 [32, 32]
00000000: ea43 e23d 38cd 2dbe f7e9 003e 7186 2f3e
00000010: 9957 22be 11ab a4bd d949 283e b0e3 d5bc
00000020: aa84 bb3d 66dd ce3d 3c83 3d3d f032 663d
00000030: 92c2 de3d e698 abbd 78ed a1bc 9e87 f63d
00000040: f0a8 7e3c f8c4 b33c 56b4 c23d cc78 16be
00000050: 3584 a8bd a0d1 b9bd 5b55 92bd 1f60 303e
00000060: 0148 0a3e 2895 c8bd 3b97 a9bd 9c12 0bbe
00000070: 8216 ff3d 8b32 00be ea4b c53d 571b 9dbd
00000080: 96e9 f93d 777e 163e fda8 b3bd 32eb 0abe
00000090: c0c7 7fbb 2ad4 10be da73 c23d 63e1 313e
000000a0: e64b 853d b018 5abc 9b14 25be ecaa 1bbd
000000b0: deaf e0bd 673a 8dbd a56d c8bd 2040 2cbc
000000c0: 6099 4dbc 6282 12be 0098 a13c a08e 853d
000000d0: 8035 c03b 543d e8bd 30d7 36bc 60aa 843c
000000e0: 84b4 2cbe 33a0 2f3e b137 133e 01e6 27be
000000f0: 906f 153c 1dbd 143e 7117 1d3e 0a94 9f3d
00000100: 9017 4c3d d00f 833c c863 1a3d 1dd2 0e3e
00000110: 6063 1b3d 00d1 4dbb a284 873d abef 273e
00000120: 7226 df3d c0e6 233b 84af 0e3d a30a 0f3e
00000130: b038 913d 4ecc e2bd d1e5 313e 2693 cf3d
00000140: dc18 c6bd 678e 1dbe f084 23be 2084 d9bb
00000150: 507d 523d 5384 cfbd eb2b 0abe b40b 3bbd
00000160: 3d6f 0a3e 206f 8fbd 751e 053e 4775 07be
00000170: 4296 d13d a019 3b3c e7f9 2b3e b69c b33d
00000180: 4201 d03d 38d6 84bc f0d3 0fbc b212 f33d
00000190: 1b22 09be 5ff3 a5bd 5815 4a3d 8036 a43c
000001a0: 2698 d73d 7235 79bd ec0b 6a3d a5ae 083e
000001b0: 26a8 acbd 33a5 313e 60d8 e13c 7217 ea3d
000001c0: 345d bcbd bdb2 e8bd bbb7 193e 05f4 12be
000001d0: 0009 bb3a 2445 2ebe 54ad 3ebd b055 80bc
000001e0: fbca 31be 2f61 01be 5c5a 2fbd 2438 2e3d
000001f0: cbca 92bd 8973 cebd d19c 0dbe 814e 9fbd
00000200: a007 363d ec82 e4bd a0bf 8e3c 6cf0 443d
00000210: 3cfe bebd e050 f7bb c8f2 0fbe a593 05be
00000220: 7b02 0dbe 0daa 2abe cb5e 323e 3060 49bd
00000230: 46fd fbbd 280a 273d 2649 efbd 7ab7 55bd
00000240: 4832 83bc 8a37 d73d 90ec e6bc a3ad c2bd
00000250: a218 1fbe d424 423d bcde 90bd f853 95bc
00000260: c072 e1bb 645b 1cbe fe1e d6bd aa7f 62bd
00000270: 409b b93b 08e0 9bbc 7091 363d 89a3 173e
00000280: 820c 053e 2328 c2bd 84a7 fe3d 3d2b e53c
00000290: 00dc 15be 05f8 df3a bca0 64bc f7e1 583c
000002a0: 6171 1fbe ed3e e43c bf46 603d eb95 a03c
000002b0: cd6b 573d 9654 cdbd 4cc3 83bd 5597 79bd
000002c0: 5e28 1a3d b4de e53c 7303 fd3d 4513 adbd
000002d0: 7298 493c 962b a83d d1b9 853b 83cf c2bd
000002e0: 9e35 18be 5c96 1dbc 473d 273e 7b21 0ebd
000002f0: f285 9f3b 0b63 ba3d d790 573c 559d 70bd
00000300: a052 af3d f5ad 02ba 2ba4 35be 639d 51bd
00000310: b51d 05be 6a14 11be d7c6 ed3d 0bc4 213e
00000320: b80e 4e3d e904 3fbe d1a8 a1bc ea80 c6bd
00000330: 5ba5 abbd 6953 76bd 4e89 39bd fd0b 4b3d
00000340: 5217 363e 6119 1b3e 55bf b3bc 81d6 0f3e
00000350: eca5 5f3c 2687 0ebe d5ee 5ebd 6a3c ca3d
00000360: a14f 453e c29c abbd 6084 aa3b 61f9 31bd
00000370: 19b6 6b3c eece b7bd f42d eabb c4ff d23d
00000380: 577c 89bd 080c 623d ca23 c23d c019 263d
00000390: 0042 363b c072 6abb d240 e53d 2294 c43d
000003a0: 9bd9 20be d8d7 9b3c f0c3 b1bc d814 35bd
000003b0: 03b5 97bd c676 e83d 4bb6 8abd 8a18 a43d
000003c0: b06f 79bc 00e4 66bc 14a5 bfbd aab2 f33d
000003d0: 53c6 bfbd d56e 313e 51c1 343e a7a1 dfbd
000003e0: 0879 f0bc 0502 29be d1a8 8abd 47c7 093e
000003f0: 67a1 25be f3f2 093e 64db 22be a67a c2bd
0.1104811 -0.16972816 0.1258925 0.17141129 -0.15853728 -0.08040441 0.1643442 -0.026109546
0.09156163 0.10100822 0.046267733 0.05620092 0.10876955 -0.083787724 -0.019766554 0.12037586
0.0155432075 0.021944508 0.095070526 -0.14694518 -0.082283415 -0.09073186 -0.071451865 0.17224167
0.1350403 -0.09794074 -0.08280798 -0.13581318 0.12455465 -0.1251928 0.0963362 -0.0767123
0.12202756 0.1469668 -0.08772466 -0.13566282 -0.0039028972 -0.14143434 0.09494753 0.17371134
0.06508617 -0.01331155 -0.16121142 -0.0380048 -0.10971044 -0.06895905 -0.09786538 -0.0105133355
-0.0125487745 -0.1430755 0.0197258 0.06521344 0.0058657527 -0.113398224 -0.011159703 0.016194522
-0.16865736 0.17150955 0.14376713 -0.16396333 0.009120837 0.14525266 0.15340973 0.07791908
0.04982716 0.01599875 0.037692815 0.1394734 0.03793657 -0.0031405091 0.066170946 0.1640002
0.10896005 0.0025009364 0.034835353 0.13968901 0.070908904 -0.11074124 0.17372824 0.10135488
-0.0967271 -0.15386353 -0.1596868 -0.006638065 0.05138904 -0.10132661 -0.13493316 -0.045665458
0.13518997 -0.07003617 0.129999 -0.13228332 0.102337375 0.011419684 0.16794549 0.087701246
0.1015649 -0.016215429 -0.008778557 0.118688 -0.13391916 -0.0810306 0.04933676 0.020045519
0.10527067 -0.060841985 0.057140276 0.13347872 -0.08430509 0.17348175 0.027568996 0.11430253
-0.091974646 -0.113622166 0.15011494 -0.14350899 0.001426965 -0.17018563 -0.046552017 -0.015665859
-0.17362587 -0.12634729 -0.042810783 0.04253401 -0.07167586 -0.1008063 -0.13829352 -0.07778645
0.044440866 -0.11157784 0.017425358 0.048080847 -0.09325835 -0.007547483 -0.14057457 -0.13044603
-0.13770477 -0.16666432 0.17418973 -0.049163997 -0.123041674 0.04078117 -0.11683874 -0.05217693
-0.016015187 0.1050864 -0.028188974 -0.09505775 -0.1553674 0.047398403 -0.07073733 -0.018228516
-0.0068801343 -0.15269238 -0.1045513 -0.05529753 0.005664259 -0.019027725 0.044572294 0.14808477
0.12993053 -0.09480312 0.12434295 0.02797472 -0.14634705 0.0017087465 -0.013954338 0.013237468
-0.15570594 0.027862037 0.05475497 0.019602736 0.05259304 -0.10025899 -0.06433734 -0.060935337
0.037636153 0.028060295 0.123541735 -0.08450941 0.012304412 0.08211438 0.004080989 -0.09512236
-0.14864203 -0.009618368 0.16331969 -0.0346999 0.0048682624 0.09100922 0.013157091 -0.058743794
0.08560681 -0.0004985028 -0.17738406 -0.051175486 -0.12999614 -0.14167944 0.11610191 0.1579744
0.050307006 -0.18654217 -0.019733818 -0.09692557 -0.083811484 -0.06013814 -0.04529696 0.04957198
0.17782333 0.151464 -0.02194182 0.1404667 0.013650399 -0.13918743 -0.054426987 0.09874804
0.19268657 -0.083795086 0.0052037686 -0.043450717 0.014386677 -0.089750156 -0.0071465913 0.1030269
-0.06713169 0.055187255 0.094794825 0.0405519 0.0027810335 -0.0035773963 0.11194004 0.095985666
-0.1570801 0.01902382 -0.021699876 -0.04420933 -0.07407572 0.11350779 -0.06773051 0.08012493
-0.015224382 -0.014092445 -0.09357658 0.11899312 -0.09363999 0.17327435 0.1765187 -0.109195046
-0.029354587 -0.16504677 -0.067704804 0.13454925 -0.16174851 0.13471584 -0.15904003 -0.094960496

model.pooling_fn.att_pool.gate_nn.0.bias f4 [32]
00000000: bf3e 25be 0e1e 13be 018f 01be d06a 7b3c
00000010: 47f8 13be 8cbd 003e 7d73 123e 133e 1dbe
00000020: 3d00 343e 5452 1cbe 25ee 0f3e 64fa 02bd
00000030: 074b 13be d060 b03d 288c 183d d910 053e
00000040: a82f 67bc 7ff2 a6bd c908 18be 804f ff3b
00000050: 89ea f4bc d99e 3bbc 19b4 e0bd e59b 12be
00000060: 9969 013e a921 92bd c399 563c 4b67 93bd
00000070: 9b63 fa3d f689 8b3b 8632 76bd 2217 75bd
-0.16137217 -0.14366934 -0.12652208 0.01534529 -0.14450179 0.12572306 0.14301868 -0.1535571
0.17578216 -0.1526578 0.14055689 -0.031977072 -0.1438409 0.086122155 0.03724304 0.12994708
-0.014110483 -0.08151721 -0.14847101 0.0077914596 -0.029896991 -0.011451446 -0.10971851 -0.14317282
0.12637939 -0.071353264 0.013098183 -0.07197436 0.122260295 0.0042583896 -0.060106777 -0.059836514

model.pooling_fn.att_pool.gate_nn.2.weight f4 [1, 32]
00000000: 5c16 0c3d 4468 48bd 6c76 073d f359 273e
00000010: 3874 5c3d 8949 c33d ee92 0fbe 3c0e 8f3d
00000020: cf95 483e d728 34be 4eff 113e 2f80 33be
00000030: d233 c13d 4a70 9c3d 456b 25be 9221 ae3d
00000040: 0589 19be d291 f6bd bfb8 06be 2444 f3bd
00000050: 0c6c 143d 7934 8c3c 0fd9 19be 40f0 563c
00000060: f2c9 14be f3a6 31be 064e bb3d 5543 e1bd
00000070: 29b6 b53d 07dd edbd cc04 133d c05f 30bd
0.03420101 -0.04892756 0.03307192 0.16342907 0.053821772 0.0953551 -0.14020893 0.06985137
0.19588397 -0.17593704 0.14257547 -0.17529367 0.09433712 0.07638605 -0.16154201 0.08502497
-0.14993675 -0.12039532 -0.13156413 -0.11878231 0.036235854 0.017114865 -0.15024208 0.0131188035
-0.14530161 -0.17348842 0.09145741 -0.10999171 0.08872635 -0.11614423 0.035893247 -0.043060064

model.readout.fc.weight f4 [6, 32]
00000000: 9055 0e3e 9ffa 28be 5a61 853c 4d25 723d
00000010: 5e8b 2fbe 9aec 623d 4cd5 07be 4422 a33d
00000020: 8ad5 0abe fbf9 16be f848 4dbd 8bf0 7fbd
00000030: 67ab 03be 5dd6 8d3d 061c c43d e365 99bd
00000040: 0494 32be fb7f a63d ed0f 1f3e 448b 28be
00000050: 4716 ec3b 5a70 1fbe dd00 5b3d 5cc1 1ebd
00000060: f0aa f13d a54c b13c 48bc 95bd 6a88 00be
00000070: a896 9e3d 22c6 113e 20af 1fbe c6e4 183e
00000080: 4de1 913c 1c78 ce3d 64ba fcbc 79d4 20bc
00000090: 953f 0dbe eb9e e03d c1c6 9b3c b1f8 5cbd
000000a0: efb7 103e 07c8 933d 5ae2 91bd 6722 413e
000000b0: dcbe 16be 491e 853c 44f9 db3d e5fa 81bd
000000c0: e2e1 ad3d f78d c33d 086f 603d 1aef 863d
000000d0: 8358 c4bc b282 83bd bff6 06bc 3094 8c3c
000000e0: 3232 61bd 2843 9dbd 7f11 073e b215 113e
000000f0: ff5c cdbd 050a 363d 37e9 a7bd a753 233e
00000100: cb7d 3e3e b045 a43d 8980 22be 4dff 223e
00000110: 3956 e43d 3a0e 2abe 7c45 de3d f5d8 0ebe
00000120: 58bd 07bd 0b41 b2bc acba 003e c22c 8d3c
00000130: 8cf2 48bd a4a3 893d f121 3abd 8c47 67bd
00000140: 14df 593c 51a9 9c3c 8f1d 29ba 0608 df3b
00000150: 081c e4bc d812 a8bd c7e6 13be 24ff eabd
00000160: edf9 14be ca50 2d3e 6014 40bd 58f1 db3d
00000170: 99d9 c13c dc0e e73d 3814 29be 552b 01be
00000180: 7455 e53d 72dc fc3d 56e1 d8bc 5558 a7bd
00000190: d7fd e5bd 211f 5c3c 19e3 3abe 9db6 51bc
000001a0: 08fb f13c d80e a8bd fed6 d2bd 3d36 05be
000001b0: bfd5 3cbd 6fe6 fb3d a5c1 d23d 79e3 203c
000001c0: 42a3 1bbd f325 33bd af89 4f3d 9cfd 523d
000001d0: b5c3 ad3d 2b66 bbbd 76db 96bc 381c 96bc
000001e0: 1296 403d 5cf7 253c d025 bb3c 7961 f1bd
000001f0: dc24 18be f6e8 193d 2eea f9bd a0df f0bd
00000200: 2697 2fbe 098f cd3d eece f23c a660 8fbd
00000210: 2bf0 1dbd 0ca7 12bc 01c6 8ebc 73f7 a63d
00000220: 41a0 053e a669 dabd 5f10 b8bd 27d6 133c
00000230: 43ad 8d3d 9b7c 203e 0eac 293d 78aa 45bd
00000240: 1e2d 793c 8276 e4bd e3ec 343e 13b6 d03d
00000250: 3aa8 013e 4e66 3bbe 1362 fb3d 1ec0 cbbd
00000260: 6d64 6f3b 4bd7 a03d 9062 b9bc ba92 30be
00000270: cc71 ea3d c2b4 3a3d 162f a3bc a263 b33c
00000280: c7cf e23d 4c29 2f3e 60f2 11bd f462 1abd
00000290: 7346 573c 07b8 f7bd 469d 7bbd 94d5 343e
000002a0: 7873 7fbd b2d6 953c c75e fa3d 8822 f83d
000002b0: 6004 88bc d48e 013c b01a 09be 513e 6dbd
000002c0: 4c41 283e c7d7 ae3d 01f7 05be 7aa3 723a
000002d0: bb59 fc3d 1260 0c3d ade7 ea3d 0468 0fbe
000002e0: 8f58 5e3d 926f eb3d bd46 f7bd 401b 993c
000002f0: 7446 0c3d 2e73 0bbe b7f9 a2bd aee1 003e
0.13899827 -0.16501854 0.016281772 0.059117604 -0.17143008 0.055401422 -0.1326496 0.0796552
-0.13558021 -0.14743797 -0.050118417 -0.06248526 -0.12858354 0.06925652 0.095756575 -0.074901365
-0.17439276 0.08129879 0.15533419 -0.16459376 0.007204804 -0.15570202 0.05346762 -0.03875862
0.11800182 0.021642992 -0.073113024 -0.12552038 0.07743579 0.14235738 -0.15594149 0.1493102
0.017807627 0.10081503 -0.030850597 -0.009816282 -0.13793786 0.10967811 0.019015672 -0.053948108
0.14132665 0.072158866 -0.07123251 0.1886078 -0.14721245 0.016249793 0.10740903 -0.063466825
0.08490349 0.09548562 0.054793388 0.06588574 -0.023967987 -0.064214125 -0.00823754 0.017160505
-0.05497951 -0.07678825 0.13190268 0.14168432 -0.10027503 0.04444315 -0.08198779 0.1594988
0.18602674 0.08021104 -0.15869345 0.15917702 0.11149258 -0.1660699 0.10853097 -0.1394995
-0.033139557 -0.02175953 0.1257121 0.017233256 -0.049059436 0.06720665 -0.045442525 -0.056464717
0.013297815 0.019123705 -0.0006451243 0.0068063764 -0.027845398 -0.08206719 -0.14443503 -0.114744455
-0.14548464 0.1692535 -0.04689443 0.10739392 0.023663329 0.11282131 -0.16511619 -0.12614186
0.111979395 0.12346734 -0.026474636 -0.08171145 -0.11230057 0.013435156 -0.18250693 -0.012799886
0.029538646 -0.08205956 -0.10294913 -0.13008972 -0.04610228 0.12299811 0.10290841 0.009819859
-0.03799749 -0.043737363 0.050668415 0.051511392 0.08484594 -0.09150346 -0.018415194 -0.018324003
0.04701812 0.010129776 0.022845179 -0.117861696 -0.1485781 0.037575684 -0.12202869 -0.11761403
-0.17147502 0.100370474 0.029639687 -0.07000856 -0.03855912 -0.00895096 -0.0174284 0.08152666
0.13049413 -0.10664682 -0.089874975 0.009023226 0.06917813 0.15672533 0.04142385 -0.048258275
0.015208511 -0.11155416 0.1766849 0.10190978 0.1266183 -0.18300745 0.122745655 -0.09948753
0.0036528364 0.07853564 -0.022630006 -0.17243472 0.11447486 0.04558254 -0.019919913 0.021898095
0.11074787 0.17105597 -0.035631537 -0.037692025 0.013139355 -0.12095647 -0.061429285 0.17659599
-0.06236598 0.018290851 0.122251086 0.12115961 -0.016603649 0.007907588 -0.13389087 -0.057920758
0.16431159 0.0853725 -0.13082506 0.0009255927 0.12321802 0.034271307 0.1146997 -0.14004523
0.054283675 0.1149589 -0.12074039 0.018689752 0.034246877 -0.13618156 -0.079577856 0.1258609

model.readout.fc.bias f4 [6]
00000000: 9b1e a1bd 9a2b b0bc 0095 20be 31a6 e03d
00000010: 07f2 0fbc 7252 4abd
-0.07867166 -0.021505166 -0.15681839 0.109691985 -0.008785731 -0.049395032

exp_avg f4 [32]
00000000: 1f0b d03a 79d0 8db9 0000 0000 0bea 903a
00000010: 96c1 a7ba 5894 3e3a baa2 67b9 e65d c33a
00000020: 3f96 8039 bb28 c03a 5344 c6b9 26db 4a3b
00000030: c558 bdba fb54 a6ba a999 653a 4082 583a
00000040: 29de ceba 05f5 bfba 0000 0000 d829 0d39
00000050: a31b b8ba 82e2 0f3b 0000 0000 0000 0000
00000060: c055 02bb 0000 0000 da79 a2ba d3a9 8a39
00000070: 6f9d a2ba 31c4 d8ba 0161 0fbb f0bf 2dbb
0.0015872455 -0.0002704894 0.0 0.0011056078 -0.0012798782 0.000727003 -0.00022090497 0.0014905303
0.00024526005 0.0014660576 -0.00037816408 0.0030953377 -0.0014446011 -0.0012690121 0.0008758554 0.0008259155
-0.0015782762 -0.0014645165 0.0 0.00013462396 -0.0014046322 0.0021955078 0.0 0.0
-0.0019887537 0.0 -0.0012395934 0.0002644794 -0.0012406538 -0.0016537962 -0.0021877887 -0.0026512109

exp_avg_sq f4 [32]
00000000: 71bb 3436 84b2 2a36 0000 0000 5fee 9636
00000010: dcde bc36 e81c e037 51c8 5537 de68 ea36
00000020: 6f8f f036 7751 0038 050b 0338 6531 f337
00000030: 7a19 ea35 ede0 f236 2e41 0d38 b9d1 4d36
00000040: a540 6a36 4ab8 0f38 0000 0000 4ec3 7138
00000050: 718a 2237 2c66 3b37 0000 0000 0000 0000
00000060: 592f 4e37 0000 0000 336a 5036 94cf 4a34
00000070: a664 4f37 9356 6d37 1e77 9036 c805 dc38
2.6931195e-06 2.5435884e-06 0.0 4.4980984e-06 5.628781e-06 2.6716341e-05 1.2742429e-05 6.9859516e-06
7.1692552e-06 3.0593448e-05 3.1243097e-05 2.8990858e-05 1.7441773e-06 7.238347e-06 3.3677723e-05 3.0669455e-06
3.4906345e-06 3.426549e-05 0.0 5.764077e-05 9.688186e-06 1.1169857e-05 0.0 0.0
1.2289581e-05 0.0 3.1056231e-06 1.8888232e-07 1.23615955e-05 1.4146458e-05 4.3054015e-06 0.00010491494

exp_avg f4 [32, 3]
00000000: a047 892d 41a2 d33a 00d4 a933 eebc 1d37
00000010: 9d10 acb9 53bf 0138 0000 0000 0000 0000
00000020: 0000 0000 fbb0 c73a f84c d138 2b60 03ba
00000030: fe02 e4b9 6fac 21ba b175 84b9 5a05 a13a
00000040: ccd3 b4b9 fc67 20b9 4f62 9239 4bfb 04ba
00000050: 5ef9 a6b7 9449 d83a ddeb 8eb7 2ede 1ab9
00000060: 34ec 8539 621f 27b9 1e08 2039 ca98 fc3a
00000070: 46c2 b9b6 36ab f1b9 f54f 63b9 61f3 ceb8
00000080: 963d 91b8 0bc4 893a 11ba ed3a 6ea1 7239
00000090: 2a7c bab9 9212 94b9 a531 55ba 7753 91ba
000000a0: 3a98 bdb8 34be 92b8 a131 0eb9 db3c b43a
000000b0: d6c4 c1b9 fdb7 25b9 db18 5e3a d5f6 da38
000000c0: c226 0cb9 c37b 5fba 9383 14ba 256b 36bb
000000d0: 0a5d 0c3a c216 4c3a 0000 0000 0000 0000
000000e0: 0000 0000 9721 7b3a caef 84ba da3f 4939
000000f0: d07f 0cbb fac5 3b3a f376 edb6 b5b4 3a3a
00000100: d17e df3a 2cf4 26b9 0000 0000 0000 0000
00000110: 0000 0000 0000 0000 0000 0000 0000 0000
00000120: 194d 5139 2701 beba 98ae 37ba 0000 0000
00000130: 0000 0000 0000 0000 83fb c0ba e8d0 a8b6
00000140: 9de8 7739 ff75 8b36 66e2 9237 123c 7f39
00000150: e811 0cba 33eb 60ba be44 1039 f40c 0e3a
00000160: da71 93ba 710f 86ba 4153 0abb 9138 2837
00000170: ff93 deb8 36bf df39 3ef2 02bb f010 8dba
1.5606905e-11 0.0016146378 7.908238e-08 9.401918e-06 -0.00032818774 3.093418e-05 0.0 0.0
0.0 0.0015235239 9.980233e-05 -0.00050115836 -0.00043489778 -0.0006167357 -0.0002526469 0.001228492
-0.00034490076 -0.00015297526 0.00027920536 -0.0005072846 -1.9904863e-05 0.001650142 -1.7037552e-05 -0.00014769353
0.00025543722 -0.00015938052 0.00015261813 0.0019271609 -5.536046e-06 -0.00046094664 -0.00021678193 -9.868178e-05
-6.92561e-05 0.0010510696 0.0018137117 0.00023139056 -0.00035569194 -0.00028242596 -0.0008132703 -0.0011087497
-9.040577e-05 -6.9972506e-05 -0.00013560664 0.0013751046 -0.00036958483 -0.00015804167 0.00084723317 0.00010441026
-0.00013365879 -0.0008525217 -0.0005665358 -0.002783486 0.000535444 0.00077853736 0.0 0.0
0.0 0.00095798954 -0.0010142263 0.0001919264 -0.0021438487 0.00071629847 -7.076998e-06 0.00071222644
0.0017051344 -0.00015921955 0.0 0.0 0.0 0.0 0.0 0.0
0.00019960514 -0.0014496193 -0.00070069125 0.0 0.0 0.0 -0.0014723394 -5.03111e-06
0.00023642411 4.1562594e-06 1.7509981e-05 0.00024341073 -0.00053432444 -0.0008579969 0.00013758519 0.00054188
-0.001124914 -0.001022799 -0.0021106752 1.0026751e-05 -0.00010613351 0.00042676338 -0.0019980813 -0.0010762494

exp_avg_sq f4 [32, 3]
00000000: 617a b130 d7ac 3036 03bc d62f 8c9b a930
00000010: 98f7 2436 544c bd30 0000 0000 0000 0000
00000020: 0000 0000 e8b1 5736 c4fc c133 a050 1835
00000030: f1f2 4334 6273 6836 b9b5 cd34 a6d7 2a37
00000040: 73ad ad36 43a5 9733 fdcb 7335 48fb e536
00000050: 4297 4134 2a14 e035 7e3b 3336 778b 4a34
00000060: de2b 0d35 662e 8536 ebcf 3534 79b6 0f37
00000070: 82e3 1237 fadc 8734 cdd7 0737 f927 0d37
00000080: 2091 2535 5478 0737 5178 0437 195c 8c34
00000090: 0ac3 5a34 58f5 a433 43f2 ec34 553d 0e36
000000a0: 45a5 1136 eb7b 9332 43af 4037 97ea 0b37
000000b0: a2bd e734 0c54 a733 c642 1c36 e163 d731
000000c0: a24b 8a33 52d8 fe35 6a16 9934 9734 1537
000000d0: 3b0e 4437 8f58 d134 0000 0000 0000 0000
000000e0: 0000 0000 453a 9937 fc79 5737 b8ec cf34
000000f0: fb67 ea36 b492 1b35 24b6 e432 2ab9 0335
00000100: a71d dc36 df93 f234 0000 0000 0000 0000
00000110: 0000 0000 0000 0000 0000 0000 0000 0000
00000120: 50b1 fa34 4993 0437 2c58 a334 0000 0000
00000130: 0000 0000 0000 0000 2703 3436 d088 da31
00000140: 16de eb34 c6a1 122f 8e07 9730 bdd7 2c34
00000150: 5901 8b36 b591 7d36 6370 2d33 2f70 4e35
00000160: 442f 0237 3d7c 2135 19ad 5136 07d2 1c34
00000170: d2b0 ac32 c432 0938 17e5 d837 17f9 8935
1.2913227e-09 2.632665e-06 3.9059964e-10 1.2340577e-09 2.4582023e-06 1.3773254e-09 0.0 0.0
0.0 3.2141052e-06 9.0332406e-08 5.674174e-07 1.8249172e-07 3.4637856e-06 3.8316446e-07 1.0182999e-05
5.175994e-06 7.0615464e-08 9.0821396e-07 6.853985e-06 1.8029553e-07 1.6695169e-06 2.6707708e-06 1.8863453e-07
5.259043e-07 3.9691104e-06 1.6932579e-07 8.565949e-06 8.755249e-06 2.530649e-07 8.096872e-06 8.413562e-06
6.1678475e-07 8.074643e-06 7.8958265e-06 2.6144042e-07 2.0373787e-07 7.681473e-08 4.4134694e-07 2.1195349e-06
2.1702883e-06 1.7169404e-08 1.1484898e-05 8.339665e-06 4.316508e-07 7.7918315e-08 2.3284679e-06 6.2686785e-09
6.439883e-08 1.8987432e-06 2.851478e-07 8.893337e-06 1.1685824e-05 3.8993718e-07 0.0 0.0
0.0 1.8266155e-05 1.28434e-05 3.872899e-07 6.9858484e-06 5.795548e-07 2.6625521e-08 4.907075e-07
6.559963e-06 4.5183603e-07 0.0 0.0 0.0 0.0 0.0 0.0
4.669514e-07 7.902106e-06 3.042527e-07 0.0 0.0 0.0 2.6823925e-06 6.360189e-09
4.393375e-07 1.3336096e-10 1.0988843e-09 1.6097233e-07 4.1426797e-06 3.778475e-06 4.0381916e-08 7.690423e-07
7.759609e-06 6.0157964e-07 3.1244183e-06 1.460504e-07 2.0103844e-08 3.2710625e-05 2.5855885e-05 1.027979e-06

exp_avg f4 [32]
00000000: 72ed 50bb 48ce d5ba b436 93b8 8889 8db9
00000010: f482 15bb c078 393b 7f04 183b 7e10 b538
00000020: 0000 0000 9492 81b8 cfeb 46bb 6f9f 38bb
00000030: 0de9 22b9 ff97 b63a 63be 5d3b cf64 02ba
00000040: a24a 26bb 6f54 beba 92db fbb9 3039 0331
00000050: 8328 03bb be9b 8ebb 70b8 3dbb 0000 0000
00000060: 6dac 32bb 14c2 edba 0000 0000 1f5d 533b
00000070: 3bef 6a3a 9f16 413b beed b4b9 a5eb 8fbb
-0.003187981 -0.0016312087 -7.0196955e-05 -0.00026996084 -0.002281365 0.0028300732 0.002319604 8.6338245e-05
0.0 -6.178502e-05 -0.0030352955 -0.0028171202 -0.00015536342 0.0013930796 0.0033835403 -0.0004974128
-0.0025374074 -0.0014521013 -0.00048038043 1.9095516e-09 -0.002001316 -0.004352062 -0.0028949045 0.0
-0.0027263418 -0.0018139505 0.0 0.003225155 0.000896204 0.0029462946 -0.00034509407 -0.0043921047

exp_avg_sq f4 [32]
00000000: 3dee 9638 9ac0 7e37 df4e 2636 b9e1 5b38
00000010: cf78 9738 70c2 9138 b85d 0738 8e98 8235
00000020: 0000 0000 031d 9137 a09c 5338 205f 8037
00000030: 134f 2d38 fc97 f137 1c2d 8938 f358 c636
00000040: 6737 a638 2733 5438 e5eb 8737 eb5f 5b29
00000050: 38fb e937 ec32 1438 56bc 2538 0000 0000
00000060: 9548 0438 408a 4a38 0000 0000 7e85 a738
00000070: d5b4 8f38 965c 6038 32b0 6937 40a4 a338
7.196933e-05 1.5184423e-05 2.4781837e-06 5.242389e-05 7.2227434e-05 6.9503556e-05 3.227379e-05 9.730154e-07
0.0 1.7298857e-05 5.045219e-05 1.5303085e-05 4.1320058e-05 2.8800212e-05 6.541071e-05 5.911215e-06
7.925816e-05 5.0592378e-05 1.6203101e-05 4.8710964e-14 2.7892747e-05 3.5333374e-05 3.9514467e-05 0.0
3.153885e-05 4.828931e-05 0.0 7.9880454e-05 6.852454e-05 5.349199e-05 1.3928906e-05 7.8030396e-05

exp_avg f4 [32, 32]
00000000: 88fe 00b7 37c1 e4b8 0000 0000 02c7 2fb9
00000010: 1d7b 86b9 f092 edb9 d703 65b9 1d43 acb8
00000020: 1b27 89b9 dc9f 3dba 643f 9fba c2db 73b9
00000030: a431 0cb9 a570 5bba a028 28ba 7db7 8cb9
00000040: 1053 98b8 c070 02ba 0000 0000 865c ddb9
00000050: e072 49ba 690d b8b9 0000 0000 0000 0000
00000060: 3376 2ab9 0000 0000 ac79 b4b9 277b 74b7
00000070: 9aa5 8eba 8551 aab9 364c 8aba 0f51 9bba
00000080: 1627 7c26 e884 8e33 0000 0000 979e 1d38
00000090: 9872 39b6 89ec 51b9 789c 88b6 6257 d636
000000a0: 82cc d7b8 f449 b2b9 8581 14ba 8ab1 edb8
000000b0: e57d 2f38 2c56 c6b9 c51b cab9 24d1 8d34
000000c0: 4881 0d38 e46a 4ab9 0000 0000 1f30 3cb9
000000d0: a381 0138 1aed ccb4 0000 0000 0000 0000
000000e0: 222e 3eb8 0000 0000 b031 8038 e3b8 4d33
000000f0: 7e15 f9b9 db5c 20b8 8d0d 1f39 9eb3 16ba
00000100: ca7b 8a32 d4b5 6a35 0000 0000 ba88 8ab4
00000110: 28c0 90b7 cd4a 6eb5 2886 8db7 9a9d 11b7
00000120: 0bf4 aeb7 1f06 69b7 1d5e e3b7 fa5c 88b7
00000130: 5d09 01b6 717f 88b5 bba9 2db7 f3f6 dfb5
00000140: 18f6 10b7 af46 5db7 0000 0000 8907 eab6
00000150: 4dc1 29a9 817d cdb7 0000 0000 0000 0000
00000160: c7a5 2ab7 0000 0000 1207 c027 ab5d 4a29
00000170: 8b3c dbb3 cb2f d5b7 5c3e bf32 b484 bbb7
00000180: e8fd 3ab7 c642 3ab9 0000 0000 f7a7 18b9
00000190: 62ef 25ba 2427 fa38 d262 0cba 7a0c 59b9
000001a0: e435 0eba 561f e3b6 28e1 d5b8 5128 8db9
000001b0: 8c65 4eb9 9bad 6639 63fe fc38 1fa1 d0b9
000001c0: 5c7e 90b9 3d7d 05b9 0000 0000 acc2 5036
000001d0: 086e 86b9 9143 67ba 0000 0000 0000 0000
000001e0: 4a12 a3b9 0000 0000 fee9 74b9 ab9c f0b6
000001f0: 3b15 9239 5f18 45ba 4b08 0cba 349c 7f37
00000200: 0c79 bcb6 8f1c dcb8 0000 0000 b992 73b8
00000210: bddd 35ba 4eca 3ab8 3105 28ba 01f8 8eb9
00000220: 2d46 60ba 0fca deb9 8261 5eba 8b17 16ba
00000230: 3a6b 1fb9 7d6f c5b8 6f8c c2b9 5c96 bdb9
00000240: 1115 80b9 f669 ceb9 0000 0000 17d9 48b9
00000250: f0b8 5839 56c1 7dba 0000 0000 0000 0000
00000260: 102c ecb9 0000 0000 c08f 48b7 791c a2b7
00000270: 1de4 a3b8 1a2f 80ba 4ebe b738 fa07 36ba
00000280: 22c4 8b36 e1fe a538 0000 0000 898a 0238
00000290: 8eb7 1a3a 9b4b 1539 b17f 103a ba2d 6e39
000002a0: 7c33 4d3a 5c42 143a c4e3 8a3a 5b63 0f3a
000002b0: ed4b cb38 0b46 8e39 7901 0e3a 9027 a439
000002c0: b6a0 3439 efe0 ec39 0000 0000 f7ea 8e39
000002d0: 8128 18b9 2fdf 563a 0000 0000 0000 0000
000002e0: 030e db39 0000 0000 701b 4fb7 2f88 9a36
000002f0: ebb2 9f39 b9aa 613a 0868 bbb8 67de 743a
00000300: cc09 2833 3cb7 fd33 0000 0000 4b67 76b8
00000310: 959f 3c38 d03e 7139 c096 bd38 c25f 2a38
00000320: 59a0 6e39 806b 043a af1a 633a 783b 8039
00000330: 9604 2bb8 a8ec df39 e6c5 103a 6a0b 5d37
00000340: fb90 01b8 4594 a439 0000 0000 7b91 8839
00000350: c4a1 0bb9 e58d 8338 0000 0000 0000 0000
00000360: e9bd f138 0000 0000 098e 2bb9 66b8 08b7
00000370: 1523 083a 5648 4239 47dc 65b9 4495 5e3a
00000380: 649e 9628 abc9 0f33 0000 0000 2e78 05b7
00000390: faa3 8337 cae9 7135 c14d 5737 9082 5533
000003a0: f6c6 a537 920c 9037 91ed f537 6b19 0f37
000003b0: d9ef 2db7 ae78 9b35 7950 b237 04f1 e635
000003c0: 9b4d b3b5 693d 1f37 0000 0000 57e9 0b37
000003d0: 98e2 c534 7875 af37 0000 0000 0000 0000
000003e0: 743c 5d37 0000 0000 6f91 49b7 29a9 07b7
000003f0: 6fc0 5035 63bf a737 11a6 bab7 8e72 f637
-7.688657e-06 -0.00010907876 0.0 -0.00016763437 -0.00025650198 -0.0004531364 -0.00021840572 -8.2141e-05
-0.00026159812 -0.0007233599 -0.0012149629 -0.00023256152 -0.00013369933 -0.00083709724 -0.0006414745 -0.0002683959
-7.2633964e-05 -0.00049759075 0.0 -0.0004222134 -0.0007684659 -0.00035105206 0.0 0.0
-0.00016256496 0.0 -0.00034422928 -1.4572207e-05 -0.0010883093 -0.00032485664 -0.0010551277 -0.0011849719
8.7483035e-16 6.636566e-08 0.0 3.7579415e-05 -2.763385e-06 -0.0002001991 -4.071331e-06 6.3878697e-06
-0.000102900914 -0.00034005905 -0.0005665052 -0.0001133411 4.18405e-05 -0.00037829706 -0.00038549132 2.6415466e-07
3.3737422e-05 -0.00019304041 0.0 -0.00017947004 3.087673e-05 -3.8170475e-07 0.0 0.0
-4.5342495e-05 0.0 6.112771e-05 4.7898435e-08 -0.00047508994 -3.823345e-05 0.0001516847 -0.0005748811
1.6121607e-08 8.743639e-07 0.0 -2.5803985e-07 -1.7255617e-05 -8.877076e-07 -1.6870981e-05 -8.679368e-06
-2.0856058e-05 -1.3889307e-05 -2.7104334e-05 -1.6255759e-05 -1.9227948e-06 -1.016988e-06 -1.0351122e-05 -1.6686666e-06
-8.640367e-06 -1.3189084e-05 0.0 -6.9746206e-06 -3.76932e-14 -2.4496347e-05 0.0 0.0
-1.0171388e-05 0.0 5.329837e-15 4.4934254e-14 -1.0208995e-07 -2.5413834e-05 2.2263684e-08 -2.2353932e-05
-1.1145581e-05 -0.00017763217 0.0 -0.00014558421 -0.00063299213 0.000119282195 -0.00053553015 -0.0002069938
-0.00054249004 -6.768775e-06 -0.0001019857 -0.00026923654 -0.0001968352 0.00021999182 0.000120636796 -0.00039792896
-0.00027559965 -0.00012730523 0.0 3.110773e-06 -0.0002564045 -0.0008822019 0.0 0.0
-0.0003110341 0.0 -0.00023356822 -7.170796e-06 0.00027863108 -0.0007518585 -0.0005341812 1.5235553e-05
-5.6169283e-06 -0.00010495737 0.0 -5.807236e-05 -0.00069376436 -4.4534267e-05 -0.0006409465 -0.00027269128
-0.0008555379 -0.00042493685 -0.0008483158 -0.0005725554 -0.00015203367 -9.414458e-05 -0.00037107195 -0.00036160916
-0.00024429758 -0.0003937033 0.0 -0.00019154359 0.0002066826 -0.00096799934 0.0 0.0
-0.00045046257 0.0 -1.1954398e-05 -1.9325164e-05 -7.814935e-05 -0.0009779662 8.761567e-05 -0.00069439376
4.1653557e-06 7.915288e-05 0.0 3.1123436e-05 0.00059019856 0.00014237913 0.00055121916 0.00022714483
0.0007827801 0.000565564 0.0010596444 0.0005469822 9.6939366e-05 0.00027136537 0.00054170896 0.00031309994
0.00017226007 0.00045181016 0.0 0.00027259413 -0.00014510938 0.0008196709 0.0 0.0
0.00041781375 0.0 -1.234455e-05 4.6054115e-06 0.00030460148 0.00086085085 -8.936232e-05 0.0009341002
3.912446e-08 1.1814561e-07 0.0 -5.874717e-05 4.4971315e-05 0.0002300695 9.040302e-05 4.062034e-05
0.00022757183 0.0005051419 0.0008663339 0.0002445837 -4.0773848e-05 0.00042710197 0.0005522653 1.3175284e-05
-3.089102e-05 0.00031390987 0.0 0.00026048333 -0.00013316335 6.272997e-05 0.0 0.0
0.00011527149 0.0 -0.00016360743 -8.149165e-06 0.0005193216 0.00018528229 -0.00021921202 0.000849087
1.6722036e-14 3.3478198e-08 0.0 -7.955399e-06 1.5692774e-05 9.0119704e-07 1.2833102e-05 4.9711673e-08
1.9762181e-05 1.7171991e-05 2.9316901e-05 8.529382e-06 -1.0367447e-05 1.1583522e-06 2.1256727e-05 1.720648e-06
-1.3359125e-06 9.491437e-06 0.0 8.339374e-06 3.6858978e-07 2.0916326e-05 0.0 0.0
1.3186702e-05 0.0 -1.2014395e-05 -8.086013e-06 7.7766066e-07 1.9997073e-05 -2.2250259e-05 2.9378829e-05
