lightning_logs/version_118/checkpoints/epoch=3-step=60.ckpt (torch, 97955 bytes, 46 tensors)

model.encoder.conv1.att_src f4 [1, 4, 64]
-0.08994725 0.2938566 0.12791736 0.29760277 -0.2290973 0.18514895 -0.15714331 0.021947144
0.080422536 -0.17573513 0.01606081 0.122846685 -0.028130945 0.034086082 -0.20693792 0.27759096
-0.011398466 0.25423905 0.12572552 0.11298101 0.2839518 0.25451076 -0.25519106 0.24315573
0.06496042 -0.1395131 0.053032313 0.14502814 -0.22409284 -0.20478833 -0.26839793 0.22828452
-0.26492122 -0.24449465 -0.09369771 -0.28881443 -0.054260075 0.28237113 0.18972503 0.229588
0.16504279 0.17041041 0.16379382 0.2934862 -0.23380065 -0.117918104 0.19466902 0.21598686
-0.2834708 0.28440347 -0.15401042 0.18876094 0.24661261 -0.28143036 -0.22703229 -0.2724098
0.21411923 0.26815856 -0.21380498 0.05820832 -0.02339065 0.21609649 0.04969821 0.17361921
0.07912255 0.086390555 0.0410841 0.13905017 0.0114185205 0.13000046 0.052090734 -0.18399732
0.2193012 0.20853464 0.02272549 0.10642692 0.18291804 -0.014645887 -0.27555352 0.13443604
0.031991784 0.06911547 0.19109969 0.28985068 -0.10032629 0.17076659 -0.02823302 0.2938611
-0.03762933 -0.2170514 0.26336703 0.029015606 0.23316474 -0.08131382 0.20241474 -0.20203367
-0.2439999 -0.29042152 -0.13510552 0.05732887 0.14048761 0.20226686 0.20205052 0.11250565
-0.07744707 0.24539308 -0.1798845 -0.09854429 -0.23075935 -0.116173774 0.28302106 -0.044512644
0.09166103 -0.12692717 0.17753363 -0.099845625 -0.01081332 0.28586784 0.1461971 0.13812958
-0.17458743 -0.14797238 0.24807857 -0.2197989 0.08199781 0.09404347 0.1767742 0.023125341
0.0735971 -0.18794821 -0.08666086 -0.25152835 0.06626651 -0.25448477 0.048951793 -0.109230526
0.033848856 0.114704214 0.28798097 -0.013319255 0.22927205 -0.0061789756 0.19058089 0.15413335
-0.012021372 0.14586812 -0.24631989 0.13017625 -0.003975152 -0.21723883 -0.14639711 -0.22125207
-0.2033595 0.08879443 0.23888208 0.07702655 -0.21450609 0.1548425 0.19447793 -0.16302449
0.15838662 0.2783646 -0.22339365 0.0074070967 0.030992577 -0.09935945 0.12573329 0.13023907
0.15271476 0.07170393 -0.059037574 0.024280535 -0.16681828 0.16971096 0.10569883 -0.1450923
-0.24756257 -0.068645746 0.25292963 -0.13492996 -0.12654717 0.15821932 0.28431532 0.0037271294
0.08410017 0.025356961 0.12758116 -0.19715124 0.030207865 -0.24596183 -0.0005962174 0.1837642
0.19517569 -0.14162862 0.13648933 0.28325737 0.08730962 -0.034908567 0.2737865 -0.26618785
-0.1869853 0.07737824 0.19980031 0.14830491 -0.14493951 0.02118579 -0.17160209 0.028706653
0.13912012 -0.18021457 0.09824744 0.1442819 0.14809869 0.21342327 0.24184339 0.26433894
0.22198717 0.13566336 0.07736488 0.14352567 0.070747815 -0.044683907 0.23788886 -0.09525556
0.039684344 0.27760246 -0.08921131 -0.0717932 -0.16384752 0.08982038 -0.19372155 -0.28607962
-0.19763377 -0.2800109 -0.18865721 0.1484682 -0.22029516 0.23639663 -0.19582592 0.056616843
0.10552312 0.22467992 -0.27269074 0.23613292 -0.20081934 0.15433033 0.11269854 -0.2655694
0.039079968 0.2636886 -0.18439713 0.086618096 -0.13299303 0.2754146 -0.22605644 -0.13207458
00000000: 4436 b8bd 5f74 963e c5fc 023e 645f 983e
00000010: 7c98 6abe b097 3d3e 2dea 20be 7fca b33c
00000020: 92b4 a43d e9f3 33be f691 833c 0b97 fb3d
00000030: de72 e6bc d99d 0b3d 89e7 53be 6720 8e3e
00000040: a2c0 3abc 9f2b 823e 31be 003e 9662 e73d
00000050: 2162 913e 3c4f 823e 67a8 82be d1fd 783e
00000060: f809 853d 86dc 0ebe 6938 593d 4282 143e
00000070: 9878 65be 08b4 51be 746b 89be 6bc3 693e
00000080: c1a3 87be ce5c 7abe 96e4 bfbd 7cdf 93be
00000090: d03f 5ebd f392 903e 4747 423e 1e19 6b3e
000000a0: fa00 293e 1180 2e3e 91b9 273e d343 963e
000000b0: 7069 6fbe 0c7f f1bd 5157 473e a92b 5d3e
000000c0: 1623 91be 559d 913e e8b4 1dbe 8c4a 413e
000000d0: 0488 7c3e a417 90be 277b 68be 4c79 8bbe
000000e0: 1242 5b3e 144c 893e b1ef 5abe d96b 6e3d
000000f0: c09d bfbc 6648 5d3e 5a90 4b3d 3cc9 313e
00000100: 010b a23d 88ed b03d cd47 283d 2b63 0e3e
00000110: bf14 3b3c d71e 053e 185d 553d cb69 3cbe
00000120: 7e90 603e 1b8a 553e cf2a ba3c 5bf6 d93d
00000130: de4e 3b3e 4df5 6fbc 5a15 8dbe 9aa9 093e
00000140: d109 033d 698c 8d3d a3af 433e 4f67 943e
00000150: df77 cdbd 70dd 2e3e ef48 e7bc f674 963e
00000160: 3621 1abd b942 5ebe 0bd8 863e 23b2 ed3c
00000170: bdc2 6e3e dc87 a6bd cf45 4f3e eae1 4ebe
00000180: 1cdb 79be 21b2 94be 1a59 0abe add1 6a3d
00000190: fcdb 0f3e 0b1f 4f3e 55e6 4e3e 5d69 e63d
000001a0: 929c 9ebd 5348 7b3e a433 38be 97d1 c9bd
000001b0: 2e4c 6cbe 84ec edbd 23e8 903e e452 36bd
000001c0: c7b8 bb3d 32f9 01be 60cb 353e dd7b ccbd
000001d0: 5a2a 31bc 455d 923e b1b4 153e d771 0d3e
000001e0: 0cc7 32be 1286 17be 4f08 7e3e f612 61be
000001f0: 78ee a73d dd99 c03d 4c04 353e 5b71 bd3c
00000200: 14ba 963d 7f75 40be 407b b1bd 53c8 80be
00000210: bcb6 873d d44b 82be ad81 483d 41b4 dfbd
00000220: 19a5 0a3d 0bea ea3d 3e72 933e 0139 5abc
00000230: 4bc6 6a3e 0179 cabb a327 433e 22d5 1d3e
00000240: 4af5 44bc 745e 153e 483b 7cbe ec4c 053e
00000250: fe41 82bb db73 5ebe 20e9 15be e78f 62be
00000260: 793d 50be dbd9 b53d 819d 743e 19c0 9d3d
00000270: 7ca7 5bbe 088f 1e3e 3925 473e e4ef 26be
00000280: 1a30 223e ce85 8e3e 4ec1 64be 3bb7 f23b
00000290: 25e4 fd3c f87c cbbd 3ac0 003e 645d 053e
000002a0: 4261 1c3e 83d9 923d 62d1 71bd f9e7 c63c
000002b0: 69d2 2abe b6c8 2d3e a178 d83d 1393 14be
000002c0: 0b81 7dbe 2496 8cbd fe7f 813e 142b 0abe
000002d0: 9595 01be 3f04 223e c791 913e db42 743b
000002e0: b63c ac3d 67b9 cf3c a3a4 023e 04e2 49be
000002f0: 7c76 f73c 6bdd 7bbe 794b 1cba af2c 3c3e
00000300: 23dc 473e 1807 11be dcc3 0b3e 1c07 913e
00000310: 63cf b23d 49fc 0ebd be2d 8c3e c649 88be
00000320: 1379 3fbe 7c78 9e3d 7498 4c3e 3edd 173e
00000330: 066b 14be d28d ad3c 75b8 2fbe 372a eb3c
00000340: 8175 0e3e 2b8a 38be f435 c93d a2be 133e
00000350: 2fa7 173e a18b 5a3e cba5 773e 6f57 873e
00000360: 9b50 633e 56eb 0a3e 7a71 9e3d 65f8 123e
00000370: 3be4 903d 7906 37bd 2399 733e 5915 c3bd
00000380: 0d8c 223d e921 8e3e 6bb4 b6bd 5008 93bd
00000390: a5c7 27be bff3 b73d f15e 46be 0779 92be
000003a0: 8260 4abe 975d 8fbe 5b2f 41be 0c08 183e
000003b0: 0e95 61be f511 723e 9786 48be 10e7 673d
000003c0: 811c d83d 7e12 663e 1f9e 8bbe d4cc 713e
000003d0: 96a3 4dbe c508 1e3e 7ece e63d b6f8 87be
000003e0: 5112 203d 3102 873e 9ad2 3cbe d464 b13d
000003f0: 532f 08be 2403 8d3e 577b 67be 8f3e 07be

model.encoder.conv1.att_dst f4 [1, 4, 64]
0.23376873 0.061740134 0.1252107 0.241333 -0.17538111 0.20394334 0.2032836 0.031303465
-0.1858076 0.048958868 0.09577626 -0.056373555 0.13113569 -0.24741407 0.16365772 0.25091755
-0.23588932 -0.059062276 -0.28817126 0.20796058 0.23581079 -0.18150666 -0.10639191 0.2609776
-0.043480475 -0.21216202 0.2810059 0.00022850046 -0.106490366 0.0017954515 -0.18082634 0.11624219
0.11711486 0.2385968 -0.110463575 -0.16712722 -0.15135646 0.20526232 0.10077853 -0.00493084
0.022013059 0.075736254 0.19368415 -0.09345984 -0.235355 -0.1495415 0.14044538 0.16635488
-0.18927534 0.040104616 0.019977057 -0.2839522 0.2456785 0.05217021 0.27994314 0.025483666
0.16394642 0.28951082 -0.171692 -0.0837811 0.022571076 -0.12453247 0.0047380743 0.15889996
-0.11308613 0.039150096 0.12705427 -0.1627595 -0.253362 -0.15829258 0.012219779 -0.28516984
-0.14116645 0.048620634 -0.2150373 -0.14144611 0.024019903 -0.22865823 -0.16127805 0.012569447
-0.01979904 -0.0028225854 -0.11988199 0.290592 0.12352789 -0.08801695 -0.16789341 0.049424842
-0.18155253 0.17228915 0.13231273 -0.22948855 -0.10613052 -0.21909922 -0.2044611 0.0680089
-0.10289889 0.11347587 0.12853669 0.27190554 -0.15810603 0.25562653 -0.12296413 0.23026943
0.08858839 0.19449708 -0.068101786 0.29450145 0.24098755 -0.20439066 0.20763434 0.1870688
-0.17752959 0.23045583 -0.10706161 0.2803663 0.1393759 -0.2806796 0.03789927 0.056190345
0.17667635 -0.043436166 -0.016775059 -0.10240233 0.074950755 -0.1905009 -0.099319726 0.24583133
-0.2491401 0.27258018 0.14390084 0.06665626 0.25439402 -0.14148234 -0.18661721 0.0325983
0.24733546 -0.06322068 0.11021834 0.2906133 -0.006332313 0.27740377 0.25462222 -0.28838304
0.1853236 0.027028983 0.08367116 -0.22664505 0.13989854 0.05077711 -0.03573367 0.29610962
0.2135698 -0.22362036 -0.21816623 -0.2706281 0.23381044 0.12061817 -0.09605154 -0.21171828
-0.27074665 -0.09737818 0.20965645 -0.17355755 -0.2922722 -0.006738462 0.01159757 -0.12808856
0.02470406 0.1042057 -0.23208581 -0.040144317 -0.21063797 -0.0017360821 -0.29444912 0.22110914
-0.07736338 -0.08919269 0.031054147 -0.22808512 0.2114008 0.22254 -0.18365467 -0.19985615
-0.16781111 0.27112484 0.2865047 0.28404236 -0.092148475 -0.0431927 0.037972327 0.23324785
0.22737451 -0.104340434 -0.13566151 0.268414 0.09269173 -0.01843458 0.26426476 0.11664302
-0.20402889 0.008438395 0.26016757 0.23570094 0.22139935 0.18722516 -0.27378097 -0.2640426
0.1684414 -0.28195757 -0.017406654 0.06059889 -0.023558157 0.17648216 -0.09412391 0.040906314
0.023153098 -0.23491293 -0.06782504 0.17026755 0.095873505 -0.0015323808 -0.009356942 0.17426264
0.012001494 -0.07209446 0.014273541 -0.23637119 0.22906095 0.26609936 -0.18954624 0.008229882
0.2830349 -0.23509853 -0.20351022 0.21241066 0.13502732 -0.09313782 -0.019299405 -0.26497206
-0.081245646 -0.26431012 -0.23281287 -0.12935293 0.22981405 -0.2522691 -0.27619305 -0.035891645
0.19977815 0.19658826 -0.19992375 0.20117576 0.03108563 -0.019346755 -0.19991581 -0.0025595783
00000000: 1261 6f3e 39e3 7c3d 3c37 003e ff1f 773e
00000010: 1b97 33be 86d6 503e 9329 503e 1038 003d
00000020: 5944 3ebe 1889 483d 5826 c43d f5e7 66bd
00000030: 6f48 063e 1d5a 7dbe e495 273e 4478 803e
00000040: f88c 71be 49eb 71bd 2f8b 93be 9ef3 543e
00000050: 6278 713e e2dc 39be 00e4 d9bd db9e 853e
00000060: 9518 32bd 0041 59be 01e0 8f3e a099 6f39
00000070: 9f17 dabd 5b55 eb3a 8a2a 39be 6310 ee3d
00000080: ead9 ef3d b852 743e ba3a e2bd 6623 2bbe
00000090: 30fd 1abe 4930 523e f964 ce3d e292 a1bb
000000a0: bb54 b43c 9c1b 9b3d 2355 463e df67 bfbd
000000b0: e700 71be 6821 19be ead0 0f3e ef58 2a3e
000000c0: 65d1 41be bd44 243d eda6 a33c 2f62 91be
000000d0: 2593 7b3e 6eb0 553d b554 8f3e 1fc3 d03c
000000e0: 92e1 273e c33a 943e 07d0 2fbe 6d95 abbd
000000f0: fae6 b83c e10a ffbd d941 9b3b acb6 223e
00000100: b399 e7bd da5b 203d 841a 023e 6daa 26be
00000110: aab8 81be 7317 22be 7835 483c c801 92be
00000120: f08d 10be 6e26 473d bd32 5cbe 40d7 10be
00000130: 63c5 c43c 6225 6abe 1326 25be 15f0 4d3c
00000140: 9931 a2bc 20fb 38bb b084 f5bd 7ac8 943e
00000150: 31fc fc3d 3b42 b4bd 40ec 2bbe b471 4a3d
00000160: e8e8 39be 916c 303e fd7c 073e 0cff 6abe
00000170: f55a d9bd 8c5b 60be 405e 51be 4048 8b3d
00000180: a7bc d2bd 0966 e83d 1f9f 033e 3437 8b3e
00000190: 8ce6 21be 7be1 823e 9ed4 fbbd c0cb 6b3e
000001a0: d46d b53d 3e2a 473e f378 8bbd e5c8 963e
000001b0: 71c5 763e c94b 51be 199e 543e f78e 3f3e
000001c0: 51ca 35be 9dfc 6b3e 1e43 dbbd 2c8c 8f3e
000001d0: 8eb8 0e3e 3db5 8fbe 443c 1b3d d927 663d
000001e0: a5ea 343e 1fea 31bd d96b 89bc 50b8 d1bd
000001f0: c87f 993d ab12 43be 2468 cbbd 35bb 7b3e
00000200: 951e 7fbe a18f 8b3e be5a 133e 1483 883d
00000210: ef3f 823e bfe0 10be 9518 3fbe cc85 053d
00000220: 8245 7d3e d879 81bd 27ba e13d 44cb 943e
00000230: 4b7f cfbb de07 8e3e d85d 823e f1a6 93be
00000240: 78c5 3d3e e36b dd3c c95b ab3d a415 68be
00000250: 9041 0f3e a9fb 4f3d 785d 12bd ae9b 973e
00000260: 0bb2 5a3e bcfc 64be f866 5fbe c48f 8abe
00000270: 016c 6f3e a906 f73d abb6 c4bd adcc 58be
00000280: 4e9f 8abe 366e c7bd 2eb0 563e 12b9 31be
00000290: b4a4 95be 51ce dcbb bc03 3e3c a629 03be
000002a0: 2b60 ca3c cc69 d53d e7a7 6dbe 5e6e 24bd
000002b0: 7bb1 57be 408d e3ba 09c2 96be 6f6a 623e
000002c0: b170 9ebd a8aa b6bd 4465 fe3c 258f 69be
000002d0: 7479 583e 87e1 633e f80f 3cbe 17a7 4cbe
000002e0: add6 2bbe e0d0 8a3e beb0 923e 006e 913e
000002f0: 57b8 bcbd d4ea 30bd df88 1b3d 86d8 6e3e
00000300: ddd4 683e 70b0 d5bd daea 0abe 8f6d 893e
00000310: 29d5 bd3d 1e04 97bc b64d 873e 89e2 ee3d
00000320: f3ec 50be 3241 0a3c af34 853e 965b 713e
00000330: 83b6 623e f4b7 3f3e 052d 8cbe 9730 87be
00000340: e77b 2c3e be5c 90be 6698 8ebc 8b36 783d
00000350: 09fd c0bc bdb7 343e 09c4 c0bd 618d 273d
00000360: 91ab bd3c 048d 70be dbe7 8abd 9e5a 2e3e
00000370: 5459 c43d 2bda c8ba dc4d 19bc e871 323e
00000380: eaa1 443c 43a6 93bd 92db 693c 4a0b 72be
00000390: f48e 6a3e 2d3e 883e 6918 42be a1d6 063c
000003a0: f3e9 903e abbd 70be fc64 50be 2e82 593e
000003b0: 9a44 0a3e 0bbf bebd c919 9ebc 6baa 87be
000003c0: 1e64 a6bd a853 87be 7f66 6ebe 1875 04be
000003d0: 6054 6b3e 6a29 81be 2d69 8dbe 1e03 13bd
000003e0: a592 4c3e 6f4e 493e d0b8 4cbe 0501 4e3e
000003f0: 4ba7 fe3c 167d 9ebc bbb6 4cbe 99be 27bb

model.encoder.conv1.bias f4 [64]
0.0016494337 -0.00075586594 0.0032809149 0.0006947942 2.3738843e-05 -0.0007284571 0.0017185092 -0.0011019703
0.003037671 -0.0020405778 0.001411723 -0.00041855007 -3.128439e-05 -0.0009757022 0.0015604612 0.0017471759
0.0005768488 -0.0027792032 0.0011431467 -0.0001761656 0.0023286815 -0.0036890453 -0.00217352 0.0004827605
-0.0030870524 -0.0037094427 -0.0023837697 0.0003152869 -0.0022357083 -0.0021207328 -0.003350559 -0.0016048253
0.0006567799 0.002437861 0.001890506 0.0029143908 -0.003540717 0.0016212915 0.0025484953 -0.0039481213
-0.0004349695 0.0030038361 -0.0029026659 0.00096240855 -0.0025504834 -0.0038306057 0.003124781 0.0019804705
-0.0018206496 -0.0016262627 -0.0027929759 0.0020843435 -0.0014929597 0.0013722373 -0.001354626 -0.0035833123
-0.0007592686 0.0016658793 -0.0010806969 -0.0008631997 -0.002956103 -0.00023674121 -0.00019389359 -0.002358715
00000000: d031 d83a 4e25 46ba 9e04 573b d922 363a
00000010: c722 c737 eef5 3eba 9a3f e13a fd6f 90ba
00000020: aa13 473b 37bb 05bb 9009 b93a d770 dbb9
00000030: 5c37 03b8 44c6 7fba 6488 cc3a 7f01 e53a
00000040: ab37 173a 4b23 36bb a3d5 953a 18b9 38b9
00000050: cb9c 183b e9c3 71bb 9d71 0ebb 041b fd39
00000060: 2550 4abb 1f1a 73bb 0539 1cbb 174d a539
00000070: f684 12bb fefb 0abb 0d95 5bbb 0059 d2ba
00000080: c12b 2c3a 85c4 1f3b dbca f73a 5dff 3e3b
00000090: 600b 68bb 8481 d43a a804 273b 3e5f 81bb
000000a0: 9e0c e4b9 02dc 443b a73a 3ebb 254a 7c3a
000000b0: 0326 27bb e60a 7bbb 20c9 4c3b c8ca 013b
000000c0: dda2 eeba 5228 d5ba 5c0a 37bb 7b99 083b
000000d0: 6aaf c3ba a5dc b33a b58d b1ba 01d6 6abb
000000e0: a709 47ba a259 da3a 2ca6 8dba 5a48 62ba
000000f0: 2ebb 41bb bc3d 78b9 ea4f 4bb9 ac94 1abb

model.encoder.conv1.lin.weight f4 [256, 3]
0.054717224 0.01735291 0.1293107 0.011609186 -0.070752546 -0.061587606 -0.11748335 -0.12181309
0.10444685 0.048500553 0.102628395 -0.026230643 -0.017153013 0.050071184 -0.0073612407 0.012492099
-0.14884444 0.021543777 -0.08848298 -0.054648466 -0.021307906 -0.07211107 -0.1006548 0.079735585
0.15154673 -0.09627277 -0.017423311 0.14527223 0.114476025 -0.020255921 -0.077951685 -0.14318876
-0.085624866 -0.13568304 0.06614709 0.028685391 -0.043239255 0.07512557 0.087781206 -0.024400553
-0.02902917 0.1361094 0.1447132 -0.06281147 -0.04745947 -0.06355439 -5.449061e-05 0.08799134
0.01532251 0.108104624 0.00940341 0.116447546 -0.014339183 -0.003248872 0.0005718737 0.06514269
-0.051219624 -0.14694902 -0.101723224 0.08147516 0.05779559 -0.096992426 -0.09875851 -0.14752689
0.059445933 -0.12647569 -0.019270552 0.019149093 0.114048965 -0.05366552 -0.023068273 -0.13334015
0.057532825 -0.00041828438 0.026764622 0.0024058758 0.08477139 -0.12697907 -0.1354292 -0.09950745
0.09007376 0.04663768 -0.14210044 0.023697058 0.04343059 -0.113819055 0.0546602 0.06390764
0.05849669 -0.057300985 -0.12163502 -0.033002 -0.07909146 0.09287225 -0.0027584902 -0.010733759
-0.11600025 0.14453226 -0.1259158 0.09163967 0.031049935 -0.051223457 -0.1075996 0.015524759
0.08663954 0.05824484 0.0004715648 -0.042925674 -0.028105408 0.07117969 -0.0035990574 -0.0037541129
-0.038129795 0.09653108 -0.010747353 0.040306814 -0.017227732 0.063809276 0.14586806 0.074403636
-0.12978789 -0.14753658 0.1490236 0.057600006 0.02087618 0.11114923 -0.1285715 0.114619456
-0.11275155 -0.07207474 0.12749554 0.13527228 0.07179133 -0.1313534 -0.13236745 0.052012797
-0.10828609 -0.045381192 0.10747405 0.050277956 -0.026290739 0.12507834 -0.11357729 -0.0426482
-0.13617289 -0.012030478 0.13843876 -0.074024424 0.13523318 -0.0048931134 -0.027975617 0.13940147
-0.00071333104 -0.0074024587 0.0046520606 -0.088409916 -0.0734665 0.062044963 -0.0932765 0.02776868
-0.03754697 0.14813976 0.13331936 0.07356544 0.14578068 0.0182291 -0.12395158 0.07836505
0.1295215 -0.112596095 0.116508275 -0.078960225 0.08417575 0.0687492 -0.015261 -0.05855295
0.006987882 0.0574036 -0.09660567 0.0139536 -0.074609205 0.14097235 0.10441959 0.09193914
-0.04647455 -0.095236816 0.034927193 -0.089005075 0.14633802 -0.09492084 0.020670738 0.0051651034
0.033420715 -0.028137395 -0.02274734 0.099260055 -0.049917474 -0.05627492 -0.026306111 -0.049924236
-0.13447018 -0.029817477 -0.03238274 0.07058302 -0.13684693 0.024797194 -0.02067285 0.02179794
0.11773642 -0.1412254 -0.10190517 0.112672545 0.11808579 0.15068382 0.06640828 -0.04072082
-0.07833902 -0.15125205 0.045678638 -0.029938448 0.103495374 -0.03683454 0.0975526 -0.12876761
-0.084522344 0.02949171 -0.10248462 0.10397612 0.009851119 0.09175897 0.09374921 0.020759167
-0.07167881 0.005816045 -0.06296708 0.0062212455 -0.010911912 0.0043161856 -0.07084348 -0.13846454
-0.14851186 0.0031034593 -0.042319864 0.097174175 0.14496017 0.088463046 0.008742608 0.13668522
0.063892156 -0.14815684 -0.08355363 0.0309018 0.14433141 0.045857087 0.030236643 -0.008632617
00000000: 2b1f 603d b127 8e3c 066a 043e 7534 3e3c
00000010: b6e6 90bd 4943 7cbd 1c9b f0bd 2479 f9bd
00000020: 3be8 d53d 84a8 463d d62e d23d a5e1 d6bc
00000030: 7a84 8cbc 7117 4d3d 9036 f1bb a9ab 4c3c
00000040: ad6a 18be 937c b03c 9136 b5bd 12d7 5fbd
00000050: eb8d aebc f8ae 93bd 1b24 cebd 694c a33d
00000060: 112f 1b3e a82a c5bd 55bb 8ebc 3ec2 143e
00000070: 6872 ea3d bfef a5bc 22a5 9fbd 13a0 12be
00000080: 175c afbd 7ff0 0abe 2078 873d a0fd ea3c
00000090: a51b 31bd 6fdb 993d a2c6 b33d abe3 c7bc
000000a0: 95ce edbc 4360 0b3e b22f 143e 4da3 80bd
000000b0: dc64 42bd ce28 82bd d98c 64b8 ce34 b43d
000000c0: 440b 7b3c f565 dd3d c310 1a3c 0d7c ee3d
000000d0: e5ee 6abc 07eb 54bb cbe9 153a 8869 853d
000000e0: abcb 51bd ce79 16be 4454 d0bd 73dc a63d
000000f0: 12bb 6c3d f7a3 c6bd e741 cabd 4a11 17be
00000100: 947d 733d d882 01be 47dd 9dbc 8fde 9c3c
00000110: 8192 e93d 60d0 5bbd adf9 bcbc 528a 08be
00000120: 8aa7 6b3d 2e4d dbb9 7b41 db3c e6ab 1d3b
00000130: 9f9c ad3d cd06 02be f4ad 0abe 90ca cbbd
00000140: 9778 b83d 2707 3f3d c782 11be 5520 c23c
00000150: 46e4 313d f719 e9bd 60e3 5f3d 02e2 823d
00000160: 3a9a 6f3d 70b4 6abd c81b f9bd 1b2d 07bd
00000170: b4fa a1bd ce33 be3d c9c7 34bb a6dc 2fbc
00000180: 8a91 edbd 4400 143e 12f0 00be 94ad bb3d
00000190: 6f5c fe3c b0cf 51bd 2e5d dcbd 8f5b 7e3c
000001a0: 1270 b13d 2492 6e3d 5b3c f739 d5d2 2fbd
000001b0: 503d e6bc a8c6 913d 2ade 6bbb 9007 76bb
000001c0: fd2d 1cbd 16b2 c53d aa15 30bc c218 253d
000001d0: 2c21 8dbc 70ae 823d 705e 153e ef60 983d
000001e0: 1ee7 04be d413 17be a599 183e fced 6b3d
000001f0: 8604 ab3c 35a2 e33d 3fa8 03be 9bbd ea3d
00000200: 49ea e6bd ec9b 93bd 318e 023e d184 0a3e
00000210: 5507 933d 8181 06be 558b 07be 5f0b 553d
00000220: 19c5 ddbd a1e1 39bd 5b1b dc3d 42f0 4d3d
00000230: ad5f d7bc 8914 003e 369b e8bd e1af 2ebd
00000240: e870 0bbe 7b1b 45bc e4c2 0d3e 1e9a 97bd
00000250: 917a 0a3e 6956 a0bb 1f2d e5bc 42bf 0e3e
00000260: d6fe 3aba 5390 f2bb 5070 983b 4210 b5bd
00000270: 9b75 96bd dc22 7e3d c007 bfbd 257b e33c
00000280: daca 19bd f3b1 173e df84 083e 7aa9 963d
00000290: 8847 153e 3255 953c 53da fdbd db7d a03d
000002a0: 49a1 043e c898 e6bd e49b ee3d e6b5 a1bd
000002b0: 5664 ac3d 61cc 8c3d 4609 7abc 38d5 6fbd
000002c0: 9afa e43b 0a20 6b3d 32d9 c5bd a49d 643c
000002d0: b6cc 98bd 0e5b 103e f0d9 d53d 964a bc3d
000002e0: 195c 3ebd 850b c3bd d10f 0f3d 4b48 b6bd
000002f0: a2d9 153e db65 c2bd ae55 a93c 0740 a93b
00000300: 29e4 083d 6580 e6bc a158 babc db48 cb3d
00000310: 4476 4cbd 8880 66bd ea7f d7bc 5b7d 4cbd
00000320: 8db2 09be c843 f4bc c4a3 04bd d58d 903d
00000330: 9a21 0cbe 7c23 cb3c 1c5a a9bc 9891 b23c
00000340: cb1f f13d 649d 10be a8b3 d0bd ddc0 e63d
00000350: f6d6 f13d dc4c 1a3e 1001 883d e0ca 26bd
00000360: 3570 a0bd d1e1 1abe 8619 3b3d 7a41 f5bc
00000370: 62f5 d33d d1df 16bd a8c9 c73d a8db 03be
00000380: 0d1a adbd 9998 f13c 75e3 d1bd 6ff1 d43d
00000390: 9666 213c 20ec bb3d 96ff bf3d 210f aa3c
000003a0: 57cc 92bd 8694 be3b e2f4 80bd 97db cb3b
000003b0: e0c7 32bc ca6e 8d3b 6316 91bd a6c9 0dbe
000003c0: 7e13 18be 6863 4b3b 9857 2dbd 4103 c73d
000003d0: 7070 143e 1d2c b53d 283d 0f3c 36f7 0b3e
000003e0: e4d9 823d 6db6 17be 2a1e abbd c625 fd3c
000003f0: 9dcb 133e a4d4 3b3d d6b2 f73c d26f 0dbc

model.encoder.conv2.att_src f4 [1, 1, 64]
-0.19018143 -0.18759729 0.008626526 -0.00023066762 0.073512465 0.18489015 -0.19626038 0.15427186
0.01933782 0.23358186 -0.24853031 -0.039140295 0.27222463 -0.1940984 0.027631652 -0.031642117
0.229705 0.19287723 -0.0024981925 0.0481671 0.2727721 0.23257641 -0.21476606 -0.10903891
-0.26904598 -0.23195474 0.2935863 -0.12975389 0.081012 -0.25344676 0.26156506 -0.122740634
0.03226762 0.12307887 0.011140853 -0.22629727 0.2018955 0.18697612 0.0126787145 -0.27757913
0.1187385 -0.08004 -0.27289605 0.30354735 -0.07966715 0.03212721 -0.0014966833 0.19111311
-0.23493665 -0.005589054 -0.1749297 0.2667722 -0.23065907 0.09997241 0.008991027 0.10288228
-0.13241126 0.17664939 0.08966968 0.040581718 -0.2014719 -0.0015801725 0.23553486 -0.014924537
00000000: ecbe 42be 8119 40be 4656 0d3c 5edf 71b9
00000010: b48d 963d d853 3d3e 7bf8 48be 71f9 1d3e
00000020: 596a 9e3c 1530 6f3e bb7e 7ebe 9351 20bd
00000030: 0761 8b3e bbc1 46be c65b e23c 2a9b 01bd
00000040: ca37 6b3e 9c81 453e b7b8 23bb dd4a 453d
00000050: c9a8 8b3e 8328 6e3e a2eb 5bbe cb4f dfbd
00000060: 65c0 89be 8b85 6dbe f250 963e 34de 04be
00000070: 9fe9 a53d c6c3 81be dbeb 853e 715f fbbd
00000080: 0d2b 043d c610 fc3d 2088 363c 79ba 67be
00000090: b2bd 4e3e ab76 3f3e 62ba 4f3c da1e 8ebe
000000a0: 2c2d f33d 03ec a3bd 08b9 8bbe 8f6a 9b3e
000000b0: 8828 a3bd d297 033d 5c2c c4ba 28b3 433e
000000c0: 3c93 70be 6224 b7bb c520 33be 5e96 883e
000000d0: e431 6cbe 56be cc3d 1a4f 133c f2b3 d23d
000000e0: d196 07be 94e3 343e bda4 b73d 0439 263d
000000f0: a64e 4ebe ca1d cfba 0d30 713e 0c86 74bc

model.encoder.conv2.att_dst f4 [1, 1, 64]
0.28365746 0.14180866 0.28567064 -0.22756061 0.1168156 -0.123385474 0.28258964 -0.18041639
-0.08576179 -0.05992687 -0.013802873 -0.07049083 0.16414675 0.22056592 0.19762774 -0.20939462
0.023011621 -0.03353091 0.19899768 0.232461 -0.20095685 0.25834402 -0.0926525 -0.046718825
-0.21511945 0.22545916 0.12016308 -0.14149198 -0.11990546 -0.13782257 0.30317295 -0.25131288
-0.05991697 0.024004232 0.18686311 0.06585966 -0.10311177 -0.30061388 0.26911995 0.12253354
0.26346654 -0.04511819 0.005040023 -0.15769841 -0.0003291352 0.064590625 0.13478945 -0.06399855
-0.04624687 -0.28174922 0.28962976 0.2942838 -0.12276235 -0.25137353 -0.20579393 -0.20279913
-0.11662922 -0.22936086 0.14611118 -0.27722797 -0.08009712 -0.09862215 -0.11087761 -0.052717544
00000000: 8d3b 913e 4a36 113e 6c43 923e a605 69be
00000010: 043d ef3d 86b1 fcbd 97af 903e 13bf 38be
00000020: e1a3 afbd e175 75bd 7225 62bc 7f5d 90bd
00000030: 1616 283e 08dc 613e ed5e 4a3e 8b6b 56be
00000040: de82 bc3c b557 09bd 0cc6 4b3e 420a 6e3e
00000050: a2c7 4dbe ab45 843e 98c0 bdbd 3d5c 3fbd
00000060: 4648 5cbe c4de 663e 1018 f63d 46e3 10be
00000070: fe90 f5bd 5c21 0dbe 7c39 9b3e 15ac 80be
00000080: 7f6b 75bd 86a4 c43c 0b59 3f3e 6ee1 863d
00000090: 432c d3bd 10ea 99be 17ca 893e ddf2 fa3d
000000a0: 16e5 863e dacd 38bd c726 a53b b17b 21be
000000b0: c78f acb9 1748 843d 3f06 0a3e ac11 83bd
000000c0: 5c6d 3dbd 6f41 90be 5a4a 943e 5eac 963e
000000d0: d46a fbbd 08b4 80be a5bb 52be 93aa 4fbe
000000e0: 4ddb eebd 93dd 6abe 2b9e 153e d3f0 8dbe
000000f0: f509 a4bd 69fa c9bd cd13 e3bd 5aee 57bd

model.encoder.conv2.bias f4 [64]
-0.0023165024 0.001992354 0.001516255 0.002807418 0.003717426 0.0047636796 -0.0029954882 -0.0016097269
0.0031107252 0.0015370708 0.00431043 -0.0011709557 -0.0018874279 0.0026695938 -0.0013117971 0.0020253079
-0.00021358153 0.004327155 0.000913011 0.002970747 -0.003417858 0.00084053265 -0.0016440684 -0.0015187458
-0.0027447147 0.0034796975 0.003279183 -0.0018668567 0.00024693768 0.0013242164 -9.60221e-05 0.003651651
0.002905263 -0.00081095786 -0.0046217227 0.0024126375 0.003318344 0.0034643111 -0.00090541935 0.0020856524
-0.0013192411 0.0012073684 -0.0014281679 0.001040768 0.0010686171 0.0027974816 -0.00025686933 -0.0019470908
-0.0036522364 -0.0037416585 0.0044436147 0.0009415769 -0.0040551657 -0.0012180726 -0.0037056732 -0.00045351117
-0.0031878662 -0.0018901338 0.0019036579 0.0032853237 -0.00013252704 0.00097565923 0.0049305283 0.0018019269
00000000: 76d0 17bb 2792 023b 13bd c63a a8fc 373b
00000010: 0fa0 733b a418 9c3b f44f 44bb 79fd d2ba
00000020: 4fdd 4b3b 8a77 c93a 823e 8d3b c17a 99ba
00000030: 9263 f7ba 5af4 2e3b 9bf0 abba 07bb 043b
00000040: dbf4 5fb9 cfca 8d3b 2257 6f3a ddb0 423b
00000050: 24fe 5fbb 3157 5c3a c87d d7ba a710 c7ba
00000060: ace0 33bb a30b 643b 90e7 563b 51b1 f4ba
00000070: 6a77 8139 5491 ad3a 795f c9b8 8a50 6f3b
00000080: 3a66 3e3b 7696 54ba d271 97bb 571d 1e3b
00000090: 9378 593b 7f09 633b aa59 6dba 71af 083b
000000a0: 63ea acba 9040 9e3a 5d31 bbba 616a 883a
000000b0: d710 8c3a f455 373b 6bac 86b9 8735 ffba
000000c0: 5c5a 6fbb 9d36 75bb be9b 913b 28d4 763a
000000d0: 32e1 84bb bca7 9fba e1da 72bb 3dc5 edb9
000000e0: 85eb 50bb 5ebe f7ba 2984 f93a 964e 573b
000000f0: f5f6 0ab9 62c3 7f3a 4590 a13b a22e ec3a

model.encoder.conv2.lin.weight f4 [64, 64]
-0.14803934 0.0027352185 -0.1481748 -0.20178667 -0.07763954 -0.032279324 0.008556901 -0.13543221
-0.1805795 -0.15174265 0.04083258 0.0074766134 0.10136973 -0.0032547105 -0.08417516 0.006083977
-0.060958143 -0.13207464 0.008090124 0.010490455 0.067200296 0.10930554 0.09147826 -0.16405042
0.20474294 0.071215436 -0.03575266 0.06642753 -0.07674891 0.031242684 0.12495162 0.12630112
-0.11991566 -0.100398935 -0.07051732 -0.056178868 0.1173916 0.07578008 -0.19346896 0.026636574
-0.15302177 -0.17506573 -0.15389925 -0.14180382 -0.017577654 0.09780256 -0.14831904 0.15669958
0.09934153 0.065926425 0.15563104 0.060761843 0.16031064 -0.029016228 -0.20721771 0.18891096
-0.0018225594 0.109995864 -0.11863976 0.21454914 0.13961996 -0.057870265 -0.20203605 0.17253119
0.20307605 0.0743144 0.19835941 -0.09466263 0.15306522 -0.16223396 -0.09577512 0.20897649
0.16060406 0.15773799 -0.14621653 -0.18731567 -0.18315227 0.07423843 -0.103400186 -0.066201895
0.15679333 0.089299425 -0.045459718 -0.18715951 0.19946216 -0.08285682 0.07200471 0.21529095
-0.14744836 0.07676818 0.052361276 0.21546045 0.07334276 0.21562836 0.044125363 -0.07983926
-0.07270115 0.11934083 -8.0136124e-05 -0.19010618 -0.14689246 -0.036411982 0.15517303 -0.13427348
0.19228579 -0.16900961 -0.15153462 -0.2164252 0.12162738 0.07767043 -0.14452332 -0.058261707
0.057893697 -0.20855272 0.07459415 0.014926071 -0.16568527 0.08142796 -0.056712233 -0.16185825
0.18722178 0.005172871 -0.0026729694 0.03408758 -0.026644386 -0.0054713753 0.15700024 -0.017783534
0.06889986 0.14151444 -0.16624293 0.12050894 0.015279748 0.0059408066 0.19705208 -0.07116096
-0.20857859 -0.010306665 -0.06335963 -0.05891912 0.18716359 -0.03155823 0.021925833 -0.008853191
-0.18057871 -0.06878456 -0.15021726 -0.09658562 -0.020766506 0.1639023 0.1645994 0.0770148
-0.06823215 -0.0013330197 -0.17221792 -0.06963013 0.029768687 0.19737732 0.07668496 -0.009735856
0.16141215 0.08441096 0.15067373 -0.09629461 0.15171696 0.109883256 0.0043268385 0.18683131
0.02688418 0.09894559 0.09240502 -0.1286206 -0.17935835 0.15761541 0.086247146 -0.087350555
-0.13027018 -0.033123203 0.028721835 0.097702816 -0.02600501 0.10791632 0.20673071 -0.12774004
-0.116312586 0.17314255 0.15020987 0.049126416 -0.12060841 -0.20990303 0.10597023 0.1711609
-0.048178304 -0.20741688 -0.2057502 -0.19257224 -0.11978672 0.007122821 0.093159534 -0.080764696
0.21029696 -0.058768634 -0.010370098 0.14111377 0.049709134 0.07988747 0.07107714 -0.07591344
0.016376635 0.14268783 0.20506276 0.1880199 -0.05588281 -0.122973695 -0.028436672 -0.1813374
-0.17141797 -0.08994105 0.20344062 -0.20587082 0.2068021 0.19803168 -0.061282497 -0.18423836
-0.20903356 0.20489809 0.087502874 -0.107718535 -0.042247556 0.053549305 -0.07107054 -0.0027326772
-0.016557815 0.11579893 0.20431516 -0.0071535883 -0.09530146 -0.13388933 -0.020606108 0.1764211
0.08396975 0.04965721 0.052080683 -0.063462235 -0.0871976 -0.0043259044 -0.049495656 -0.032346208
-0.040915884 0.038244184 -0.029646654 0.0017195741 -0.18546414 -0.13935506 0.10719074 0.10582663
00000000: a097 17be 5a41 333b 23bb 17be 2aa1 4ebe
00000010: 7b01 9fbd 5337 04bd 3e32 0c3c beae 0abe
00000020: d5e9 38be 6d62 1bbe 1040 273d 61fe f43b
00000030: ef9a cf3d fb4c 55bb 0764 acbd 195c c73b
00000040: 3faf 79bd 933e 07be 718c 043c 28e0 2b3c
00000050: 4fa0 893d 95db df3d f458 bb3d d5fc 27be
00000060: 22a8 513e 66d9 913d 6271 12bd 280b 883d
00000070: 882e 9dbd a8f0 ff3c a3e6 ff3d 1555 013e
00000080: 5796 f5bd f59d cdbd 626b 90bd d01b 66bd
00000090: 026b f03d 9632 9b3d ba1c 46be f234 da3c
000000a0: bdb1 1cbe 6e44 33be c497 1dbe 0535 11be
000000b0: 03ff 8fbc b54c c83d f2e0 17be db75 203e
000000c0: 9273 cb3d 6f04 873d be5d 1f3e 69e1 783d
000000d0: 7928 243e 71b3 edbc e130 54be e071 413e
000000e0: f2e2 eeba 8345 e13d 67f9 f2bd c5b2 5b3e
000000f0: 89f8 0e3e 5f09 6dbd 8ae2 4ebe 04ac 303e
00000100: 2bf3 4f3e 2632 983d bb1e 4b3e 7bde c1bd
00000110: 21bd 1c3e a920 26be bf25 c4bd effd 553e
00000120: 6475 243e 1186 213e c9b9 15be aecf 3fbe
00000130: 458c 3bbe 510a 983d 7ac3 d3bd dc94 87bd
00000140: 6e8e 203e 9ee2 b63d f833 3abd bea6 3fbe
00000150: cf3f 4c3e d6b0 a9bd 3577 933d 3b75 5c3e
00000160: b4fc 16be a338 9d3d c778 563d aaa1 5c3e
00000170: bb34 963d aecd 5c3e ccbc 343d c482 a3bd
00000180: 57e4 94bd f768 f43d c10e a8b8 32ab 42be
00000190: fa6a 16be bb24 15bd aee5 1e3e fd7e 09be
000001a0: 91e6 443e db10 2dbe e42b 1bbe 919e 5dbe
000001b0: c717 f93d ad11 9f3d ecfd 13be d4a3 6ebd
000001c0: f121 6d3d d88e 55be d1c4 983d 7b8c 743c
000001d0: 66a9 29be b4c3 a63d 164b 68bd 2bbe 25be
000001e0: 11b7 3f3e 3081 a93b fc2c 2fbb 6b9f 0b3d
000001f0: 5445 dabc 3949 b3bb acc4 203e c6ae 91bc
00000200: 5f1b 8d3d 29e9 103e 963b 2abe 64cd f63d
00000210: e857 7a3c 19ab c23b 05c8 493e d6bc 91bd
00000220: a095 55be 49dd 28bc b2c2 81bd 2d55 71bd
00000230: d0a7 3f3e 3443 01bd ce9d b33c f90c 11bc
00000240: a0e9 38be ebde 8cbd 8ed2 19be aece c5bd
00000250: 851e aabc 01d6 273e bf8c 283e efb9 9d3d
00000260: 4cbd 8bbd b8b8 aeba e559 30be 3e9a 8ebd
00000270: 76dd f33c 481d 4a3e 010d 9d3d 2483 1fbc
00000280: 3a49 253e a7df ac3d 374a 1a3e 1c36 c5bd
00000290: b15b 1b3e 790a e13d 27c8 8d3b b550 3f3e
000002a0: 363c dc3c fca3 ca3d d83e bd3d 1eb5 03be
000002b0: b7a9 37be ef65 213e 58a2 b03d d9e4 b2bd
000002c0: 8c65 05be 32ac 07bd 0e4a eb3c 6a18 c83d
000002d0: 7508 d5bc 3b03 dd3d 37b1 533e 49ce 02be
000002e0: 4b35 eebd 484c 313e 9ed0 193e c838 493d
000002f0: 8b01 f7bd d2f0 56be ec06 d93d ce44 2f3e
00000300: 9d56 45bd 1765 54be 2eb0 52be a831 45be
00000310: bd52 f5bd 8e66 e93b 6dca be3d f667 a5bd
00000320: 1658 573e 61b7 70bd 58e7 29bc 2180 103e
00000330: ce9b 4b3d 0b9c a33d e490 913d 8178 9bbd
00000340: 4b28 863c c21c 123e f9fb 513e 4a88 403e
00000350: 60e5 64bd a2d9 fbbd 06f4 e8bc 83b0 39be
00000360: 3188 2fbe 0333 b8bd bd52 503e cdcf 52be
00000370: eec3 533e d1c8 4a3e 5b03 7bbd fba8 3cbe
00000380: e50c 56be ced0 513e b534 b33d 899b dcbd
00000390: c60b 2dbd 8456 5b3d 6e8d 91bd b716 33bb
000003a0: 41a4 87bc fd27 ed3d fe37 513e a668 eabb
000003b0: 692d c3bd 491a 09be 24ce a8bc bca7 343e
000003c0: 55f8 ab3d 5c65 4b3d 8e52 553d 7df8 81bd
000003d0: a894 b2bd 51c0 8dbb f5bb 4abd 757d 04bd
000003e0: 6a97 27bd efa5 1c3d 8add f2bc 5563 e13a
000003f0: 50ea 3dbe 18b3 0ebe d286 db3d a2bb d83d

model.encoder.bn1.weight f4 [64]
0.9980805 0.9975928 1.0032781 1.0020533 0.99926656 0.99918604 1.0018128 0.998603
0.99860567 1.0021449 1.0013955 0.99954724 0.9986824 0.99939406 0.99891174 1.0009956
1.0001439 0.99890345 0.999385 1.0001163 1.0005177 0.9964573 1.0017164 0.99804085
0.99799263 0.9978627 0.997464 0.9989618 0.9982557 0.9980666 1.0015033 1.0011463
1.0029105 1.0011386 0.99911916 1.0019234 0.9965773 1.0015115 1.0025988 0.9982982
1.0001733 1.0019314 1.0009167 1.0010113 0.99882483 1.0029706 1.001707 1.0019943
0.9965789 0.9972827 1.0000705 1.0008004 0.99734545 1.0027734 0.9978097 1.0034224
0.9994925 1.0017948 1.0002112 0.9991788 0.9997867 0.9998407 1.0002875 1.0007827
00000000: 3482 7f3f 3e62 7f3f 6b6b 803f 4843 803f
00000010: efcf 7f3f a8ca 7f3f 673b 803f 72a4 7f3f
00000020: 9fa4 7f3f 4946 803f ba2d 803f 54e2 7f3f
00000030: a6a9 7f3f 4ad8 7f3f aeb8 7f3f a020 803f
00000040: b704 803f 23b8 7f3f b2d7 7f3f d003 803f
00000050: f710 803f d317 7f3f 3e38 803f 9b7f 7f3f
00000060: 727c 7f3f ee73 7f3f cd59 7f3f f6bb 7f3f
00000070: b08d 7f3f 4b81 7f3f 4331 803f 9025 803f
00000080: 5f5f 803f 4f25 803f 46c6 7f3f 073f 803f
00000090: b11f 7f3f 8731 803f 2855 803f 7990 7f3f
000000a0: ae05 803f 4a3f 803f 0a1e 803f 2321 803f
000000b0: fcb2 7f3f 5761 803f ef37 803f 5941 803f
000000c0: cb1f 7f3f eb4d 7f3f 4f02 803f 3a1a 803f
000000d0: 0852 7f3f e15a 803f 7570 7f3f 2570 803f
000000e0: bede 7f3f d03a 803f ec06 803f 2fca 7f3f
000000f0: 05f2 7f3f 8ff5 7f3f 6c09 803f a619 803f

model.encoder.bn1.bias f4 [64]
0.0014981749 0.0052158353 -0.0039013284 -0.0014303466 -0.0003576876 -0.003895718 0.002411436 -0.0016439728
0.003838566 0.0008823498 0.0038132968 -0.0033419316 -0.002356177 -0.004501548 0.0017276776 -0.0012805029
0.002550934 -0.0013469269 -0.0010503186 0.0013476737 0.000666989 -0.0012056868 -0.0015681318 -0.00045776932
-0.0023993643 0.002621435 0.00086050946 0.00065773714 -0.0014278076 0.0016094099 -0.00219498 -0.0015271938
-0.0013753434 -0.00030411824 0.0022370713 0.0001387994 -0.0011785425 -0.0041932054 0.0014078465 -0.001242191
0.0014643793 0.002674546 -0.0033348298 0.001065441 -0.0035282092 -0.0020368535 0.0017997989 -0.0022836335
-0.00088212546 -0.0017818498 -0.0015184892 0.0030988932 -0.0033965195 0.00091067306 -0.0034690134 -0.0030303367
-0.00041679986 0.0050281906 0.002790935 0.00020272801 -0.0035224133 0.002806114 0.002334406 -0.0023250815
00000000: 685e c43a 99e9 aa3b 6ead 7fbb 787a bbba
00000010: 0488 bbb9 4d4f 7fbb 2f09 1e3b 937a d7ba
00000020: 7390 7b3b 7e4d 673a 81e8 793b 4f04 5bbb
00000030: 176a 1abb b981 93bb 3e73 e23a 8cd6 a7ba
00000040: 922d 273b 5e8b b0ba d8aa 89ba 6da4 b03a
00000050: e0d8 2e3a 2308 9eba c689 cdba c200 f0b9
00000060: a73e 1dbb 62cc 2b3b d093 613a fe6b 2c3a
00000070: 4625 bbba d6f2 d23a a7d9 0fbb 1f2c c8ba
00000080: de44 b4ba 0f72 9fb9 d49b 123b ae8a 1139
00000090: 5379 9aba 2867 89bb 7d87 b83a 03d1 a2ba
000000a0: 6af0 bf3a 7047 2f3b 298d 5abb 45a6 8b3a
000000b0: 8739 67bb bb7c 05bb 3be7 eb3a 03a9 15bb
000000c0: 703e 67ba f58c e9ba 0b08 c7ba cd16 4b3b
000000d0: 2498 5ebb 3cba 6e3a 6358 63bb 9d98 46bb
000000e0: ee85 dab9 85c3 a43b 1fe8 363b 6393 5439
000000f0: 4ad8 66bb c8e6 373b d5fc 183b 6560 18bb

model.encoder.bn1.running_mean f4 [64]
-0.0045153843 0.014390407 -0.063986406 0.019943649 0.033275574 -0.0007592875 -0.033068754 0.0060412344
-0.0029499594 0.06756286 -0.033694394 -0.047862776 -0.012891421 -0.04769842 -0.0007262203 -0.04215199
-0.02927281 0.030006824 0.063408256 -0.07361863 0.017593555 -0.018765615 0.016337307 -0.010066533
0.00025866088 0.018694438 -0.029478025 0.014949306 0.018543623 -0.021033587 0.017738577 -0.005616956
0.015508378 0.015144137 -0.005777759 0.0074952054 0.0009999578 -0.040416896 -0.047255777 -0.023169963
-0.021927081 0.0051509226 0.03397467 0.033714555 -0.0006604244 -0.017953506 0.0030403312 -0.04415807
0.0063135903 0.015025577 -0.019257208 0.033862364 -0.034340043 0.046828713 0.032035295 -0.0011806153
0.0077228816 0.019249637 -0.02315106 -0.034869272 -0.023978418 -0.07100931 -0.04457023 -0.036641244
00000000: caf5 93bb bec5 6b3c 4e0b 83bd dd60 a33c
00000010: f84b 083d ec0a 47ba 1a73 07bd 8cf5 c53b
00000020: 1b54 41bb 665e 8a3d 2203 0abd c20b 44bd
00000030: 8a36 53bc 6b5f 43bd d25f 3eba 91a7 2cbd
00000040: 88cd efbc dfd0 f53c 30dc 813d 5dc5 96bd
00000050: 5c20 903c 59ba 99bc d1d5 853c 1aee 24bc
00000060: e09c 8739 1425 993c e67b f1bc efed 743c
00000070: cce8 973c a14e acbc 7e50 913c 710e b8bb
00000080: da16 7e3c 1d1f 783c 5b53 bdbb 579a f53b
00000090: 0411 833a 308c 25bd 468f 41bd efce bdbc
000000a0: 6ca0 b3bc 12c9 a83b 0629 0b3d 4618 0a3d
000000b0: 5520 2dba 3b13 93bc 4b40 473b 18df 34bd
000000c0: 3ce2 ce3b d62d 763c 4bc1 9dbc 43b3 0a3d
000000d0: 25a8 0cbd 77cf 3f3d 7137 033d e0be 9aba
000000e0: 3a10 fd3b 6ab1 9d3c 4ba7 bdbc 15d3 0ebd
000000f0: 636e c4bc 546d 91bd 468f 36bd 2115 16bd

model.encoder.bn1.running_var f4 [64]
0.002384924 0.0018081311 0.0020825828 0.0018018857 0.0018232493 0.0018204733 0.0019067366 0.0018035054
0.002984996 0.0027625603 0.0019982965 0.0018452941 0.0019327254 0.00202045 0.0022889164 0.0018836082
0.0023267332 0.0027779297 0.0024794193 0.0022252782 0.0032915208 0.001812013 0.0021143984 0.002000301
0.0020417124 0.0019382396 0.0018337064 0.0022579147 0.0019817927 0.0018222565 0.0019352736 0.0020935247
0.0018486243 0.0019130534 0.0019121172 0.0019192917 0.002675969 0.0019182474 0.0018335588 0.0021171898
0.0019421662 0.0023688124 0.0027536473 0.0019766802 0.0019069185 0.0021337457 0.0018074616 0.001966743
0.0026107163 0.004153544 0.0023562184 0.002177915 0.0024686798 0.0020205725 0.0021977962 0.0018233412
0.001992421 0.00182822 0.0018277941 0.002380201 0.0029101875 0.0017994738 0.0019555497 0.0026704888
00000000: 634c 1c3b d0fe ec3a f17b 083b 402d ec3a
00000010: 18fa ee3a f39c ee3a 77eb f93a 9963 ec3a
00000020: ec9f 433b 120c 353b daf5 023b ccdd f13a
00000030: 8153 fd3a 8769 043b a501 163b 67e3 f63a
00000040: 1b7c 183b ed0d 363b c17d 223b f9d5 113b
00000050: 8eb6 573b 1181 ed3a b891 0a3b 7b17 033b
00000060: 40ce 053b 870c fe3a fa58 f03a 86f9 133b
00000070: f7e0 013b c8d8 ee3a 02a9 fd3a 8433 093b
00000080: 8a4d f23a 6cbf fa3a 02a0 fa3a be90 fb3a
00000090: 4f5f 2f3b b46d fb3a 0654 f03a 8dc0 0a3b
000000a0: 4990 fe3a 143e 1b3b 8976 343b 318b 013b
000000b0: 91f1 f93a 50d6 0b3b 59e8 ec3a 79e4 003b
000000c0: 8d18 2b3b 741a 883b c96a 1a3b 5abb 0e3b
000000d0: 93c9 213b 956b 043b e708 103b 2efd ee3a
000000e0: 4793 023b e2a0 ef3a 9892 ef3a 25fd 1b3b
000000f0: d8b8 3e3b 52dc eb3a ae28 003b 5e03 2f3b

model.encoder.bn2.weight f4 [64]
1.0000683 0.996275 0.9997236 0.99807775 1.001348 0.9950486 0.9984596 1.0046272
0.9959492 0.9955909 0.996134 0.99730897 1.0039715 0.9969036 1.0046299 0.9956232
0.9957234 0.995374 0.99580044 0.99747753 1.0048902 1.0014876 0.99864805 1.0015583
1.0026705 0.99523187 0.99604964 1.0040572 1.0010742 1.0009097 0.99652684 0.9951002
0.9992086 1.0046059 1.0048463 0.99531627 0.9958031 0.9953027 0.99679494 0.9987256
1.00119 0.9992464 0.99753004 0.99627066 0.9962503 0.9955953 0.9962002 0.99771297
1.002967 0.9970047 0.99646103 0.99685353 1.0049386 0.99694943 1.0046486 0.9976457
1.0020732 1.0014656 0.9983512 0.99596643 1.0015795 0.9960551 0.995571 0.99621123
00000000: 3d02 803f e10b 7f3f e3ed 7f3f 0682 7f3f
00000010: 2c2c 803f 81bb 7e3f 0c9b 7f3f a097 803f
00000020: 87f6 7e3f 0cdf 7e3f a302 7f3f a44f 7f3f
00000030: 2382 803f 1335 7f3f b697 803f 29e1 7e3f
00000040: bbe7 7e3f d5d0 7e3f c7ec 7e3f b05a 7f3f
00000050: 3ea0 803f bf30 803f 66a7 7f3f 1033 803f
00000060: 8257 803f 84c7 7e3f 1cfd 7e3f f284 803f
00000070: 3323 803f cf1d 803f 621c 7f3f e3be 7e3f
00000080: 23cc 7f3f ed96 803f ce9e 803f 0ccd 7e3f
00000090: f4ec 7e3f 28cc 7e3f f42d 7f3f 7bac 7f3f
000000a0: fe26 803f 9dce 7f3f 215e 7f3f 980b 7f3f
000000b0: 420a 7f3f 55df 7e3f fa06 7f3f 1e6a 7f3f
000000c0: 3961 803f b33b 7f3f 1218 7f3f cb31 7f3f
000000d0: d4a1 803f 1438 7f3f 5398 803f b565 7f3f
000000e0: ef43 803f 0630 803f f293 7f3f a8f7 7e3f
000000f0: c233 803f 78fd 7e3f bedd 7e3f b307 7f3f

model.encoder.bn2.bias f4 [64]
-0.0016257991 -0.0036595175 0.00038881606 0.00016851857 0.003920663 -0.004322848 -0.0037496162 0.0046426584
-0.0040453803 -0.0046666944 -0.0031806943 -0.0037103062 0.004289199 -0.0027343389 0.004510013 -0.0044227326
-0.0045099985 -0.004699961 -0.0043907394 -0.0016844068 0.0047750687 0.0022606314 -0.0022385998 0.0013293257
0.001775745 -0.004867465 -0.0035507109 0.004035618 0.0014269954 0.0018107235 -0.0038858172 -0.0048048017
0.00092319935 0.0046803826 0.003937488 -0.0046675513 -0.0040327716 -0.004685359 -0.003703682 -0.00053692417
0.0008403185 -0.0004708485 -0.0029748857 -0.004137851 -0.0037917565 -0.0044016866 -0.003985632 -0.0032355408
0.0018584423 -0.0041731447 -0.0020443096 -0.0028760124 0.004642663 -0.003796677 0.0042741783 -0.0031250329
0.0009823203 -0.00040863705 -0.0011071196 -0.0030899413 0.0015692197 -0.004542172 -0.003118918 -0.0038729783
00000000: c418 d5ba 84d4 6fbb 02da cb39 5cb4 3039
00000010: e878 803b ada6 8dbb 1fbc 75bb 7121 983b
00000020: 1c8f 84bb 12eb 98bb 3273 50bb 9c28 73bb
00000030: 698c 8c3b 9832 33bb bbc8 933b 92ec 90bb
00000040: 9cc8 93bb 2102 9abb 31e0 8fbb 50c7 dcba
00000050: 2e78 9c3b 1a27 143b 79b5 12bb c53c ae3a
00000060: 1dc0 e83a 417f 9fbb 0bb3 68bb 383d 843b
00000070: 050a bb3a cc55 ed3a 32a9 7ebb 9971 9dbb
00000080: dc02 723a e55d 993b 0b06 813b 42f2 98bb
00000090: 5725 84bb a487 99bb 79b9 72bb 5fc0 0cba
000000a0: d248 5c3a 37dc f6b9 4df6 42bb cf96 87bb
000000b0: 1e7f 78bb 063c 90bb e899 82bb 5e0b 54bb
000000c0: fa96 f33a e0be 88bb d3f9 05bb 7b7b 3cbb
000000d0: 7b21 983b acd1 78bb 680e 8c3b 5acd 4cbb
000000e0: 33c1 803a 563e d6b9 c51c 91ba 9d80 4abb
000000f0: 47ae cd3a 80d6 94bb c366 4cbb cbd1 7dbb

model.encoder.bn2.running_mean f4 [64]
0.023722026 0.15698595 -0.018636147 -0.027928542 0.18026496 0.3686378 -0.0134961335 -0.011508927
0.13123505 -0.0047697206 0.025324598 0.059906647 0.19358364 0.30046523 0.0099902665 -0.02635964
-0.02861517 0.0855401 -0.03017821 0.03395351 0.3670677 0.124506466 0.10796535 0.03783862
0.0579372 0.06268638 0.20756085 0.23566872 0.41649646 0.03701848 -0.021528943 0.014757014
0.09136742 -0.02656469 -0.028955018 0.104750656 0.060089823 0.024848273 0.20147577 0.10701332
-0.026994362 -0.028857885 -0.021339498 -0.01707344 0.735184 0.11968984 0.16123717 0.14236043
0.05740987 0.00048997276 0.34489906 -0.02118515 -0.03780301 0.3572374 0.00072477054 0.16627409
-0.026988368 0.0057362197 0.023269609 -0.0069132587 -0.028984759 0.032220863 0.018032705 0.04457881
00000000: b254 c23c edc0 203e d5aa 98bc 66ca e4bc
00000010: 6197 383e 18be bc3e e31e 5dbc f08f 3cbc
00000020: 7b62 063e 514b 9cbb 8875 cf3c ac60 753d
00000030: ca3a 463e 94d6 993e 37ae 233c 2cf0 d7bc
00000040: 5c6a eabc a62f af3d 4b38 f7bc d612 0b3d
00000050: 4cf0 bb3e 3ffd fe3d f01c dd3d abfc 1a3d
00000060: 8f4f 6d3d b861 803d d58a 543e 2453 713e
00000070: 063f d53e b1a0 173d 775d b0bc 67c7 713c
00000080: d81e bb3d 319e d9bc 1333 edbc 8387 d63d
00000090: bf20 763d 9b8e cb3c aa4f 4e3e cd29 db3d
000000a0: 4823 ddbc 5f67 ecbc 2cd0 aebc 99dd 8bbc
000000b0: 0535 3c3f f21f f53d 5b1b 253e efc6 113e
000000c0: 9d26 6b3d 8471 003a 9c96 b03e 7b8c adbc
000000d0: 54d7 1abd d2e7 b63e 87fe 3d3a c143 2a3e
000000e0: b616 ddbc e6f6 bb3b e89f be3c 9e88 e2bb
000000f0: 7271 edbc 06fa 033d 53b9 933c 4598 363d

model.encoder.bn2.running_var f4 [64]
0.065059274 1.2792021 0.23691076 0.08127404 0.89196545 0.8056064 0.4216922 0.3591478
0.18195227 0.36705622 0.06939177 0.06970857 0.40400016 2.1580431 0.52987695 0.14006388
0.1314539 0.08547963 0.08194127 0.032863505 0.80994254 0.19756432 0.14224502 0.0351029
0.08731495 0.04642835 0.10707136 1.8104787 0.94666296 0.6430197 0.04830726 0.5147021
0.07251142 0.045754526 0.0555425 0.14121254 0.76941013 0.104649395 0.37677085 0.15025727
0.14717323 0.1167232 0.33558127 0.135558 2.0354187 0.86715585 1.379456 1.2001997
0.58873606 0.36422086 0.70887285 0.24922498 0.11941346 0.7543191 0.46337116 0.3788148
0.20125474 0.02613781 0.114938326 0.3385144 0.09882832 0.087414145 0.15956177 0.70373124
00000000: cc3d 853d e5bc a33f bc98 723e 0173 a63d
00000010: d957 643f 393c 4e3f 0ae8 d73e 38e2 b73e
00000020: b251 3a3e cbee bb3e 461d 8e3d 5ec3 8e3d
00000030: 1cd9 ce3e 611d 0a40 04a6 073f e86c 0f3e
00000040: da9b 063e f20f af3d d3d0 a73d e29b 063d
00000050: 6558 4f3f 4d4e 4a3e aea8 113e 0fc8 0f3d
00000060: 2ed2 b23d a72b 3e3d 3b48 db3d c4bd e73f
00000070: 8158 723f f09c 243f d5dd 453d 84c3 033f
00000080: de80 943d 1969 3b3d 8880 633d 059a 103e
00000090: 10f8 443f 6c52 d63d 1ce8 c03e 0bdd 193e
000000a0: 94b4 163e 930c ef3d 4fd1 ab3e b7cf 0a3e
000000b0: 4d44 0240 edfd 5d3f 0492 b03f 25a0 993f
000000c0: 68b7 163f 287b ba3e b178 353f d534 7f3e
000000d0: 0b8f f43d 0e1b 413f fc3e ed3e 03f4 c13e
000000e0: b915 4e3e f61e d63c c964 eb3d c251 ad3e
000000f0: 8166 ca3d 3006 b33d 2964 233e bb27 343f

model.readout.fc.weight f4 [6, 64]
0.050930243 0.020788027 -0.0021836485 -0.07035012 -0.011373024 -0.07773197 0.09070757 0.12779316
0.123180166 -0.11790983 0.0074969907 0.037819438 -0.008658996 0.046863936 -0.0036108997 -0.089542285
-0.11962196 -0.068594255 0.018805938 -0.011095972 0.06312173 0.093464166 -0.05180019 -0.009293355
-0.04420632 -0.053624757 -0.08957723 -0.0020390293 -0.08209416 -0.1004082 -0.052680157 -0.10998219
-0.08673244 0.111973114 -0.058427952 -0.07254409 -0.11908594 -0.084632315 0.04418824 0.1044021
-0.01825316 0.08000567 0.013912316 -0.055750005 -0.059196636 -0.10321528 0.10369084 0.07332669
-0.08334674 -0.026216194 -0.027050413 -0.043455318 0.042774692 0.017683825 0.117879316 -0.06444586
-0.028580248 0.06356089 -0.10198569 0.020442376 0.109374836 -0.10839896 -0.11631855 -0.031756025
0.123533145 -0.062844865 -0.07276102 -0.0016720043 -0.02621864 -0.06813833 -0.011312509 -0.016954295
-0.06517745 0.020338392 0.028596308 0.09057897 0.084244914 -0.06669662 -0.10044334 -0.04294103
0.07015123 -0.10348138 -0.01572429 0.08927164 -0.021671012 0.12213549 0.06152258 0.114557564
-0.047036484 -0.07116656 -0.09258663 -0.016652511 0.093923405 0.0612561 0.10802192 -0.10513443
0.052477054 -0.06630713 -0.030280061 -0.08587681 0.0075842855 -0.077810064 0.06582843 0.11507709
0.08955338 -0.07636987 0.028350633 -0.040832926 0.036567047 -0.08742378 0.007406874 -0.008192541
0.04650527 -0.093854845 0.00052972557 -0.07870829 0.11462215 -0.034366224 0.091069214 0.013489257
-0.02850431 -0.12587169 -0.02384006 -0.026959995 0.014060736 -0.027843831 -0.096371345 0.09495948
-0.10434543 0.11864044 -0.029981175 -0.06363251 -0.041668665 -0.078935966 0.07057947 -0.06539946
-0.008742826 0.06814302 -0.02341812 -0.036766384 0.10056555 -0.041367788 0.10010136 0.07135781
0.0039485153 -0.10513768 -0.10745664 -0.08184445 0.009050584 -0.013834705 0.100162275 0.039318804
0.03354149 -0.057563663 -0.10230222 0.08371065 -0.018090595 0.04559393 -0.12217941 -0.038934894
-0.09284108 0.016629698 -0.061910205 -0.054641973 -0.04892331 0.06557042 -0.0041609807 -0.05719348
-0.10103505 0.07474784 -0.073080175 -0.013334436 0.07792677 0.103176005 0.04716057 0.036819182
-0.01724373 -0.0038798782 -0.0012821662 -0.03081759 0.08156804 0.03482644 -0.0025361145 0.062271025
0.08904293 -0.048215397 -0.0531078 -0.07469837 0.08495566 -0.057462983 0.0044425763 0.060025204
-0.11023053 -0.08287211 -0.019385597 0.059806652 0.11593363 -0.05736669 0.05207391 0.059968647
-0.0934536 -0.035325695 0.063715324 -0.040303137 0.04970849 -0.0014082814 0.08441054 -0.05366143
-0.116774976 -0.0634442 -0.046929352 0.093161926 0.037839938 0.038351707 0.05651289 0.08204222
-0.10576842 -0.058706895 -0.06173748 -0.006763706 -0.017830702 0.11337311 -0.058385115 -0.072448984
-0.022152388 0.025485452 -0.099735014 -0.10540077 0.012098795 -0.08973673 -0.099133186 -0.07409952
0.05315741 -0.037248313 -0.10875327 0.073080726 0.0018369111 -0.09762524 -0.05551186 -0.10715678
-0.05970626 -0.04905885 0.03919978 -0.11667285 -0.07559291 -0.016720917 0.054264866 -0.039601482
-0.111845545 0.043197528 -0.0148003455 0.07912589 0.11671449 -0.053492278 0.05981683 0.01217676
00000000: 3b9c 503d a74b aa3c 8b1b 0fbb b913 90bd
00000010: ec55 3abc f031 9fbd e4c4 b93d 36dc 023e
00000020: e245 fc3d b57a f1bd 51a9 f53b 8ee8 1a3d
00000030: 76de 0dbc 66f4 3f3d d8a4 6cbb f261 b7bd
00000040: 5cfc f4bd 257b 8cbd e90e 9a3c e1cb 35bc
00000050: f745 813d 246a bf3d 702c 54bd 2843 18bc
00000060: b011 35bd a2a5 5bbd 4474 b7bd 3ca1 05bb
00000070: fc20 a8bd d0a2 cdbd 26c7 57bd 583e e1bd
00000080: c7a0 b1bd 2952 e53d 2652 6fbd ff91 94bd
00000090: 54e3 f3bd b553 adbd bafe 343d c5d0 d53d
000000a0: a787 95bc 03da a33d 7cf0 633c 1e5a 64bd
000000b0: 2c78 72bd 8862 d3bd dd5b d43d 4e2c 963d
000000c0: b2b1 aabd 58c3 d6bc d498 ddbc 34fe 31bd
000000d0: 8434 2f3d abdd 903c b66a f13d 31fc 83bd
000000e0: 2021 eabc 362c 823d e0dd d0bd c576 a73c
000000f0: eaff df3d 4600 debd 6c38 eebd 9b12 02bd
00000100: f2fe fc3d cfb4 80bd bb03 95bd 2827 dbba
00000110: 79c8 d6bc 1c8c 8bbd 1a58 39bc bce3 8abc
00000120: c17b 85bd b39c a63c ce42 ea3c 7881 b93d
00000130: 9988 ac3d 3d98 88bd 3db5 cdbd efe2 2fbd
00000140: 73ab 8f3d 0cee d3bd 3ad0 80bc 0dd4 b63d
00000150: 6887 b1bc 2c22 fa3d 1aff 7b3d 289d ea3d
00000160: 54a9 40bd c6bf 91bd 0f9e bdbd d96a 88bc
00000170: ea5a c03d ade7 7a3d 993a dd3d b850 d7bd
00000180: 2ef2 563d 08cc 87bd e40d f8bc 2ee0 afbd
00000190: 9985 f83b e25a 9fbd 0ed1 863d 8aad eb3d
000001a0: c367 b73d ce67 9cbd 963f e83c 6d40 27bd
000001b0: 54c7 153d 3d0b b3bd 5db5 f23b 023a 06bc
000001c0: 4f7c 3e3d f836 c0bd 48dd 0a3a d031 a1bd
000001d0: 05bf ea3d 99c3 0cbd 7f82 ba3d 0b02 5d3c
000001e0: df81 e9bc 82e4 00be 3b4c c3bc 35db dcbc
000001f0: 005f 663c bf18 e4bc 575e c5bd 1e7a c23d
00000200: 0fb3 d5bd c2f9 f23d 159b f5bc c351 82bd
00000210: c3ac 2abd 2ea9 a1bd f88b 903d 27f0 85bd
00000220: 123e 0fbc 918e 8b3d 5bd7 bfbc 5998 16bd
00000230: 50f5 cd3d 4571 29bd f101 cd3d 0b24 923d
00000240: 8c62 813b 6d52 d7bd 3a12 dcbd 109e a7bd
00000250: e748 143c f5aa 62bc e121 cd3d c10c 213d
00000260: cd62 093d e0c7 6bbd d483 d1bd 7d70 ab3d
00000270: ba32 94bc b3c0 3a3d 3339 fabd 327a 1fbd
00000280: 7723 bebd 013b 883c 8e95 7dbd 43d0 5fbd
00000290: cf63 48bd c949 863d d658 88bb b643 6abd
000002a0: 77eb cebd 6515 993d 0fab 95bd ae78 5abc
000002b0: 1298 9f3d f14d d33d 712b 413d b6cf 163d
000002c0: b942 8dbc 8e45 7ebb 5c0e a8ba 2c75 fcbc
000002d0: 250d a73d 2ba6 0e3d f134 26bb e70f 7f3d
000002e0: 245c b63d 827d 45bd 9187 59bd 76fb 98bd
000002f0: 3cfd ad3d 4e5e 6bbd 0893 913b fddc 753d
00000300: 8bc0 e1bd dab8 a9bd 8bce 9ebc d2f7 743d
00000310: 9c6e ed3d 56f9 6abd 744b 553d afa1 753d
00000320: 9a64 bfbd adb1 10bd 2e7d 823d e714 25bd
00000330: 219b 4b3d 1596 b8ba 6fdf ac3d 16cc 5bbd
00000340: b827 efbd 08ef 81bd fe38 40bd aecb be3d
00000350: 0dfe 1a3d ae16 1d3d 0f7a 673d c005 a83d
00000360: 1d9d d8bd a476 70bd 71e0 7cbd 14a2 ddbb
00000370: b111 92bc 2930 e83d 3b25 6fbd 2260 94bd
00000380: ed78 b5bc dec6 d03c df41 ccbd 5cdc d7bd
00000390: 063a 463c e4c7 b7bd 5706 cbbd 7dc1 97bd
000003a0: 96bb 593d b091 18bd 09ba debd 59ab 953d
000003b0: 82c4 f03a beef c7bd 6760 63bd 0475 dbbd
000003c0: 8d8e 74bd eff1 48bd f38f 203d 2df2 eebd
000003d0: 75d0 9abd 4efa 88bc d644 5e3d 2a35 22bd
000003e0: 470f e5bd e4ef 303d 267d 72bc c10c a23d
000003f0: 0208 ef3d b81a 5bbd 7e02 753d 0881 473c
