lightning_logs/version_90/checkpoints/epoch=19-step=300.ckpt (torch, 139661 bytes, 36 tensors)

model.encoder.conv1.att_src f4 [1, 4, 64]
00000000: 069c 75be ed69 263e 6dfc 063e 0758 063e
00000010: ca43 9b3e 57c4 353e 99ea 6e3e 7b2d d9bd
00000020: 3420 1ebe 6993 cc3d b149 54bd d80f 94be
00000030: 8b7f 733e c00b 9abc 33d2 7c3e d886 133e
00000040: cc57 4b3d e49a d33d a200 a7be 97d6 15be
00000050: 1608 74be 13f0 bfbc 81f7 66be 259b f93c
00000060: 888c 86bd 9a22 76be 6849 0abe 9995 18bd
00000070: 60ee 703e 1e0b 1abe 9892 acbe 4ec9 2e3e
00000080: 3ac1 c23d 4867 e3bd a10b 12be 792c 26be
00000090: 9563 6cbd db38 e63d c9d8 c1bc 637c 373e
000000a0: 36d7 843d b994 64be 0926 343e dd0d 9dbd
000000b0: ce42 633e c4be afbe 94ad 273e 31cc 8fbe
000000c0: b20f 93bb e792 c3bd c77c 2ebe 5644 713e
000000d0: a28b 003d 5264 ec3d 82d9 a83e 54d1 453d
000000e0: 52ca 49bd 2ea9 5b3e fd5d bb3d 4ce0 bfbc
000000f0: 890b b1be cc30 13be b8f9 99be 49a9 3ebe
00000100: 019c 953e 9ac2 2abe 7dcc 4d3e 7aae 753e
00000110: 79c2 153e fced a6be a6c1 17be ac3d 5c3e
00000120: ccd5 2cbe 9e35 eb3d ed2e 0e3e 84fc 1d3e
00000130: b3df 493e e369 323e 78fa dbbd 2a6a 29bd
00000140: 1bff 703d 8cc3 63be 3a03 393e 7492 a2be
00000150: a84e 083e 673c 273c 77cd 8a3e c5b6 57be
00000160: 5fea 75bd c212 733d 99c9 06bd 5703 1c3e
00000170: 0de0 b9bd 8f6c 86bd b8e6 40be 02b6 103e
00000180: 8133 4abc b2a9 5d3e 20a6 8d3e 6b4e e53c
00000190: dc15 81be de37 2c3c 472b f53c 9207 a1bc
000001a0: 33a3 36be 99e4 ac3d 7e3a ff3d ea4b 543e
000001b0: 0953 8dbe 4b3f 59bc a547 87be 821f a53d
000001c0: ca5b 37be cab4 493e 53f0 8b3e a5d7 973d
000001d0: 8624 243b 6507 f8bc 2d22 933d 7b70 70be
000001e0: b486 f03d 80fb 53be 2737 993e a9cd 91bd
000001f0: eaf1 22bd 79e3 823e 0ddf 7bbe 76c9 0abe
00000200: fa39 aa3d c691 413d 451c 483e 14b4 abbd
00000210: f6b5 81be 7232 0fbe 1ca3 863e 2bb1 09be
00000220: 566c 2c3e 3ee0 3bbd 095e 703e 1a46 bbbd
00000230: 5927 943e e620 663e cdb9 903e 5b87 0ebe
00000240: fb33 9bbe 909d 843e 8791 2f3d 61f4 f93d
00000250: 5499 fe3d 2c3e c43c c22c 3a3e 0682 43be
00000260: 9067 74be 62e8 723e a08b 313e 865f 723e
00000270: 46d8 63be 26ae 4dbe ced4 e53c 4bf9 083e
00000280: 5d4b 233d 7b8f 913e 3caa babd dc92 00bd
00000290: 7efa be3c 05e8 713d 4a1a 103e 68b1 803e
000002a0: ae7b 79be a694 a03e a78e e43d d525 463e
000002b0: 0bd0 e0bd 8a3e c43d ab9e 583e 4f88 91bc
000002c0: 6e43 88be 5a56 283e 4c22 1c3e fe3f 383e
000002d0: 0df5 dabd 6297 1b3c c69d c8bd d162 86be
000002e0: 3a41 1b3c cbc8 803e c7fc 763e ee6e 5e3e
000002f0: 7520 a33e ef68 aebd 2448 383d e20b 5abe
00000300: 3349 4f3e 1846 0a3e 1423 6d3e d0f5 21be
00000310: 1218 183d 3745 94be bcc9 703e 9ddd c93d
00000320: 6078 1abe ea25 9bbe 3b57 ffbc e355 403e
00000330: 4845 143d 8915 92be 44a9 d2bb d768 133e
00000340: dec7 843e 00b5 4b3e 5f30 46be 01c1 99be
00000350: b3c4 3ebc 1b76 92bd 0a63 643e c647 bcbc
00000360: a9a9 053e f75f 38bd 5c90 713d ac4b b3bd
00000370: 53e9 49bd e0f6 a73c 76bf 033d a456 8abe
00000380: bfc6 bf3d 7fc2 4c3b 9228 80bd 4939 71be
00000390: fb89 fdbd 8d7b ce3d b2fd 583e 4c7b 6bbe
000003a0: 19bf f53d 30b1 3f3e 5d87 f6bd 8fbe 26be
000003b0: 4caa 0d3e 2bb7 1e3e b00d 873e 74e5 8f3e
000003c0: a2e0 203c 670f c83d 6788 13bd ca2a 7d3e
000003d0: 7f2a 1d3e f177 c1bd 4d70 19be b2b4 69be
000003e0: 461b 9f3d 2b8b d03d 409c 65be 0f60 40be
000003f0: 54a9 22be 35bb 593e 7581 81be f4d8 6bbe
-0.239853 0.16251345 0.1318223 0.13119517 0.30325156 0.17750679 0.2333168 -0.10604378
-0.15441972 0.09989054 -0.05182809 -0.28918338 0.23779123 -0.018804431 0.2468956 0.14406908
0.049644276 0.103322774 -0.3261767 -0.14632641 -0.2383121 -0.023429906 -0.22555353 0.030469486
-0.06569773 -0.24036637 -0.13504565 -0.037252042 0.23528433 -0.15043303 -0.33705592 0.17068979
0.09509511 -0.11103684 -0.14262249 -0.16227902 -0.057712156 0.11241313 -0.023662942 0.17918544
0.06486361 -0.22322358 0.17592634 -0.0766866 0.22193453 -0.3432523 0.16374809 -0.28085473
-0.004487955 -0.09549504 -0.17039786 0.23561224 0.031383164 0.11542572 0.32978445 0.048295334
-0.049265213 0.21451256 0.09148786 -0.023422383 -0.34579113 -0.14374083 -0.30073333 -0.18619265
0.29220584 -0.16675797 0.20097537 0.23992339 0.14624967 -0.32603443 -0.14819965 0.21507901
-0.16878432 0.11484836 0.13885088 0.15428358 0.1971424 0.17423205 -0.107411325 -0.04136101
0.058837038 -0.22242564 0.18067637 -0.3175236 0.13311255 0.010207272 0.27109882 -0.21065815
-0.060037967 0.05934406 -0.032907102 0.15235649 -0.090759374 -0.06563675 -0.18838012 0.1413193
-0.012341381 0.21646765 0.27665806 0.027991494 -0.2521199 0.010511367 0.029927863 -0.01965693
-0.17835693 0.08442039 0.124623284 0.20732084 -0.27602413 -0.013259719 -0.26421848 0.0806265
-0.17906108 0.19697872 0.2733179 0.07414178 0.0025046184 -0.030276963 0.07184253 -0.23480408
0.117444426 -0.20701408 0.2992489 -0.07119305 -0.03978149 0.25564173 -0.24596806 -0.13553414
0.083118394 0.04725816 0.19542034 -0.083839566 -0.25334138 -0.13984087 0.26296318 -0.1344649
0.16838202 -0.04586815 0.23473372 -0.0914423 0.2893627 0.22473487 0.28266755 -0.13918822
-0.30313095 0.2590146 0.042863395 0.12204815 0.12431589 0.023955427 0.18181136 -0.19092569
-0.23867631 0.2372146 0.17338419 0.23669252 -0.2225047 -0.20085964 0.028055575 0.13376348
0.039866794 0.2842978 -0.09114501 -0.031390056 0.023312803 0.05905916 0.14072528 0.2513535
-0.24363586 0.3136341 0.11160021 0.1935037 -0.10977181 0.09582241 0.21154277 -0.017765192
-0.26613945 0.1643919 0.15247458 0.17993161 -0.10691271 0.009496542 -0.09795718 -0.26247266
0.009476 0.25153193 0.24119864 0.21722004 0.318607 -0.08516108 0.044990674 -0.21293595
0.20242767 0.13503301 0.23157912 -0.15816426 0.03713233 -0.28959057 0.23514456 0.098567225
-0.15084982 -0.30302364 -0.031169524 0.18782763 0.036198884 -0.28532055 -0.0064288694 0.14395462
0.25933737 0.19893265 -0.1935439 -0.30030063 -0.011643576 -0.07151433 0.22303405 -0.022983443
0.13053001 -0.045013394 0.058975562 -0.08754668 -0.04929478 0.020503461 0.032165013 -0.27019227
0.0936408 0.0031243858 -0.06257738 -0.23557009 -0.12379833 0.10082159 0.21190527 -0.22996253
0.119993396 0.18719935 -0.12037537 -0.1628363 0.13834494 0.1549956 0.2637763 0.28104746
0.009819182 0.09768563 -0.036018755 0.24723354 0.15348242 -0.09446705 -0.14984246 -0.22822836
0.07768874 0.10182794 -0.22422886 -0.18786643 -0.15884906 0.2126282 -0.2529408 -0.2303198

model.encoder.conv1.att_dst f4 [1, 4, 64]
00000000: 7319 833d 18d0 b4bc 42bf 0dbd 8118 c7bc
00000010: ad6e 593e bf62 813b b282 83be 5efc bd3d
00000020: 20c4 30be 97fa 8f3e 458e c6bd 1b06 9f3e
00000030: b53b 5bbe 678e b4be 6fc1 22be ea23 41be
00000040: 6b95 ff3d c26e a53e b1fb 1fbe ab9d 88bb
00000050: 4214 6a3e 692d 2abe 02e4 973e 97af 85be
00000060: 2b73 b2bd d4e4 d5bd b42d 58be a047 2f3d
00000070: 3e70 353d c2ae 41bc 9c16 2abe 47e6 afbe
00000080: 3b18 fa3d c7ca a5bd cc2e 66be d8cb eebd
00000090: 256c 013d a209 80be 8d96 24be f7ae 4f3e
000000a0: f9a2 883e 1a0c 82be 94ed 1e3e 53f4 85be
000000b0: 3ac4 713e 214a 423d 5bec 263d 9866 363e
000000c0: c882 5fbd 339a 5abe dead ce3e d5f7 1e3d
000000d0: f055 33be c7be 3dbe 74a3 d7bd e891 3bbd
000000e0: c6b7 f03d 7052 8bbd 520e aebd 7a80 89be
000000f0: d27c 983e f112 0a3d 37b9 e4bd 31ac 44be
00000100: 4925 e6bd a3aa 09be f99b 32bc 5a65 c7bc
00000110: eeab 8d3e 5846 04be c520 81be 6b12 b13d
00000120: 6453 dcbd ab4e 19be e137 4bbe d161 5f3d
00000130: 3f22 a13d 132a 283e 5f9b 02bd d9e3 3bbd
00000140: 67cd d9bd ac26 623e f95d 373e e759 40bd
00000150: 9c64 d7bd 3068 82be 5b40 153e cd6c 3bbe
00000160: 2c7c 583d ca56 a7be 80b8 3ebd a6bf 5b3e
00000170: 7778 40be e908 623e 2221 96be 9eb0 fdbd
00000180: ce21 6abe 78e1 e8bd 4e22 74be 549d 083e
00000190: ac5d 8e3e 5cc0 7ebe 43a0 493d 8fe0 7a3d
000001a0: 288a 1b3e 9aa0 6abe d4be 9d3d 7916 79be
000001b0: 388f f0bd 4016 8b3e e4ec 03be b0fd 263e
000001c0: a34b 1abe 2247 8d3e e602 053d a806 92ba
000001d0: 660a 653e 6d40 df3b 4a8f 0ebe 110e 5cbe
000001e0: 5c89 19be 1b66 97bd 720c 713e 82c3 53bc
000001f0: 6a15 01be 061a 1f3e 6666 e7bd aea2 0c3e
00000200: 34c5 44be 32fd efbd cd23 5f3e 018a 66be
00000210: c722 63be 4455 163e f313 c0be 24bf 9c3d
00000220: 8e6a 3b3e afe5 b53e f58e 273e fb68 073e
00000230: 8f61 babe 2193 2e3d 748d d9bd 774b db3d
00000240: 2c50 733e 59a7 7ebe e879 f3bd 6e3d 3fbe
00000250: 8d38 883d e8fa 2abd dfa4 393e 4ea5 e93d
00000260: 6639 aa3e 4633 453d 5290 113d 2cc4 a0bd
00000270: 802e c13e bdec 2fbe 4091 25be d09f 65be
00000280: 6fa7 a1be e706 f8bd f965 353e bc6b c93e
00000290: 4b53 a1be a65e 233e d153 25bd 17b6 1ebe
000002a0: 66e2 2d3d 13b1 73be fef0 343d b39a 713d
000002b0: 415f 483e 3921 d13d 5768 233e 4776 9b3d
000002c0: a27f 523d aa14 45bd a660 993d 39d8 1a3e
000002d0: f93f 7fbd c0fd f7bd cb84 303e fe35 45bd
000002e0: 79e3 3dbe 5700 653a fdff 9dbe f20c 8ebe
000002f0: 27ed fabd f184 903e 9cf7 3cbe e92a 2a3d
00000300: 70df 2bbe 9143 47be ca86 853d 9096 313d
00000310: 8646 853d f67b 76bd 806b b83d 916b 56be
00000320: 1b5a 7ebd 9ae4 17be b7ca 34be 6a30 013e
00000330: ad43 1b3e f4c8 893e 76c5 33be 7800 733d
00000340: d29b 593e c8c1 153d 729e 113e 5658 83be
00000350: 883c a2bd 14b1 6c3e e006 23be fa3a 6cbd
00000360: 4336 7bbe cd19 9fbe bbad 13be a64b 26be
00000370: 27a6 fabd a21e 9fbd 67ee 21be cb93 06be
00000380: 86c1 c7bd 11f4 a43d da26 83be 849e 5e3e
00000390: e0e5 80be 2dc2 19bd 8089 223e 3cb6 93bd
000003a0: fa76 48be e2e9 79be 3844 283e c066 6abd
000003b0: 05a5 2e3e daef 65bd 1525 e43c 1b83 f83d
000003c0: 7a43 2b3d e61d 863e a2e9 1a3e b163 8c3c
000003d0: 2283 3cbe cd37 08be 5e61 863e 6bf8 b43d
000003e0: 0d7f ff3d 1f40 83be 6d56 2abd d926 183e
000003f0: a2e5 d4bd a426 eebd dd2f 803e 9802 03be
0.064013384 -0.022071883 -0.034606226 -0.024303677 0.21233626 0.003948539 -0.2568565 0.09276651
-0.17262316 0.28120872 -0.096951045 0.31059346 -0.21409495 -0.35264894 -0.15894102 -0.18861356
0.12479671 0.32311064 -0.15623356 -0.004169186 0.2285929 -0.16618885 0.29666144 -0.26110527
-0.08713373 -0.10444036 -0.21111184 0.042792916 0.044296496 -0.011821451 -0.16610187 -0.34355375
0.12211653 -0.08095317 -0.22478789 -0.11659974 0.031597275 -0.2500735 -0.16073056 0.20281588
0.26686838 -0.25399858 0.15520316 -0.26162967 0.2361001 0.047433976 0.04075275 0.17812574
-0.054568082 -0.21347885 0.40367025 0.03881057 -0.17513251 -0.18529807 -0.10529223 -0.045793444
0.11753802 -0.06802833 -0.08498825 -0.26855832 0.2978273 0.03370947 -0.111681394 -0.19206311
-0.1123758 -0.13443999 -0.010901445 -0.02434032 0.27670234 -0.12917459 -0.25220314 0.08646091
-0.10758093 -0.14971416 -0.19845535 0.054536644 0.0786786 0.164223 -0.031886455 -0.04587159
-0.106348805 0.22085065 0.17906941 -0.046960738 -0.105172366 -0.25470114 0.14575331 -0.18303223
0.052852795 -0.32683402 -0.04656267 0.21459827 -0.18795954 0.22073711 -0.29322153 -0.12387203
-0.22864458 -0.1137113 -0.23841211 0.13341266 0.2780584 -0.24878067 0.049225103 0.061249312
0.15189421 -0.22912827 0.07702413 -0.24324979 -0.11746067 0.27165413 -0.12883335 0.16307712
-0.15067916 0.27593333 0.032473467 -0.00111409 0.22367248 0.0068131 -0.13921848 -0.21489741
-0.14993805 -0.07392522 0.23539904 -0.012925031 -0.12605825 0.15537271 -0.11298828 0.13733932
-0.19215852 -0.11718215 0.21791 -0.22513582 -0.22181235 0.14680964 -0.3751522 0.07653645
0.18302366 0.35526797 0.16363128 0.1322364 -0.36402556 0.04262078 -0.10622683 0.10707753
0.23761052 -0.24868526 -0.11888486 -0.18675777 0.06651411 -0.04174319 0.181293 0.114084825
0.33246917 0.0481446 0.035538025 -0.07849917 0.3773079 -0.17180152 -0.1616869 -0.22424245
-0.31573054 -0.121106915 0.1771468 0.39340007 -0.3150886 0.15954074 -0.040363137 -0.1549915
0.04245224 -0.23798017 0.04417514 0.058985423 0.19567586 0.10211415 0.15957771 0.07590919
0.05139125 -0.04811541 0.07489137 0.15121545 -0.06231687 -0.12108946 0.17238156 -0.048147194
-0.18543805 0.00087357074 -0.30859366 -0.2774425 -0.122522645 0.28226426 -0.1845383 0.04154483
-0.16784453 -0.19459368 0.065198496 0.04335648 0.06507592 -0.060176812 0.09004879 -0.20939471
-0.06209765 -0.14833298 -0.17655455 0.12616125 0.15162535 0.26911128 -0.17555794 0.05932662
0.21250847 0.036561757 0.14220598 -0.25653332 -0.07921702 0.23114425 -0.15920591 -0.057673432
-0.24532418 -0.31074372 -0.14421742 -0.16239795 -0.12238722 -0.077695146 -0.158136 -0.13142316
-0.097537085 0.080543645 -0.2561558 0.21740156 -0.2517538 -0.037538696 0.15872765 -0.07212493
-0.19576636 -0.24405625 0.16432273 -0.057226896 0.17055137 -0.056136943 0.027849713 0.121343814
0.041812398 0.26194686 0.15128186 0.01713738 -0.18409398 -0.13302536 0.2624616 0.088364445
0.12475405 -0.25634858 -0.04158633 0.14858569 -0.103953615 -0.11628464 0.25036517 -0.12793958

model.encoder.conv1.bias f4 [64]
00000000: 9061 b0bc 8be2 a1bc 95a9 193c beab 9ebc
00000010: 3301 38bc 9c2f 983c 8fd4 62b9 7afd 593c
00000020: 2508 eabc 3799 92bc 8ca6 d03c cabe a73c
00000030: a3fa a83b 35ee 88bc 28a0 153d cd98 4b3b
00000040: 8686 7a37 619a 6d3d 1029 50bc 0a5b 4f3c
00000050: 5c1e 503d e3bf 803c b5e2 023c 1072 ba3c
00000060: 8379 16bc 8092 74bb dc7e 213d 2cee 373c
00000070: 070d ec3a bf56 52bc 49a8 e33c 84d1 15bd
00000080: 1866 20bc 709d a2bb c4be 373c 6466 05bc
00000090: 4a3d d3bc dcc9 1cbd 2a15 3b3d e627 49bc
000000a0: b475 79bc 1cd7 203d d5d3 03bc 0158 9ebb
000000b0: c3c9 523d a667 24bd 5e71 c6bc e26e cc3b
000000c0: 397d 3cbb 6aa5 8dba a6c7 6a3c 516f f8bb
000000d0: 3201 06bd 1693 9b3d 5c16 d23c c3d7 c63c
000000e0: 840b dfbb e267 7fbd b5e1 2a3b 45ba 25bc
000000f0: ffae 373c 0b09 6b3c df7b 9c3b c38f 303d
-0.021530896 -0.019761344 0.00937881 -0.019369002 -0.011230755 0.01857739 -0.00021632224 0.013305062
-0.028568337 -0.017895324 0.02547004 0.020476718 0.0051568314 -0.016715148 0.03652969 0.0031066418
1.4932482e-05 0.058008555 -0.012705103 0.012655983 0.050810203 0.015716499 0.0079886215 0.022759467
-0.009184244 -0.0037318766 0.039427623 0.011226218 0.0018009254 -0.012838065 0.027790206 -0.036576763
-0.009789966 -0.0049626157 0.011214916 -0.008142088 -0.02578606 -0.038278446 0.04567448 -0.012277579
-0.0152258165 0.039267644 -0.00804611 -0.004832268 0.051461946 -0.04013791 -0.02422398 0.006238804
-0.0028761162 -0.0010806744 0.014329826 -0.0075816293 -0.032715984 0.07596414 0.025645427 0.024272805
-0.0068067927 -0.06235493 0.0026074473 -0.010115211 0.011211156 0.014345418 0.004775509 0.04310585

model.encoder.conv1.lin.weight f4 [256, 3]
00000000: 4ecb 38ba a727 65be f03c 933e 78bd 54be
00000010: ca9c b63d 3454 433c 2fec 62be a1ae 5c3e
00000020: 1e60 1cbd 6e7e 043d ac7c 443c f478 d53d
00000030: 7f8a 15be e438 253e 167d 423e 99a8 3cbe
00000040: de2b 17bd ecc1 70bd 3bab 8cbd 4bd0 523e
00000050: ddf4 2e3e 8c5c 033e e01a cfbd de1d 0a3e
00000060: be8c f7bd a2c0 443d 11e4 34be 5849 103e
00000070: 5918 26be 9269 343e 84c8 28be 913a 9ebc
00000080: edee 8d3e f6f9 9b3d 2b1a babd e35b 80bd
00000090: d6f8 83bd 9a9d 1e3e 4fdb 833d 638f 8cbe
000000a0: 8013 a03d 2fd0 65bd fc7c 88bd 0d26 01bd
000000b0: d16c 763e 5a54 b7bd 1425 893d 718e 8f3c
000000c0: b66e 533e f056 f1bd e343 3c3e 9639 f03d
000000d0: 144b 3abd 190c 893d 7cf0 d73c a7a8 38be
000000e0: 5926 5f3c a4cf 0cbc c484 093d 3c91 583e
000000f0: 39a6 2a3e 36e6 85bc 8b06 c1bd 8040 433d
00000100: e17f 2cbe 06df 823d 4650 903e f8ff 97bd
00000110: 813b 39be e939 5fbd 865a a6bd 8caa cd3b
00000120: 623c 16be 2f3d 153e 12a8 44bd 56bc ac3d
00000130: 2f02 b3bd 9ca0 b2bb 2108 c33c 0e37 79bb
00000140: d340 933e afda 6838 59de cc3d 1798 86bc
00000150: ef0f 1fbd bdf1 70be 3381 d63d ddbe 3dbe
00000160: 13e8 423e cfa2 2bbd 7d29 1d3e 58ec 1bbe
00000170: 5ce5 e7bd 948a 6abe b75c 163e 00cf 9a3d
00000180: 35f8 35be 7ce8 6b3d 1769 ac3d 8d96 283e
00000190: 682f 19be bb88 f53d 55ec 57be 651b 6d3e
000001a0: f116 763e 9c0b 853d d1a7 6bbe d955 993d
000001b0: 9c02 c4bc 65a6 443d 18f1 2cbd 63ea 71be
000001c0: 1038 04bd 4632 953d 2242 083e 96f7 053e
000001d0: 5c60 863d 15e5 ebbd 2dfe bc3d 2072 a6bd
000001e0: f33a 3ebd 76f8 27bd 4943 87bd c4ef fc3d
000001f0: 9a24 e93d b800 203e 9156 babb 383f 703d
00000200: 56e1 893d a7be 7dbd 5cbe 43be 6748 2c3e
00000210: 4b75 fa3d 6892 82bd f5ed 54be 16ee 81bc
00000220: 3497 09be ceb9 76be 3a3d 05be e496 b3bc
00000230: 6d6f 89bd bb41 bf3d 975b 2ebe 9279 473e
00000240: 0d8a 3dbd 3ee7 023d fd08 be3a 5603 cebc
00000250: 2f86 453e 099f 8a3d c631 203d 18be 5ebd
00000260: 644f 853e 076d de3d b67b 27be 3b16 153e
00000270: a714 6e3d ccdb 4cbe bade c1bd e90c 10bd
00000280: 3a5d 073e df15 883c affb dcbd a02a 5f3d
00000290: 496d 2f3e a19d 873e 2342 ab3b aa7e 2c3d
000002a0: 2e37 253e 364b 23be 59ec 7dbe 9754 f1bd
000002b0: 50f4 cebd 8008 40be 00d3 3a3e c42b 5bbd
000002c0: 0fb1 67be 3638 1fbe 6bd8 a0bd c471 213e
000002d0: 9fe8 e33b a4eb 8f3a bba1 c8bc eada 62bd
000002e0: 23fc 11be 0b9b 523e bcde 14bd d82e 0abe
000002f0: f518 3d3d c821 2e3d 5b1a 273e 30c9 a7bd
00000300: 7a8b 4a3d 5aeb 97be c1f7 893e 70d4 81be
00000310: d588 903d 8be4 be3d 1ed3 39bd 967e 153e
00000320: af70 1abe 4726 2ebe 054d 423e 31f2 ba3c
00000330: 8bc4 07be f881 323e 746e 8e3d 6c3e 0dbd
00000340: 86ba 5c3d c813 293e 6659 b1bd 33eb 993d
00000350: 56f1 1e3e c098 d83c b74c 5cbe 7158 913d
00000360: 37ed b4bd 76d8 643d 5442 5dbe 6104 c4bd
00000370: 2861 05bd 64f6 a33d d9e8 49bc d5e1 d03d
00000380: b491 873e ed90 45bd fec1 62bd c53b 7cbe
00000390: 2fc5 59be ae46 523e 3f23 8cbd fc9c 1bbe
000003a0: f11a a33c 1c7a 22bd 2f79 07be 5301 923b
000003b0: 7209 a83c 431f d63c 8fa7 733e c0b0 2ebe
000003c0: 3c88 303e 9677 76be ed9b 3e3e 1e9c 2b3e
000003d0: 4aa5 d73d 3ce6 823e a670 ddbc 40f2 8cbe
000003e0: 7fa6 03be fb22 1abe 30c2 7b3e 5ed3 0e3e
000003f0: 085b 593e 9491 9f3d c994 34be 145c 213e
-0.0007049338 -0.22378407 0.2875743 -0.20775402 0.08916624 0.011921931 -0.2216041 0.2155099
-0.038177602 0.032347135 0.011992615 0.104234606 -0.14603613 0.16134983 0.18993029 -0.1842369
-0.03690707 -0.05877869 -0.06868597 0.2058727 0.17085595 0.12828273 -0.10112548 0.13487956
-0.12087391 0.04803527 -0.17665125 0.14090478 -0.16220225 0.17618397 -0.1648274 -0.019315036
0.27721348 0.07616036 -0.090870224 -0.06267526 -0.06443946 0.15489808 0.06438314 -0.27453145
0.07816219 -0.056106742 -0.06664464 -0.03153043 0.24064948 -0.08951636 0.06696525 0.017523976
0.20647702 -0.1178416 0.18385272 0.11729734 -0.045481756 0.066917606 0.02635979 -0.18033086
0.013619983 -0.008594427 0.03357388 0.21149153 0.16664971 -0.016345125 -0.09425076 0.047668934
-0.16845657 0.063901946 0.28186244 -0.07421869 -0.18089105 -0.054498587 -0.08122735 0.0062764343
-0.14671472 0.14574121 -0.048011847 0.0843436 -0.08740651 -0.005451275 0.023807587 -0.00380272
0.28760394 5.5516775e-05 0.10003347 -0.016429944 -0.038833555 -0.23529716 0.104738615 -0.1852984
0.19033842 -0.041903313 0.15347858 -0.15226877 -0.11323044 -0.22904426 0.14683805 0.07559013
-0.17770465 0.05759476 0.08418482 0.1646368 -0.1495949 0.1198897 -0.21086247 0.23154981
0.24032189 0.06496355 -0.23013236 0.07487077 -0.023927025 0.04801025 -0.042222112 -0.23624568
-0.032280028 0.072849795 0.13306478 0.13082728 0.06561348 -0.11518303 0.09228168 -0.08127236
-0.046442937 -0.041008435 -0.066046305 0.12350419 0.11383934 0.15625274 -0.005686589 0.05865404
0.067324325 -0.0619494 -0.19115585 0.16824494 0.12229403 -0.06375581 -0.20793898 -0.015860599
-0.13436586 -0.24094316 -0.13011637 -0.021922536 -0.06710706 0.09338709 -0.17027126 0.19479969
-0.046274234 0.03195881 0.0014498528 -0.025148075 0.19289468 0.06768615 0.039109968 -0.054380506
0.26037133 0.10860639 -0.16355786 0.14559262 0.058125164 -0.20005721 -0.0946631 -0.035168562
0.13219157 0.016611991 -0.10790192 0.05448401 0.17131533 0.2648745 0.00522639 0.042112984
0.1613433 -0.1594666 -0.2479719 -0.11783712 -0.10105193 -0.18753242 0.18244553 -0.053508535
-0.22626136 -0.15548787 -0.078537785 0.15766054 0.006955221 0.001098026 -0.024491182 -0.055384554
-0.14256339 0.20566957 -0.03634523 -0.13494432 0.04616638 0.042512685 0.16318648 -0.0819267
0.04944942 -0.29671746 0.26946834 -0.2535739 0.07057349 0.09320935 -0.045367353 0.1459907
-0.15082048 -0.17006789 0.18974693 0.022820564 -0.13258569 0.17432392 0.06954661 -0.03448336
0.05388882 0.16511452 -0.086596295 0.07515564 0.1552175 0.026440024 -0.2151364 0.07096947
-0.08834308 0.055870496 -0.21607333 -0.09571148 -0.03256336 0.0800598 -0.012323582 0.10199324
0.2647835 -0.048233915 -0.055360787 -0.24632175 -0.21266626 0.20534775 -0.0684266 -0.15196604
0.019910308 -0.039667234 -0.13229822 0.0044557243 0.020512316 0.026137954 0.23794387 -0.17059612
0.1723947 -0.24069056 0.18614168 0.16758773 0.10529573 0.2556628 -0.027031254 -0.27528572
-0.12856482 -0.15052406 0.24585795 0.13947818 0.21226132 0.07791439 -0.17634882 0.15757781

model.encoder.conv2.att_src f4 [1, 1, 64]
00000000: 3671 433e e670 483e 9341 e7bb 17ae 84be
00000010: 6228 a0be c3c2 873e 1122 48be 535c 00be
00000020: b5e1 a1be 7d4c 1a3e a475 893d eb83 37be
00000030: 3293 81be ba36 033f 3c12 0ebd 6a5d 923c
00000040: 6d8c 63be 4e11 21be bf18 823e 1901 c8bd
00000050: 75d3 63bd 23f4 73be 6469 303d 9ca0 673e
00000060: af75 89be 0d80 383e f8d1 82bd d1cb 95be
00000070: 5884 163e a6f4 943e ab01 46be 1327 b93d
00000080: f501 43be b277 853e 331e 91be 40aa 8d3e
00000090: 70b2 033d 8c0c b13e 9d8b b0bd 4c9f 50bd
000000a0: 1019 b73d 8a7f 6d3c 1277 843c ee39 2e3c
000000b0: 016c 983d aedc 6c3e 4db6 9bbd 9c09 19be
000000c0: 3218 88be beb1 343e f3b9 71be a612 8a3d
000000d0: 25a0 8fbe d400 8f3e a06b 22be 2931 43bd
000000e0: 8a62 fdbb b95a 803e ecab 833e 32d0 97bd
000000f0: f3c9 9e3e 78d0 6cbe 4123 8a3e 002d 6e3e
0.19086155 0.19574317 -0.0070573776 -0.2591407 -0.3128081 0.2651578 -0.19544245 -0.12535219
-0.31617513 0.1506824 0.06711891 -0.17921416 -0.25307614 0.5125538 -0.03468536 0.017866809
-0.22221537 -0.15729257 0.25409505 -0.09765834 -0.055621583 -0.238236 0.04306926 0.22619861
-0.26847598 0.18017597 -0.063877046 -0.29257062 0.14698923 0.29092902 -0.19336574 0.09040656
-0.19043715 0.26067883 -0.28343353 0.27668953 0.032152593 0.34579885 -0.08620379 -0.050933167
0.08940327 0.01449574 0.016170058 0.010633929 0.07442475 0.23131058 -0.076031305 -0.14945072
-0.2658096 0.17645928 -0.2360609 0.06741838 -0.28051868 0.2793032 -0.15861368 -0.047654305
-0.007732694 0.25069216 0.25717103 -0.07412757 0.3101345 -0.231264 0.26980022 0.23259354

model.encoder.conv2.att_dst f4 [1, 1, 64]
00000000: f690 db3e f1b3 0dbd b79d 5b3e 53df 5fbe
00000010: ea8a 893e 90ee fb3d c2dd abbc 4e19 95be
00000020: acc1 82be 53b4 22bd 4a5f 2d3e a0f2 c9bd
00000030: 6300 c7be 2fa4 b53d af3c 30be 4b30 ddbd
00000040: 9750 11be e56e d23a e962 703e 3fc9 27be
00000050: 0480 c7bd 2324 d03d 9327 35be 777b 0e3e
00000060: dd89 4a3e b724 723e 6905 8b3d cf86 513d
00000070: 37af 6b3e c2aa 003e 69ce 06be d5c2 323e
00000080: d8b5 a0bd f6b0 8c3e 4614 cebd 204c 853e
00000090: d7bf 88be c3d8 343e c8c9 0c3e a8af 8b3e
000000a0: ba23 a5bd af0f 313e 94c7 823d 6976 03be
000000b0: e2cf 5a3e dd57 20bc 70f1 0bbe 387e a53e
000000c0: 89c5 593e 68fd 7d3d e5d1 1b3e 1845 0cbd
000000d0: 4bcb 17bc a2df 633e 9cb4 f13d dff6 8cbe
000000e0: 22d2 e2bd 5a57 12bd 5e85 83be c43d d13e
000000f0: 5adc a03e 4631 383d 363f 45be 35a4 39be
0.42884034 -0.034595434 0.21446882 -0.21862535 0.26863796 0.123013616 -0.020979766 -0.29120868
-0.25538385 -0.03972275 0.16930881 -0.0986073 -0.38867483 0.08869206 -0.17210649 -0.10800227
-0.14190899 0.0016054778 0.23475231 -0.16385363 -0.09741214 0.101631425 -0.17690878 0.13914286
0.19779153 0.23646818 0.06788141 0.051153954 0.23016058 0.12565139 -0.13164677 0.17457135
-0.07847184 0.2747876 -0.100624606 0.2603464 -0.26708862 0.17660813 0.13748848 0.27282453
-0.08063455 0.17291139 0.06385723 -0.12838139 0.21368363 -0.009786573 -0.1366632 0.3232286
0.2126676 0.062009245 0.15216787 -0.03424558 -0.009264777 0.22253278 0.11802027 -0.27532098
-0.11075236 -0.035727836 -0.2568769 0.40867436 0.31418115 0.044968866 -0.19262394 -0.18129046

model.encoder.conv2.bias f4 [64]
00000000: 8cc3 80bc ca09 debc 6329 8bbb 9297 d0b9
00000010: 08cf 583c b28d 973d c674 003c fac7 103d
00000020: f3e5 4d3d f223 c83c 9c4e 7b3c 2b0f 983a
00000030: 22b7 6c3c 325d eebb 3a2e a23c 7b06 613c
00000040: ca56 803c 6287 3b3d a473 23bc d4d8 183c
00000050: da1b 783d 2d48 573d 2690 663c eb9e 06bc
00000060: f5e3 e63c 8dff 9f3c 3fde b53c 6c9d 6b3d
00000070: 3fea cbbc afbc 923c 015a 8d3c fad8 cb3c
00000080: b0ad 0f3d dae6 f3bb 4440 793c 753c 783d
00000090: fc8b 11bb 52f7 413d f7b6 093d 328e 37bb
000000a0: e4f7 033c 420c 0c3d f8fb a13b b9c7 a03c
000000b0: 33ce 093d 9500 993c 99ad 00ba 630e 98bb
000000c0: 6c5c 2cbc d480 06bb 221e c03c b908 ce3c
000000d0: 8bff fc3b 396f 80bc 49e7 303d fb15 bd3c
000000e0: 649f 073d dbdd 363c b163 143c 72f0 0abc
000000f0: 0d48 f23a a89b f03b a6bc 8f3c c057 afbb
-0.015718244 -0.027104277 -0.004246877 -0.0003978578 0.013232954 0.07400073 0.007840341 0.035346963
0.050268125 0.024431203 0.015338566 0.00116012 0.014447959 -0.0072742933 0.019797433 0.013734455
0.015666384 0.045783408 -0.009976301 0.00932904 0.060573436 0.052559067 0.014072454 -0.0082166
0.02818487 0.019531036 0.022200702 0.057523176 -0.02489197 0.017912237 0.017254831 0.024883736
0.03507775 -0.007443291 0.015213076 0.06060453 -0.0022208681 0.047355004 0.033621754 -0.002800834
0.008054707 0.034191377 0.004943367 0.019626485 0.033643913 0.018677035 -0.00049086806 -0.004640387
-0.010520082 -0.0020523565 0.023451868 0.025150644 0.007720893 -0.015678035 0.04318932 0.02308177
0.03311099 0.011161293 0.009056971 -0.008480178 0.0018484608 0.0073427744 0.01754601 -0.005351037

model.encoder.conv2.lin.weight f4 [64, 64]
00000000: c224 76bd 3d8b 603e 3fb8 a43d b9a9 153e
00000010: b755 fabc b281 513e d75a 083d 1bf4 42bd
00000020: 8f58 863e c31d 11be 2a8a 83bd 7293 babd
00000030: 145b 11bc f085 c43d 9d2b a6bd e608 ff3b
00000040: 9a70 623e 0aa5 64be f592 153e 0f10 823d
00000050: 319b 8cbe 5d6b 05be ed69 b73d 36a5 e2bd
00000060: 9a12 38bd 82a9 ff3c 325f 0ebe 1f92 0c3e
00000070: eaf4 26be 3987 bdbd cc03 d9bd 0a37 183e
00000080: 0bde 1f3e 48c7 6fbe ed68 e53d d2e3 a1bc
00000090: f730 193e a784 89bd 09ad 93bd 913c 20be
000000a0: 39cd 693e 0503 96bc 909a 4dbd 8bf4 5a3e
000000b0: ddf8 cebd c291 e73c ad31 363e f4f4 19be
000000c0: f31a 19be 601c 00be 9374 183e e820 bc3c
000000d0: 6dc3 423e 946e f7bd b823 53be 6394 22be
000000e0: 17cb 49be 2529 1abe 68c9 0e3e 743f 233e
000000f0: f81a a5bd 76a8 c23d 092b 5b3e 7eb5 89bb
00000100: 8a88 4cbd bf62 94bd 2342 13be 72a7 5e3e
00000110: bf09 45be 0b5c 273e 87c5 92bd a161 113e
00000120: 9c8b 5e3e 26c7 b43d c016 8dbd 7950 d3bd
00000130: a06c 8ebd 9ee7 0cbe 78a4 d93d 0bb7 c6bd
00000140: 8972 483d da1c ddbd 4fbe 063c c277 6ebd
00000150: f6f6 10be 16da d03d 4b31 3abd 206f 7a3d
00000160: a8ff 353e 7998 7e3d 1677 0dbe e4ea 373e
00000170: 0207 92bc adc6 0b3e 2633 29be de0c 2bbe
00000180: bedb 483e e341 4cbe 62b4 58ba 6cd7 103e
00000190: e8cd 44be 3366 23be e94d 17be 7bd1 2cbd
000001a0: f723 0f3d 6ad9 3fbe 0560 03bd 56a6 9c3d
000001b0: 2733 45bd 287c 963d 1ed1 6dbd 055c 1a3d
000001c0: 4049 a13d 234d f4bc 3eb3 bebd bdbb 3cbe
000001d0: 1072 0fbe 43c9 31bc 297b 5d3e 80e1 883d
000001e0: 1cd0 063e 6515 33bd 4e8d 133e 5381 693e
000001f0: 5325 883d ca24 623e b19a 863e 549b 75be
00000200: 9317 d13e a8ff 43bd 24db acbe 7d5e 8dbd
00000210: a31f 16be beef a8be 519c c8be 3e29 c93e
00000220: bf5c 2ebe 2d11 d53c 5c72 013e b38a 84bc
00000230: f910 61be 4ce7 71be 6fda 67bd 52b0 c5be
00000240: 1599 5b3e de13 bcbd 6ad3 363e 0961 c4bd
00000250: b747 3d3e 57a4 903e 4c34 c73c e2f0 9b3d
00000260: b4a5 193e 5cbf acbe 3dd4 423d cc27 babd
00000270: 27a4 283e 464a d3bd e955 4d3e ab47 cfbd
00000280: 10bb 69be 5bda a9bc cd48 60be 868f 2a3e
00000290: ada3 19bc 094c a0bd b8c8 b03d 31c8 37be
000002a0: c3df 11be 82a5 1ebe 9d31 50be 74bc 08bd
000002b0: e1e7 efbd 0389 a03d c519 82be 9862 b73e
000002c0: 84c3 c23e 9703 2dbe 9806 f4bd 2efa 173e
000002d0: 8f59 563e 0038 243e 6d18 69be 58e5 2d3d
000002e0: 0668 ef3d 39af 19be 60e5 11bd d6dc 58bd
000002f0: dceb 81be 5b73 123e 7e8e b83d 4ab3 0fbd
00000300: a685 93bd 7536 a93d 6486 863d 2d76 94bc
00000310: 313f c33d 3410 54be 75f1 2abe b014 703d
00000320: 56fb 043c 6a53 c4bd 6ba9 db3d c1cf 853e
00000330: fd21 16be 2dcd 283e da87 c53d 8ff5 553a
00000340: a249 fc3c 8d9e 133e 7a08 36be 979b 9dbd
00000350: 0046 ba3d 32fe 563e 8a5d 3dbc c1ec 853c
00000360: 119e bebc a334 8ebe ca9f 30be 6076 313d
00000370: 4527 e93d 5e92 a43d de2e 763e 4698 66be
00000380: 14d0 e5bd 0c26 77bd 4289 11be b1bf a93c
00000390: 5d8a 45be 1172 36bd 88c9 c3bc e7e7 213e
000003a0: 826f 47be 6d96 323e 1152 4abd f2b8 d53d
000003b0: 6555 10be fb90 1fbe c078 d6bb 9369 28be
000003c0: 658e c33d d957 0abe 9ff7 783c 9f19 66be
000003d0: 2c91 ff3d e3d0 4d3d 85f6 8f3d 2aeb 033d
000003e0: e609 05be 1655 4abd f29b 3a3c 7162 12be
000003f0: 0d70 b73d cd68 11bd a9f1 b53d 0e65 0d3d
-0.06009365 0.21928115 0.08042955 0.14615525 -0.03055845 0.20459631 0.033289757 -0.04759608
0.2623944 -0.1417151 -0.06422837 -0.09110154 -0.008871812 0.09595859 -0.08113787 0.007783043
0.22113267 -0.22328582 0.14606841 0.06350719 -0.27462152 -0.13029237 0.089557506 -0.11066668
-0.044939615 0.031208757 -0.13903502 0.13727616 -0.16304365 -0.09254307 -0.10596427 0.14864746
0.15612046 -0.23415864 0.11201654 -0.019761954 0.14960085 -0.067147546 -0.07210738 -0.15648104
0.22832192 -0.018311987 -0.05019623 0.21382348 -0.10106061 0.028267745 0.17792387 -0.15034848
-0.14951687 -0.12510824 0.1488822 0.02296491 0.19019862 -0.12081638 -0.20619094 -0.15876918
-0.19706379 -0.15054758 0.13944018 0.15942174 -0.080617845 0.095047876 0.21403135 -0.0042025438
-0.0499349 -0.07245397 -0.14380698 0.21743563 -0.19241999 0.16343705 -0.071665816 0.14197399
0.21732944 0.08827047 -0.06889105 -0.10318083 -0.06954312 -0.1376023 0.10627073 -0.097028814
0.048937354 -0.107965186 0.008224084 -0.05821968 -0.14156708 0.101978466 -0.045457166 0.061141133
0.17773306 0.062157128 -0.13814959 0.17960697 -0.017825607 0.13650008 -0.16523418 -0.16704127
0.19615075 -0.19947009 -0.0008266625 0.14144677 -0.19219172 -0.15956955 -0.14775814 -0.042191964
0.034946408 -0.1873528 -0.032073993 0.076489136 -0.048144486 0.073479 -0.058060758 0.037685413
0.078752995 -0.029821938 -0.093115315 -0.18430991 -0.14008355 -0.010851207 0.21629013 0.06683636
0.13165325 -0.043721575 0.14409372 0.2280324 0.06647744 0.22084346 0.26289895 -0.23985034
0.40838298 -0.047851235 -0.3376094 -0.06902788 -0.14660506 -0.3299541 -0.3918176 0.39289278
-0.17027567 0.026009167 0.12641281 -0.016179418 -0.21979131 -0.23623389 -0.0566048 -0.38611084
0.21445115 -0.09183477 0.17854086 -0.095888205 0.18484388 0.2825038 0.02431693 0.07614304
0.15004617 -0.33739746 0.047565687 -0.09089622 0.16468869 -0.10316901 0.20052303 -0.101210915
-0.22825265 -0.020734003 -0.21902771 0.16656312 -0.009377402 -0.078270026 0.08632034 -0.1794746
-0.14245515 -0.15492824 -0.20331426 -0.033382848 -0.11714149 0.07838633 -0.25410286 0.3581741
0.38039792 -0.168959 -0.1191532 0.1484153 0.20932601 0.16036987 -0.22763224 0.042455047
0.11689763 -0.15008248 -0.03561914 -0.05294498 -0.2537526 0.14301817 0.09011553 -0.035083093
-0.07203226 0.0826234 0.06568602 -0.018122757 0.09533537 -0.20709306 -0.16693671 0.05861348
0.008116564 -0.095862225 0.10725673 0.26135066 -0.14661403 0.16484518 0.09645052 0.0008161896
0.03079683 0.14415951 -0.17776671 -0.07695692 0.09095383 0.20995405 -0.011557946 0.016348245
-0.023268731 -0.27774534 -0.17248455 0.04332578 0.11384443 0.0803573 0.24041316 -0.22519025
-0.112213284 -0.06033902 -0.14212516 0.020721288 -0.19291063 -0.044542376 -0.023899809 0.1581112
-0.1947613 0.17440195 -0.04939467 0.10435666 -0.14095075 -0.1558265 -0.0065451562 -0.16446523
0.09548644 -0.13510074 0.015195756 -0.22470711 0.12478861 0.050248038 0.07029442 0.03220669
-0.12992057 -0.04939755 0.011389719 -0.14295365 0.08956919 -0.035500336 0.08883984 0.0345202

model.readout.mlp.0.weight f4 [64, 64]
00000000: df3f f53d 2553 59bd 88ce 123e 877a 2f3d
00000010: a5ce 4c3e d813 69bd 778a 1fbc 6350 233d
00000020: 0bf3 cb3d b1ca 033e 018a 3ebc b490 1d3e
00000030: 6987 363d 37c8 dbbd 312b 853d 08b4 ee3d
00000040: c6d2 e0bd 3536 da3d 3413 493d 9199 76bd
00000050: 5703 c6bd a67c 83bd 21cf 363e 275a e0bd
00000060: 91c7 d3bc f852 163c ce78 c13c 88c2 05bc
00000070: 4b2f 7ebc 56df fb3d 68d0 363e d43c 3f3e
00000080: e92d 133e 06de a03d 2199 4b3b ffac d53d
00000090: 66d8 d0bd a9b3 1d3e 4dec fbbd 3826 263e
000000a0: 9f27 aa3d c459 973d 454a 613d f1ea 18bb
000000b0: 9e2e 623e f759 00bd ba30 0e3e 3abe e73d
000000c0: fa46 c93d e38a eb3d 8973 e93d aa5f eebd
000000d0: 4ac9 873c bf25 debd 428d c63a e614 013e
000000e0: 5d56 8f3c a83c 343e b55a 50bc 419c d73d
000000f0: e875 e83d dd81 163e 9185 f93d e104 373d
00000100: 10b1 1c3d 8521 b33d eda9 93be 9dd4 813d
00000110: e62f 6cbe 5360 f03d 31f9 87bd 3023 35bd
00000120: 0c9e a2bd 1d2f 963d 2122 3d3e 3f40 343e
00000130: aefe 183d 3283 2fbc a4e6 bbbd bc41 f1bd
00000140: c9a5 c8bd ed2a 983d b632 0dbd 098e 3fbe
00000150: d938 04be f59f 8ebd 0a9c 3abe ac76 35bd
00000160: 4054 5f3c 7661 24be e978 e8bc a0ab 0d3d
00000170: c483 383d aa2c 33bc d462 d13d fca1 50be
00000180: 896c 46be 00a4 98bd c10a 1fbd 7826 3f3e
00000190: 1168 f6bd a25a a7bd fd9e b1bd fe80 283e
000001a0: 3fc8 11be b461 d53c 9d56 fbbc 152d 8fbd
000001b0: 164d 0cbe 5ec2 2cbd 6d8e c2bd a552 51bc
000001c0: 482b f8bd bc28 c33d f5d4 c33d c14c 0fbc
000001d0: 2f7e d3bc d8c4 d13d dca8 fc3d 2223 e1bd
000001e0: 6a20 753d 5308 3cbe 7443 afbd bd89 0cbd
000001f0: b797 d73d 0ece 00bd d734 62be 7bf7 71be
00000200: f7e4 e8bd 156f 033d 29d0 733d 0236 f43d
00000210: 1743 95bc 33b7 0e3d 322f 64be 0b8b 2cbd
00000220: 28e0 3b3e f29a a1bc ad72 afba f25a 36bd
00000230: 2834 1d3e 3801 4e3d f9dc 00be 6311 183c
00000240: 05d1 1dbd 9280 003d 9242 b03d 6ed5 94bd
00000250: 7c62 333e db24 e73c 9efd f73d 6068 ce3d
00000260: f955 843d 7497 ee3d dd13 e2bd 51d8 043e
00000270: e628 973d c387 bdbd 6a1c 94be d7cb 2d3d
00000280: 7dc6 4cbd f6f3 82bd 4d4f b73d 1bad a4bd
00000290: 31fe a5b9 101d 1cbe 05f7 bd3d 85fc 16bc
000002a0: 570d 8cbd 5ca0 4bbe 9281 b53c 44d1 19be
000002b0: 34d7 cfbd bee1 a0bd 62f1 d63b 0a19 e2bd
000002c0: c4a5 c63d a4e8 7dbe d9d3 75be c8d4 a53d
000002d0: 7185 c33d fd61 e1bd ce5c 92bd 3e1a b43d
000002e0: 86d2 49be 98ca 8dbc b4ea 8bbd da22 8f3d
000002f0: b05c 70be f715 583c 61d4 8ebd c267 9fbd
00000300: 3034 dabc 14ba 6d3d e0e8 46bc c07a eabd
00000310: f2ac 89bd 2069 a4bd 16c2 62bd 7221 f23c
00000320: be5c 9cbd f28c 19bd ecc0 bb3d 5d78 7e3d
00000330: 2817 debd 8692 0abe 788e 11bd 0392 543a
00000340: 4817 aa3d bc5c f9bd fc98 29bd fc10 693d
00000350: de70 f3bd 4d10 8abd 10b4 1b3d 58b4 4dbd
00000360: c0fc 333b d037 4c3c 1d6b ca3d 6852 103d
00000370: 4833 8b3d 3b11 c1bd 2141 b6bd 0019 32bb
00000380: bc73 40bd 5a0d 9fba 404f d7bc 9948 c7bd
00000390: 5908 c43d 8f2b 3dbb 90d7 06bd 3a7f 3a3d
000003a0: 0186 0abe 7c94 9a3d d3f9 95bc 01a2 0fbe
000003b0: 8f64 943c 5e95 3bb9 d11a c7bc 3c95 e7bd
000003c0: b831 aebd 17c1 99bb b618 613c 0044 8c3d
000003d0: 708f 50bc 4f83 9dbc aaca 683d 3028 38bc
000003e0: 2537 f9bd 3136 94bd 4e93 0ebe 0029 813d
000003f0: 6aae 4a3c 054f bcbc 4406 8abd 48f2 57bd
0.11975073 -0.05305781 0.14336598 0.04284146 0.20000704 -0.05690369 -0.009737602 0.039871585
0.09958466 0.1287029 -0.011629582 0.15387231 0.04456273 -0.10731547 0.06502379 0.11655432
-0.10977702 0.106548704 0.04909058 -0.060205046 -0.09668606 -0.06420259 0.17852451 -0.10954695
-0.025851997 0.009175055 0.023617174 -0.008164056 -0.015514205 0.12298457 0.17852938 0.18675548
0.14372982 0.078548476 0.0031066614 0.10433387 -0.10197525 0.15400566 -0.1230093 0.16225517
0.083083384 0.07390168 0.05500247 -0.0023333395 0.22088096 -0.031335797 0.13885775 0.1131558
0.09827991 0.115011 0.1139899 -0.1163934 0.016575474 -0.10847043 0.0015148299 0.12605628
0.017497236 0.17601264 -0.012716939 0.1052785 0.11350614 0.14697976 0.12183679 0.044682387
0.038254797 0.08746628 -0.2884058 0.06339381 -0.23065147 0.117371224 -0.06639326 -0.04422301
-0.07940301 0.07333205 0.1847005 0.17602633 0.037352256 -0.010712432 -0.091748506 -0.11780116
-0.09797246 0.074300624 -0.03447219 -0.18706526 -0.1291231 -0.06964103 -0.18223587 -0.044302627
0.013630927 -0.16052803 -0.028377967 0.034587502 0.045047536 -0.010935942 0.10223928 -0.20374292
-0.1937734 -0.074531555 -0.038828615 0.18667018 -0.12031568 -0.08171584 -0.08672903 0.16455457
-0.14236544 0.026047565 -0.030680949 -0.069910206 -0.13701281 -0.04217755 -0.09499822 -0.012776052
-0.1211763 0.09529254 0.09562103 -0.008746327 -0.025817005 0.10242623 0.12336895 -0.10993029
0.059845366 -0.1836255 -0.085577875 -0.034311045 0.10526984 -0.03144651 -0.2209047 -0.23629563
-0.113717966 0.032088358 0.05952469 0.11924364 -0.018220467 0.03484268 -0.22283629 -0.04212479
0.18347228 -0.019727204 -0.0013385616 -0.044520326 0.15351927 0.05029413 -0.12584294 0.009281489
-0.038529415 0.031372614 0.08606447 -0.07267271 0.17518038 0.028215816 0.121089205 0.10078502
0.064617105 0.11649981 -0.11038945 0.12973143 0.07380848 -0.0925441 -0.28927928 0.042430725
-0.04999398 -0.06394188 0.08950672 -0.0804083 -0.0003166064 -0.15245461 0.09275631 -0.009215479
-0.06838482 -0.19885391 0.02215651 -0.15021235 -0.101484686 -0.07855557 0.006559537 -0.11039932
0.09699586 -0.24795777 -0.24006595 0.080972254 0.09546936 -0.11005018 -0.07146607 0.08794068
-0.19709215 -0.017308518 -0.068318754 0.06989069 -0.23472857 0.013188831 -0.06974102 -0.07783462
-0.026636213 0.058038786 -0.012140483 -0.11449194 -0.0672244 -0.080278635 -0.055360876 0.029556964
-0.07634877 -0.03748793 0.09167656 0.062126506 -0.108442605 -0.13532457 -0.03553626 0.00081089156
0.08305222 -0.12175891 -0.041405663 0.056900963 -0.11886762 -0.067413904 0.038013518 -0.050220817
0.0027463883 0.012464479 0.098837115 0.03523484 0.067968905 -0.094271146 -0.08899141 -0.0027175546
-0.046985373 -0.0012134716 -0.026282907 -0.09730644 0.09571905 -0.0028865074 -0.03292042 0.04553149
-0.13527681 0.075478524 -0.018307602 -0.14026643 0.018114356 -0.00017889353 -0.02430478 -0.11307761
-0.08505577 -0.0046922076 0.013738802 0.068489075 -0.012729511 -0.019227652 0.0568339 -0.01124005
-0.12168721 -0.07236899 -0.1392338 0.06306648 0.012370685 -0.022986898 -0.06739476 -0.05272129

model.readout.mlp.0.bias f4 [64]
00000000: ea44 523c 01d4 1b3e f23d 043e cdde a9bd
00000010: daa2 813c cca6 ac3c daff 713d 661e 713d
00000020: fb59 023e f77b 93bd e78d 903d 7816 a23d
00000030: 1caa 853b 08f2 133d 5555 d8bd 9af2 75bc
00000040: 53cd 753c b377 9cbd 660f 083c ab54 283e
00000050: d6bf 3c3d d97f 5f3c 8840 a8bb 688b d23d
00000060: 9d0e ffbd 52ee 9bbd cb12 f23c d2a1 71bd
00000070: 2903 463d 8bb7 523c f050 bdbd 21a7 8abd
00000080: 641a b2bd 88d5 adbc fe9e 13bd c49d d6bd
00000090: c637 5ebc 2aa6 9ebd 0d81 e7bd 63d9 08be
000000a0: 670f d33d de2d 0f3e e922 2b3d 77ce 8b3c
000000b0: 4efa 013e 734a f3bd c787 86bc ebc5 9f3d
000000c0: 661a 65bc 11d6 043e 3999 433d b5a0 0d3e
000000d0: bfdc d9bd 9989 fd3d 3f0e 9abb eb38 933c
000000e0: 60af dc3d 6a8f 003e 6993 ddbd 0276 993d
000000f0: 931e 1d3d 448e d5bd 7f3f c4bd 1672 8b3c
0.012833813 0.15217592 0.12914255 -0.08294449 0.015824724 0.021075629 0.05908189 0.05886688
0.12729637 -0.07201379 0.07058316 0.07914442 0.0040791165 0.03611949 -0.10563151 -0.015011454
0.015002566 -0.07640018 0.0083044525 0.16438548 0.046081387 0.013641321 -0.005134646 0.10280496
-0.12453959 -0.07613815 0.029549977 -0.058992215 0.048342858 0.012861143 -0.09243953 -0.067701586
-0.0869644 -0.021219984 -0.0360403 -0.1047931 -0.013563102 -0.07746537 -0.11303911 -0.13364176
0.10305672 0.1398234 0.04178134 0.017066224 0.1269314 -0.118794344 -0.016422166 0.07801422
-0.013983345 0.12972285 0.047753546 0.13830836 -0.10637807 0.1237976 -0.0047014053 0.017971477
0.107756376 0.12554708 -0.10819132 0.07493211 0.038359236 -0.10427526 -0.095824234 0.017022174

model.readout.mlp.2.weight f4 [6, 64]
00000000: 1ae2 6bbd bb62 083e ffff 05be 6a71 813d
00000010: e6be c8bc a718 39bc 7c5b 09be ce9c af3d
00000020: 1a75 323d ee45 3e3d 86ff 25bd e50b cf3d
00000030: 8d57 253c 4f84 123d c019 a13d 46b4 403d
00000040: cf33 943d 074e 1b3d b07c 723b cb65 5dbd
00000050: 5c90 92bd f45f a13b 3fec 483e 1213 a3bd
00000060: 49ae 323d 8fa0 dd3d feb8 16be 4167 34bd
00000070: a601 66bd c2ca c93d 9de6 1c3d 7e84 bd3d
00000080: 06b1 a6bb 882c b03d 0338 093e dc49 ebbd
00000090: d51f d53d 96b6 c3bd 9d29 3b3d d285 f1bd
000000a0: c631 303d f91b 1bbe 6dcc 493d 5b04 0e3e
000000b0: 328e bcbc ea1c eebd 595a df3d 0183 2bbc
000000c0: 9c3c 483c 1ce0 c23d 362c 2bbe 4b45 983d
000000d0: 6150 06be fa9b 64bd 4d45 933d ef6d 393d
000000e0: 0a35 a93a 9794 afbd 64b1 98bd d54c 083d
000000f0: 43ec 1b3e 40be 723c b790 223d 82fe 863a
00000100: 549d 0c3d 636d e9bd 9c52 613c 02f3 c33d
00000110: 0e48 1b3d ee48 8fbd ebdc 3fbe 4912 f83d
00000120: e366 bfbd cb99 3cbd 726d cf3d 72b6 283e
00000130: 9d92 dd3c 2fcb d7bc 7213 7cbe ec43 8b3d
00000140: df92 273d a365 0f3d 1f52 d53d 9119 35be
00000150: 68cb 18be 44a1 9d3c 4d4f 273e bb77 b03d
00000160: 701c abbc ef7d 8e3d 7175 803d d263 89bd
00000170: 3a00 163e 47da 13be ced2 003e d280 dabd
00000180: d120 83be 69c0 44bd b0c1 a6bb 5e32 233e
00000190: daef 143e 4c7d 083d d7dd 9fbc 3377 f6bd
000001a0: 3fb9 943d 4b74 15be 3396 34bd 9cb5 d43d
000001b0: 496b 09be 48b5 e3bd 8dab d83d d429 94bd
000001c0: 192d 44be 36fa c4bd 8716 2abe 6e8c f4bc
000001d0: 3f48 01bd d207 e8bb 461f cd3d 4ea7 e53c
000001e0: f365 753d b549 90bd 7a22 6bbc f39a 5abe
000001f0: 84f0 e43d 924f e7bd 7dff 53bb a3cf 27be
00000200: 7750 473e b4b3 28be cd0b 73be acea d53c
00000210: a6ff 563e 2d5f 4e3e 7405 2cbe a435 6abe
00000220: 64d4 103e a40e b53d 2715 1dbb bde4 70bd
00000230: 9338 2a3e a374 dcba 27aa c93d e387 7b3d
00000240: 5ed0 d23c 974a 27be ed80 033e cbd4 10be
00000250: ccc2 663d b760 bbbd 1c9e 67be 7d32 403d
00000260: 20cd e2bd ad29 c23c a9d5 51be c897 25be
00000270: ecbf 0d3e 28ab 4e3d 7126 1b3d 1dc4 a3bb
00000280: de93 e63d 2c91 35bd 9f65 4fbe 79d2 4abe
00000290: fae9 9d3d d773 55bd eca1 edbc ec79 0cbd
000002a0: b999 8ebc dbfb a3be 6dd5 70be 4444 b2be
000002b0: 37c4 85bd b12a ae3d f53e cdbd 846f c43d
000002c0: 175d ea3d 7406 8abd 4ba2 44be 710c 3dbe
000002d0: 02e5 bd3d 59ad 76be 41b9 cebd 5b6e 38be
000002e0: 370d d33d 16f8 c8bc 4220 8abb e3ca a33d
000002f0: 53d5 6bbe 382d 103d 2872 ab3d 1d95 963d
00000300: ba4a 5fbe 9cf7 a23d 06e4 abbc e386 baba
00000310: 6951 6abe 1e15 39bc 7847 313e d49d 77bc
00000320: 0d9d 5d3d 15c5 82bd 5c6e 7fbd 982b 0f3d
00000330: 933b c0bd 8aca 963c 56b3 c5bd 3d46 61be
00000340: 0582 f6bd 91ff 4abe adb7 c33c 0c30 c13c
00000350: 5239 2c3c e4b2 e23c 2bb3 d63d a7a2 343e
00000360: 5688 c03c 0fde 2c3d 770e 9a3d 12d3 49be
00000370: df24 8fbd 66ec 423d d7d1 9dbd 7e2c cd3d
00000380: 0116 f3bd 2ace a0bd 5d75 dfbd c52c 0cbd
00000390: e101 43be 537e 12bc 0f4f d4bd 51d3 263d
000003a0: a44d bbbd 3199 223d 75e4 21be a967 f3bc
000003b0: d921 e73d bf81 b5bc 9625 51be b8c8 43bc
000003c0: bb26 35be 829e 58bd c34d 733e 6449 283e
000003d0: ca03 dfbd 8066 1c3e 46c4 2dbe 6b40 ed3d
000003e0: 553f 2b3d c52e a8bd b2b6 813d 6926 8e3c
000003f0: 8d8f 053e 004a 56bd 8d1c a13d 9f2e 9abd
-0.057588674 0.13318913 -0.13085936 0.0632046 -0.02450509 -0.0112973815 -0.13413805 0.0857483
0.043568708 0.04645341 -0.04052689 0.101096906 0.0100916745 0.03577071 0.078662395 0.047046922
0.07236444 0.03791621 0.003700059 -0.054052155 -0.071564406 0.0049247686 0.1962137 -0.07962622
0.043623243 0.1082164 -0.14719006 -0.044043783 -0.056153916 0.09853126 0.038305867 0.092537865
-0.005087021 0.08602244 0.13400273 -0.11488697 0.10406462 -0.0955631 0.045693982 -0.11793102
0.043016218 -0.1514739 0.04926722 0.13868849 -0.023017023 -0.11626609 0.10905904 -0.0104682455
0.012221482 0.09515402 -0.16716084 0.074350916 -0.131166 -0.055812813 0.071909525 0.045270856
0.0012909484 -0.08573263 -0.074557096 0.033276398 0.15226845 0.014815867 0.039688792 0.0010299238
0.034329727 -0.11397817 0.013752606 0.095678344 0.037910514 -0.06996332 -0.18736617 0.121128626
-0.09345796 -0.046045106 0.10128297 0.16475847 0.02704745 -0.026342003 -0.24616793 0.068000644
0.04091155 0.035009038 0.10416054 -0.17685534 -0.14921343 0.019241937 0.16338845 0.08616587
-0.020887583 0.06957614 0.062724 -0.06708492 0.14648524 -0.14438735 0.12580416 -0.10669102
-0.25610974 -0.04803506 -0.0050890073 0.15937182 0.14544621 0.033322617 -0.019514961 -0.12034454
0.072618954 -0.14595143 -0.044088554 0.10386202 -0.13419832 -0.11118561 0.10579596 -0.072345406
-0.19157828 -0.096180364 -0.16610156 -0.029852118 -0.03156304 -0.0070810104 0.100157306 0.028033879
0.05991168 -0.070453085 -0.014351482 -0.21348171 0.11178687 -0.11294474 -0.0032348328 -0.16387801
0.19464289 -0.16474801 -0.2373497 0.026112877 0.2099596 0.20153494 -0.16798955 -0.22872025
0.1414352 0.08840683 -0.0023968907 -0.05881189 0.16623144 -0.0016819428 0.09846907 0.06140889
0.025734123 -0.16337048 0.1284215 -0.14143674 0.056338117 -0.09149306 -0.22618908 0.04692315
-0.11074281 0.023701513 -0.20491661 -0.16171181 0.13842744 0.050456196 0.037878457 -0.0049977438
0.11258672 -0.0443279 -0.20253609 -0.19806851 0.07710643 -0.052112427 -0.029007874 -0.03429596
-0.017407285 -0.32028088 -0.23518915 -0.34817708 -0.06531566 0.085042365 -0.10021774 0.095915824
0.11443537 -0.06739512 -0.19202535 -0.18461777 0.092721954 -0.24089564 -0.10093928 -0.18010847
0.10305255 -0.02453236 -0.004215271 0.07997682 -0.23030595 0.035199374 0.08371383 0.0735266
-0.2180585 0.07957384 -0.020982753 -0.0014230873 -0.22882618 -0.011296539 0.1731242 -0.015113313
0.054104853 -0.06385247 -0.062361106 0.034953684 -0.09386363 0.018407125 -0.09653346 -0.2199945
-0.12036518 -0.19824053 0.023891294 0.02358248 0.010511713 0.027673192 0.10483392 0.17640172
0.02350251 0.04220396 0.0752229 -0.19709423 -0.069894545 0.04758873 -0.077060394 0.10018252
-0.11869431 -0.07851823 -0.10911057 -0.034222383 -0.19043685 -0.008941251 -0.10366642 0.04072887
-0.09145668 0.039696876 -0.15809806 -0.029712515 0.11285753 -0.022156594 -0.20424494 -0.011949711
-0.17690556 -0.05288554 0.23760132 0.16434246 -0.108893946 0.15273476 -0.16969404 0.115845524
0.041808445 -0.082120456 0.063336745 0.0173523 0.13043042 -0.052316666 0.07866774 -0.075284235

model.readout.mlp.2.bias f4 [6]
00000000: f258 30bc ec97 b7bc 1fb1 c13d e34a 43bd
00000010: c11b 283d 526b de3d
-0.010763394 -0.02241131 0.09457611 -0.04767884 0.041042093 0.108603135
