lightning_logs/version_150/checkpoints/epoch=3-step=60.ckpt (torch, 206939 bytes, 64 tensors)

model.encoder.conv1.att_src f4 [1, 4, 64]
0.0049930983 0.104577765 -0.020452429 -0.12402972 0.07746238 0.16881005 -0.1713884 -0.042675078
0.10939825 -0.026619121 -0.192439 -0.0055440785 -0.11202178 0.20049179 -0.22779162 0.044825654
-0.022905389 -0.020721233 -0.00651165 -0.2785507 0.16219372 -0.006692778 0.0653789 -0.08819457
0.29246548 0.033480268 0.24054055 0.13286883 -0.15632726 0.23978248 -0.056985427 -0.11450011
-0.11766366 0.018197149 0.18851286 0.14567126 -0.2857696 -0.24973503 -0.16937019 0.17626807
-0.05149504 0.24529575 -0.012025016 0.27640277 -0.1429435 0.2680981 0.015489943 -0.06320864
-0.15437996 -0.10031391 0.06379935 -0.24273379 0.24548751 -0.014213782 -0.09941954 -0.23793024
-0.09306673 -0.1893311 -0.16678207 -0.11959061 -0.22484736 0.07466465 -0.19573088 0.22724377
0.2335169 0.2529484 0.09572644 0.21184255 -0.04451326 0.16171601 -0.21722794 -0.062530525
-0.16863282 0.049390145 0.1879841 -0.19126993 0.08423161 0.26005748 0.13559768 0.20909546
0.01602197 -0.13852173 0.07918092 -0.27880096 0.12280986 0.19146244 -0.108248785 -0.28864548
-0.13636957 0.11158871 -0.20066513 0.041424457 0.23411328 0.07227922 0.16967583 -0.208526
-0.011789644 -0.09579311 0.15448545 0.23202749 0.14244087 0.037653506 -0.15758754 -0.085066184
0.22844122 -0.137604 0.16127074 -0.24403572 -0.22796957 -0.22099894 -0.015153997 -0.026594251
0.26628196 -0.27882418 0.13552599 -0.10327024 0.23519501 0.032556564 0.22374949 -0.20551464
0.17309901 0.17810781 0.095910504 0.21263088 0.26381245 0.1545155 0.13021716 -0.123302855
0.2736145 0.1120347 0.03150265 0.1397662 0.19448209 -0.15456672 0.24230184 0.23886952
-0.057965126 0.047897633 0.23627457 0.09636106 -0.26009184 -0.22512372 0.09571034 0.17743851
-0.068857566 -0.24410592 -0.119153306 0.021061987 -0.26080084 -0.27070296 -0.0907324 0.10703379
0.07196088 0.26993054 0.24753854 0.03580146 -0.08609102 0.08186249 -0.022461703 0.19591822
-0.18375237 0.28801808 -0.21749151 -0.20832036 -0.12456819 -0.16432764 0.060576156 0.041080356
0.06389202 0.19261554 0.03663504 0.12414234 -0.0007736101 -0.014906128 0.27119836 0.072979406
0.23730981 -0.21329941 0.1042611 -0.100152716 0.2159583 -0.15090889 0.15504907 -0.040100675
-0.07577588 -0.0392795 0.20732027 -0.050263766 -0.07971602 0.055961464 -0.27605382 -0.13561052
0.057517484 0.16095519 -0.2715166 0.28828046 0.2416123 0.295889 -0.22281954 -0.14848535
-0.25303334 0.16064924 0.1264336 0.018312745 0.06471339 0.1336867 -0.11965147 -0.24830613
0.077595145 0.26350486 0.11097459 -0.2086309 0.043798253 -0.20792769 0.12606889 0.14094366
0.18088931 -0.03727783 -0.058313042 -0.25961518 0.018993935 0.21790867 0.03508892 -0.086267956
0.20801355 -0.10838896 0.05280871 0.0813385 -0.008856366 0.12680759 0.14539848 0.007474676
0.10054492 0.056127347 -0.11676693 0.044075422 -0.13393058 0.006499228 -0.11757872 -0.038725946
-0.028246945 0.02716811 -0.13706072 0.1979206 -0.09545031 0.29069075 0.21600503 0.26907107
-0.23960997 -0.21605264 -0.22704293 0.15599024 -0.05756645 0.21655431 0.21117409 0.0099683525
00000000: 259d a33b de2c d63d da8b a7bc 4b03 febd
00000010: 99a4 9e3d 8bdc 2c3e 7180 2fbe 10cc 2ebd
00000020: 310c e03d 5810 dabc bb0e 45be 1aab b5bb
00000030: ad6b e5bd b84d 4d3e 3542 69be 1b9b 373d
00000040: 15a4 bbbc 93bf a9bc ae5f d5bb 339e 8ebe
00000050: 1c16 263e 174f dbbb 5fe5 853d 5b9f b4bd
00000060: 09be 953e 9b22 093d 4350 763e c40e 083e
00000070: 4114 20be 8a89 753e 8d69 69bd 097f eabd
00000080: a5f9 f0bd 3012 953c 8409 413e d92a 153e
00000090: 6550 92be 8aba 7fbe 616f 2dbe 9e7f 343e
000000a0: 77ec 52bd cf2e 7b3e 9304 45bc aa84 8d3e
000000b0: c85f 12be 2744 893e 88c9 7d3c 8873 81bd
000000c0: c815 1ebe 6171 cdbd 3ca9 823d 358f 78be
000000d0: 1461 7b3e ece0 68bc 799c cbbd fca3 73be
000000e0: c599 bebd 03e0 41be ebc8 2abe eceb f4bd
000000f0: 633e 66be c8e9 983d ad6d 48be 97b2 683e
00000100: 0e1f 6f3e 7482 813e 390c c43d 41ed 583e
00000110: 8953 36bd e298 253e 0071 5ebe 0110 80bd
00000120: 15ae 2cbe 524d 4a3d e77e 403e 44dc 43be
00000130: 9f81 ac3d 4126 853e 1eda 0a3e 1f1d 563e
00000140: 8240 833c a4d8 0dbe 9b29 a23d 00bf 8ebe
00000150: bc83 fb3d bb0e 443e 8ab1 ddbd 57c9 93be
00000160: 77a4 0bbe 9f88 e43d 297b 4dbe b1ac 293d
00000170: 64bb 6f3e 2107 943d 80bf 2d3e d787 55be
00000180: 5a29 41bc 2e2f c4bd 6f31 1e3e 9d98 6d3e
00000190: 05dc 113e 903a 1a3d a15e 21be 2e37 aebd
000001a0: 7fec 693e 10e8 0cbe 2824 253e 80e4 79be
000001b0: db70 69be 8c4d 62be 7848 78bc 30dc d9bc
000001c0: 1c56 883e 0bc2 8ebe 53c7 0a3e 597f d3bd
000001d0: f6d6 703e 085a 053d 961e 653e 6e72 52be
000001e0: de40 313e e561 363e ba6c c43d e9bb 593e
000001f0: 6d12 873e 5039 1e3e a657 053e 3586 fcbd
00000200: 3317 8c3e 7372 e53d ec08 013d df1e 0f3e
00000210: 5026 473e bd46 1ebe f91d 783e 369a 743e
00000220: d76c 6dbd 4f30 443d f6f1 713e f358 c53d
00000230: c22a 85be d586 66be c803 c43d 71b2 353e
00000240: 3205 8dbd e7f6 79be a606 f4bd 308a ac3c
00000250: b087 85be 9499 8abe e9d1 b9bd 8834 db3d
00000260: 3a60 933d 5634 8a3e be7a 7d3e 8da4 123d
00000270: 7d50 b0bd 85a7 a73d 9b01 b8bc c99e 483e
00000280: 9529 3cbe 1b77 933e 18b6 5ebe ef51 55be
00000290: 9b1d ffbd 8145 28be b41e 783d e043 283d
000002a0: d2d9 823d 023d 453e a00e 163d 573e fe3d
000002b0: 18cc 4aba d538 74bc 83da 8a3e 3a76 953d
000002c0: 5801 733e 296b 5abe d886 d53d de1c cdbd
000002d0: 2c24 5d3e dc87 1abe 2fc5 1e3e 9b40 24bd
000002e0: 6230 9bbd 8ae3 20bd c44b 543e 61e1 4dbd
000002f0: 2742 a3bd d937 653d ed56 8dbe 7cdd 0abe
00000300: 7497 6b3d 70d1 243e 3904 8bbe 7f99 933e
00000310: 3769 773e c37e 973e ce2a 64be 8b0c 18be
00000320: 968d 81be 3c81 243e cf77 013e 9c04 963c
00000330: 7488 843d 2be5 083e d40b f5bd f643 7ebe
00000340: 34ea 9e3d 1cea 863e a546 e33d 57a3 55be
00000350: cc65 333d ffea 54be 3418 013e 8953 103e
00000360: 0c3b 393e a3b0 18bd a8d9 6ebd 48ec 84be
00000370: 2b99 9b3c 7323 5f3e 66b9 0f3d 41ad b0bd
00000380: 8101 553e 08fb ddbd f24d 583d cd94 a63d
00000390: 4b1a 11bc d9d9 013e 57e3 143e 20ee f43b
000003a0: 7fea cd3d cae5 653d 8023 efbd 6e88 343d
000003b0: 1925 09be 7af7 d43b 1dcd f0bd 199f 1ebd
000003c0: 2366 e7bc a88f de3c a559 0cbe b3ab 4a3e
000003d0: 747b c3bd 6bd5 943e 6c30 5d3e afc3 893e
000003e0: 515c 75be e73c 5dbe f17d 68be e8bb 1f3e
000003f0: ccca 6bbd 6ac0 5d3e 053e 583e 4d52 233c

model.encoder.conv1.att_dst f4 [1, 4, 64]
0.18684961 0.011513522 -0.2039821 -0.13909207 -0.1980751 0.15465617 0.2877634 -0.2560797
0.13399884 0.06157508 0.03360573 0.2856487 0.025090488 -0.05283091 -0.21845622 0.26983565
-0.048322417 0.15742593 0.24524967 0.044206 0.058160424 0.22911657 -0.13989216 -0.2353
-0.016609425 0.1430118 -0.17753802 0.21607354 -0.2491303 -0.038035955 -0.06383223 0.2908498
0.2087451 0.06793422 0.19917728 -0.021685848 -0.1627247 0.019315034 0.23153743 0.28728822
-0.23700817 -0.18247108 -0.20607115 -0.23463124 0.07520842 0.23269942 0.11266758 -0.20293753
-0.0044825193 -0.14195643 0.08960175 -0.07750407 0.27107236 0.2193155 -0.09016835 0.21451765
-0.14681205 0.23421766 0.27997404 0.10394549 0.032262955 -0.19533731 -0.1997736 0.14998621
-0.23545817 -0.09179373 0.1605323 -0.12268825 0.07838626 0.2352365 0.15697141 -0.21281105
0.15167682 -0.08749792 0.2601491 0.12356265 -0.056258664 0.18521944 0.20652106 0.27522984
0.06837593 -0.15179363 -0.009731838 0.01214442 -0.038361125 -0.2289998 0.21135274 0.27359536
0.22281253 0.10818608 0.21328823 0.20652801 -0.29154345 0.1403146 -0.011366136 0.031131698
0.11361026 -0.2465483 -0.024742814 0.1220841 0.18991968 0.029159216 -0.09186189 0.22198138
-0.0867597 -0.08032588 -0.28886265 -0.2794171 -0.23150805 -0.20355542 -0.17799322 0.26597998
0.12972352 0.16837637 -0.019034432 0.2337777 0.21635869 -0.28889188 0.083811775 -0.097983435
0.1797772 0.23955777 0.29541096 -0.26818654 -0.14439763 0.26799273 0.031657226 -0.2002682
0.04971351 0.23685011 0.16594745 0.22100781 0.05050459 -0.24732675 0.23228829 -0.026639076
0.26183972 -0.1930506 -0.12156457 0.21542454 0.21981436 0.08438868 -0.122262776 -0.07882833
0.012076554 -0.05656254 -0.25798687 -0.18037711 0.016459728 0.11679075 0.120648 -0.09102217
-0.040516965 0.14825566 -0.13533762 0.2500272 -0.14404964 -0.062342014 -0.11119762 -0.28165898
0.21624063 0.19612983 0.29401827 0.2851093 -0.20541278 -0.23055401 0.08997889 -0.24894468
0.046268977 0.17414866 0.05094745 -0.21915269 0.12432338 0.27254164 0.035178557 0.13626686
0.21691704 -0.27808928 0.21200308 0.037707455 -0.023913873 0.043596987 0.09803304 -0.22082435
0.28618127 -0.28604364 -0.11372348 -0.20902039 0.12006539 -0.09730158 -0.26326996 0.098489426
0.17498744 -0.034007743 0.102392256 -0.04507209 0.16018236 0.20811322 -0.22519155 0.10284435
0.16134986 -0.0432981 -0.11011762 -0.10013089 0.19409832 -0.14881006 0.097091764 0.27292576
0.26038933 -0.1551436 0.015778527 -0.23049317 0.14872871 -0.030267214 0.1924843 -0.2766098
0.054183688 0.17417136 -0.14891985 -0.19313641 0.21953297 0.12665312 0.14584318 0.026833316
-0.13144524 0.23587008 0.2838805 -0.05058121 -0.19420953 0.02145091 0.13305415 0.14554876
-0.06496657 0.25812402 -0.29350242 0.19071561 0.0291238 -0.2011048 0.16621605 0.1985752
-0.21774043 -0.14766768 -0.15518585 -0.1192155 0.291383 -0.17840858 -0.053887334 -0.040544156
-0.1879849 -0.28067103 0.11212961 0.2597856 0.22997734 -0.12691097 0.20961623 0.21035086
00000000: 8155 3f3e 36a3 3c3c afe0 50be 276e 0ebe
00000010: 33d4 4abe 305e 1e3e b955 933e e11c 83be
00000020: fe36 093e 2736 7c3d 29a6 093d 8c40 923e
00000030: 918a cd3c 3965 58bd fdb2 5fbe e627 8a3e
00000040: baed 45bd 4334 213e bb22 7b3e 5a11 353d
00000050: a039 6e3d 899d 6a3e e43f 0fbe 7cf2 70be
00000060: 7d10 88bc af71 123e 87cc 35be 6242 5d3e
00000070: 031c 7fbe 97cb 1bbd 79ba 82bd 44ea 943e
00000080: 47c1 553e 1921 8b3d 21f5 4b3e 85a6 b1bc
00000090: 4ea1 26be 903a 9e3c 2618 6d3e 7117 933e
000000a0: 45b2 72be b3d9 3abe 5104 53be 2c43 70be
000000b0: df06 9a3d c248 6e3e 43be e63d dbce 4fbe
000000c0: 19e2 92bb 075d 11be 1f81 b73d 74ba 9ebd
000000d0: ffc9 8a3e 3e94 603e 2faa b8bd 84aa 5b3e
000000e0: e655 16be c1d6 6f3e c258 8f3e 60e1 d43d
000000f0: 2926 043d 8106 48be 7391 4cbe fc95 193e
00000100: f21b 71be 5afe bbbd 9462 243e fa43 fbbd
00000110: fa88 a03d d6e1 703e 1dbd 203e 24eb 59be
00000120: 2b51 1b3e 1c32 b3bd 4332 853e 6a0e fd3d
00000130: 7c6f 66bd 2aaa 3d3e 427a 533e edea 8c3e
00000140: ae08 8c3d ca6f 1bbe 4972 1fbc 64f9 463c
00000150: 8e20 1dbd ec7e 6abe da6c 583e b114 8c3e
00000160: f828 643e aa90 dd3d 3b68 5a3e 147c 533e
00000170: 2f45 95be a1ae 0f3e 0839 3abc e707 ff3c
00000180: 7fac e83d 2877 7cbe 71b1 cabc 3b07 fa3d
00000190: 4e7a 423e 4fdf ee3c 1622 bcbd 164f 633e
000001a0: 12af b1bd e581 a4bd cee5 93be c20f 8fbe
000001b0: 7210 6dbe d570 50be db43 36be 872e 883e
000001c0: 3ed6 043e db6a 2c3e 19ee 9bbc 6c63 6f3e
000001d0: 228d 5d3e a3e9 93be 82a5 ab3d 8aab c8bd
000001e0: 8417 383e a24e 753e 1b40 973e bf4f 89be
000001f0: f9dc 13be 5836 893e 02ab 013d 1b13 4dbe
00000200: 65a0 4b3d d688 723e 21ee 293e df4f 623e
00000210: e7dd 4e3d 3943 7dbe fbdc 6d3e 313a dabc
00000220: db0f 863e 0eaf 45be d8f6 f8bd 4098 5c3e
00000230: 0417 613e f9d3 ac3d e864 fabd bf70 a1bd
00000240: bddc 453c 1fae 67bd db16 84be c7b4 38be
00000250: 8dd6 863c fd2f ef3d 4c16 f73d d569 babd
00000260: 1ef5 25bd 55d0 173e f295 0abe 9103 803e
00000270: c081 13be 575a 7fbd 94bb e3bd 9b35 90be
00000280: 2f6e 5d3e 42d6 483e 9089 963e d9f9 913e
00000290: ba57 52be 5a16 6cbe da46 b83d 5beb 7ebe
000002a0: 8a84 3d3d 0754 323e 46ae 503d 9069 60be
000002b0: 429d fe3d 948a 8b3e 6417 103d 8a89 0b3e
000002c0: 801f 5e3e b861 8ebe 5617 593e 2273 1a3d
000002d0: 07e7 c3bc c192 323d 8cc5 c83d c71f 62be
000002e0: 5a86 923e 5074 92be dbe7 e8bd 7109 56be
000002f0: d8e4 f53d 0d46 c7bd 52cb 86be d3b4 c93d
00000300: e82f 333e b44b 0bbd 08b3 d13d 839d 38bd
00000310: d806 243e a21b 553e 9d98 66be 0fa0 d23d
00000320: e638 253e 5959 31bd 5985 e1bd 6d11 cdbd
00000330: b6c1 463e aa61 18be 0cd8 c63d edbc 8b3e
00000340: c051 853e f7dd 1ebe f841 813c 6706 6cbe
00000350: 574c 183e f3f2 f7bc 9b1a 453e cd9f 8dbe
00000360: b7ef 5d3d fa59 323e 727e 18be 8dc5 45be
00000370: 40cd 603e 5bb1 013e ea57 153e 8bd1 db3c
00000380: 9599 06be ed87 713e c958 913e 3e2e 4fbd
00000390: ddde 46be d2b9 af3c 593f 083e bc0a 153e
000003a0: 310d 85bd d528 843e f345 96be f44a 433e
000003b0: 0995 ee3c 6bee 4dbe 8a34 2a3e 4c57 4b3e
000003c0: 59f7 5ebe 3236 17be 0ae9 1ebe 4227 f4bd
000003d0: 2730 953e bdb0 36be f7b8 5cbd a111 26bd
000003e0: 1d7f 40be 1db4 8fbe 35a4 e53d 9e02 853e
000003f0: 2e7f 6b3e f3f4 01be a3a5 563e 3766 573e

model.encoder.conv1.bias f4 [64]
-0.0012158287 -0.00076904317 0.0005119063 0.0021024228 0.0017072522 -0.00042367092 0.0032774154 0.00081941753
-0.0006905865 -5.0753304e-05 -0.00076613034 0.0011053858 0.00033873346 0.0012113061 -0.000190496 4.3128042e-05
-0.0012031938 0.0021887633 -0.001115941 0.0004245771 0.00019493577 0.0023574797 -0.0005450902 0.00051377463
0.0009322255 -0.00048383398 0.0006747036 -0.0027339726 0.0014880038 -0.0015492861 -0.0020538634 -0.00077228877
0.00049082236 -0.0017130456 0.00022213452 -0.0018022187 -0.00020382997 -0.0021414487 0.0012236456 0.00053272257
-6.8021654e-05 -0.0019521157 0.0024209968 -0.00082081865 -0.0005156297 -0.001807877 -0.0010690577 -0.0017511048
-0.0015745292 0.00025717646 0.0015710837 0.00017520782 -0.00024911025 0.00012579723 0.00056800665 0.00056966656
0.00077988405 0.003268219 -0.00046817012 -0.0005226357 -0.0024693513 0.00038531257 0.002019982 0.0004202408
00000000: 715c 9fba 9d99 49ba 7331 063a cdc8 093b
00000010: e1c5 df3a 2620 deb9 e8c9 563b 2ece 563a
00000020: 7a08 35ba f2df 54b8 23d6 48ba 98e2 903a
00000030: 0998 b139 b0c4 9e3a e1bf 47b9 62e4 3438
00000040: 7cb4 9dba 5b71 0f3b c444 92ba c699 de39
00000050: ac67 4c39 f27f 1a3b 62e4 0eba d5ae 063a
00000060: 9860 743a 19ab fdb9 98de 303a 732c 33bb
00000070: 1f09 c33a 6a11 cbba 1c9a 06bb 6c73 4aba
00000080: 88aa 003a 4688 e0ba c8ec 6839 6d38 ecba
00000090: 31bb 55b9 8c57 0cbb bc62 a03a 68a6 0b3a
000000a0: d9a6 8eb8 22de ffba 96a9 1e3b 352c 57ba
000000b0: 532b 07ba 49f6 ecba a01f 8cba 5485 e5ba
000000c0: 6f60 ceba a4d5 8639 d2ec cd3a feb7 3739
000000d0: 039b 82b9 70e8 0339 48e6 143a ad55 153a
000000e0: 2271 4c3a 9e2f 563b bb74 f5b9 7d01 09ba
000000f0: d7d4 21bb c703 ca39 ad61 043b c453 dc39

model.encoder.conv1.lin.weight f4 [256, 3]
0.012978569 0.097758666 -0.12857263 0.017036535 0.0020504477 0.10445266 0.030045638 0.10915879
0.090334706 0.023461413 0.013077611 0.07828117 -0.050495863 0.037997708 0.123609304 -0.12772523
0.03840518 -0.00047707648 0.1471947 -0.11930721 -0.1369571 -0.10834814 0.017302813 0.015672658
0.01836735 -0.078093596 -0.043140206 0.116733305 -0.13377112 -0.13231374 0.094403945 -0.12333214
0.14074676 0.044221383 -0.08224792 -0.100649565 0.09662475 0.08445204 0.01086338 -0.026750218
-0.031332716 0.037985455 -0.020152848 0.073180236 0.0017925964 -0.04118764 0.12440776 0.11812143
-0.14244156 -0.11027016 -0.12274069 0.038021997 -0.07367118 0.08489939 -0.07077738 -0.11837891
-0.06260578 -0.085524306 0.02433522 -0.028383398 0.014528084 -0.00054860045 -0.01768168 -0.050029173
0.040862005 0.15011732 -0.08546131 0.097106494 0.08471892 -0.071799025 0.007548919 -0.033865735
-0.049585205 0.058165625 -0.13050906 0.10031727 -0.09729754 -0.13636653 -0.13430673 0.03334009
-0.12078542 0.08906163 -0.034241464 0.12865983 0.12243386 0.0127739245 -0.13513362 -0.14928912
0.017601093 0.07897016 0.12152263 0.046742246 -0.07311118 0.14722633 0.12985672 -0.041858934
0.103382535 0.09559449 0.07078804 0.13394278 -0.067754894 -0.063657396 0.08855506 -0.11070951
-0.0674639 0.0058415616 0.064859726 -0.13699831 -0.052615456 -0.052647207 -0.01843393 0.13060409
0.07151322 0.13920699 -0.10494963 -0.00305981 0.10080087 -0.084821895 0.1043541 -0.0048628175
0.14067209 0.009072478 -0.1257148 0.1347581 -0.06038482 -0.021397296 -0.1269555 -0.13763154
0.016483843 -0.14818713 -0.14836487 0.1431925 -0.13756914 -0.0018725824 0.023945192 -0.10159228
-0.021857029 -0.039218027 0.10027823 -0.027825996 0.05615578 -0.10213371 0.042220984 0.051623244
-0.15051505 -0.027580868 0.1289538 0.02964602 0.036382485 0.0686662 -0.0051351087 -0.14120524
-0.10330573 -0.050404016 0.08170282 -0.030250804 -0.045597732 0.03154098 0.06556875 0.08954231
0.05035062 0.0009807005 0.07868097 0.1431811 -0.04030046 -0.010053653 -0.15044709 -0.10792452
-0.13978074 0.03657802 0.0040185265 -0.11247605 0.105145924 0.13199121 -0.018222993 -0.029981839
0.08606296 0.1439678 -0.1199588 -0.060842253 0.04969907 -0.114729896 -0.0880061 -0.12425432
-0.14470911 -0.029566208 -0.14321177 -0.038347464 0.13426152 -0.039561275 -0.063267455 0.027113304
-0.05200593 -0.12278581 -0.08809357 -0.083748825 0.10093356 0.12557793 -0.042195912 0.100186
0.024877647 0.0075703245 -0.07492237 -0.010248056 -0.051112372 -0.13473201 -0.11802068 -0.084975384
0.07503113 -0.058022957 0.111039266 0.05220634 -0.10778577 0.12364388 0.013688618 -0.10452076
0.10523629 0.0484192 0.13056725 0.0061953994 0.10136051 0.03493593 0.06838967 0.15161355
-0.020011868 -0.016986385 -0.09611675 -0.041561007 -0.101834916 0.036871977 0.13396418 0.09372093
-0.07226943 0.122731104 -0.055281837 0.08426327 0.1268184 0.095092945 -0.08449804 0.09443319
-0.051773373 -0.13395792 0.08111662 0.011731914 0.03090883 -0.14485718 -0.050243877 0.030485809
0.050276987 0.13381878 0.14294836 0.14641811 0.11621568 -0.058474828 0.011640451 0.1409764
00000000: 10a4 543c b235 c83d 8ba8 03be 3490 8b3c
00000010: ce60 063b 47eb d53d 4522 f63c a58e df3d
00000020: 6701 b93d 2632 c03c 7a43 563c e151 a03d
00000030: c0d4 4ebd 7ca3 1b3d e026 fd3d 67ca 02be
00000040: c04e 1d3d 1f20 fab9 35ba 163e 5757 f4bd
00000050: 7b3e 0cbe a1e5 ddbd a1be 8d3c f263 803c
00000060: 2077 963c 89ef 9fbd c9b3 30bd df11 ef3d
00000070: 4cfb 08be 417d 07be db56 c13d 9095 fcbd
00000080: eb1f 103e 7b21 353d 9971 a8bd 5c21 cebd
00000090: 32e3 c53d 31f5 ac3d 51fc 313c 4623 dbbc
000000a0: bc56 00bd a396 1b3d 9617 a5bc 85df 953d
000000b0: 8ef5 ea3a 5fb4 28bd 7fc9 fe3d a6e9 f13d
000000c0: 33dc 11be 52d5 e1bd 795f fbbd f4bc 1b3d
000000d0: eae0 96bd bbdf ad3d bbf3 90bd a470 f2bd
000000e0: 7637 80bd 5e27 afbd a85a c73c 4d84 e8bc
000000f0: 3307 6e3c f4cf 0fba 2cd9 90bc 64eb 4cbd
00000100: eb5e 273d 5bb8 193e 5706 afbd c5df c63d
00000110: 1d81 ad3d 5e0b 93bd ec5c f73b ccb6 0abd
00000120: db19 4bbd 143f 6e3d 2ba4 05be 2473 cd3d
00000130: ef43 c7bd aba3 0bbe b487 09be 9e8f 083d
00000140: 595e f7bd f265 b63d c740 0cbd 67bf 033e
00000150: 9bbe fa3d b949 513c 7860 0abe 3fdf 18be
00000160: 2b30 903c 1bbb a13d dbe0 f83d cc74 3f3d
00000170: 50bb 95bd 80c2 163e 29f9 043e 4674 2bbd
00000180: 39ba d33d 0bc7 c33d 52f9 903d 4c28 093e
00000190: 14c3 8abd cf5e 82bd 5b5c b53d abbb e2bd
000001a0: 832a 8abd 926a bf3b 2dd5 843d 4949 0cbe
000001b0: 4e83 57bd 99a4 57bd c102 97bc 14bd 053e
000001c0: 8675 923d 478c 0e3e d5ef d6bd 1887 48bb
000001d0: b070 ce3d 1ab7 adbd 9ab7 d53d 4558 9fbb
000001e0: 580c 103e bba4 143c 61bb 00be 07fe 093e
000001f0: 1356 77bd 6249 afbc 9f00 02be 48ef 0cbe
00000200: 2009 873c 5ebe 17be f6ec 17be 0ea1 123e
00000210: edde 0cbe 7071 f5ba b528 c43c 9d0f d0bd
00000220: 830d b3bc 15a3 20bd ac5e cd3d 58f3 e3bc
00000230: 9a03 663d 7b2b d1bd e9ef 2c3d e572 533d
00000240: 9e20 1abe 46f1 e1bc 770c 043e 36dc f23c
00000250: cd05 153d dda0 8c3d 6a44 a8bb 1b98 10be
00000260: f491 d3bd 7174 4ebd cf53 a73d 89d0 f7bc
00000270: b0c4 3abd 1d31 013d e948 863d f561 b73d
00000280: 743c 4e3d d98a 803a 7d23 a13d 119e 123e
00000290: 1812 25bd 14b8 24bc cd0e 1abe 8807 ddbd
000002a0: af22 0fbe d5d2 153d d8ad 833b d859 e6bd
000002b0: bf56 d73d b428 073e 6348 95bc 799c f5bc
000002c0: c741 b03d 4c6c 133e f6ac f5bd ba35 79bd
000002d0: 4191 4b3d 82f7 eabd 8b3c b4bd 0d79 febd
000002e0: a02e 14be d534 f2bc 1ba6 12be 3b12 1dbd
000002f0: da7b 093e 010b 22bd 5e92 81bd b81c de3c
00000300: 2c04 55bd 2077 fbbd 676a b4bd 8184 abbd
00000310: 41b6 ce3d 8097 003e 9fd5 2cbd 512e cd3d
00000320: 35cc cb3c 7c10 f83b e670 99bd 76e7 27bc
00000330: 355b 51bd 30f7 09be d4b4 f1bd 9307 aebd
00000340: eca9 993d 7ba9 6dbd 8e68 e33d 51d6 553d
00000350: c9be dcbd 0139 fd3d 3a46 603c fb0e d6bd
00000360: 2086 d73d 3653 463d 6cb3 053e c702 cb3b
00000370: 1996 cf3d fa18 0f3d e20f 8c3d 9540 1b3e
00000380: eeef a3bc 0827 8bbc dcd8 c4bd e03b 2abd
00000390: d38e d0bd 1207 173d e82d 093e c2f0 bf3d
000003a0: ff01 94bd 725a fb3d 356f 62bd 3992 ac3d
000003b0: afdc 013e 17c0 c23d 4f0d adbd 3066 c13d
000003c0: 5110 54bd 442c 09be 7820 a63d 3737 403c
000003d0: 8434 fd3c 7155 14be 86cc 4dbd 60bd f93c
000003e0: 3eef 4d3d ca07 093e 0e61 123e a1ee 153e
000003f0: 7d02 ee3d 4d83 6fbd 97b7 3e3c 1e5c 103e

model.encoder.conv2.att_src f4 [1, 1, 64]
0.15412535 -0.14645945 0.25834793 0.15551482 -0.21456824 -0.25919098 -0.2906558 -0.0436115
0.17733987 0.21831684 -0.30268964 0.23588653 0.05303476 0.1359446 0.14730185 -0.26034248
0.17119649 -0.018501982 0.07438199 -0.08875622 0.047284313 -0.27119988 0.17840761 0.018333888
0.23836015 0.09040197 -0.25101343 -0.23004487 0.08567432 -0.1673356 -0.03228531 -0.07456197
0.12642737 0.19099824 -0.25772595 -0.019930746 -0.27610415 0.100184895 -0.12798394 0.19814897
-0.19674775 0.06450012 -0.058326248 -0.1595298 0.07220133 0.2072851 0.29026806 0.027521757
0.16178711 0.21670462 0.022029433 -0.2151569 0.27768758 0.1952095 -0.2324818 0.14683232
0.14581533 0.22011542 -0.03235001 -0.23226778 0.044029783 0.17013983 -0.09901896 -0.2693597
00000000: 09d3 1d3e 77f9 15be 2e46 843e 473f 1f3e
00000010: c7b7 5bbe aeb4 84be d6d0 94be f9a1 32bd
00000020: 9598 353e 738e 5f3e 23fa 9abe 3d8c 713e
00000030: fa3a 593d 1035 0b3e 4cd6 163e 9c4b 85be
00000040: 224e 2f3e 7891 97bc 9655 983d d2c5 b5bd
00000050: 32ad 413d b6da 8abe 7cb0 363e f330 963c
00000060: af14 743e ab24 b93d d584 80be e290 6bbe
00000070: 0576 af3d 065a 2bbe 9a3d 04bd f2b3 98bd
00000080: 2d76 013e 0b95 433e a8f4 83be ce45 a3bc
00000090: 865d 8dbe bd2d cd3d 390e 03be 90e7 4a3e
000000a0: 3e78 49be a418 843d 81e7 6ebd c85b 23be
000000b0: 4ade 933d 8c42 543e 049e 943e 4f75 e13c
000000c0: 85ab 253e d1e7 5d3e 1277 b43c 1752 5cbe
000000d0: 112d 8e3e 00e5 473e b50f 6ebe 365b 163e
000000e0: 9d50 153e f065 613e 7281 04bd 9bd7 6dbe
000000f0: 9358 343d 2339 2e3e 74ca cabd 84e9 89be

model.encoder.conv2.att_dst f4 [1, 1, 64]
0.117388785 0.014331386 0.032546036 0.023229484 -0.13658518 -0.13992493 0.06870695 0.09335817
-0.056760058 0.089138255 0.04044107 0.14854573 0.2822758 0.0002823995 0.117100775 0.089622974
-0.2181296 0.0902041 0.24296187 0.11284704 -0.018026827 -0.120441325 -0.10859603 -0.0036105446
0.06635101 0.13319045 -0.14550151 0.2964453 -0.06608975 0.27422354 0.2712991 -0.093345754
0.17757483 -0.206564 -0.2698862 0.2087561 -0.012012778 0.1351683 0.2787194 0.015222992
-0.15368508 -0.119208425 0.045734055 -0.23453958 -0.11592574 -0.15403351 0.06630049 -0.17849696
0.21834385 0.08452386 0.25762096 -0.14868313 0.05394017 -0.23709227 0.07159582 0.00024528507
0.29719105 0.30478364 0.2756062 -0.059383173 0.082102954 -0.08683569 -0.2989651 -0.035223417
00000000: 8869 f03d 31ce 6a3c fe4e 053d c24b be3c
00000010: fcdc 0bbe 7b48 0fbe 3bb6 8c3d 9132 bf3d
00000020: 3c7d 68bd 1e8e b63d 89a5 253d 5f1c 183e
00000030: 7486 903e 050f 9439 88d2 ef3d 408c b73d
00000040: 5e5d 5fbe edbc b83d ffca 783e 591c e73d
00000050: ffac 93bc f1a9 f6bd 9867 debd e39e 6cbb
00000060: 0ae3 873d 1463 083e 59fe 14be aec7 973e
00000070: 105a 87bd 0767 8c3e b7e7 8a3e 0f2c bfbd
00000080: 2dd6 353e 8385 53be 862e 8abe 29c4 553e
00000090: 3ed1 44bc 8f69 0a3e 4fb4 8e3e db69 793c
000000a0: 9f5f 1dbe 8c23 f4bd a253 3b3d 252b 70be
000000b0: 796a edbd f6ba 1dbe 8dc8 873d e8c7 36be
000000c0: 8895 5f3e d81a ad3d e5e6 833e 6440 18be
000000d0: 5ef0 5c3d 51c8 72be d4a0 923d 9b99 8039
000000e0: 6d29 983e 9a0c 9c3e 411c 8d3e c53b 73bd
000000f0: 9825 a83d e9d6 b1bd f411 99be 6e46 10bd

model.encoder.conv2.bias f4 [64]
-0.00011493079 0.0007664482 -7.2579634e-05 -0.0035869647 -0.00088173244 -0.0013923288 0.00048742915 0.00011763775
-0.0006903631 -0.0017260249 -0.00043257757 0.0023429664 -0.0016234837 0.0013428977 0.00064115034 -0.0012466372
-0.0023982252 -8.789394e-05 0.0025508434 -0.004597103 -0.0018738537 0.0011475142 0.0039447485 0.0032886164
0.0019823934 0.0021648034 -0.0022962568 -0.0005791419 -0.00054143404 -0.0010442832 0.0010970383 6.8235895e-05
0.0034094693 -0.0010917684 -0.00033360012 -0.0020294338 0.00077591 -0.004901259 0.003121837 0.0010518472
-0.0010844284 -0.0002781518 -0.0023992923 -0.002721995 0.00047131313 0.00036056584 0.0018597774 0.0019625283
-0.0031413357 0.0018807852 -0.002655535 7.0139424e-07 0.0010576003 5.261e-05 -0.0018805712 -0.0014253128
-0.00010673255 -0.0013173799 -0.00035788363 -0.0012966482 -0.0024914688 1.8221563e-05 -1.7491993e-05 0.0018044293
00000000: ff06 f1b8 78eb 483a e535 98b8 4813 6bbb
00000010: 1024 67ba cd7e b6ba a28d ff39 49b4 f638
00000020: 7cf9 34ba c93b e2ba 94cb e2b9 748c 193b
00000030: 13cb d4ba 2b04 b03a df12 283a 3466 a3ba
00000040: 8b2b 1dbb b353 b8b8 0d2c 273b 4ca3 96bb
00000050: 199c f5ba 3068 963a f342 813b d485 573b
00000060: 0beb 013b 60df 0d3b cc7c 16bb 8ed1 17ba
00000070: 06ef 0dba 54e0 88ba 7fca 8f3a de19 8f38
00000080: 6771 5f3b ab19 8fba 0de7 aeb9 4000 05bb
00000090: 7066 4b3a be9a a0bb bc97 4c3b 23de 893a
000000a0: 6123 8eba e7d4 91b9 723d 1dbb 8063 32bb
000000b0: 941a f739 540a bd39 c6c3 f33a c39d 003b
000000c0: dede 4dbb ae84 f63a 7c08 2ebb 7247 3c35
000000d0: 2d9f 8a3a 8fa9 5c38 807d f6ba 90d1 baba
000000e0: 9ad5 dfb8 efab acba 54a2 bbb9 4bf4 a9ba
000000f0: e947 23bb 82da 9837 c5bb 92b7 9a82 ec3a

model.encoder.conv2.lin.weight f4 [64, 64]
0.1729521 -0.029937899 0.08231544 0.19604906 0.025213521 -0.071210615 -0.13285457 0.13255711
-0.18031448 0.11283435 0.21007669 -0.08091273 -0.0645185 0.012317819 0.099467546 -0.08067207
0.12590086 -0.17393862 0.021808771 -0.14199723 -0.06865968 -0.050190616 0.20733804 -0.06156353
-0.19167484 -0.18178897 0.025730979 0.13774544 -0.15429395 0.20205662 0.15467885 -0.118632145
0.19710365 -0.05325559 0.024524963 0.18392348 0.09386971 0.1046914 -0.1922182 0.054009233
0.0535777 0.104207054 0.18066058 -0.1994614 0.028838964 -0.039887473 0.16226806 0.10064806
-0.17442523 0.120737255 0.07022126 -0.11650123 -0.024683533 -0.067129575 -0.08877432 -0.122538544
0.046661995 -0.01766062 0.17382362 -0.06244707 -0.07272373 0.0671075 -0.12164928 -0.03984481
0.028940838 0.013836174 0.14003894 0.19651069 0.18715389 -0.07138914 0.13910575 -0.20466708
0.02983892 -0.06979139 -0.1284605 0.009403733 0.09634733 -0.027459228 -0.19046995 -0.16167346
0.11422771 -0.062325425 -0.13357037 -0.11691634 -0.15765058 0.020889094 0.13944623 -0.050094686
0.01672288 -0.13797845 0.112863526 -0.20264104 0.11616783 0.012594355 -0.16531311 -0.12584533
-0.14871079 0.10212118 0.0035537002 0.010025927 0.17730498 -0.11047446 0.017919566 0.010577079
0.07775701 0.2064236 -0.08986761 0.18168138 -0.027746912 0.0029329495 0.024375515 -0.11311558
-0.09891853 0.0049957666 0.0046099983 -0.011475765 0.1627636 0.16936168 -0.08404076 0.05564732
0.143341 0.0006825237 -0.054041505 -0.060096007 0.112761654 0.20748748 -0.17501204 0.19433948
-0.022288254 0.17518964 -0.17981574 0.046978697 0.017025935 0.05269604 0.21080321 0.17489636
-0.09522202 0.035842158 -0.16448186 0.04222824 0.12113786 -0.1542133 -0.033048224 0.13058694
0.11544958 0.078213476 0.017511928 0.075657874 0.15281938 -0.0947069 -0.13232279 0.021911204
0.21215451 -0.06555573 -0.14318909 -0.048173383 -0.07453385 -0.19433774 0.08539179 -0.060397707
-0.18044849 0.10218047 -0.09058826 0.007685073 0.025053466 -0.09603154 0.06066491 -0.09437433
0.2051641 -0.17997137 0.09969883 0.14183791 -0.06682232 -0.21470273 0.09901897 -0.079524755
-0.16817339 0.024038875 0.18998349 0.16005187 -0.19824629 0.13412635 -0.071052305 0.14869437
-0.08436986 -0.16108598 0.023559472 -0.06801496 0.08769184 -0.044053797 0.047010224 -0.084841214
0.018787308 0.079702005 -0.096427575 -0.20989326 -0.04202337 -0.059121918 0.04098786 -0.20091076
0.19150636 0.1255987 -0.17867146 0.083834246 -0.055385724 -0.06025653 0.09562 -0.08434832
-0.09093193 0.07703506 -0.20523481 -0.05606024 0.10514154 0.059657324 0.18950994 -0.11865363
-0.089346215 0.13917594 -0.011932312 0.21465632 0.058157783 -0.07167172 0.13909458 -0.13496715
0.06980309 0.17212248 0.1614482 -0.20895006 -0.1464432 0.118838675 0.17098981 -0.21591936
-0.031462174 -0.09512785 0.03833879 0.21243712 0.1423453 0.042382456 0.10520449 0.05841534
-0.04699127 -0.20291927 -0.18907976 0.13659072 -0.20088409 0.21486233 -0.19444224 0.12788825
-0.054284234 0.023700736 -0.16289075 -0.030836312 -0.0916983 -0.112974726 -0.02147486 -0.1450083
00000000: 5b1a 313e 5340 f5bc ff94 a83d 16c1 483e
00000010: 968c ce3c dfd6 91bd 070b 08be 0dbd 073e
00000020: 5ca4 38be b215 e73d 581e 573e 93b5 a5bd
00000030: 4622 84bd add0 493c a4b5 cb3d 6637 a5bd
00000040: 28ec 003e f71c 32be 4fa8 b23c b967 11be
00000050: 729d 8cbd ad94 4dbd 6c50 543e 0a2a 7cbd
00000060: 6946 44be e326 3abe c6c9 d23c 240d 0d3e
00000070: 3cff 1dbe eee7 4e3e 2264 1e3e 69f5 f2bd
00000080: 8ad5 493e 8922 5abd 93e8 c83c 7056 3c3e
00000090: c33e c03d 7268 d63d d9d4 44be c938 5d3d
000000a0: 4a74 5b3d 826a d53d 16ff 383e 9c3f 4cbe
000000b0: b13f ec3c 0c61 23bd 9929 263e 9220 ce3d
000000c0: 879c 32be 1845 f73d 2ad0 8f3d 3298 eebd
000000d0: 1f35 cabc 3b7b 89bd 50cf b5bd 7df5 fabd
000000e0: a620 3f3d 01ad 90bc d2fe 313e 80c8 7fbd
000000f0: 2ef0 94bd a86f 893d 4223 f9bd 5034 23bd
00000100: 5615 ed3c 1fb1 623c 5e66 0f3e 193a 493e
00000110: 45a5 3f3e 7834 92bd bd71 0e3e 3f94 51be
00000120: c070 f43c caee 8ebd 268b 03be 1d12 1a3c
00000130: c051 c53d 2df2 e0bc 8e0a 43be ba8d 25be
00000140: 38f0 e93d f248 7fbd acc6 08be d671 efbd
00000150: 276f 21be 9b1f ab3c feca 0e3e 1630 4dbd
00000160: 6cfe 883c 394a 0dbe fe24 e73d 2281 4fbe
00000170: 66e9 ed3d 8e58 4e3c d747 29be 99dd 00be
00000180: a447 18be e924 d13d 32e5 683b c943 243c
00000190: 708f 353e 6f40 e2bd 0ecc 923c 7c4b 2d3c
000001a0: 113f 9f3d b560 533e 820c b8bd af0a 3a3e
000001b0: 7e4d e3bc ba36 403b 29af c73c 24a9 e7bd
000001c0: cc95 cabd 87b3 a33b 780f 973b d904 3cbc
000001d0: 80ab 263e 266d 2d3e 901d acbd 72ee 633d
000001e0: fcc7 123e 64eb 323a a05a 5dbd 3b27 76bd
000001f0: 95ef e63d 9977 543e 5b36 33be ee00 473e
00000200: db95 b6bc ea64 333e 9e21 38be bc6c 403d
00000210: f979 8b3c ced7 573d ccdc 573e 0818 333e
00000220: c303 c3bd 3acf 123d ef6d 28be 85f7 2c3d
00000230: 2017 f83d 17ea 1dbe 935d 07bd 95b8 053e
00000240: d470 ec3d 632e a03d 2d75 8f3c 84f2 9a3d
00000250: af7c 1c3e b1f5 c1bd a07f 07be 207f b33c
00000260: 083f 593e 1542 86bd 29a0 12be 7451 45bd
00000270: 34a5 98bd 7900 47be e4e1 ae3d 9663 77bd
00000280: 7dc7 38be ff43 d13d 5686 b9bd 11d3 fb3b
00000290: ed3c cd3c 2fac c4bd c57b 783d 5447 c1bd
000002a0: 8a16 523e 6a4a 38be e62e cc3d f53d 113e
000002b0: 24da 88bd 08db 5bbe 75ca ca3d e0dd a2bd
000002c0: a535 2cbe 2ded c43c 088b 423e a3e4 233e
000002d0: 1301 4bbe 6b58 093e df83 91bd 5643 183e
000002e0: 1bca acbd b9f3 24be cbff c03c 6d4b 8bbd
000002f0: c897 b33d c171 34bd cb8d 403d 3bc1 adbd
00000300: d7e7 993c ce3a a33d d27b c5bd 42ee 56be
00000310: b220 2cbd d329 72bd e3e2 273d 8dbb 4dbe
00000320: 3e1a 443e f29c 003e a7f5 36be 4ab1 ab3d
00000330: 24dc 62bd 8dcf 76bd 6bd4 c33d d0be acbd
00000340: 853a babd 8fc4 9d3d 1329 52be 6c9f 65bd
00000350: 7354 d73d 3d5b 743d e50e 423e ad00 f3bd
00000360: 26fb b6bd 2384 0e3e be7f 43bc dece 5b3e
00000370: db36 6e3d 9fc8 92bd cf6e 0e3e d434 0abe
00000380: ecf4 8e3d e040 303e ad52 253e 01f7 55be
00000390: 35f5 15be b161 f33d f417 2f3e f719 5dbe
000003a0: 7bde 00bd 64d2 c2bd 2309 1d3d 1e89 593e
000003b0: f7c2 113e 3a99 2d3d 7475 d73d ec44 6f3d
000003c0: eb79 40bd 12ca 4fbe 209e 41be 70de 0b3e
000003d0: 8fb4 4dbe df04 5c3e de1b 47be 23f5 023e
000003e0: 2559 5ebd 0c28 c23c d5cc 26be 6f9c fcbc
000003f0: 51cc bbbd 4b5f e7bd 0cec afbc 0e7d 14be

model.encoder.bn1.weight f4 [64]
0.99896955 0.99991894 0.99911696 1.0012429 1.0017486 0.9988929 1.0003053 1.0010399
0.99860185 0.99998784 1.0012779 1.0010885 0.9992501 0.9973875 1.00073 0.9989998
0.99875075 1.0016154 1.0001161 0.99893934 1.000335 1.0014571 1.0031778 0.9995341
0.9997515 1.0006168 1.0006438 1.0008059 1.002172 1.0017619 1.0004499 1.0009584
0.9994925 0.998445 0.9986977 0.99884987 0.9999591 0.9987593 1.0005614 1.0013518
0.99989045 0.9999324 1.0006123 1.0015527 1.0026481 0.99820924 0.99981135 0.99642444
0.99858236 0.99980915 0.998787 0.99673563 1.0005506 0.9999664 1.0001812 1.000612
1.000823 1.0005542 1.000417 0.9996433 0.9992532 0.99956477 0.9982234 1.000845
00000000: 78bc 7f3f b0fa 7f3f 21c6 7f3f ba28 803f
00000010: 4c39 803f 72b7 7f3f 010a 803f 1322 803f
00000020: 5fa4 7f3f 34ff 7f3f e029 803f ab23 803f
00000030: dbce 7f3f ca54 7f3f ec17 803f 73be 7f3f
00000040: 21ae 7f3f ef34 803f ce03 803f 7dba 7f3f
00000050: fa0a 803f bf2f 803f 2168 803f 77e1 7f3f
00000060: b7ef 7f3f 3614 803f 1915 803f 681a 803f
00000070: 2c47 803f bc39 803f be0e 803f 681f 803f
00000080: bede 7f3f 179a 7f3f a7aa 7f3f a0b4 7f3f
00000090: 52fd 7f3f b1ae 7f3f 6512 803f 4c2c 803f
000000a0: d2f8 7f3f 92fb 7f3f 1014 803f e132 803f
000000b0: c656 803f a48a 7f3f a3f3 7f3f ac15 7f3f
000000c0: 18a3 7f3f 7ef3 7f3f 81b0 7f3f 112a 7f3f
000000d0: 0b12 803f ccfd 7f3f f005 803f 0e14 803f
000000e0: f81a 803f 2912 803f aa0d 803f a0e8 7f3f
000000f0: 0fcf 7f3f 7ae3 7f3f 928b 7f3f b01b 803f

model.encoder.bn1.bias f4 [64]
-0.0018247482 -0.00096334127 0.00042918778 0.0029852106 0.00200221 0.001071795 0.0026774043 0.00038490977
-0.0011036053 0.0031651151 0.0010647269 -0.0005163385 0.0013088443 0.0015956948 0.0006911782 -0.0023976043
1.4379341e-05 0.001903745 0.002865106 -0.0030443287 -0.0021367818 0.00045433448 -0.00048250976 -0.0010941345
-0.0020766186 0.0032496685 -0.0008241257 -0.0031773546 0.0005915083 -0.0016002179 0.00039123738 -0.001776368
0.0014275558 -0.0011998098 0.0020640714 0.0004332144 -0.0003178788 0.0009270608 0.0011543238 0.0003382119
0.0012973319 -0.0005519526 0.004167136 -0.00046688522 -0.002776375 -0.0028261757 5.486132e-05 0.0015955386
0.00012058237 0.0026734157 0.0019484479 0.0012247177 -0.00017250128 0.001678943 0.0022799883 -0.00049472554
0.0027211278 0.00092173833 -0.00020005218 -0.00042861208 -0.00091497885 0.0015320963 0.0027715643 -0.0014976446
00000000: 642c efba bd88 7cba 9c04 e139 86a3 433b
00000010: 8237 033b 797b 8c3a 6477 2f3b b7cd c939
00000020: d9a6 90ba d26d 4f3b 4e8e 8b3a e45a 07ba
00000030: 878d ab3a a226 d13a 2f30 353a 2021 1dbb
00000040: cd3e 7137 1587 f93a 81c4 3b3b 5c83 47bb
00000050: 4009 0cbb be33 ee39 5df9 fcb9 1069 8fba
00000060: e117 08bb 64f8 543b 240a 58ba 2a3b 50bb
00000070: 730f 1b3a 67be d1ba fe1e cd39 05d5 e8ba
00000080: d31c bb3a f042 9dba 5f45 073b 0d21 e339
00000090: f8a8 a6b9 ff05 733a ae4c 973a 0852 b139
000000a0: 3c0b aa3a e9b0 10ba 788c 883b 46c8 f4b9
000000b0: d8f3 35bb 5c37 39bb e51a 6638 6421 d13a
000000c0: 2be1 fc38 7934 2f3b 1063 ff3a b586 a03a
000000d0: 76e1 34b9 fb0f dc3a db6b 153b 78b0 01ba
000000e0: f354 323b d0a0 713a 19c5 51b9 57b7 e0b9
000000f0: 31db 6fba 9fd0 c83a 22a3 353b 9d4c c4ba

model.encoder.bn1.running_mean f4 [64]
-0.018248554 0.026247663 0.017536225 0.020249793 -0.048001148 -0.010847258 0.025180265 -0.0096879285
0.0016104401 -0.021276006 0.029388014 -0.023028055 0.061719168 -0.0122843785 -0.022130355 0.046093218
-0.053427476 -0.023806967 -0.001956351 0.058812127 0.045191675 0.028617108 0.0033860249 -0.010909466
0.006346383 -0.02545841 0.03661029 0.011678439 0.054144897 0.0114131225 0.031554893 0.05046052
-0.006479417 0.0076707024 -0.025173422 -0.015060638 0.002990308 0.02385315 0.004245405 -0.0023310853
-0.0076660053 0.015504293 -0.02791029 -0.045018833 0.024300488 0.014017586 0.010293709 -0.008982472
-0.032747515 0.036935993 -0.0058974614 0.031654824 0.07109805 0.09309072 0.008997116 -0.044539016
-0.02921689 -0.01935472 0.04620881 0.043162093 0.022636157 -0.035623036 0.024021572 0.021576205
00000000: fe7d 95bc 5705 d73c 21a8 8f3c e5e2 a53c
00000010: da9c 44bd b3b8 31bc d846 ce3c 1eba 1ebc
00000020: 6715 d33a 054b aebc 22bf f03c 55a5 bcbc
00000030: 3dcd 7c3d 6b44 49bc b84a b5bc 3ecc 3c3d
00000040: c5d6 5abd d406 c3bc 2036 00bb fce4 703d
00000050: e81a 393d 6d6e ea3c 12e8 5d3b 9ebd 32bc
00000060: 52f5 cf3b 288e d0bc acf4 153d ec56 3f3c
00000070: 0ac7 5d3d 1bfe 3a3c b43f 013d b1af 4e3d
00000080: 4a51 d4bb 845a fb3b 7e38 cebc e5c0 76bc
00000090: 0bf9 433b ae67 c33c 0a1d 8b3b 1fc5 18bb
000000a0: 1d33 fbbb b805 7e3c 1fa4 e4bc ab65 38bd
000000b0: d111 c73c 04aa 653c f2a6 283c 382b 13bc
000000c0: 4222 06bd 324a 173d 7e3f c1bb 7da8 013d
000000d0: db9b 913d 59a6 be3d a468 133c 8b6e 36bd
000000e0: 4258 efbc ca8d 9ebc 7345 3d3d bcca 303d
000000f0: 766f b93c 76e9 11bd e3c8 c43c 95c0 b03c

model.encoder.bn1.running_var f4 [64]
0.0018549605 0.0021524047 0.0033308438 0.0018398215 0.0018066128 0.003067499 0.0028106254 0.0018601964
0.0027413985 0.0019605574 0.0019078171 0.001940284 0.0018424363 0.002626876 0.0028607876 0.0021271843
0.0027006662 0.002210575 0.0020537172 0.0019643917 0.0018340386 0.002541242 0.0020218699 0.0019634652
0.001912533 0.001960125 0.0020030683 0.0021930134 0.00184672 0.002684422 0.0022650124 0.0018069076
0.0019991656 0.0019017132 0.0019524979 0.0019569742 0.0022012512 0.0022969306 0.0019870403 0.0020499574
0.0020584709 0.004082509 0.0019670161 0.001997762 0.0018306135 0.0018832831 0.001900682 0.004136616
0.0019526324 0.0020696393 0.0023207588 0.0022014715 0.0022247955 0.0022899848 0.0021207898 0.0020575789
0.0018364041 0.0038152104 0.0020962066 0.004010495 0.0025832297 0.001982552 0.0027987638 0.0017996117
00000000: 2522 f33a 5c0f 0d3b 494a 5a3b 2a26 f13a
00000010: decb ec3a 1808 493b 7832 383b d5d1 f33a
00000020: 09a9 333b b27c 003b b80f fa3a 2151 fe3a
00000030: e77d f13a ab27 2c3b 0d7c 3b3b 3b68 0b3b
00000040: a9fd 303b 4bdf 103b a897 063b 06bd 003b
00000050: 2064 f03a f78a 263b 5981 043b 7bad 003b
00000060: f5ad fa3a 7175 003b e945 033b a9b8 0f3b
00000070: a40d f23a 21ed 2f3b 9a70 143b c2d5 ec3a
00000080: 6f04 033b e842 f93a f5ea ff3a 9440 003b
00000090: de42 103b 1a88 163b 0139 023b 9458 063b
000000a0: 69e7 063b 91c6 853b 0ee9 003b e2ec 023b
000000b0: 32f1 ef3a 7fd8 f63a 4e20 f93a 738c 873b
000000c0: 79ef ff3a c9a2 073b df17 183b 9046 103b
000000d0: e0cd 113b 9213 163b f3fc 0a3b 72d8 063b
000000e0: 7fb3 f03a 9c08 7a3b 8360 093b 786a 833b
000000f0: 674b 293b b4ed 013b 776b 373b f3e0 eb3a

model.encoder.bn2.weight f4 [64]
0.9981445 1.0025699 1.0002668 1.0024568 0.9994639 1.0012888 1.000298 1.0003006
1.0006051 1.0009545 0.9986131 0.99934083 1.0004528 0.99856097 1.0027559 0.9997448
0.999454 1.0005997 0.9967444 1.002298 0.99797297 1.000031 1.0005728 0.99894243
0.99887514 0.9976534 1.001637 1.0030863 0.9986429 1.0015725 1.0003312 1.0001644
0.996674 1.0024192 0.9985641 0.9988671 0.99840844 1.0035194 0.9973521 0.9993465
1.0009758 0.99921644 1.0026857 1.0032442 0.9998518 1.0005484 0.9980318 0.9986438
1.0034313 0.9994773 1.0018495 0.99734044 0.99961257 0.99912095 1.0002332 1.0002762
0.99804795 0.99939275 1.0000525 1.0020707 1.0025179 0.9999634 1.0013006 0.996805
00000000: 6686 7f3f 3654 803f be08 803f 8150 803f
00000010: dedc 7f3f 3b2a 803f c409 803f da09 803f
00000020: d413 803f 471f 803f 1ca5 7f3f cdd4 7f3f
00000030: d60e 803f b1a1 7f3f 4e5a 803f 46ef 7f3f
00000040: 38dc 7f3f a713 803f a42a 7f3f 4d4b 803f
00000050: 287b 7f3f 0401 803f c512 803f b1ba 7f3f
00000060: 48b6 7f3f 3766 7f3f a435 803f 2265 803f
00000070: 10a7 7f3f 8733 803f da0a 803f 6305 803f
00000080: 0726 7f3f 464f 803f e6a1 7f3f c1b5 7f3f
00000090: b297 7f3f 5373 803f 7852 7f3f 2cd5 7f3f
000000a0: fa1f 803f a6cc 7f3f 0158 803f 4e6a 803f
000000b0: 4af6 7f3f f811 803f 037f 7f3f 1fa7 7f3f
000000c0: 7070 803f bfdd 7f3f 9b3c 803f b451 7f3f
000000d0: 9ce6 7f3f 64c6 7f3f a407 803f 0d09 803f
000000e0: 1280 7f3f 34d8 7f3f b801 803f da43 803f
000000f0: 8252 803f 9afd 7f3f 9e2a 803f 9d2e 7f3f

model.encoder.bn2.bias f4 [64]
-0.0020294932 0.0034547707 0.0002927739 0.00043087776 -0.0011045261 -0.00036906585 0.00040204253 0.0004932511
0.0005576381 -7.652043e-06 -0.0016148286 5.320336e-05 -0.00031412908 -0.0011529088 0.0034182621 -0.000669869
-0.0018550043 0.00044130842 -0.0030734346 0.0005535195 -0.0025679497 0.0005349509 0.0021663564 -3.873945e-05
0.0006625118 -0.0015852221 0.0010412484 0.0028268287 -0.0018004134 0.0011422329 0.00092372054 0.00106516
-0.00249762 -0.00068885693 -0.0016775933 -0.0021566541 -0.0014631839 0.0021617776 -0.0018544012 -2.8074712e-05
0.0004932651 -0.0009144683 0.0019519309 0.0026234882 0.0011908339 0.00102465 -0.0014372864 -0.001545914
0.003184185 0.00018022515 0.001079901 -0.0024516406 0.0006804692 -0.001048614 -0.0014493398 -0.0003999016
-0.0020391715 -0.0014432605 8.2399856e-05 0.001515833 0.0017663253 0.0009449506 0.0010686218 -0.0025457437
00000000: 3f01 05bb 6f69 623b 737f 9939 6fe7 e139
00000010: bfc5 90ba 2e7f c1b9 3cc9 d239 854d 013a
00000020: 762e 123a 4661 00b7 a8a8 d3ba ac26 5f38
00000030: b1b1 a4b9 331d 97ba ec04 603b 269a 2fba
00000040: 9e23 f3ba 6a5f e739 ad6b 49bb 111a 113a
00000050: 0c4b 28bb f23b 0c3a 6ef9 0d3b 2b7c 22b8
00000060: 6aac 2d3a 3ac7 cfba 807a 883a 5142 393b
00000070: d9fb ebba fab6 953a d625 723a d79c 8b3a
00000080: 1caf 23bb 6894 34ba b1e2 dbba a756 0dbb
00000090: 4ec8 bfba 9cac 0d3b 610f f3ba fc81 ebb7
000000a0: 764e 013a eeb8 6fba efd7 ff3a d4ee 2b3b
000000b0: c115 9c3a 8c4d 863a 5463 bcba 44a0 caba
000000c0: c2ad 503b d2fa 3c39 778b 8d3a b4ab 20bb
000000d0: 8461 323a a671 89ba c6f7 bdba e2a9 d1b9
000000e0: 9fa3 05bb c92b bdba 16ce ac38 eaae c63a
000000f0: 0b84 e73a 90b6 773a ff10 8c3a 7ed6 26bb

model.encoder.bn2.running_mean f4 [64]
-0.08716971 0.19369715 0.4740669 0.40625125 -0.05853431 5.1132767e-05 -0.008849675 0.14379704
0.53192574 0.43060994 0.18165462 -0.08313101 -0.066943936 -0.05507497 0.3250746 -0.10933771
0.5214458 0.058008574 0.72237176 0.47623432 -0.02638133 -0.052997813 0.24352287 0.16883816
0.1264275 -0.08561866 0.29246017 -0.0116521465 -0.0012019131 -0.10623628 -0.035773605 0.18376736
0.7524727 -0.0122184735 0.37437615 0.22101526 -0.04123548 0.67928874 0.45535803 0.27118886
-0.07286232 0.23156297 0.214641 0.12112324 -0.044226483 -0.021548435 0.19225225 0.011057786
0.19496676 0.6140937 0.16675486 0.028160743 0.3817935 1.0182508 -0.038167696 0.9956995
-0.04662201 0.009964209 -0.09401063 -0.0066693844 1.7359301 0.11902824 0.14014977 -0.07368756
00000000: 0886 b2bd 8c58 463e e6b8 f23e 2a00 d03e
00000010: acc1 6fbd 6477 5638 3afe 10bc 883f 133e
00000020: 492c 083f e878 dc3e ab03 3a3e 9740 aabd
00000030: e719 89bd 4b96 61bd 2e70 a63e 73ec dfbd
00000040: 797d 053f 669a 6d3d 5bed 383f fcd4 f33e
00000050: a91d d8bc 3c14 59bd 0f5e 793e e9e3 2c3e
00000060: 3676 013e d658 afbd 57bd 953e a5e8 3ebc
00000070: 8389 9dba 6892 d9bd 5887 12bd 832d 3c3e
00000080: 0da2 403f fe2f 48bc 3bae bf3e d351 623e
00000090: 89e6 28bd dee5 2d3f b024 e93e 44d9 8a3e
000000a0: d738 95bd d81e 6d3e daca 5b3e 760f f83d
000000b0: d426 35bd 5886 b0bc c6dd 443e b72b 353c
000000c0: 5ea5 473e 3f35 1d3f c9c1 2a3e 5cb1 e63c
000000d0: 707a c33e 0b56 823f bb55 1cbd 2ae6 7e3f
000000e0: b9f6 3ebd ec40 233c a588 c0bd da8a dabb
000000f0: f532 de3f 14c5 f33d 6c83 0f3e 81e9 96bd

model.encoder.bn2.running_var f4 [64]
0.5204091 0.18686599 0.7148203 0.5825058 0.805754 0.01639268 0.14670923 0.11755277
0.8315837 0.6559614 0.16875754 0.123501755 0.7095028 0.10546937 0.38732374 0.28872198
0.8136558 1.6460848 1.2950925 0.70640504 0.2831146 0.6984664 0.26779053 0.1530497
0.14294975 0.33900887 0.3586864 0.76602274 0.27392244 0.2313867 0.13765031 0.30178797
1.3579285 0.17449988 0.5119055 0.21409716 0.110243075 1.2666388 0.72325146 0.40020606
0.30183017 0.21970719 0.2279068 0.100904755 0.20598763 0.046422552 0.18601641 0.042746335
0.19921957 1.0932621 0.16518599 1.4054012 0.5822752 2.2752876 0.020780701 2.0996249
0.031241864 1.1791447 0.13350858 0.105662666 5.1013937 0.098411046 2.2114868 0.3784699
00000000: 8839 053f cc59 3f3e 77fe 363f 1a1f 153f
00000010: e545 4e3f f149 863c f23a 163e 82bf f03d
00000020: abe2 543f 16ed 273f c7ce 2c3e 7dee fc3d
00000030: faa1 353f 5300 d83d 4c4f c63e 5ed3 933e
00000040: bf4b 503f e8b2 d23f 97c5 a53f f6d6 343f
00000050: 66f4 903e b2ce 323f d71b 893e 10b9 1c3e
00000060: 6b61 123e 9292 ad3e bea5 b73e 111a 443f
00000070: 903f 8c3e a3f0 6c3e 34f4 0c3e f483 9a3e
00000080: 9ad0 ad3f 19b0 323e 3d0c 033f 493c 5b3e
00000090: 1fc7 e13d 3821 a23f 0227 393f cfe7 cc3e
000000a0: 7c89 9a3e ecfa 603e 6660 693e 27a7 ce3d
000000b0: 6cee 523e 9325 3e3d 167b 3e3e c816 2f3d
000000c0: 3700 4c3e 03f0 8b3f 8426 293e 30e4 b33f
000000d0: fd0f 153f 509e 1140 4a3c aa3c 4160 0640
000000e0: f0ee ff3c 37ee 963f 79b6 083e ab65 d83d
000000f0: 9e3e a340 bb8b c93d 0089 0d40 cfc6 c13e

model.pooling_fn.gate_nn.0.weight f4 [64, 64]
-0.073394954 0.0030909958 -0.01770357 -0.111408316 0.09198349 -0.05677031 0.033309847 -0.11675266
0.11967945 0.04972653 0.07605092 0.0882128 0.015496044 -0.10347804 0.028991567 -0.05461367
-0.03230093 -0.07052811 -0.034616783 0.07247622 0.01625645 0.02151169 -0.0004918971 -0.114561185
0.027335972 -0.015321504 -0.119794935 -0.07991187 -0.07453841 -0.043799613 0.08595772 0.06778182
0.0942973 0.008352711 -0.094625205 0.008174256 -0.050717752 -0.052931946 -0.027376026 -0.020220198
-0.08912464 0.086225905 -0.052688953 0.11211177 0.0026049898 -0.1051774 -0.10327607 0.033324815
-0.0128286 0.009399693 -0.12309496 0.110415444 -0.003930307 -0.097544104 -0.02889331 -0.0039585307
0.097371385 -0.014438878 0.023527043 0.032640208 -0.080178134 0.029048217 -0.023784384 0.10868396
-0.03213542 0.029369714 0.050263982 0.028610243 -0.042869516 -0.097261146 0.026142549 -0.023411954
-0.046863746 -0.00278646 -0.11513817 0.11852513 -0.12324909 0.015259321 0.11198442 0.12638736
-0.022250198 0.10334057 0.073492765 -0.051402517 -0.05706595 -0.022675302 -0.07631346 -0.038417473
0.11872232 0.029173288 -0.03995469 -0.11173207 -0.027567454 0.04736125 -0.08866341 -0.11067102
0.05261264 -0.09268332 0.10124763 -0.10160186 -0.030385101 -0.017937396 -0.013252244 -0.048728343
0.057133436 0.06580763 0.016594226 -0.04954302 0.11914018 0.016736677 0.06960256 0.10260429
0.07563964 0.06747549 -0.029332832 -0.0462133 0.089424856 0.045779243 -0.08130554 0.08415939
0.12569673 0.02402787 -0.01859993 0.12358723 0.07403401 0.08448449 0.036599547 -0.051264036
0.060746565 -0.120160714 -0.12553802 -0.011882405 -0.056295555 0.049958076 -0.05258138 -0.07073428
-0.01683645 0.08034538 0.0111037595 -0.120358445 -0.04946626 0.08201819 -0.03046039 0.121240176
-0.08901593 0.08299349 -0.0073159877 0.10715393 -0.060818106 0.024895748 0.0688443 0.088191375
0.12055922 -0.03468531 -0.08852758 -0.032076955 -0.018871732 0.077299386 -0.08430927 -0.09476324
0.10579283 0.0047773123 -0.05048448 -0.031654526 0.0868632 0.04940035 0.0019510586 0.117869176
0.105681024 -0.104132466 -0.09876154 0.031326074 0.020128885 0.08823863 0.029985238 0.11098154
0.10884474 -0.008129999 -0.037396584 0.1099474 -0.035229124 -0.038330246 -0.073000036 -0.07002658
-0.07685328 -0.026632741 -0.00047911503 0.11702753 -0.06286185 0.12325729 0.07555139 0.011021022
0.02860848 -0.08637488 -0.006591935 0.029100275 -0.06801369 0.07305492 0.013129209 0.012921263
-0.01068799 -0.015587672 0.07836791 -0.039887812 -0.11065828 0.040184256 -0.014408678 -0.031015621
0.112433575 0.057143874 0.07905996 0.09609952 0.09413139 0.0055600447 0.038014676 0.03714294
-0.08633798 0.07130662 0.03730673 0.06438765 -0.10830264 0.09346297 -0.07365074 0.033779293
-0.06682654 0.050693512 0.11846861 -0.017881986 -0.019612031 -0.07956746 -0.037480593 -0.11009655
0.013244292 0.06365656 -0.04173054 0.04285958 -0.06399298 -0.027431594 0.10298356 -0.11966224
0.09946133 0.03056438 0.09240927 0.044936232 0.11643482 0.08702394 -0.022210384 -0.054202046
-0.10702293 0.095694005 0.047065098 -0.04280223 0.014004388 -0.055138245 0.0665817 0.118788086
00000000: 1850 96bd 4e92 4a3b 1407 91bc 0b2a e4bd
00000010: d761 bc3d fc87 68bd e86f 083d 051c efbd
00000020: 801a f53d 0cae 4b3d 96c0 9b3d eaa8 b43d
00000030: 1fe3 7d3c 4bec d3bd b97f ed3c 95b2 5fbd
00000040: fb4d 04bd 0b71 90bd 54ca 0dbd 6a6e 943d
00000050: 3f2c 853c 4939 b03c a8f2 00ba 0e9f eabd
00000060: b0ef df3c 0c07 7bbc 0c57 f5bd d6a8 a3bd
00000070: 98a7 98bd 3967 33bd 9a0a b03d 32d1 8a3d
00000080: f11e c13d cfd9 083c dcca c1bd 51ed 053c
00000090: 6bbd 4fbd 2bcf 58bd b043 e0bc d4a4 a5bc
000000a0: fb86 b6bd 3597 b03d 5fd0 57bd db9a e53d
000000b0: 7ab8 2a3b 4067 d7bd 6782 d3bd 9a7f 083d
000000c0: 0c2f 52bc 2c01 1a3c 3619 fcbd 7e21 e23d
000000d0: cec9 80bb 34c5 c7bd aab1 ecbc 90b6 81bb
000000e0: a66a c73d 0b91 6cbc c9bb c03c bdb1 053d
000000f0: 6f34 a4bd 87f6 ed3c 78d7 c2bc b295 de3d
00000100: 6ea0 03bd c198 f03c 9be1 4d3d 0760 ea3c
00000110: f297 2fbd da30 c7bd e628 d63c 6dca bfbc
00000120: 33f4 3fbd 0b9d 36bb 90cd ebbd 4ebd f23d
00000130: 056a fcbd 3b02 7a3c 1658 e53d b06b 013e
00000140: 0c46 b6bc 39a4 d33d 6083 963d 728b 52bd
00000150: fcbd 69bd 8ec1 b9bc 3b4a 9cbd a45b 1dbd
00000160: b024 f33d d2fc ee3c 87a7 23bd c9d3 e4bd
00000170: 24d5 e1bc dffd 413d 2995 b5bd 7da7 e2bd
00000180: 5a80 573d c1d0 bdbd eb5a cf3d a314 d0bd
00000190: 2dea f8bc 72f1 92bc f11f 59bc 5f97 47bd
000001a0: c004 6a3d 27c6 863d 9df0 873c 9fed 4abd
000001b0: c4ff f33d 5b1b 893c c98b 8e3d 3322 d23d
000001c0: f5e8 9a3d 9730 8a3d 684b f0bc 284a 3dbd
000001d0: 6124 b73d 0483 3b3d 8583 a6bd c25b ac3d
000001e0: a5b6 003e 18d6 c43c e15e 98bc 4d1b fd3d
000001f0: 259f 973d 3406 ad3d 68e9 153d 3dfa 51bd
00000200: 64d1 783d d216 f6bd 0a8d 00be 6bae 42bc
00000210: 2b96 66bd d7a0 4c3d 935f 57bd 22dd 90bd
00000220: 98ec 89bc 1e8c a43d 8bec 353c 7d7e f6bd
00000230: 229d 4abd 27f9 a73d 1188 f9bc c54c f83d
00000240: fc4d b6bd 7ef8 a93d f4ba efbb 8573 db3d
00000250: 681c 79bd 2bf2 cb3c 3efe 8c3d ae9d b43d
00000260: c1e7 f63d 2f12 0ebd f34d b5bd 2063 03bd
00000270: e498 9abc 244f 9e3d 57aa acbd 3b13 c2bd
00000280: e9a9 d83d 008b 9c3b d0c8 4ebd 2da8 01bd
00000290: 55e5 b13d 0558 4a3d aaba ff3a 6565 f13d
000002a0: 4b6f d83d 6743 d5bd 7e43 cabd c54f 003d
000002b0: 55e5 a43c 74b6 b43d 9aa3 f53c 4a4a e33d
000002c0: fee9 de3d b033 05bc 292d 19bd 1a2c e13d
000002d0: 6a4c 10bd 2d00 1dbd 0b81 95bd 186a 8fbd
000002e0: 4165 9dbd e82c dabc bb31 fbb9 21ac ef3d
000002f0: b7bd 80bd 516e fc3d b0ba 9a3d 8491 343c
00000300: 555c ea3c 50e5 b0bd 2901 d8bb b363 ee3c
00000310: c34a 8bbd d19d 953d e51b 573c b5b3 533c
00000320: ae1c 2fbc 6f63 7fbc 5b7f a03d 6761 23bd
00000330: cfa0 e2bd 3f98 243d 6012 6cbc 7914 febc
00000340: 9343 e63d b20f 6a3d 30ea a13d d3cf c43d
00000350: f5c7 c03d 0931 b63b 47b5 1b3d 3223 183d
00000360: f8d1 b0bd 3509 923d f1ce 183d acdd 833d
00000370: c6cd ddbd 8369 bf3d 33d6 96bd 285c 0a3d
00000380: 5adc 88bd 00a4 4f3d ac9f f23d 3e7d 92bc
00000390: 69a9 a0bc 44f4 a2bd 4085 19bd 4d7a e1bd
000003a0: 96fe 583c 5f5e 823d a5ed 2abd 878d 2f3d
000003b0: c00e 83bd 39b8 e0bc 0be9 d23d 7a11 f5bd
000003c0: 62b2 cb3d 2762 fa3c 1241 bd3d 0e0f 383d
000003d0: 6175 ee3d 9c39 b23d 8df2 b5bc f702 5ebd
000003e0: d72e dbbd 38fb c33d 55c7 403d 6451 2fbd
000003f0: a972 653c a4d8 61bd fd5b 883d 2b47 f33d
