lightning_logs/version_202/checkpoints/epoch=19-step=560.ckpt (torch, 192989 bytes, 48 tensors)

model.encoder.conv1.att_src f4 [1, 4, 64]
000000 7d 86 b9 bd 73 cb 3c be 0d e0 3f 3e f6 2e 25 be
       -0.09058855 -0.18436985 0.18737812 -0.16131195
000010 09 1d 85 3e a4 cc a1 3e ee eb 8d 3e 2d cf 2a be
       0.25998715 0.3160144 0.27719063 -0.16680594
000020 ab aa 34 be 77 ec f7 bc 38 95 8c 3e b6 af 24 3e
       -0.1764323 -0.030264122 0.27457595 0.16082653
000030 15 2e 84 3d 42 2f aa bc 1c 89 bb 3c 57 4c f7 3d
       0.06454102 -0.020774487 0.022892527 0.120751075
000040 2d 35 74 3e 41 7e 84 3e 38 7e 80 be 07 4f 17 3e
       0.2384841 0.25877574 -0.25096297 0.1477624
000050 bd 18 8e be d8 73 8a 3e ba 80 8e bd 40 f0 08 3c
       -0.2775325 0.27041507 -0.069581464 0.008358061
000060 44 03 85 3e e8 e3 b9 3d e6 00 0c be cd 92 7f be
       0.25979054 0.09076673 -0.13672218 -0.24958344
000070 ce 05 41 bd 35 2e 93 3d 5a 5b 89 bd 0d c9 56 3e
       -0.047124676 0.07186548 -0.06706877 0.20975132
000080 cc c7 28 be 5e 38 07 3e 00 7d 96 be c5 a4 7c 3e
       -0.16482466 0.13205096 -0.29392242 0.2467223
000090 fa e2 84 be 77 69 7f 3e 47 17 0e 3d df 6b d8 3d
       -0.2595442 0.24942575 0.034690168 0.1056745
0000a0 f0 37 8f bd ab 8b a5 bd 5e 9a e4 3d 8e e3 a2 bb
       -0.06993091 -0.0808328 0.11162256 -0.0049709743
0000b0 c1 6b a3 3d 0f 9d 70 be 66 22 50 be d1 79 5b be
       0.07979537 -0.23497413 -0.20325622 -0.21433188
0000c0 e8 f8 83 3d c7 28 b3 3d 59 2e 45 be 35 93 08 3e
       0.064439595 0.08748012 -0.19255961 0.13337405
0000d0 54 c0 15 3e e6 3f 8d be 45 78 cb 3d 70 64 14 3e
       0.14624149 -0.27587813 0.09935049 0.14491439
0000e0 ec 10 f0 bd ef c9 40 3d e2 fd 35 be 87 73 3d 3e
       -0.117219776 0.04706758 -0.1777263 0.18501101
0000f0 62 1d dd 3a 82 e3 8e be e5 03 91 bd d9 59 61 3e
       0.0016869719 -0.2790795 -0.07080821 0.2200693
000100 d0 82 76 3e 2c c6 57 3e b7 4a 0e 3e 2e 5d a6 bd
       0.24073339 0.2107169 0.13895689 -0.08123241
000110 05 e9 1c 3e 77 ec c6 bb 59 67 bd bd 99 5e 78 be
       0.15323265 -0.0060706693 -0.092482276 -0.24254836
000120 e4 81 39 be ce 15 10 be 74 c6 96 3e 53 35 52 bd
       -0.18115956 -0.14070818 0.29448283 -0.051320385
000130 dd 32 04 3e eb b3 aa 3d 6c 86 44 bc 51 66 0f be
       0.12910028 0.08335098 -0.011994939 -0.14003874
000140 39 f6 84 be 04 76 29 3d 7c cc 82 be 4a 4b 96 be
       -0.25969103 0.041372314 -0.25546634 -0.29354316
000150 cf 1c 6c bc fd 89 89 be 90 54 03 bd 24 15 30 3e
       -0.014411165 -0.2686309 -0.032063067 0.17195565
000160 d5 2e 4f be f1 7e d7 bd a3 bf 29 be 56 3b a1 bc
       -0.20232709 -0.10522259 -0.1657701 -0.019681614
000170 da 89 c0 bd 70 c5 99 3d 28 d6 86 3e 8d 26 97 3e
       -0.09401293 0.07508361 0.26335263 0.295216
000180 c4 40 03 be 78 2f 8b be e1 44 15 bd 31 90 7c be
       -0.12817675 -0.27184653 -0.03644264 -0.2466438
000190 64 a8 9b 3d 6f 6e f2 3d b6 e0 46 be 58 a5 fe 3d
       0.07600477 0.1183747 -0.19421658 0.124338806
0001a0 93 65 76 3e df ea 07 3e 20 b0 15 be b5 91 51 3e
       0.24062185 0.1327319 -0.14617968 0.20465739
0001b0 8a 44 73 be 93 77 5b 3e f5 41 2b 3e 5f 15 5c be
       -0.23756614 0.21432333 0.1672438 -0.21492527
0001c0 a7 82 3e 3e 09 38 35 be c3 18 f9 bd 75 8d 8a 3e
       0.18604527 -0.17697157 -0.12162926 0.27061048
0001d0 e5 db 8a 3e 44 89 ba 3b 08 2c e0 3d de 34 97 be
       0.2712089 0.005692633 0.10945898 -0.29532522
0001e0 08 02 73 3d 40 cd 19 3e b5 c5 f7 3d 16 4f 25 3d
       0.05932811 0.15019703 0.120982565 0.040358625
0001f0 19 c6 6b 3e 22 3d 57 3e 59 ae 7e be d3 e6 66 3e
       0.23024787 0.21019414 -0.24871196 0.2254899
000200 6d 23 80 be ec df 37 3e 43 e4 93 3c d7 18 08 3e
       -0.25027028 0.17956513 0.01805318 0.13290726
000210 39 12 f7 bd 23 df 3f 3e 70 dd 86 3e 47 11 5a 3d
       -0.120640226 0.18737464 0.26340818 0.053239133
000220 00 71 29 be 50 f9 70 3e 5c 5a 71 bd ba 26 8e be
       -0.16547012 0.23532605 -0.058924064 -0.2776392
000230 74 91 12 be 88 0a b5 bd 52 0e 98 3e bc 52 8b 3e
       -0.14313298 -0.08839899 0.29698426 0.2721156
000240 cf 5b 98 be 9a 26 98 bd 5d 0b 99 3e f0 14 1f 3e
       -0.29757544 -0.07429238 0.29891482 0.15535331
000250 3d 28 77 3d 7b 5a 93 3c 7a f9 75 3d 09 62 75 be
       0.06034111 0.01798748 0.060052373 -0.23963179
000260 a7 e0 6d be a1 54 87 3e 38 1a 44 3d c1 22 86 3e
       -0.2323023 0.26431754 0.047876567 0.2619839
000270 dc b5 2a be dc 0c 4a 3e b9 89 9c bd af 29 29 be
       -0.16670936 0.19731468 -0.07643456 -0.16519807
000280 c6 f6 9f 3e bb 45 1d be cb 8a 88 bd 2f 38 8d be
       0.3124296 -0.15358631 -0.06667098 -0.27581927
000290 98 86 6f 3d 4a 26 56 3e da 2a c0 3d db f2 7f be
       0.058477968 0.20913044 0.09383173 -0.24994986
0002a0 61 8f 73 3d f6 83 03 3d c1 3b 40 be 3c ab c6 bd
       0.05946291 0.03210827 -0.18772794 -0.09700629
0002b0 77 3a 27 bd 53 53 4c bd 59 f3 29 3e 02 88 11 3e
       -0.04082724 -0.04988415 0.16596736 0.14212039
0002c0 be 67 7e 3e 66 44 0e 3c d8 e0 50 be 46 21 20 bd
       0.24844262 0.0086833 -0.20398271 -0.039094232
0002d0 dd 9b 6d 3d cf e4 6a be 6c c7 24 be e5 fd 30 3c
       0.05800997 -0.22938846 -0.16091698 0.010802721
0002e0 40 39 61 3e 50 59 7b 3e 0a 12 1a bd 26 a2 8f bd
       0.21994495 0.24545789 -0.03761486 -0.07013349
0002f0 f2 08 92 bd 45 59 2f 3e ff 50 88 3d 93 61 ed bd
       -0.071306124 0.17123897 0.06656074 -0.115908764
000300 64 66 0b bd d2 2e 06 be 55 de 7a 3e 8c 4b c3 3d
       -0.034033194 -0.13103798 0.24498875 0.09535894
000310 75 10 96 bc 0a 20 34 be 47 d7 86 3e ca 73 8b bc
       -0.018318394 -0.17590347 0.2633612 -0.017022986
000320 69 7c 2d be a8 d6 67 be e6 30 92 3d 6c 35 9c 3d
       -0.1694199 -0.22640479 0.07138233 0.07627377
000330 19 52 81 3d 70 1d 49 be 8e 65 e2 3d 68 5e 9a 3e
       0.06314487 -0.19640136 0.11054526 0.3015015
000340 00 bc 13 be 3b 1d 17 be 24 ec 04 be 97 7a 7c 3e
       -0.14427185 -0.14757244 -0.12980705 0.2465614
000350 6c 6c 89 3e 89 0b c6 3d 78 88 61 be c3 7d 59 be
       0.26840532 0.09670169 -0.22024715 -0.2123938
000360 9f 9f 9b ba e5 bf 8b be a3 e6 22 be 0e 75 24 3e
       -0.0011873132 -0.2729484 -0.15908293 0.16060278
000370 91 4f 95 3d c3 1f 3f 3e 45 f3 8c be e6 34 3c be
       0.07290567 0.1866446 -0.2752935 -0.18379554
000380 38 7d 21 3e bb 46 8c bd df bb 10 be 7c 94 01 3e
       0.15770423 -0.06849428 -0.14134167 0.12654299
000390 7d 2f 5d 3e 39 1b 65 3e 15 f5 57 3d 55 4d b1 bd
       0.21600147 0.22373666 0.052723963 -0.08657328
0003a0 fc 7b 80 be 1c be 26 bd bd 16 86 3e 09 5a 1d 3e
       -0.25094593 -0.040708646 0.26189223 0.15366377
0003b0 65 22 90 be 9a b6 54 3e 14 58 46 be ca 6f 9a 3d
       -0.2815124 0.20772782 -0.19369537 0.07540853
0003c0 86 df 01 be 17 28 52 3e 8b fa dd bc 9e 35 37 be
       -0.12682924 0.20523106 -0.027097007 -0.17891547
0003d0 96 4b 9c bd b0 95 7e bd 8a 20 4b 3e ca f4 70 be
       -0.076316044 -0.062154472 0.19836631 -0.2353088
0003e0 92 34 23 3e 83 76 82 3e 1f 32 74 3e 86 5e 4d be
       0.15938023 0.25481042 0.23847245 -0.20055589
0003f0 70 db 6c 3e 8a d5 80 3e 26 9b 8b 3d 86 2f 8d 3e
       0.23130584 0.25162917 0.068167016 0.2757532

model.encoder.conv1.att_dst f4 [1, 4, 64]
000000 35 44 e0 bd 42 5d 42 3e 08 81 8b 3e 02 a1 8b bc
       -0.109505095 0.18980888 0.2724688 -0.017044548
000010 17 1b 33 be f1 6c 14 be 83 a1 65 3e 26 9b 7e 3e
       -0.17490803 -0.14494683 0.22424893 0.24863872
000020 64 f2 7c 3e 0f 1c a1 bd f1 d0 1c 3e eb ec 6e be
       0.2470184 -0.0786668 0.1531408 -0.23332565
000030 50 2f 2c 3e 43 8a 53 be 6e 40 35 3e 1b 22 79 3e
       0.16814923 -0.20658211 0.17700359 0.24329416
000040 30 e8 a4 3d 39 3a 9e bd bb b6 a1 3e 0e bd f8 bd
       0.08052099 -0.07725949 0.31584725 -0.12145434
000050 0d e7 7e be 24 83 5f 3d 85 9f 2c be f1 ee 70 3e
       -0.24892826 0.054568425 -0.16857727 0.23528649
000060 82 f6 69 3d be 5f 81 be 4e 4e b2 bd 4c 2c f1 bb
       0.057119854 -0.25268358 -0.08706342 -0.007360017
000070 f7 80 83 3d 51 3f 90 3b 87 57 73 3e 65 15 52 be
       0.064210825 0.004402079 0.23763858 -0.20515974
000080 5c 1f b8 3d b1 30 21 3e bf ed 9a 3c ff 96 6d be
       0.08990356 0.1574123 0.018912194 -0.23202132
000090 73 c6 e6 3d 7e 67 90 3d 26 a7 48 be e3 ed a1 be
       0.1126832 0.070509896 -0.19595012 -0.31626806
0000a0 e7 9d 25 3e 87 7d 47 be 34 bd 0b be 5c 20 6d 3c
       0.16173516 -0.19481479 -0.13646394 0.014473047
0000b0 a3 08 3e 3e 39 2d 8d be 00 30 54 bc f6 5e 1e be
       0.18557982 -0.27573565 -0.012950897 -0.15465912
0000c0 e8 2c 82 be 88 25 98 be 11 d2 0e be 39 c5 3a 3e
       -0.25424886 -0.29716134 -0.13947321 0.18239297
0000d0 69 bc fb 3c ae f8 3f 3d 64 b9 c7 bd 56 cd ad bc
       0.03072949 0.04686802 -0.09752157 -0.021216076
0000e0 f6 07 9a 3e b4 b7 92 be 69 dd 17 bd 53 39 2e bc
       0.300842 -0.2865578 -0.037076388 -0.010633784
0000f0 2a ba 86 be 73 99 ac bd db 4a 57 3e 70 1d 13 bd
       -0.26313907 -0.084277056 0.21024649 -0.035916746
000100 c8 68 52 3e 52 5e 6b 3e 4c 69 96 be 57 4f 7a be
       0.20547783 0.22985199 -0.2937721 -0.24444328
000110 96 74 5a 3b c0 df 58 3e 1e 50 1f 3e 58 08 07 3d
       0.003333365 0.21179104 0.15557906 0.03296694
000120 e6 10 88 bc 09 bd e4 3c 60 7c 8d bd 85 48 f6 3d
       -0.01660962 0.02792217 -0.06908488 0.12025551
000130 f4 b1 20 be 6b b2 e3 bc 39 2e ea 3d 6b eb 6e 3e
       -0.15692884 -0.027795037 0.114345975 0.23331992
000140 29 d0 46 3d 37 b8 7d 3e 84 93 f9 3d f4 87 12 3e
       0.04853836 0.24777304 0.121863395 0.14309675
000150 31 cc 1b 3c f9 47 03 3d 78 25 24 be 65 b3 1b 3d
       0.009509132 0.03205106 -0.16029918 0.03801288
000160 02 77 8b bc bc 81 8b be 14 d1 54 bd b2 78 b6 bd
       -0.01702452 -0.27247417 -0.051957205 -0.089097396
000170 fa eb 80 be 8a b9 91 3e c7 3c 31 3e 9a 23 a4 bd
       -0.25180036 0.28461868 0.17308341 -0.08014603
000180 3d 51 be 3b 62 5d 8f be eb f7 93 3e 7d 53 7a be
       0.005808024 -0.28000933 0.28900084 -0.24445911
000190 64 d7 6a 3e 74 81 f7 bc f4 22 f8 3d 95 68 69 3e
       0.22933728 -0.030213095 0.12116042 0.22793801
0001a0 f5 3e 3f 3e fb 31 92 3e dd 87 c2 bd 39 64 13 3e
       0.1867636 0.28553757 -0.0949857 0.143937
0001b0 0b 6f 02 3e 2d f3 ce 3d 2e c3 26 3e 63 39 91 3e
       0.12737672 0.10104976 0.16285393 0.28364095
0001c0 09 5c 59 3c 7c 62 69 3e 34 3b 8e 3e c8 b5 0c 3e
       0.013266572 0.22791475 0.27779543 0.13741219
0001d0 77 9e 1a 3e 20 23 77 bc 7c 8f 3f be b7 b2 e9 bc
       0.15099512 -0.015084058 -0.18707079 -0.0285276
0001e0 6d 77 0a bd ce 47 65 3e 07 29 49 3e 32 bf 30 3e
       -0.0338053 0.22390673 0.19644557 0.17260435
0001f0 86 b6 3c 3c 81 fa 88 bd 95 95 94 be e2 a4 80 bd
       0.011518126 -0.06688405 -0.29020372 -0.06281449
000200 a9 64 77 bc 1b de 22 bc 38 c4 64 be 1a 03 80 be
       -0.015099683 -0.009940649 -0.22340477 -0.25002366
000210 d6 55 10 3e 0f c8 c1 3d 5c 82 65 be 54 f6 b4 3d
       0.14095244 0.09461986 -0.2241301 0.08836046
000220 a8 67 a3 3d 02 9f 43 3e a3 49 bb bd 4a 01 03 be
       0.07978755 0.19103625 -0.091449045 -0.1279346
000230 f5 b7 10 3e af cf 5c be 06 73 53 be eb ca 8c 3e
       0.14132674 -0.215636 -0.20649347 0.27498564
000240 d8 f9 8f 3d ab 29 5d 3e e2 41 42 bd 45 08 eb bc
       0.07030076 0.21597926 -0.047426112 -0.028690467
000250 f9 84 11 3e 05 88 8d 3e 9a 96 a1 3d 75 72 7e be
       0.14210881 0.27642837 0.07890053 -0.2484835
000260 66 2b 94 bd 25 89 37 be f9 ac b7 bb 5c 30 11 3e
       -0.0723484 -0.1792341 -0.0056053367 0.14178604
000270 ce bc 8b 3d 9d c1 98 3d 98 7b 59 be 32 05 89 be
       0.06823121 0.07458804 -0.21238554 -0.26761776
000280 e2 d0 37 be b5 5b 14 3d c5 f3 83 be a4 f2 44 3e
       -0.17950776 0.03622027 -0.2577192 0.19233185
000290 36 d7 60 3e fe 51 7c be 6e 4d 80 be 15 ba 6c 3e
       0.21957096 -0.24640653 -0.25059074 0.2311786
0002a0 0b 2e 36 be c2 55 43 be 87 34 05 bb e5 95 c1 bc
       -0.17791001 -0.19075683 -0.0020325498 -0.023631046
0002b0 3c f0 88 be c3 d4 47 bd cb 8a 55 3b 67 83 86 be
       -0.26745784 -0.04878689 0.0032583948 -0.26272127
0002c0 34 96 1a 3c 92 41 30 3d e2 06 87 3e 65 22 5a bd
       0.009435225 0.043031283 0.2637244 -0.053255457
0002d0 11 58 05 bd 23 0d f3 bd 08 4e b0 3d 72 af 00 3e
       -0.03255469 -0.1186774 0.08608633 0.12566927
0002e0 b0 db a6 bd 7e 9f 50 be 07 85 4d be 50 28 35 3e
       -0.08147371 -0.20373341 -0.20070277 0.17691159
0002f0 67 0c 67 be 13 0a 70 3e 3d 3e 99 be 82 e3 eb bb
       -0.22563325 0.23441343 -0.29930297 -0.007198752
000300 1d df 8a 3e cc 67 f7 3d c6 57 1f be 40 bf 90 3e
       0.27123347 0.120803446 -0.15560827 0.28270912
000310 bc 26 43 3d 38 e8 da 3d eb 0d 49 be 81 b3 15 3e
       0.04764436 0.106888235 -0.19634216 0.14619257
000320 30 de 4b be 6d b9 cc 3d 26 73 44 bb d2 14 9a 3e
       -0.19908977 0.09996305 -0.002997586 0.3009401
000330 8e 84 8e 3e a2 a7 ac 3c d6 41 96 bd b3 03 00 be
       0.27835506 0.021076027 -0.07336776 -0.12501411
000340 46 12 5b 3e 59 c2 61 3e 0a 5d b0 bd 2b 78 2d 3e
       0.2139369 0.22046794 -0.08611496 0.16940372
000350 3f 2a 3a be 30 2a 53 3e d1 28 02 be 31 83 fc bd
       -0.18180178 0.20621562 -0.12710883 -0.1232971
000360 65 54 8c be a4 95 7d 3e 26 ef c6 3c d5 c4 31 bd
       -0.27408138 0.24764115 0.024283957 -0.043400604
000370 8f a7 16 3e cb f8 52 3e 50 16 8e 3e 77 b2 40 bd
       0.14712356 0.2060272 0.27751398 -0.047045197
000380 9d c1 a3 3d fd 76 bc bd 2e bf 9d be 47 a3 5b 3d
       0.07995913 -0.09202383 -0.3080992 0.05362251
000390 4d 4d 82 be a5 6a f6 bc 48 ef 10 3e 6b 8f f8 3c
       -0.254496 -0.030080149 0.14153779 0.030341825
0003a0 b4 8d 9c bd 2c 28 0e be 41 3b 5d bd 66 13 83 be
       -0.07644215 -0.13882512 -0.054011587 -0.25600737
0003b0 0e 30 6b 3e 60 d1 44 be 90 da 4d bc 89 ab 29 bd
       0.2296755 -0.19220495 -0.012564316 -0.041423354
0003c0 a1 6f 14 bd 7a 7f 4f be 04 9f 11 3e 4e 85 0e 3c
       -0.03623927 -0.20263472 0.14220816 0.0086987745
0003d0 e8 75 2e 3e 69 cb 10 3e f6 28 67 be cd fa 5f 3e
       0.17037165 0.14140095 -0.22574219 0.21873017
0003e0 85 df 9b 3e 9c 0f 8a 3e cd f0 bb 3d b7 53 7e 3c
       0.3044397 0.26965034 0.091767885 0.015522889
0003f0 b0 89 e2 3d df 0c 91 3e 98 4e 24 be 95 68 82 bd
       0.11061418 0.28330132 -0.16045606 -0.06367604

model.encoder.conv1.bias f4 [64]
000000 7e 3f 40 bc 58 57 a2 3c d0 71 47 3b cb 3d c2 3c
       -0.011733888 0.01981704 0.0030432828 0.023711106
000010 11 9a a8 3b 23 e3 6c b9 bb e2 91 3c c7 5b bf bb
       0.0051453193 -0.00022591329 0.017808309 -0.005839798
000020 f0 f7 86 ba e5 59 84 bb 32 9a 15 3d 9c 34 96 b9
       -0.001029728 -0.0040390366 0.036524005 -0.00028649427
000030 53 04 41 bc ca 41 24 bc 59 27 76 3c 09 78 77 bb
       -0.011780816 -0.010025451 0.01502403 -0.0037760756
000040 b8 e8 f0 bc 08 84 58 3b 66 a7 84 3c 1b 40 41 3c
       -0.029407844 0.003303768 0.016193103 0.011795069
000050 3c 7b ab 3c fb 06 46 3c a3 f6 0d bd ec 6c 6e 3c
       0.020932786 0.012086625 -0.03465904 0.014552336
000060 6c 75 25 bc 8e 7e 01 3d 94 aa 00 bd 11 75 b3 bc
       -0.010098796 0.031614833 -0.031412676 -0.021906408
000070 03 94 24 bd 19 3e 0f 3c a5 cf b0 3c cd 69 2a bc
       -0.040180217 0.008742833 0.021583388 -0.010401201
000080 78 f0 aa 3c 72 13 f1 bc f6 9f 80 bb 5d ab ca bb
       0.020866618 -0.029428218 -0.003925319 -0.006184979
000090 fa 71 80 3c 28 70 84 3c 2d 71 52 3c b2 cc 12 3c
       0.015679348 0.016166762 0.012844366 0.008959936
0000a0 fc 09 9e bc 10 a2 44 3b 50 b4 f4 3c a7 e2 f4 bb
       -0.01929187 0.0030003823 0.029871136 -0.007473308
0000b0 bc a7 78 bc 66 b5 ad 3c b5 1d d8 3b 2d b8 b4 3c
       -0.01517671 0.021204662 0.006595338 0.022060478
0000c0 20 0e 86 bb cd b7 65 bc 05 25 a7 3c 11 c5 19 3d
       -0.0040910393 -0.014020872 0.020403394 0.037541453
0000d0 cb 32 8f 3b bd b3 e6 3c 1f d4 26 3c cc 91 78 bc
       0.0043700687 0.028161878 0.01018241 -0.015171479
0000e0 2c c0 07 3d 46 07 91 3c 29 a9 0a bc 2b 41 a5 3c
       0.033142254 0.017703664 -0.0084631825 0.020172676
0000f0 7e f9 b9 bb 3b cd 12 bc c1 16 20 3d 20 f3 ef 39
       -0.0056754937 -0.008960064 0.0390842 0.00045766775

model.encoder.conv1.lin.weight f4 [256, 3]
000000 36 db cc bd 71 64 83 bd d8 bb 9d bd e6 cf 40 bd
       -0.10002749 -0.06415642 -0.07701844 -0.047073267
000010 76 e6 91 bd 2e 46 06 bd 9d 1a 03 be 91 16 8e 3d
       -0.07124035 -0.032781772 -0.12803121 0.06937898
000020 a0 b1 8c 3d 57 24 a3 3d b2 d7 c5 bd 14 38 93 bd
       0.06869817 0.07965916 -0.09660281 -0.071884304
000030 8d 22 01 3d 4a 60 ab bd 2e e0 38 bd 7c 57 e0 3d
       0.03152709 -0.08367975 -0.04513567 0.10954186
000040 11 d7 0f be 75 38 66 bd 19 c1 85 3d 7b 1f 29 3c
       -0.14046885 -0.056206185 0.06530971 0.010322447
000050 a7 1b 9b 3d ae 1f 17 be 3b c2 35 bd ce 67 5e bd
       0.07573634 -0.14758179 -0.044374686 -0.054298215
000060 45 56 9b 3d 33 70 59 bd d5 79 af 3c 98 1a 91 bb
       0.07584814 -0.053085517 0.021420399 -0.004428219
000070 5a 97 cf bc f3 4c 18 3d 09 df 95 3c a5 98 e2 3c
       -0.025340725 0.03718276 0.018294828 0.027660677
000080 a3 4c 83 3b 63 22 29 bd 2d e5 06 3e 73 ae 67 3d
       0.0040069385 -0.04129256 0.13173361 0.056562852
000090 8b 1e dc 3d ff 02 8b 3d ee 06 74 3d 73 e8 08 3e
       0.10748013 0.06787681 0.05957692 0.13369922
0000a0 15 74 d3 bd db 74 90 3c 16 83 ca 3d 2f a4 1f be
       -0.10324875 0.017633846 0.09888284 -0.15589975
0000b0 3f 7a b6 3a f0 bd 6f bd 11 d8 aa 3d c7 ed bf bc
       0.001392193 -0.058530748 0.08341993 -0.02342881
0000c0 4c 2a ea 3d f8 b3 fd bb 7d d3 9a 3b dd 5b 70 3d
       0.11433849 -0.007742401 0.0047249184 0.058681358
0000d0 6e 25 24 bb 8d 2f 10 bd 07 d3 d3 3d b4 a6 0e be
       -0.0025046724 -0.035201598 0.10342985 -0.1393078
0000e0 23 8e e3 3d 37 46 85 3c 37 28 03 be f7 2a 47 3d
       0.11111095 0.016268833 -0.1280831 0.04862496
0000f0 21 fa f3 3d b7 56 bd 3d 9b b4 5a bd 87 be ba 3d
       0.11912943 0.09245055 -0.053394895 0.091183715
000100 ae 32 ed bd 22 51 e0 bd b5 2a 16 be 48 df 2c be
       -0.11581932 -0.10952975 -0.14664729 -0.1688205
000110 22 a7 4e bc d6 43 18 3e ad 68 97 bd 67 64 d5 3d
       -0.01261309 0.14869627 -0.07393012 0.10419541
000120 ac 81 b5 bc fe 06 75 3d f3 b3 a9 3d 7e e9 5a bb
       -0.022156559 0.05982112 0.08286276 -0.0033403332
000130 42 73 30 3e f9 e2 02 3e b3 fc a7 3d 3c 6e ea 3b
       0.17231467 0.12781896 0.082024954 0.0071542542
000140 06 c7 f4 3c 3c 69 b2 bd 83 33 82 3d d6 dc 11 bd
       0.029880058 -0.08711478 0.06357481 -0.035610996
000150 c3 0d d7 bd 8f 33 e5 bd 4b 00 db bd cd 03 eb 3c
       -0.10500672 -0.11191475 -0.10693415 0.028688336
000160 fa ba e0 bc 58 0b ef bc bf a8 b5 3d 40 7c c7 3d
       -0.027432907 -0.029180214 0.088700764 0.09740496
000170 3a 52 02 3e 86 92 14 3e 04 11 2e be d0 65 b0 3c
       0.1272668 0.1450902 -0.16998678 0.021532923
000180 b6 3d f7 3d e8 0b ec bb b2 6e a2 3d ab c0 45 bd
       0.12072317 -0.007203568 0.0793127 -0.048279446
000190 0e 2f 8c 3d ff 91 d6 bd 3d 3a 07 be 93 63 1a 3e
       0.068449125 -0.10477065 -0.1320581 0.15077047
0001a0 3f 0d a9 bd 45 3a 16 be 73 51 16 3e 75 c9 5a bd
       -0.082544796 -0.14670666 0.14679508 -0.05341478
0001b0 2f 7d 10 be ef a1 46 3e 35 fe f2 bd b7 96 40 bd
       -0.14110254 0.1939771 -0.118648924 -0.047018733
0001c0 a7 ae a5 3d 4b 6a f6 bd ec 8f d5 3d fe c5 bc 3d
       0.08089953 -0.120319925 0.104278415 0.092174515
0001d0 b5 6a 38 3d 94 58 e6 bd 0e 70 29 3e 51 54 d1 3d
       0.04502364 -0.11247364 0.16546652 0.1022116
0001e0 8b 9a 18 3d 22 e3 e5 bb 92 ec 9e bd 68 37 c6 3d
       0.03725676 -0.0070156017 -0.07759966 0.09678537
0001f0 b6 b6 ad 3d 0e 18 15 3d bf 56 0a 3e de 78 1c 3d
       0.08482115 0.036399893 0.13509654 0.038201205
000200 b1 ab ce bd 39 9c 3a be 0e 9c 24 3e f6 f9 4b 3d
       -0.10091341 -0.18223657 0.16075155 0.04979893
000210 87 0c c9 3d aa 16 39 3c 3b 1a 58 3d 02 ac 50 3d
       0.098168425 0.011296907 0.05275939 0.05094529
000220 7c ca e9 3d e7 7b d8 bd 4e 7b 27 3d c8 5e 25 be
       0.11415574 -0.105705075 0.040889077 -0.16149437
000230 9c b9 83 3c 36 3c 2b 3e 35 f7 78 3c a0 cb 92 bd
       0.016079716 0.16722187 0.0151956575 -0.07167745
000240 e9 9e df 3d 4a cb 92 3c d5 ec dd bd ca 4c 03 be
       0.109189816 0.017919201 -0.10836188 -0.12822261
000250 1c 63 0a bd f0 64 69 3c 07 4e e5 3b c7 bd c5 bd
       -0.033785924 0.014245257 0.006997827 -0.09655338
000260 19 c5 2c 3d c7 41 00 3d 3b 2d 11 3e c0 24 0c 3e
       0.042180154 0.03131273 0.1417741 0.13685894
000270 db 46 63 3d b7 44 43 bd 74 c4 bd bd e2 f2 eb bc
       0.055487495 -0.047672953 -0.09265986 -0.028802339
000280 3f f0 24 bd f6 21 d5 bd 46 c0 f2 bc da b8 94 3d
       -0.04026818 -0.10406868 -0.029632699 0.0726182
000290 34 c9 35 3d 69 46 45 bd 28 9a fc 3d a4 0d 6c bd
       0.044381335 -0.04816285 0.123340905 -0.057630196
0002a0 ea 18 65 3c 60 ee 53 bd d5 51 b5 bd d2 9f 66 3d
       0.013982991 -0.051741004 -0.08853499 0.05630476
0002b0 32 d4 01 3e 52 20 07 3e 6d 84 c3 bd 1d 1b 52 bd
       0.12678602 0.13195923 -0.095467426 -0.05129539
0002c0 e3 a9 e5 3d 1d cd 05 3e a1 b1 23 3e c7 d8 07 3d
       0.11214044 0.13066526 0.15985729 0.03316572
0002d0 a0 a0 d5 3b 25 e9 14 bd 5f eb ad 3d 7c c2 c0 bd
       0.006519392 -0.036355156 0.08492159 -0.09412095
0002e0 2d 94 12 3e a5 de d0 3d 8f ba 7f 3c 2c 2a 54 3e
       0.14314337 0.10198716 0.015608444 0.20719212
0002f0 b1 49 66 3d ad 97 55 3c 92 2d d4 bd 8c 3b 42 bd
       0.05622262 0.013036651 -0.10360254 -0.04742007
000300 b1 76 9b bd 78 48 b5 3b 06 7b ba bb a3 f7 f9 3d
       -0.07590998 0.0055323206 -0.005690935 0.12205436
000310 5f e0 e5 3d 03 8e ce bd be 8a 26 bd 7b 37 fb bd
       0.11224436 -0.1008568 -0.04065966 -0.122664414
000320 50 1a 82 bd 98 86 2e 3e 4f 95 b4 3d 95 3f db bc
       -0.06352675 0.17043531 0.08817541 -0.026763717
000330 d9 10 61 3d 2a eb 2a bc 58 92 d0 3d fd fd 12 3e
       0.054947708 -0.010432044 0.10184163 0.14354701
000340 b3 7f ee 3d cd 7e 1c 3e 13 2c ba 3d f3 c5 de bb
       0.116454504 0.15282746 0.09090438 -0.0067984997
000350 4a 01 c3 bb b3 8c 11 be c0 20 ce 3c 10 c3 98 3d
       -0.0059510814 -0.14213829 0.0251621 0.0745908
000360 cf b7 07 3c 2f fe 13 be 25 f1 2e 3d ba 58 7a 3d
       0.0082835695 -0.14452432 0.042710442 0.061119772
000370 6d 0b 31 be 38 38 e2 bc d2 45 2d 3e 59 db 54 3d
       -0.17289515 -0.027614698 0.16921166 0.051967
000380 e5 0d 96 3d 78 15 bc bd 35 07 c2 bd e8 d5 0c be
       0.07326869 -0.09183782 -0.09474031 -0.13753474
000390 a6 06 ea 3d f5 f5 04 be 40 ca d7 bc a1 e8 4d 3d
       0.11427049 -0.1298445 -0.026341558 0.05027068
0003a0 f0 89 be 3d 4f 97 08 be ff 4a b3 bc cf 66 24 be
       0.09303653 -0.1333897 -0.021886347 -0.16054843
0003b0 09 43 c7 bd 16 08 19 3e 32 5b 4b bd ae 67 6e bd
       -0.09729583 0.14944491 -0.049647518 -0.058204345
0003c0 0e 13 e3 bd 15 d4 93 bc 5f ab 14 3e c0 e2 2d be
       -0.11087619 -0.018045465 0.14518498 -0.1698103
0003d0 74 fa 2c 3e 98 21 10 bc 62 32 3c 3d 30 1b 5e 3a
       0.16892415 -0.008797072 0.045946486 0.0008472679
0003e0 2f e9 1b 3e 62 db a7 bd bb fc 04 3e a0 31 3e bd
       0.15225671 -0.08196141 0.12987034 -0.046434045
0003f0 c5 26 79 3d cd 23 0b be c6 a6 12 be 09 53 20 3e
       0.06082799 -0.13587876 -0.14321432 0.15656675

model.encoder.conv2.att_src f4 [1, 1, 64]
000000 6f 21 90 be 6a ea a4 3e 84 ab 8a 3e cf 6f 49 3e
       -0.28150508 0.32210094 0.2708398 0.19671558
000010 5c 0e 79 be 4c 6f 9e be c1 5d 1f be d7 b9 8e 3d
       -0.24321884 -0.30944288 -0.15563108 0.0696904
000020 af 3c 84 be 24 5a 5f be 08 22 36 3e be a0 41 be
       -0.25827548 -0.2181173 0.1778642 -0.18908975
000030 b5 26 75 3e 2d d9 49 3e 08 25 2f be b0 d8 58 be
       0.23940547 0.19711752 -0.1710397 -0.2117641
000040 8e f8 a7 be a0 46 3f bd 69 bc 05 3e 35 3b b4 bd
       -0.3280682 -0.046698213 0.13060154 -0.08800355
000050 ba c5 dd bd 02 63 80 be 03 00 1a be a2 ce 89 3d
       -0.10828729 -0.25075537 -0.15039067 0.06728865
000060 57 d1 75 3e ff 24 69 3e d5 ba 1b 3e 91 7e 28 3e
       0.24005638 0.22768019 0.1520799 0.16454531
000070 00 4f 1c 3e 5b 26 99 3e 10 2d 9a 3e e6 0f eb bd
       0.15264511 0.29912075 0.30112505 -0.11477642
000080 18 1e 07 be 62 6d a5 be d8 4d fc 3d df 6f 38 bd
       -0.13195074 -0.32310015 0.12319535 -0.045028564
000090 f5 f5 39 be 24 9f 8c 3e 9c 94 95 be 2d f5 64 be
       -0.18160231 0.27465165 -0.29214942 -0.22359152
0000a0 b8 37 85 bc fc cf 2a be 9d 3f c9 bd ec cd 8d bd
       -0.01626192 -0.16680902 -0.098265864 -0.06924042
0000b0 ec 2a 58 be 74 66 b9 be 00 a6 92 be 18 e1 a0 be
       -0.21110123 -0.36210978 -0.28642273 -0.31421733
0000c0 fb c7 2c be 09 47 02 3e 17 62 e6 3d 99 d7 e1 3c
       -0.16873161 0.1272241 0.11249178 0.027568625
0000d0 3f 29 40 be 03 7f 44 3d 2e 83 5c be f0 c4 ee bd
       -0.18765734 0.04797269 -0.21534416 -0.116586566
0000e0 06 ff 66 3d 32 8e c1 3d 93 25 10 be 73 13 aa be
       0.056395553 0.0945095 -0.14076833 -0.33217964
0000f0 fc e7 b9 bd fe 0b 8b bd 4f f9 00 be 5f c7 4a 3d
       -0.09077451 -0.06789397 -0.12595104 0.04950654

model.encoder.conv2.att_dst f4 [1, 1, 64]
000000 9e 43 0b 3e 95 0e 46 bd 19 34 4e 3e e6 e8 91 3e
       0.13600013 -0.04835375 0.20137061 0.28498
000010 50 f0 8c bc a5 51 8e 3e ab 1f 81 3d 0d 3a 0e 3e
       -0.017204434 0.27796665 0.06304868 0.13889332
000020 2b b8 84 be 9e f3 72 3e 17 81 6c be 92 52 27 be
       -0.2592176 0.23725745 -0.23096119 -0.16340092
000030 31 81 94 3e 95 31 80 3b 27 39 7b be 1c 19 80 3e
       0.29004815 0.0039121606 -0.2453352 0.25019157
000040 a3 80 54 3e 5b a2 85 be 70 5a 84 ba a5 b5 80 3e
       0.20752196 -0.2610043 -0.0010097753 0.25138584
000050 a5 aa 99 3e 74 df 4e bd 04 e7 6d be 8d b1 7f be
       0.30013004 -0.05050607 -0.23232657 -0.24970074
000060 63 36 96 3b c0 df 4e 3a 27 cb 99 3e a3 98 ea bd
       0.00458412 0.0007891618 0.30037805 -0.114548944
000070 fe 06 67 3e 39 16 65 bd 6a 7a 64 bd 6d 80 6c 3e
       0.22561261 -0.055929396 -0.055780806 0.23095866
000080 cb 44 81 be 08 84 4c be 91 22 68 be 6e ac 8f 3e
       -0.25247797 -0.19972241 -0.22669436 0.2806124
000090 0b e3 fe 3d 36 a3 95 3e 29 80 80 3d a3 02 96 be
       0.12445649 0.29226083 0.062744446 -0.29298887
0000a0 c6 a7 f8 3d 39 79 ed 3d ac 81 80 be 22 f3 d9 3b
       0.12141375 0.11595387 -0.25098932 0.006651298
0000b0 96 c6 55 3e 31 18 8b 3e 92 29 6c 3e 8e 7f 15 3d
       0.20876536 0.27166894 0.23062733 0.0364986
0000c0 6c c0 3e 3e 5d b1 7d 3e e7 f2 f2 bd 9b 7f d9 bd
       0.1862809 0.2477469 -0.11862736 -0.10620042
0000d0 59 26 bf 3d 59 c7 17 bd a6 6c 90 3d 52 1c a2 3d
       0.09333486 -0.037055347 0.07051973 0.07915558
0000e0 6e eb 44 3e 5e 40 4d 3e 8d d1 24 be 31 18 26 be
       0.19230434 0.20044085 -0.16095562 -0.16220166
0000f0 d0 3a 4e be 59 89 7b 3e e4 54 8f be 15 0d 63 be
       -0.20139623 0.24564113 -0.27994454 -0.22172959

model.encoder.conv2.bias f4 [64]
000000 88 61 82 3b b3 ab f2 ba c1 02 af 3c 4e 9c 8a 3a
       0.003978912 -0.0018514305 0.021363618 0.0010575147
000010 b3 2c cd 3c a4 37 ab 3c b9 0f bf 3c b6 cf f2 3c
       0.025045728 0.020900555 0.023322927 0.02964006
000020 42 47 5e 3a 9b 1d 1f 3d ce d2 6f 3c 3d 2a 96 3b
       0.0008479246 0.038846593 0.014637662 0.004582672
000030 06 83 30 bc 5e 8e 14 3c a2 13 8e 3c e3 ca c3 3c
       -0.010773426 0.009067146 0.017343346 0.023900455
000040 63 2a d6 3c bc 83 40 bb 6c d8 1a 3c 66 69 9f 3c
       0.026143258 -0.0029375395 0.009451013 0.019459438
000050 64 be a6 3c 6b 0d 38 3c 4e b1 06 bc d1 6b f4 3c
       0.020354457 0.011233668 -0.008220984 0.029836567
000060 66 e9 1e 3c 87 24 32 3c 59 0e 3d 3c 2c a9 c7 3c
       0.009699201 0.010872967 0.011539065 0.02437266
000070 60 87 2a bc b3 77 e2 bb 04 29 0d bc 23 8e 55 3c
       -0.0104082525 -0.006911242 -0.008615736 0.013034376
000080 53 1b 0b bc 8e 67 13 3d cc 3e b9 ba 77 8c 31 3c
       -0.008490401 0.03598743 -0.0014133095 0.010836712
000090 bd 99 af 3c 7c 47 d0 3a 2c 5f e3 3c 71 66 9d 3c
       0.021435613 0.0015890445 0.027755342 0.019213887
0000a0 7e 0b 85 3c 02 3d c1 3c 23 51 f6 bb f5 45 b2 3c
       0.016240831 0.023588661 -0.0075169965 0.021761874
0000b0 7b fd 07 3c 31 02 b3 3c 2c 04 64 bc 4e 7d c1 3c
       0.008300181 0.02185163 -0.01391701 0.02361932
0000c0 77 70 83 3c f3 75 29 3b 70 4b cb 3c a1 3c 50 3c
       0.016044838 0.0025857657 0.024816245 0.012709768
0000d0 08 2c 0e 3d 08 bd 44 3c 41 26 c1 ba 63 f3 23 b9
       0.03470996 0.012007959 -0.0014736132 -0.0001563556
0000e0 23 4e 03 3d 57 da 8f 3c 88 dc 28 3c 93 3c 05 3d
       0.03205694 0.017560167 0.010306485 0.03252847
0000f0 b1 11 85 3c 69 27 f5 3c cc b6 dd 3b bb db 0a 3d
       0.016243787 0.029926019 0.006766176 0.033900958

model.encoder.conv2.lin.weight f4 [64, 64]
000000 9b f6 26 3d b2 03 98 bd 1f 6e 4c 3e 65 80 c8 bd
       0.040762525 -0.0742258 0.19963883 -0.09790114
000010 2a c1 95 3d 17 b9 74 be fc 70 b0 bd 7b a5 0d 3e
       0.07312234 -0.23898731 -0.086153 0.13832657
000020 75 e7 05 be d7 73 37 bd 56 58 9d 3d 89 d5 0b 3e
       -0.13076575 -0.044788208 0.07682864 0.13655676
000030 17 11 8a 3c ee 77 c8 bd 25 f2 85 be 34 6b ba bd
       0.016853852 -0.097885 -0.26161304 -0.091024786
000040 4b bd d0 3d 43 8f 02 3e 18 51 1b 3c 18 db 63 bd
       0.10192355 0.12749963 0.0094797835 -0.055628866
000050 26 3b 5b bc 84 53 06 be 35 eb 66 be 6a f0 17 3e
       -0.013380801 -0.13117796 -0.22550662 0.14837804
000060 7d 5f a0 bd bc cc 13 be 26 fa da bb 58 d8 26 3e
       -0.07830713 -0.14433569 -0.006682652 0.16293466
000070 16 39 8f bc b5 15 46 be 86 d9 32 be 1d f7 aa bd
       -0.017483275 -0.19344218 -0.17465791 -0.08347914
000080 7e ab 16 be e2 8f 87 3d 42 96 40 be ad 13 cd bd
       -0.14713857 0.0661924 -0.18807319 -0.100135185
000090 be a8 7a bd 60 ae a5 bd 1b 7e 29 be 18 5f 7e 3e
       -0.06119608 -0.080899 -0.16552012 0.24840963
0000a0 50 b7 99 3c 6b e7 56 be 3c ad d5 3c e2 d0 93 3c
       0.018764168 -0.20986716 0.026083581 0.018043939
0000b0 9a 35 10 be 4f 4b 5b be 2e eb 8b bd b2 82 8f bd
       -0.14082947 -0.21415447 -0.06831966 -0.0700735
0000c0 9b 78 cc 3d c6 19 85 bc e5 e7 5c be ca ec d2 bd
       0.09983941 -0.016247641 -0.21572836 -0.1029907
0000d0 b2 8a 1b 3e 02 55 d1 bc a8 ee ed bc 33 09 0a 3e
       0.15189627 -0.02555323 -0.029044464 0.13480072
0000e0 71 bf 2c 3e 23 5b 29 3d 3b 6e d8 bc 7b 4c d9 bc
       0.16869904 0.04134668 -0.02641975 -0.026525727
0000f0 70 08 a7 bd 8b 70 6a bd 53 b6 72 3d 34 d3 2f be
       -0.08155906 -0.057236236 0.05925591 -0.17170411
000100 ad 7e 22 3e dd a9 66 bd 3c 6e 25 be 48 30 0f be
       0.15868635 -0.056314338 -0.16155332 -0.13983262
000110 b3 94 c7 3d af 9b d0 3d f2 8c 61 3d 1a a7 2a 3d
       0.09745159 0.10185944 0.055066057 0.041663267
000120 2a 57 17 bd 87 d4 7d 3e db 1e 03 3c f6 44 05 3d
       -0.03694836 0.24788104 0.008002962 0.03253647
000130 5d c8 d9 3d 86 68 2e 3e 82 38 09 3d 2a 20 08 3e
       0.106339194 0.1703206 0.033501156 0.1329352
000140 04 57 ee 3c 40 a2 dc bd c1 1f 26 3e e7 ab f3 bd
       0.029094227 -0.10773134 0.1622305 -0.11898022
000150 38 01 d1 3d 1e 49 b2 3d 84 46 22 be f4 58 ea bd
       0.102053106 0.08705352 -0.15847212 -0.11442748
000160 96 56 b8 bc 03 c0 3f bd c8 96 45 3c 27 85 88 bd
       -0.022502225 -0.046813976 0.012059875 -0.06666022
000170 67 c4 1f be 3b 54 d4 bd ce c1 e7 bd f3 39 50 3e
       -0.15602265 -0.10367628 -0.11316262 0.20334606
000180 7c a6 2c bb 28 76 44 3e 84 5a e3 3d e0 28 32 bc
       -0.002634435 0.19185698 0.11101249 -0.010874003
000190 1a af af 3d 2c 99 af 3d 6b 07 54 3e e7 f2 4c be
       0.0857832 0.08574137 0.20705955 -0.20014535
0001a0 d6 d5 6b 3e 48 07 17 3e f0 06 e1 ba f4 fa 42 3d
       0.2303079 0.14748871 -0.0017168205 0.04760261
0001b0 df 76 af bd 10 9b 23 3e b0 b7 93 3c 95 35 da bd
       -0.08567595 0.1597712 0.018031925 -0.10654751
0001c0 83 ad 43 be 49 c3 bd bd e4 89 44 be b0 c2 20 be
       -0.19109158 -0.09265763 -0.19193226 -0.15699267
0001d0 d4 56 54 bc 2a 89 6a be e2 fa 77 bd 75 4b f9 bd
       -0.012960155 -0.22903886 -0.060541995 -0.121725954
0001e0 64 4b 9d 3d 64 b1 41 be e9 55 3c 3e 16 0e a8 3c
       0.07680395 -0.18915325 0.18392147 0.02051453
0001f0 66 e3 6d be 6e 7c 47 be aa f0 00 be f6 33 28 3e
       -0.23231277 -0.1948106 -0.12591806 0.16426072
000200 a0 1e 3e 3e 89 f7 6b 3e a4 41 1a be 55 e0 01 3e
       0.1856637 0.23043646 -0.15064102 0.12683232
000210 e4 49 22 3e e0 84 e9 bc df c7 a9 bd c2 70 26 be
       0.158485 -0.028505743 -0.082900755 -0.16253951
000220 79 00 13 bd 17 36 bb bd c1 55 e0 bd fe e8 fb 3c
       -0.035889123 -0.09141176 -0.10953856 0.030750748
000230 04 a6 4b 3d 64 cd 64 bd e0 69 ba 3d 53 5d da bb
       0.04971887 -0.05585994 0.09102225 -0.006663957
000240 e1 4e 1d 3e 94 be 6d bd 15 20 95 3d 6f 25 50 3e
       0.15362121 -0.058043078 0.0728151 0.2032678
000250 ab a1 43 3e d7 24 39 3e 2a ee 23 be 90 7b 60 3d
       0.1910464 0.1808046 -0.16008821 0.05480534
000260 a6 e9 4c 3d 96 07 1b 3d cd 6c b5 bd 1b 5d 58 be
       0.050027512 0.03784903 -0.08858643 -0.21129267
000270 d5 e6 17 3e 9a ab a7 bd ab a2 3e bd d2 c2 db 3d
       0.14834149 -0.08187027 -0.04654185 0.107305184
000280 bf f3 17 3e 3f c1 bc bd c2 a0 c6 bc f5 af 6a bd
       0.14839076 -0.09216546 -0.024246577 -0.057296712
000290 b7 22 48 be f7 42 30 bd 16 b1 70 bd aa a0 63 be
       -0.19544493 -0.043032613 -0.058762632 -0.22229257
0002a0 4f d0 73 3e 40 81 02 bd c4 4e 87 3d 48 0a ed bd
       0.23809932 -0.031861544 0.0660682 -0.115742266
0002b0 1a 48 cf 3d cc e7 9a bd 78 60 7c 3e 4d a8 f6 3d
       0.10121174 -0.07563743 0.24646175 0.120438196
0002c0 1d 8f 35 be a2 14 d7 bd 69 e6 b5 3c f7 e3 01 3e
       -0.17730375 -0.10501982 0.022204595 0.12684618
0002d0 c1 a3 63 bb a2 fc 7b 3d d2 74 c3 bd 2a a4 68 be
       -0.0034735056 0.061520226 -0.09543766 -0.22718874
0002e0 77 b3 ef 3c 67 fe a3 3b 1e 2e aa 3d 48 36 71 3e
       0.02926038 0.0050046924 0.083095774 0.23555863
0002f0 2c d1 1d be 6c 77 40 bc ab 43 d4 3d e3 74 27 be
       -0.15411824 -0.011747222 0.10364469 -0.16353182
000300 6b e0 fa 3c 4d 5b 93 bd 7d 70 20 bd fa 08 0b be
       0.030624589 -0.071951486 -0.039169777 -0.13577643
000310 3a ca 60 3d 56 63 82 3e 37 6c d9 bb 64 25 20 bd
       0.05488036 0.25466412 -0.0066352147 -0.03909816
000320 cf be 96 bd 7f 33 ee 3d 30 59 f5 3d 39 8d f9 3d
       -0.073606126 0.11630916 0.11979902 0.12185139
000330 2e 48 a7 3d 21 39 50 3e cc 08 12 3e 4a a0 22 be
       0.08168064 0.20334293 0.14261168 -0.15881458
000340 1c 89 b2 bd 9b f9 7b 3c 0e 07 b5 3d fc 8c ad bc
       -0.08717558 0.015379335 0.08839236 -0.02118539
000350 8c b7 cb bc 5a e2 2b 3c 4b e4 3f be 2f 8a 14 3e
       -0.024867795 0.010490978 -0.1873943 0.14505838
000360 97 c5 1f 3e 81 3a fc 3c 19 88 61 be 3b ef f6 3d
       0.15602718 0.030789616 -0.22024573 0.12057348
000370 65 d2 0d 3e ad 8a 06 3e 70 9d 08 be e7 54 62 3e
       0.1384979 0.13138838 -0.13341308 0.221027
000380 90 da a2 bd b5 f7 80 3d 7c 81 6e bb e9 ff 1b be
       -0.07951844 0.06297246 -0.0036393097 -0.1523434
000390 2b fd 32 bd 2e 4e 43 3e 2a 33 ac bc 83 fe 0e be
       -0.04369847 0.19072792 -0.02102049 -0.13964276
0003a0 33 a1 76 bd 73 e8 c8 bd 61 b0 80 bd 6e e4 f2 3c
       -0.060212325 -0.09809961 -0.062836416 0.02964994
0003b0 c4 ec c2 3d 01 6b 94 3c 17 b1 59 3e 00 18 ca bd
       0.09517816 0.01811743 0.2125896 -0.09867859
0003c0 09 23 03 be 2d 1a 16 be 45 0d 29 3e 80 ee 3e 3e
       -0.12806334 -0.14658423 0.16508968 0.18645668
0003d0 85 ab 28 3e ec 89 cb 3d d1 87 3e bd 61 a0 24 be
       0.1647168 0.09938416 -0.046516243 -0.16076805
0003e0 66 b4 93 3d 4e 04 04 be 35 43 e6 3a 1f 4e f1 3d
       0.07212143 -0.12892267 0.0017567637 0.117824785
0003f0 1f 49 1a 3e b2 d7 f5 3c 59 e8 77 bd ee d0 95 bd
       0.15066956 0.030010078 -0.06052432 -0.07315241

model.pooling_fn.gate_nn.0.weight f4 [64, 64]
000000 cd 5c 52 bc c9 04 74 3d a3 95 33 3e 2c 88 33 3e
       -0.012839508 0.059574876 0.1753755 0.17532414
000010 c6 4d 06 3b 19 08 15 be 0b e0 bc 3c 08 4d 15 be
       0.0020493134 -0.1455387 0.02305605 -0.14580166
000020 76 53 32 3d a0 82 3c 3e 57 ba 47 3d 37 63 3e 3e
       0.043536626 0.18409204 0.048761692 0.18592535
000030 09 02 52 3d 57 29 2f 3d 21 48 30 bd 35 41 0c 3e
       0.051271472 0.042764034 -0.043037537 0.1369675
000040 e0 ac 10 3d e7 97 2a 3d 07 83 2c 3e d1 4e a8 bd
       0.035321116 0.04164877 0.16846858 -0.08218158
000050 ae 2a 55 bc ac 4f a6 bc 00 ed 93 3d 56 fe 0e be
       -0.013010664 -0.020301662 0.072229385 -0.13964209
000060 b2 3c 9c 3d 68 86 08 3d 2f bf a6 3d 15 a5 94 bd
       0.07628764 0.033331305 0.08141934 -0.072580494
000070 46 e8 3b 3c 4a 74 14 3e 88 d3 70 3d 39 d3 48 3d
       0.0114689525 0.14497486 0.058795482 0.049029563
000080 af 38 65 3d d7 36 46 3d 39 c0 cb 3d 9d 19 03 3e
       0.05596226 0.048392143 0.09948773 0.1280274
000090 b2 93 42 bd d6 82 9f 3d b1 b7 b8 bc 5f 90 04 bc
       -0.047504134 0.07788627 -0.022548528 -0.008091061
0000a0 c4 1b 12 bd eb 7a 33 bb af 30 19 bd 13 21 37 bd
       -0.03567101 -0.0027386497 -0.037399944 -0.044709276
0000b0 c9 64 77 bd b0 55 52 3d 8c c5 69 bd 47 5f 2c 3d
       -0.06039885 0.05135125 -0.05707316 0.04208305
0000c0 73 1a e2 3d 53 ec 37 bd 6a c9 4e bd 49 25 f6 bb
       0.11040201 -0.04490311 -0.050485052 -0.007511769
0000d0 b0 f2 f1 3d 67 ad 2b 3e 96 f2 2c be 7b 7d 52 bd
       0.11813867 0.16765366 -0.16889414 -0.0513892
0000e0 96 7d cc 3d 63 e2 4a bd 26 d9 cb bd aa 8f a1 bd
       0.09984891 -0.049532305 -0.09953527 -0.0788873
0000f0 e4 d9 38 bd 25 dd a5 3b aa 63 c0 3b c5 24 c3 3c
       -0.04512967 0.005061763 0.005871256 0.023821244
000100 5f e2 35 3c e2 21 ae 3c ad ae 0b bd 09 ab 46 3c
       0.011101334 0.021256391 -0.03410213 0.012125739
000110 ff 51 80 bd 60 59 ed 3d c9 8d 82 bd fd 7a 79 3d
       -0.062656395 0.115893126 -0.063746996 0.060908306
000120 eb c9 28 bd 9f a5 a9 bd 67 97 26 bd 40 81 b9 bd
       -0.04120819 -0.08283543 -0.040671732 -0.090578556
000130 4d e8 c7 bd 92 25 02 be 7b 8e f5 3c 5f 49 05 3c
       -0.09761105 -0.12709644 0.029975167 0.008135169
000140 71 31 d4 3d 65 48 aa bd ab 71 8d 3c 40 f3 25 bc
       0.10360993 -0.083145894 0.017266115 -0.010128796
000150 62 be c4 3d cb 5c c1 3d 30 4c 11 be e7 92 d1 3d
       0.09606625 0.09441527 -0.1418922 0.102330975
000160 75 21 48 bd 8c 10 4a bd 6c 45 42 bd c3 2e ee 3d
       -0.048860032 -0.049332187 -0.047429487 0.11630013
000170 60 c9 88 3c 02 09 87 bd 26 c6 44 3d 6f 05 bc 3c
       0.016697586 -0.06593515 0.04804053 0.02295181
000180 21 51 a5 bb 84 ee 3e bd 41 10 25 ba df 82 22 3e
       -0.0050450717 -0.046614185 -0.00062966725 0.15870236
000190 29 42 c6 bc e3 0d 6f 3d 09 ab c0 bd d5 a1 08 3e
       -0.02420147 0.058362853 -0.09407622 0.13342984
0001a0 41 55 b2 bd 7e 66 ef 3c b9 18 a8 bd 34 73 d5 3d
       -0.08707667 0.029223677 -0.082078405 0.10422364
0001b0 3f 93 21 bc c7 44 81 3c ac d5 1a bd 9d dd b3 bd
       -0.009861766 0.015779866 -0.03780143 -0.08782504
0001c0 cf b9 6c 3d b7 ff e4 3d 69 ce b9 3d fc f9 ad bc
       0.05779439 0.11181586 0.09072573 -0.021237366
0001d0 1f 2b 8e bd 03 c0 9f bd 53 87 12 3e 3d ad cc bd
       -0.069418184 -0.07800295 0.14309435 -0.0999398
0001e0 01 12 ae bd ef ba f0 bd 63 03 0a 3e be 77 8a bc
       -0.08499528 -0.11754405 0.13477854 -0.0169028
0001f0 14 12 77 bd 3b 1a 2e 3d 1e b2 8c 3d 90 f5 85 bd
       -0.060319975 0.042505484 0.06869911 -0.06540978
000200 c5 40 96 bd e5 8b 0c be 69 b0 1e bc 68 70 9e bc
       -0.073365726 -0.1372524 -0.009685614 -0.019340709
000210 2d bf 77 3c 31 a6 11 3d dc ff cf 3c c3 c5 27 bd
       0.015121263 0.035558883 0.025390558 -0.040960085
000220 02 c3 88 bd f8 aa 10 be 6d ec 86 bd cb 55 06 be
       -0.0667782 -0.1412772 -0.065880634 -0.13118665
000230 3b 07 ea bd 21 8b 0e be b6 7d c2 bd f0 e4 9a bd
       -0.1142716 -0.13920261 -0.09496634 -0.075631976
000240 bb a9 bf 3d 39 63 61 bd 3a ad d7 bd bb 61 22 bd
       0.093585454 -0.055026267 -0.10531087 -0.039643984
000250 bc ea 51 bd 1d 1f 43 3e 40 6c a8 bd 86 3d b9 3d
       -0.05124925 0.19054838 -0.08223772 0.09044938
000260 c6 7b ae bd b0 72 96 bd 25 2b b1 3c b0 3a c8 3d
       -0.08519702 -0.07346094 0.021627018 0.09776819
000270 37 8c 22 bb 32 9e cc 3c fe 6d 1e 3d d2 d4 8b bd
       -0.0024802813 0.024977777 0.038679115 -0.06827702
000280 63 d2 a8 3c 6f 48 5e bd 84 f2 98 bd d3 7a a7 3d
       0.020608133 -0.054268297 -0.07468131 0.08177724
000290 4a ed cd 3d 8e f2 e3 bd c6 60 99 bd d1 21 ce 3d
       0.10055025 -0.11130248 -0.07489161 0.10065044
0002a0 85 e5 fd bd e5 f6 cd 3d 5b bc 22 be bc 38 31 3e
       -0.12397293 0.10056857 -0.15892164 0.17306799
0002b0 7a 6a b3 3d ca b2 b9 bc ce 69 db bd cf aa 7b 3d
       0.08760543 -0.022668261 -0.1071354 0.061442193
0002c0 e8 3a 5b bd 7d 69 a5 bc 53 f9 08 3d 44 0a 04 3d
       -0.053522974 -0.020191902 0.0334409 0.032236353
0002d0 2d f2 89 bc c0 7f b3 bc 55 03 37 3e 64 6f b6 bd
       -0.016839111 -0.021911502 0.17872365 -0.08907965
0002e0 f0 64 01 be 20 9b a1 3d 32 c0 32 3e ba 30 04 bd
       -0.12636161 0.07890916 0.17456129 -0.03227303
0002f0 cf 21 00 3c 58 cf 85 bd 15 77 1f 3d 84 06 88 3b
       0.007820561 -0.06533688 0.038931925 0.0041511673
000300 34 24 a3 bd b4 16 65 bd 04 82 22 3d d4 2f 7c 3d
       -0.079658896 -0.055929855 0.039674774 0.06156905
000310 7a ab 80 3d 96 2e 90 3d 86 d7 f3 bd b4 91 b6 bd
       0.062827066 0.070401356 -0.11906342 -0.089145094
000320 44 26 13 3d 40 f6 f2 bd e8 9e c1 3c 7a 33 8d 3d
       0.035925165 -0.11863375 0.023635343 0.06894584
000330 28 86 7a 3d 86 11 c1 3d f0 36 3f bc b8 91 f3 3c
       0.061163098 0.094271705 -0.011670813 0.02973257
000340 4a 53 84 bd 34 53 17 3d 80 66 76 bc 34 28 35 3d
       -0.06461199 0.036944583 -0.015039086 0.044227794
000350 50 b3 94 3c 40 5a 4e 3c 60 ea 1c 3c 00 6f 73 bd
       0.01815191 0.012594759 0.009577364 -0.05943203
000360 9a 2d f0 3d f0 05 f5 bc c8 98 a4 bc 1e 07 e3 bd
       0.11727448 -0.029910058 -0.020092383 -0.11085342
000370 90 2b a8 bc b4 87 15 bd 40 25 ce bc c4 88 f5 bd
       -0.020528585 -0.03650637 -0.025164247 -0.119889766
000380 a4 8e c2 bd e8 e9 f7 3c ce a5 fd 3d a6 21 fc bd
       -0.09499863 0.030262902 0.1238514 -0.123111054
000390 48 42 f6 3d 6c 7e c8 bd b4 e7 25 3d 64 c5 03 3d
       0.12024361 -0.09789738 0.040504172 0.03217067
0003a0 a4 dc 2b bd 16 50 9b 3d ee 57 8b 3d 38 c5 a2 3c
       -0.041958466 0.075836346 0.06803881 0.019869432
0003b0 fa 5d b5 bd 3e d2 bc 3d 70 73 68 bc e0 fb 99 bd
       -0.08855815 0.09219788 -0.014187679 -0.075187445
0003c0 f6 84 dc 3d ac db 6f 3d 9a 03 c6 3d 68 71 ca bd
       0.10767548 0.058559105 0.09668656 -0.09884912
0003d0 c0 bd f9 bd e8 f8 c3 bc c0 17 d9 bc 98 27 b8 3d
       -0.12194395 -0.023922399 -0.026500583 0.08991927
0003e0 44 84 03 3d 38 85 c7 3d 28 1f de bd 18 20 ba bd
       0.03210856 0.09742206 -0.10845786 -0.09088153
0003f0 88 1d 94 bd 22 ae f1 3d 68 df d2 bc 60 f5 b9 3d
       -0.07232195 0.11800791 -0.025741294 0.09080005

model.pooling_fn.gate_nn.0.bias f4 [64]
000000 27 13 64 3d a2 8f b8 3d 0e 21 25 3e 8a 5b e1 bd
       0.055682328 0.09011771 0.1612589 -0.11003788
000010 f2 25 c4 bd 8c 91 de bd 8f bd f7 3d c4 df 8a bd
       -0.0957755 -0.108676046 0.12096702 -0.06780961
000020 30 a8 73 3d 0a 16 fa bd ce d8 95 bd 02 9d e1 bd
       0.059486568 -0.12211235 -0.07316743 -0.11016275
000030 50 62 69 bd 11 a8 0f 3e d2 9f 2e 3e c4 a2 6b bd
       -0.056978524 0.14028956 0.17053154 -0.057528272
000040 8a 6a af 3d b5 7f b5 3d cf f2 31 3e 31 93 09 bd
       0.085652426 0.08862249 0.1737778 -0.03358764
000050 05 09 b0 3d 96 55 b3 bd ab 08 0e 3e bc b1 8a bd
       0.0859547 -0.087565586 0.13870494 -0.067721814
000060 b6 96 3f bb 67 e1 b9 3d 90 c5 fc bd fc e2 92 3d
       -0.0029234118 0.09076195 -0.123423696 0.071722
000070 3d 65 28 3e 0b 50 21 3d cd d2 86 bd 78 7a b8 3d
       0.1644487 0.039382976 -0.06583176 0.09007734
000080 08 22 07 bd f6 49 42 3d 16 6c f1 bd f2 78 81 bd
       -0.03299144 0.047433816 -0.11788194 -0.063218966
000090 fb 8a 0c 3e 30 42 ea 3d c7 23 18 3e 3e 2f f7 bd
       0.13724892 0.114384055 0.14857398 -0.120695576
0000a0 84 34 ab bc d8 99 99 bd 42 22 23 3c 5f de 2e 3d
       -0.020899065 -0.075000465 0.009956898 0.04269254
0000b0 88 da 21 3e 00 fb 68 bd 88 8b 1e bd 80 c2 c8 3a
       0.1580602 -0.056879997 -0.038707286 0.0015316755
0000c0 5c 57 38 3c 9c d2 fa 3c 80 44 df 3d 40 eb dd bc
       0.011251297 0.030618005 0.10901737 -0.027089715
0000d0 8c 9c b3 bd f0 7c d9 bd a4 c8 3f 3d c2 86 e1 bd
       -0.08770093 -0.10619533 0.046822205 -0.11012031
0000e0 89 04 d0 3d 5b dc c7 3d e3 48 ae 3d 68 d2 07 bd
       0.10157115 0.09758826 0.08509996 -0.033159643
0000f0 73 a6 c2 3d 0c 26 0b bd 9a 48 25 3e 57 68 c3 3d
       0.09504404 -0.03397183 0.16140977 0.095413856

model.pooling_fn.gate_nn.2.weight f4 [1, 64]
000000 93 d2 0a 3e cb 35 79 bd a9 12 14 be 2e 98 ad 3d
       0.1355689 -0.060842317 -0.14460243 0.084762916
000010 97 78 e5 3d f0 4f c7 3c cd 3c d1 bd 78 db 07 bd
       0.11204641 0.02433011 -0.10216675 -0.033168286
000020 a4 de 0c be a0 fe ca 3c ee 95 d5 3d 90 e0 54 bd
       -0.13756806 0.024779618 0.104289874 -0.051971972
000030 1a b7 b7 bd bf 09 48 be 37 75 03 be d0 df 36 bd
       -0.08970471 -0.19534968 -0.12837683 -0.044647038
000040 4e ee 92 3d ac 6b 35 3e d8 b5 44 be 46 39 85 bd
       0.07174359 0.17716855 -0.19209993 -0.06505065
000050 46 6f 35 be 0e 39 06 3e 0e 42 6b bd c6 35 cd 3d
       -0.17718229 0.13107702 -0.05743604 0.10020022
000060 c3 68 1e bd d0 fb d6 3d 80 4c 53 3d 21 ef 9f 3d
       -0.038674127 0.10497248 0.051586628 0.07809282
000070 97 df 39 be b3 b4 f9 3d e9 52 f4 3d 42 a6 1f be
       -0.18151699 0.12192669 0.11929876 -0.15590766
000080 5d f9 ba 3d 06 a5 bb 3d 28 90 2a 3d f8 24 72 3d
       0.091295935 0.09162335 0.041641384 0.059117287
000090 02 08 10 be 06 8b 83 bd 9b 3e 08 be cc cf 1c 3d
       -0.14065555 -0.06423001 -0.13305132 0.038284108
0000a0 82 a7 8d 3d 70 6a f2 3c c9 2b 23 3e 95 ec 2e be
       0.06916715 0.029591769 0.15934671 -0.17082436
0000b0 3f 27 16 be e0 f2 92 3c 40 f8 34 3d c6 90 ae bd
       -0.14663409 0.017938077 0.044182062 -0.08523707
0000c0 9f eb a9 3d 3c 89 e1 3d 43 b2 19 3e c0 7d 88 3d
       0.08296894 0.110125035 0.15009408 0.0666461
0000d0 50 46 52 bc 80 15 05 bd 07 97 3a 3e 70 db 6c bd
       -0.012834147 -0.032491207 0.18221675 -0.05782646
0000e0 94 40 ae bd ad 8c 9f 3d 5c bb 16 be 7c e7 c5 bd
       -0.08508411 0.07790504 -0.1471991 -0.09663293
0000f0 19 f3 b8 3d f4 e3 09 3d b0 a2 d9 bd 9a af 71 3d
       0.09030742 0.03366466 -0.10626733 0.059005357
