lightning_logs/version_92/checkpoints/epoch=19-step=300.ckpt (torch, 154611 bytes, 58 tensors)

model.encoder.conv1.att_src f4 [1, 4, 64]
0	0xbe4dd36d	-0.20100184
1	0xbd738e67	-0.059461977
2	0x3df54d1c	0.11977598
3	0x3caf1ac2	0.021375064
4	0x3c561298	0.0130659565
5	0x3e68b45a	0.22725049
6	0x3eaf0b77	0.34188434
7	0xbdcbcdc2	-0.099513546
8	0x3d4597cc	0.048240468
9	0x3e66cc9d	0.22538991
10	0xbeab9914	-0.33515227
11	0xbe766f87	-0.24065982
12	0xbd5de834	-0.054176524
13	0xbcc2b575	-0.023768166
14	0x3e265fa3	0.1624742
15	0xbc9a9f69	-0.01887484
16	0xbe91941d	-0.28433314
17	0xbda13d0e	-0.078729734
18	0x3e54447b	0.20729248
19	0x3e8f728d	0.28017083
20	0xbc7b4100	-0.015335321
21	0xbdae0ef8	-0.08498949
22	0xbd5cb8ff	-0.053887364
23	0xbe6b95df	-0.2300639
24	0x3e7181d1	0.23584677
25	0x3e8d5293	0.27602062
26	0x3ec124bf	0.37723348
27	0x3e1ce657	0.15322243
28	0xbdc280b5	-0.09497205
29	0xbd880119	-0.06640834
30	0xbe9e0e58	-0.30870318
31	0x3d7367af	0.059425052
32	0x3e5586aa	0.20852152
33	0x3dc87a70	0.09788978
34	0xbe1c0403	-0.15235905
35	0x3cb8b137	0.02254544
36	0x3d6bc122	0.057557233
37	0xbd7583cd	-0.05994015
38	0x3dec0ca8	0.115258515
39	0xbe9e57c5	-0.30926338
40	0xbe4e8ea2	-0.20171598
41	0xbe5c0a2c	-0.21488255
42	0xbec7a1b6	-0.38990563
43	0xbe14a25e	-0.14515063
44	0xbce72220	-0.028214514
45	0x3dd5385d	0.10411141
46	0xbeb629cb	-0.3557876
47	0x3e41323f	0.18866824
48	0xbe810281	-0.25197223
49	0xbe479262	-0.19489434
50	0x3e0b4553	0.13600664
51	0x3dfa6b36	0.1222748
52	0xbea5031c	-0.32228935
53	0xbe39ed33	-0.1815689
54	0x3e21d84b	0.15805165
55	0xbe4732d9	-0.1945299
56	0xbdd3630d	-0.10321627
57	0xbe5e9448	-0.21736252
58	0xbe3221b0	-0.17395663
59	0xbbc6e89d	-0.00607021
60	0xbeb4084a	-0.35162574
61	0xbe7c5041	-0.2463999
62	0xbde643be	-0.112433895
63	0x3e2f385f	0.17111348
64	0xbe7eee64	-0.24895626
65	0xbe8ed1a3	-0.27894315
66	0x3e6b3927	0.2297102
67	0x3ddc5d3b	0.1075997
68	0xbe556a05	-0.20841224
69	0x3da64592	0.08118738
70	0x3c4957ab	0.012288968
71	0x3d57073b	0.05249713
72	0xbe259de9	-0.16173519
73	0xbe986e66	-0.29771727
74	0xbe789adc	-0.24277824
75	0x3e3579ed	0.17722292
76	0xbe7d48e0	-0.24734831
77	0x3cecfce1	0.028929176
78	0xbe764f60	-0.24053717
79	0x3cf955f4	0.030436493
80	0xbe949d5d	-0.2902631
81	0x3d8f40d9	0.069947906
82	0xbe420a28	-0.18949187
83	0xbe9efbe0	-0.3105154
84	0x3ea883c7	0.32913038
85	0xbe26b73b	-0.16280834
86	0xbeaa19a5	-0.3322269
87	0xbd64e2a0	-0.05588019
88	0x3e926e9c	0.28600013
89	0xbe697661	-0.22799064
90	0x3e2088d8	0.15677202
91	0x3e737b54	0.23777515
92	0x3d982565	0.074290074
93	0x3ca27795	0.019832412
94	0xbe6e9f81	-0.23303033
95	0xbe82bc7b	-0.25534424
96	0x3d836101	0.064149864
97	0x3d56355d	0.052296985
98	0xbdad330a	-0.084570006
99	0xbdfdf37c	-0.123999566
100	0xbe893ec9	-0.26805714
101	0x3e888bec	0.26669252
102	0xbdfae790	-0.12251198
103	0xbdcd602c	-0.10028109
104	0xbde36bf5	-0.111045755
105	0x3e273f45	0.16332729
106	0xbdc238c7	-0.09483486
107	0xbe585189	-0.21124853
108	0xbdcf7a60	-0.10130763
109	0xbe384202	-0.1799393
110	0x3e0526c5	0.1300307
111	0xbe129867	-0.1431595
112	0x3d5c4663	0.053778064
113	0x3d47fa07	0.04882243
114	0x3e1b6551	0.15175368
115	0xbce18dd3	-0.027533447
116	0x3d15a31c	0.036532506
117	0x3de5002a	0.11181672
118	0xbe1000e8	-0.14062846
119	0x3c95aae9	0.018269973
120	0xbd1aae61	-0.037763957
121	0xbe7e5ef1	-0.24840905
122	0x3cb81bf7	0.022474272
123	0xbe9ae412	-0.3025213
124	0x3e8dafc5	0.27673164
125	0x3e41d30d	0.18928166
126	0xbdbcd397	-0.09220045
127	0x3d434537	0.04767343
128	0xbe14d502	-0.14534381
129	0x3e879754	0.26482642
130	0x3e73baa9	0.23801674
131	0xbde75fb3	-0.1129755
132	0x3e4b1293	0.19831304
133	0x3d3f5508	0.04671195
134	0x3e360c5b	0.1777815
135	0xbe8e81e6	-0.2783348
136	0xbeaca002	-0.33715826
137	0x3e775cae	0.24156448
138	0xbe5a9175	-0.2134455
139	0x3e363e08	0.177971
140	0xbe9bdc0f	-0.3044133
141	0x3e43bb53	0.19114427
142	0xbb3592d2	-0.002770592
143	0x3e0e1f91	0.13879229
144	0x3e221ee1	0.15832092
145	0xbcc3975c	-0.023875885
146	0x3e8d8af9	0.2764509
147	0xbe5c5d77	-0.21520029
148	0x3c8e6a5a	0.017384697
149	0x3e5c2f3e	0.21502396
150	0xbd792f4c	-0.06083612
151	0x3dd3d669	0.1034363
152	0xbcc52da4	-0.024069615
153	0xbe894d4a	-0.2681678
154	0xbe4fb565	-0.2028404
155	0x3e89114a	0.26771003
156	0xbc3ec8ee	-0.011644585
157	0xbe92940b	-0.28628573
158	0x3e4ebf72	0.20190218
159	0xbd98f80d	-0.07469187
160	0x3e910d07	0.28330252
161	0xbe56d791	-0.2098067
162	0xbd26aa50	-0.040689766
163	0xbdde00d3	-0.10840001
164	0xbe12abb6	-0.14323315
165	0xbdd325ae	-0.10309921
166	0x3e90e6ac	0.2830099
167	0xbe720b23	-0.23637061
168	0x3c9a8c6d	0.018865788
169	0xbe4df942	-0.20114616
170	0x3d106286	0.03525021
171	0xbe6de81b	-0.23233072
172	0xbdae488e	-0.085099325
173	0xbea3b7fc	-0.31976306
174	0x3e21d7cd	0.15804978
175	0x3da62f5d	0.081145026
176	0x3e878eb6	0.26476067
177	0x3e4f905f	0.20269917
178	0xbdd295f5	-0.10282508
179	0x3d1be941	0.038064245
180	0xbcc730b1	-0.02431521
181	0x3e7cc57e	0.24684712
182	0x3e94b9b9	0.29047945
183	0xbe8b9bf9	-0.27267435
184	0xbcf9c9e9	-0.030491786
185	0x3e38290e	0.17984411
186	0x3d93c530	0.07215345
187	0x3c2e2b5d	0.010630456
188	0x3da42463	0.08014753
189	0xbe718fb4	-0.23589975
190	0x3e1a7d55	0.15086873
191	0xbea75f49	-0.32689884
192	0x3e5a9624	0.21346337
193	0xbe350adf	-0.17679928
194	0xbe2fad27	-0.17155896
195	0x3e2c41b9	0.16821946
196	0xbe6e308d	-0.23260708
197	0xbd948ada	-0.07253046
198	0xbd8b7d3f	-0.06810998
199	0xbe204583	-0.15651517
200	0x3da7fa1c	0.082020015
201	0x3dfba50f	0.12287342
202	0xbe790983	-0.24320035
203	0xbe6e2e58	-0.23259866
204	0x3c3b79a4	0.011442576
205	0x3e58386d	0.21115275
206	0xbe29527f	-0.16535376
207	0xbd8b6dfb	-0.068080865
208	0x3e6660c5	0.22497852
209	0xbe3efd55	-0.18651326
210	0x3d3a9217	0.04554948
211	0x3e653bd8	0.2238611
212	0x3dee426a	0.11633761
213	0x3da219ba	0.07915063
214	0x3db68de7	0.089137845
215	0x3de49816	0.111618206
216	0x3e966952	0.29377228
217	0xbe9e24ca	-0.30887443
218	0x3e83c688	0.25737405
219	0xbe067179	-0.13129224
220	0xbd829941	-0.06376887
221	0xbe78a8e4	-0.24283177
222	0xbc83bc97	-0.016081138
223	0xbe4ee541	-0.20204641
224	0xbc32d4b6	-0.010914972
225	0xbe80cb88	-0.25155282
226	0xbe5a4aeb	-0.21317641
227	0xbda469f8	-0.080280244
228	0xbd4f4031	-0.050598327
229	0xbe6739e4	-0.22580677
230	0xbe23e3da	-0.16004887
231	0x3c140391	0.009034053
232	0xbce31431	-0.027719589
233	0xbe776db0	-0.24162936
234	0xbe8d2862	-0.27569872
235	0x3e6628bc	0.22476476
236	0xbb94df3e	-0.004543214
237	0xbd9e7722	-0.077375665
238	0x3e780e27	0.24224149
239	0xbe253e9d	-0.16137166
240	0x3df22ea6	0.11825304
241	0x3d223e8c	0.03961043
242	0xbe876ea4	-0.264516
243	0x3e7ce55b	0.24696867
244	0xbdb9e07b	-0.090760194
245	0xbd3e75cd	-0.046499062
246	0xbe415f11	-0.18883921
247	0xbce6f859	-0.028194593
248	0xbdda8254	-0.10669389
249	0xbcc70f43	-0.02429927
250	0xbdcf0a9a	-0.10109444
251	0x3e81a196	0.25318593
252	0x3c8f393b	0.017483344
253	0x3dabf151	0.08395637
254	0xbdb05e0c	-0.08611688
255	0xbdea3c1b	-0.114372455

model.encoder.conv1.att_dst f4 [1, 4, 64]
0	0xbea201e6	-0.31642073
1	0x3e22470c	0.15847415
2	0xbd8621ec	-0.06549439
3	0xbda2fc82	-0.07958318
4	0x3e222ced	0.1583745
5	0x3b27845d	0.0025561072
6	0xbe824a3d	-0.25447264
7	0xbea54c00	-0.32284546
8	0xbeb9a762	-0.36260515
9	0x3dcda05f	0.10040354
10	0x3e6fd0b7	0.23419462
11	0x3e91f852	0.28509766
12	0xbca70cf6	-0.020391922
13	0xbdf9d2c6	-0.12198405
14	0xbe460dd5	-0.19341214
15	0x3e3e5cbd	0.18590064
16	0x3e995b61	0.2995253
17	0xbcfd473d	-0.030917758
18	0xbe91f9fe	-0.2851104
19	0x3e155901	0.14584734
20	0xbe995ae2	-0.2995215
21	0xbe2317d6	-0.15927061
22	0x3e3b0a30	0.18265605
23	0x3d9c264a	0.076244906
24	0x3e4ee531	0.20204617
25	0x3da576eb	0.080793224
26	0xbe5e73dd	-0.21723886
27	0x3ead4a2c	0.3384565
28	0xbe01f2cd	-0.12690277
29	0xbe520640	-0.20510197
30	0xbc2e8845	-0.010652606
31	0xbd55cebf	-0.05219912
32	0xbe836baf	-0.25668094
33	0xbc91975e	-0.017772373
34	0xbe01aac0	-0.12662792
35	0x3e842fad	0.25817624
36	0xbe960386	-0.29299563
37	0x3eab145c	0.3341397
38	0xbe08e032	-0.13366774
39	0x3e8050ed	0.2506174
40	0xbe60cde2	-0.21953538
41	0xbe10b20c	-0.1413042
42	0x3bec290b	0.007207041
43	0xbea16f4e	-0.3153023
44	0xbe1f9e59	-0.15587749
45	0xbb2ed601	-0.002667785
46	0x3e0bc70e	0.13650152
47	0x3d2498ce	0.04018479
48	0xbe684c4b	-0.22685353
49	0x3eb2a6f9	0.34893015
50	0xbe7a7a76	-0.24460778
51	0xbe26d46e	-0.16291973
52	0x3e19155a	0.14949551
53	0x3d344c1e	0.044017904
54	0x3e97ac54	0.29623663
55	0x3d9cc238	0.07654232
56	0x3dd87a56	0.10570209
57	0xbd9685f7	-0.073497705
58	0x3e936322	0.2878657
59	0xbed62b60	-0.41829967
60	0x3d5258e7	0.051354315
61	0xbbf07554	-0.0073382054
62	0xbd750c8e	-0.059826426
63	0x3eaf01ea	0.34181148
64	0xbe571e3c	-0.21007627
65	0xbd74e1f9	-0.059785817
66	0xbd8680e7	-0.06567555
67	0x3e579785	0.21053894
68	0x3e8f5c3e	0.28000063
69	0x3e423eb7	0.18969236
70	0x3e54a20f	0.20764945
71	0xbe553b98	-0.20823514
72	0x3cb13142	0.021629933
73	0xbe83d21b	-0.25746235
74	0xbe831d1f	-0.25608155
75	0xbe6a84c6	-0.22902212
76	0x3e60107e	0.21881291
77	0xbe575bab	-0.21031062
78	0xbc9651ca	-0.018349547
79	0xbe45d489	-0.19319357
80	0xbe1184f0	-0.14210868
81	0xbe87e42f	-0.26541278
82	0x3d9f4249	0.07776315
83	0xbe85751b	-0.26065907
84	0x3da8a5d3	0.082347535
85	0x3e69bdae	0.22826263
86	0x3e96c380	0.2944603
87	0x3da09a0e	0.078418836
88	0xbe4024dd	-0.18764062
89	0x3dbf7fce	0.09350549
90	0xbe7076bc	-0.23482794
91	0xbd683da6	-0.056699418
92	0x3cb1aafb	0.021687975
93	0xbd782dbf	-0.060590502
94	0xbde4e874	-0.111771494
95	0x3e20d43c	0.15705961
96	0xbe0b0db7	-0.1357945
97	0xbdc0610d	-0.09393511
98	0x3e981811	0.2970586
99	0x3e0b327b	0.13593476
100	0x3e511f35	0.20422061
101	0xbd5d2b91	-0.053996626
102	0x3e23b6a9	0.15987648
103	0xbe54a9f9	-0.20767964
104	0xbe6196ed	-0.2203023
105	0x3d720cb2	0.05909414
106	0xbe336265	-0.17518003
107	0x3d82da4e	0.063892946
108	0xbd8bbfad	-0.06823669
109	0x3e10c944	0.14139277
110	0x3e893e79	0.26805475
111	0xbe06f7cb	-0.13180463
112	0x3e9907ff	0.29888913
113	0x3e2e2532	0.17006376
114	0x3e45e590	0.19325852
115	0xbe0bd06d	-0.13653727
116	0xbe40b52d	-0.18819113
117	0x3c37826c	0.011200529
118	0xbc7ab58c	-0.015302073
119	0xbe7eb93f	-0.24875353
120	0x3e6672f5	0.2250479
121	0xbd9fa156	-0.07794444
122	0x3de1cf3c	0.11025855
123	0xbe765bba	-0.24058428
124	0xbdfd70c5	-0.12375025
125	0xbd97152a	-0.073770836
126	0x3e536f57	0.20647942
127	0x3e5b50ad	0.21417494
128	0xbe3c3a57	-0.1838163
129	0x3e8b50d9	0.2721012
130	0xbdf5b43f	-0.1199727
131	0xbe8579fc	-0.2606963
132	0x3e075ec4	0.13219744
133	0x3e7ea080	0.24865913
134	0x3e80d088	0.25159097
135	0x3c1ba9d5	0.00950094
136	0xbe1ac64a	-0.15114704
137	0x3d2a8687	0.0416322
138	0x3d8f65e4	0.07001856
139	0x3e2eeb5a	0.17081967
140	0xbe81f916	-0.2538535
141	0x3e8af5b1	0.27140573
142	0xbe6a0cc8	-0.22856438
143	0x3e53131d	0.2061276
144	0xbe348b19	-0.17631187
145	0xbdc72211	-0.097232945
146	0xbe78597e	-0.24252889
147	0x3d942fbe	0.072356686
148	0xbdc7aced	-0.0974978
149	0xbe3b3224	-0.18280846
150	0x3d84b2a0	0.064793825
151	0x3da44936	0.080217764
152	0xbcb392c6	-0.021920573
153	0x3a8d5f19	0.0010785788
154	0xbd908ee2	-0.07058503
155	0xbe0b453a	-0.13600627
156	0xbe7f70e8	-0.24945414
157	0x3e33a244	0.17542368
158	0xbb951c3d	-0.0045504854
159	0x3d1d8972	0.038461156
160	0x3e4e0018	0.20117223
161	0xbe8265fd	-0.25468436
162	0x3e169151	0.14703871
163	0xbe05de91	-0.13073184
164	0x3e5cd34d	0.2156498
165	0x3dfeaaa7	0.12434893
166	0xbe0ae6b3	-0.13564567
167	0xbdf521d4	-0.11969343
168	0xbe4e88f6	-0.20169434
169	0x3e06f47e	0.13179204
170	0x3e918bc1	0.28426936
171	0x3e56895c	0.20950836
172	0x3e934807	0.2876589
173	0x3e8c0e25	0.2735454
174	0x3e1c497a	0.15262404
175	0x3e93d305	0.28871933
176	0x3e94d5b0	0.2906928
177	0xbe8b1ce4	-0.2717048
178	0x3e5128a5	0.20425661
179	0x3b0e0257	0.0021668875
180	0x3e7a80da	0.24463215
181	0xbe8aa9e1	-0.27082732
182	0xbe7f34e4	-0.2492252
183	0xbdb11ce7	-0.08648091
184	0xbd600782	-0.05469466
185	0x3e14f274	0.14545614
186	0xbd670d6e	-0.056409292
187	0xbe402935	-0.18765719
188	0x3e4d14c2	0.2002745
189	0x3dfab45f	0.12241434
190	0x3e31474e	0.17312357
191	0x3e653bc6	0.22386083
192	0xbdd9151b	-0.10599729
193	0x3e6bcef8	0.23028171
194	0x3d17f662	0.037100203
195	0xbdf36bba	-0.118857816
196	0x3e227537	0.15865026
197	0x3e8662f7	0.2624738
198	0x3e17f3fa	0.14839163
199	0x3e73eee8	0.23821604
200	0x3e25ecf8	0.16203678
201	0x3e2c797c	0.16843218
202	0x3e73477a	0.23757735
203	0x3e3aa960	0.18228674
204	0xbe849211	-0.2589269
205	0x3c82a497	0.015947623
206	0x3d68e8dc	0.056862697
207	0xbd305982	-0.04305411
208	0xbe3a7993	-0.1821044
209	0xbe82ca07	-0.2554476
210	0x3bb31a08	0.0054657497
211	0xbd436b0e	-0.047709517
212	0x3e9375e1	0.28800872
213	0xbdb5a9ab	-0.08870252
214	0x3d48d89c	0.0490347
215	0xbdbae12a	-0.09124978
216	0xbe6e83f8	-0.2329253
217	0xbe4a032a	-0.1972777
218	0x3e12e07f	0.14343451
219	0xbd3cffb2	-0.046142288
220	0x3e7ae62c	0.24501866
221	0xbdd5ac84	-0.10433295
222	0xbdd24ee4	-0.102689534
223	0xbe5031c3	-0.20331483
224	0xbe031e06	-0.12804422
225	0xbdd07465	-0.101784505
226	0xbe631d10	-0.22179055
227	0x3d426da8	0.047467858
228	0x3e311d40	0.17296314
229	0xbe543cd7	-0.20726334
230	0xbca92ad3	-0.020650303
231	0x3dcf8d92	0.10134424
232	0x3e94a4b3	0.29031906
233	0x3d3b43c6	0.04571893
234	0x3dc3e594	0.09565273
235	0xbe97790c	-0.2958454
236	0xbdaab6fc	-0.08335683
237	0xbe0ed90b	-0.13949983
238	0x3dcf55bc	0.101237744
239	0x3e00b851	0.12570311
240	0xbe900732	-0.2813049
241	0x3dbebf49	0.093138285
242	0xbd74d7dd	-0.059776176
243	0x3e2eecb9	0.1708249
244	0xbe5a2efd	-0.21306987
245	0x3d757901	0.05992985
246	0xbdabd22f	-0.08389699
247	0x3e2dab9c	0.16959995
248	0x3e36256c	0.17787713
249	0xbe214789	-0.15749945
250	0xbe797c4a	-0.24363819
251	0xbe22c91d	-0.15897031
252	0xbe0faa4d	-0.14029808
253	0xbddbd4ce	-0.10733949
254	0x3dd7f1e0	0.10544181
255	0x3d38ea34	0.04514523

model.encoder.conv1.bias f4 [64]
0	0x3b73a328	0.0037176106
1	0xbd2c747e	-0.042103283
2	0x3cd36abd	0.025807733
3	0xbd2b6675	-0.041845758
4	0xbc19b760	-0.009382099
5	0x3d94d55e	0.07267259
6	0x3b46bf2a	0.0030326345
7	0x3cf63af1	0.030057402
8	0xbcc12ce5	-0.023580978
9	0xbd543ba4	-0.05181469
10	0xbc2dbf0c	-0.010604631
11	0x3d5f7380	0.05455351
12	0x3b305301	0.0026904943
13	0xbc811019	-0.015754746
14	0xbc122db2	-0.008922027
15	0x3afd3c71	0.0019320381
16	0xbb36e49d	-0.002790726
17	0x3d478acd	0.048716355
18	0xbd24faa2	-0.040278085
19	0x3cefb4ee	0.029261079
20	0x3c69daf6	0.014273396
21	0x3c33bdd5	0.010970552
22	0xbd400719	-0.04688177
23	0xbd56c5ea	-0.05243484
24	0xbb87fc78	-0.0041499697
25	0x3c013749	0.007886716
26	0x3b9caa26	0.0047810255
27	0x3c5be83d	0.013422069
28	0x3bf09d79	0.007342991
29	0xbc1ed569	-0.009694436
30	0xbd2637d0	-0.04058057
31	0x3b915aa8	0.004435856
32	0xbcac373d	-0.021022433
33	0xbaad4e75	-0.0013222235
34	0x3cb8f29b	0.02257662
35	0xbd0e6a0d	-0.034769107
36	0x3c8444ef	0.016146151
37	0xbc453eb9	-0.01203888
38	0xbc7808e9	-0.015138843
39	0x3c0ca015	0.008583088
40	0x3d010572	0.031499334
41	0xbc73625d	-0.014854995
42	0xbd24b042	-0.040207155
43	0x3bb07295	0.005384753
44	0xbb8d98bf	-0.0043211873
45	0x3c9b35c5	0.018946538
46	0x3cd2de1f	0.025740681
47	0x3c8b6650	0.01701656
48	0x3d798eb9	0.060927127
49	0x3d1cd3af	0.038287815
50	0xbaaeb185	-0.0013328051
51	0xbb9f1363	-0.004854606
52	0xbd235282	-0.039873607
53	0x3c68b32e	0.014202876
54	0x3b97d8ae	0.0046339845
55	0xbbb123e4	-0.00540589
56	0xbcd66656	-0.026171844
57	0xb9c58211	-0.00037671675
58	0xba34d120	-0.0006897617
59	0xbc1cb9e8	-0.009565808
60	0x3b4f3d65	0.0031622287
61	0x3aa5cbc7	0.0012649231
62	0x3bb7970b	0.0056027225
63	0x3bf8637d	0.0075802193

model.encoder.conv1.lin.weight f4 [256, 3]
0	0x3dc86fa4	0.09786919
1	0xbda58800	-0.080825806
2	0xbaf5f648	-0.0018765414
3	0xbdb611e7	-0.08890133
4	0xbcd8b706	-0.02645446
5	0x3e01299f	0.12613533
6	0xbd199ba8	-0.03750196
7	0xbd9a80ab	-0.07544073
8	0x3dab6188	0.08368212
9	0x3b59d783	0.0033240027
10	0xbb8d7fef	-0.0043182294
11	0x3e2e302a	0.1701056
12	0x3cf9faf5	0.030515173
13	0x3c71041c	0.014710452
14	0x3d365506	0.04451468
15	0x3caf5ae5	0.021405647
16	0xbdf448fa	-0.11927982
17	0x3c0c7728	0.008573331
18	0x3d8d7071	0.06906212
19	0xbd952c98	-0.07283896
20	0xbd41ad5c	-0.04728447
21	0xbd5f5972	-0.05452866
22	0xbdd7ff14	-0.10546699
23	0xbd67804e	-0.056518845
24	0x3e135271	0.14386918
25	0xbe072750	-0.1319859
26	0x3daeae6f	0.08529364
27	0x3e17e563	0.14833598
28	0x3a93e3de	0.001128312
29	0x3e15233e	0.14564225
30	0x3ce97ff3	0.028503394
31	0x3da7fee7	0.08202916
32	0xbdb1fb1e	-0.08690475
33	0xbe75fe0a	-0.2402269
34	0x3e6533a0	0.22382975
35	0x3dec3653	0.11533799
36	0x3c2670e0	0.010158747
37	0xbb2b8e08	-0.0026177187
38	0xbdd1453f	-0.10218286
39	0x3c92feaa	0.017943699
40	0x3d2f3d08	0.042782813
41	0xbd906d8e	-0.07052146
42	0xbd854edf	-0.06509184
43	0xbd55c621	-0.052190904
44	0x3d13b84f	0.036064442
45	0xbd0dcf57	-0.034621563
46	0x3cc682a8	0.024232224
47	0x3de56f7c	0.112029046
48	0x3dbcd9a9	0.09221203
49	0x3e2823cc	0.16419905
50	0x3dd7607d	0.105164506
51	0xbd53f0e5	-0.051743407
52	0x3de4483c	0.1114659
53	0x3df98632	0.12183799
54	0x3da63661	0.08115841
55	0xbceeed4e	-0.02916589
56	0xbdb816a6	-0.08988695
57	0x3dffb1eb	0.12485107
58	0x3a5c6c09	0.00084084325
59	0x3df8a06e	0.121399745
60	0x3dd0995d	0.10185502
61	0xbdb39081	-0.08767796
62	0x3dacb0fc	0.084321946
63	0xbe1af198	-0.15131223
64	0xbd5a4145	-0.053284902
65	0xbdec4296	-0.11536138
66	0xbd8d9ba5	-0.069144525
67	0xbdc10ca8	-0.09426242
68	0x3dfa09a8	0.12208873
69	0xbb922bbc	-0.00446078
70	0x3e443d38	0.19163978
71	0xbde1732c	-0.110082954
72	0xbd0d1d0d	-0.034451533
73	0xbd8810f2	-0.06643857
74	0xbc02f03e	-0.0079918485
75	0x3d995893	0.07487597
76	0xbe382b6f	-0.17985319
77	0xbe0f0aa3	-0.13968901
78	0x3d41c91d	0.047310937
79	0xbe4e04c8	-0.20119011
80	0xbd39f54f	-0.04539996
81	0x3ce6388b	0.028103134
82	0x3d47f3d8	0.048816532
83	0x3dd2e69b	0.10297891
84	0xbe054eda	-0.1301836
85	0xbbd9447e	-0.0066304794
86	0x3e172977	0.14761911
87	0xbbcac27a	-0.006187734
88	0xbe0d34bf	-0.13789652
89	0xbd2e9117	-0.042618837
90	0xbdf8b694	-0.12144199
91	0x3dd5a8be	0.10432576
92	0xbe048975	-0.1294306
93	0x3d111a85	0.03542568
94	0x3d537fc9	0.051635537
95	0x3db44885	0.088028945
96	0x3dcc66ca	0.09980543
97	0xbcaa4926	-0.020786833
98	0x3d0aa23c	0.033846125
99	0xbc0579f2	-0.00814675
100	0xbb350d64	-0.002762639
101	0x3c9c1e12	0.019057307
102	0xbd47ef71	-0.048812333
103	0x3df0b394	0.11753002
104	0x3ddba4ad	0.10724769
105	0xbdba67cd	-0.0910183
106	0x3e24b4ee	0.16084644
107	0x3e0daf35	0.13836367
108	0x3da60f30	0.081083655
109	0xbd02a98b	-0.03189997
110	0x3dac43ed	0.08411393
111	0xbe4228f1	-0.1896093
112	0x3e1c09e5	0.1523815
113	0x3d5fb807	0.05461886
114	0x3d6778b4	0.056511596
115	0xbe01bd60	-0.12669897
116	0x3d9d334d	0.076758005
117	0xbd466651	-0.04843742
118	0xbc38cbf0	-0.011279091
119	0xbd31dde5	-0.043424506
120	0xbe25b377	-0.16181742
121	0xbd68f6ec	-0.056876108
122	0x3d999c16	0.07500474
123	0x3b97597e	0.0046188226
124	0x3d243335	0.040087897
125	0xbd978987	-0.07399278
126	0xbe1e0096	-0.15429911
127	0x3e28655b	0.16444914
128	0xbdd9382c	-0.10606417
129	0x3d271f22	0.040801175
130	0xbc7cb846	-0.015424794
131	0x3d6ede7b	0.058317643
132	0xbc1e01b9	-0.009643965
133	0xba996cf3	-0.0011705443
134	0xbdf16564	-0.11786917
135	0xbdcbffe5	-0.099609174
136	0x3d6bcb18	0.057566732
137	0xbbce5777	-0.0062970477
138	0xbe0822f8	-0.1329459
139	0xbd339999	-0.043847654
140	0x3e0c082e	0.13674995
141	0x3d88925e	0.06668542
142	0xbe0ba7e6	-0.13638267
143	0xbd91d3ed	-0.071205
144	0xbd3f8d68	-0.046765715
145	0xbd384266	-0.044985197
146	0xbde7db20	-0.11321092
147	0xbe0d5ab0	-0.13804126
148	0xbb3e4464	-0.0029032463
149	0x3db31cc6	0.087457225
150	0xbdea3531	-0.11435927
151	0xbe3a6907	-0.18204127
152	0xbdf38ba2	-0.11891867
153	0x3e19cbac	0.15019101
154	0xbc42b667	-0.011884308
155	0xbe1635bc	-0.14668936
156	0xbe64b488	-0.22334492
157	0x3e448d83	0.19194607
158	0xbd955ff1	-0.0729369
159	0xbd23a063	-0.03994788
160	0x3d31d065	0.04341163
161	0xbdb7dfb8	-0.08978218
162	0xbd9be921	-0.07612825
163	0x3d30d671	0.043173257
164	0xbdb7583d	-0.08952377
165	0xbe3145c8	-0.17311776
166	0xbd267a93	-0.04064424
167	0x3dc75334	0.097326666
168	0xbe3ae553	-0.18251543
169	0x3e4423fd	0.19154353
170	0xbe116d05	-0.14201744
171	0xbe4b3757	-0.19845329
172	0x3e3447b5	0.17605479
173	0x3d23e043	0.040008795
174	0x3cc1d75d	0.023662264
175	0x3e11d344	0.14240748
176	0xbe0e610d	-0.1390421
177	0x3d101a94	0.035181597
178	0xbd9cd293	-0.07657351
179	0xbe11852d	-0.14210959
180	0xbe2764c7	-0.16347037
181	0x3de04725	0.1095107
182	0x3d50136d	0.050799776
183	0xbe1ddd71	-0.15416504
184	0xbdb8e6ea	-0.09028418
185	0xbd9091b1	-0.070590384
186	0x3da65417	0.081215076
187	0xbd799f6f	-0.060943063
188	0xbdb77443	-0.08957722
189	0xbcdc0777	-0.026859028
190	0x3cd70244	0.026246198
191	0xbcc58304	-0.024110325
192	0x3c856af9	0.01628636
193	0xbdc8e4af	-0.09809243
194	0x3da01f6f	0.078184955
195	0xbe0290cf	-0.12750553
196	0xbd986521	-0.07441164
197	0xbd1ade43	-0.03780962
198	0x3cf96ad7	0.030446453
199	0x3d73353a	0.059376933
200	0xbdb29718	-0.08720225
201	0xbd5456bb	-0.051840525
202	0xbe1da673	-0.15395527
203	0xbd02ec94	-0.0319639
204	0x3df5f809	0.120101996
205	0x3dc35746	0.095381305
206	0xbc600bed	-0.013674718
207	0xbd8d6ef8	-0.06905931
208	0xbd3c31ad	-0.045945812
209	0xbdcf256c	-0.101145595
210	0x3c4956a2	0.012288721
211	0x3dc8eeb7	0.09811156
212	0x3d88d4fc	0.066812485
213	0x3d87e721	0.06635881
214	0x3e155cff	0.14586256
215	0xbd304321	-0.04303277
216	0x3e291291	0.16510989
217	0xbdba1db0	-0.09087694
218	0x3db7c6bf	0.08973455
219	0x3da3aac0	0.07991552
220	0xbe3e0c69	-0.18559422
221	0xbcd1eff0	-0.025627106
222	0xbddbd4cf	-0.107339494
223	0xbe203ef5	-0.15649016
224	0x3e07cb8e	0.13261244
225	0xbe06d821	-0.13168384
226	0xbddc381c	-0.107528895
227	0x3d6c2072	0.05764813
228	0x3c15e3b8	0.009148531
229	0xbd4f836e	-0.05066245
230	0xbdf48f47	-0.119413905
231	0xbdd2bcfa	-0.10289951
232	0xbd713dde	-0.05889689
233	0x3e02bca9	0.1276728
234	0x3d2c4f56	0.04206785
235	0x3d1f3a17	0.03887376
236	0xbe24b565	-0.16084822
237	0x3d94702d	0.07247958
238	0xbe0fe2b5	-0.14051326
239	0x3d86e87b	0.06587311
240	0x3dd372c8	0.10324627
241	0x3cce6630	0.025195211
242	0x3cae497c	0.021275274
243	0x3db09ba1	0.08623434
244	0xbc20a410	-0.009804741
245	0xbcb109c8	-0.02161111
246	0x3e0c09e0	0.13675642
247	0x3c17ac4f	0.00925739
248	0x3d9fc4a0	0.07801175
249	0x3de81d4b	0.11333712
250	0xbe0e6302	-0.13904956
251	0x3e111e76	0.14171776
252	0x3dcb5e1e	0.09930061
253	0x3e174ae8	0.14774668
254	0x3d9a9c85	0.07549385
255	0x3cf2c7e6	0.029636335

model.encoder.conv2.att_src f4 [1, 1, 64]
0	0xbe291aa9	-0.16514076
1	0x3e8d2006	0.27563494
2	0xbe87fa27	-0.2655804
3	0xbe025eab	-0.12731425
4	0x3e5b3152	0.21405533
5	0x3b4834d9	0.0030549078
6	0xbdfe2b01	-0.12410546
7	0xbe8fcf2d	-0.2808775
8	0x3e7cadba	0.24675646
9	0xbd822d3a	-0.063562825
10	0xbe8d1f77	-0.27563068
11	0xbe41fc96	-0.1894401
12	0xbe29c74c	-0.16579932
13	0x3e1ca00a	0.15295425
14	0xbe88de56	-0.2673213
15	0x3e9e8682	0.30961996
16	0xbdb0343c	-0.08603713
17	0xbe80ec56	-0.2518031
18	0x3d830f3f	0.06399392
19	0xbde27144	-0.1105676
20	0x3e3ba1c3	0.18323426
21	0x3dd110e0	0.10208297
22	0x3e8ed2e2	0.27895266
23	0xbe55b578	-0.20870006
24	0xbe90a816	-0.2825324
25	0xbe1fa874	-0.15591604
26	0xbe3bace9	-0.18327679
27	0x3e7f191c	0.24911922
28	0xbe6459d0	-0.22299886
29	0xbdc72c3d	-0.09725235
30	0xbddf1cfd	-0.10894201
31	0x3dc40419	0.09571094
32	0x3e35317c	0.17694658
33	0x3e39872c	0.1811797
34	0x3e05b225	0.13056238
35	0x3e0b935e	0.13630435
36	0xbdd6e926	-0.10493688
37	0xbe05b3c3	-0.13056855
38	0xbe64ffb6	-0.22363171
39	0x3c8466bb	0.016162267
40	0x3d4efde6	0.050535105
41	0x3d12efca	0.035873212
42	0x3c3c9825	0.011510883
43	0xbe9137dd	-0.28362933
44	0xbca60353	-0.020265257
45	0xbd944cee	-0.07241236
46	0xbdb1c7c2	-0.08680679
47	0xbe8b88c1	-0.27252772
48	0xbe90f781	-0.2831383
49	0xbe0037c7	-0.12521277
50	0x3dfa9c87	0.122368865
51	0xbd04d852	-0.03243286
52	0xbb27f9ff	-0.0025631187
53	0x3e1c5a13	0.15268736
54	0xbe8fa0e1	-0.28052428
55	0x3cd7b621	0.026331963
56	0x3d5d7222	0.054063924
57	0x3dfd9279	0.12381453
58	0xbe96869c	-0.29399574
59	0xbd44b334	-0.048022464
60	0x3e84265c	0.25810516
61	0x3e5f9d56	0.21837363
62	0x3bed0e76	0.00723439
63	0xbe531adb	-0.20615713

model.encoder.conv2.att_dst f4 [1, 1, 64]
0	0x3d15b781	0.036551956
1	0xbe43ad23	-0.19109015
2	0x3e555d6b	0.20836417
3	0x3ccc7158	0.02495639
4	0xbcf041c5	-0.029328236
5	0x3c82fb5f	0.015989004
6	0x3d8d2d50	0.06893408
7	0x3e8d7172	0.27625614
8	0x3e4b3b64	0.19846874
9	0x3d89944b	0.06717738
10	0xbe82d74a	-0.25554878
11	0x3dbd2d98	0.09237212
12	0xbe108e97	-0.14116894
13	0x3e8fcf8c	0.28088033
14	0x3c9f4aa5	0.019444773
15	0xbe4fa7ba	-0.20278826
16	0x3e75da6b	0.24009101
17	0xbcada890	-0.02119854
18	0x3c139954	0.009008724
19	0xbd6119ff	-0.054956432
20	0x3e850e40	0.25987434
21	0xbe827441	-0.2547932
22	0xbd4883d4	-0.048953846
23	0xbdaae046	-0.08343558
24	0xbe1f7af0	-0.1557424
25	0xbe98431a	-0.29738694
26	0xbda46de8	-0.080287755
27	0xbd722eb2	-0.059126563
28	0xbe3ff663	-0.18746333
29	0xbddafbc5	-0.106925525
30	0xbe3e053e	-0.18556687
31	0xbde987e8	-0.11402875
32	0xbdd94300	-0.10608482
33	0xbdb4df02	-0.08831598
34	0x3e6e2573	0.23256473
35	0xbe110647	-0.14162551
36	0xbe9a6b51	-0.3016
37	0x3e6c2647	0.23061477
38	0xbe702d90	-0.2345488
39	0xbda124d4	-0.078683525
40	0x3d0113e7	0.03151312
41	0xbe912bed	-0.28353825
42	0xbdfcca11	-0.123432286
43	0xbe9fa9af	-0.31184146
44	0xbe683e57	-0.22680031
45	0xbe5f83f3	-0.21827678
46	0xbe5701a2	-0.20996717
47	0x3d125a9c	0.035730943
48	0xbe00930a	-0.12556091
49	0xbe00370c	-0.12520999
50	0x3c539011	0.012912766
51	0xbe82a4c7	-0.2551634
52	0xbddc63ae	-0.107612
53	0x3e5c5dd4	0.21520168
54	0x3e98feca	0.2988189
55	0x3d1b5cc1	0.037930254
56	0xbe68fd74	-0.22752935
57	0xbe9159be	-0.2838878
58	0xbe4d9fbb	-0.20080464
59	0xbc9dc4d8	-0.019258901
60	0x3e30288b	0.17202966
61	0x3e344acd	0.17606659
62	0x3e1189a8	0.14212668
63	0xbe1aa329	-0.15101303

model.encoder.conv2.bias f4 [64]
0	0xbd708400	-0.058719635
1	0xbb9a7806	-0.004714015
2	0x3d0203d4	0.031741932
3	0x3d0d7a3c	0.0345404
4	0xbdb99c40	-0.090630054
5	0x3ac3ccd9	0.0014938369
6	0xbc91eac8	-0.017812148
7	0xbd5a2409	-0.053257022
8	0x3d11ae01	0.035566334
9	0xbe144e11	-0.14482905
10	0xbbcb81ea	-0.0062105553
11	0xbd58e4f6	-0.05295273
12	0xbd0db8a9	-0.034599934
13	0xbddb7949	-0.10716493
14	0x3d130bb9	0.03589985
15	0xbd58d967	-0.052941706
16	0x3d148877	0.036262956
17	0x3d126fb3	0.035751056
18	0x3ce954e9	0.028482871
19	0xbd216494	-0.03940256
20	0x3c23de8f	0.010001793
21	0x3c3cece3	0.011531088
22	0x3d8e5b36	0.06950991
23	0x3c1cedf3	0.009578216
24	0xbd1a2cbe	-0.037640326
25	0x3d0d8ac3	0.03455616
26	0xbc37fa85	-0.011229162
27	0xbd01e2e4	-0.03171052
28	0xbb39a596	-0.0028327457
29	0xbdac7f27	-0.0842269
30	0x3d4db2db	0.050219398
31	0xbc78040c	-0.015137684
32	0xbd950ec3	-0.07278206
33	0xbb1dbfca	-0.0024070614
34	0xbd2cdb2d	-0.04220121
35	0x3bec403e	0.0072098067
36	0x3d17716b	0.0369734
37	0x3d36debf	0.04464602
38	0x3c04a1a9	0.008095183
39	0x3c7da24d	0.01548059
40	0xbd5b3e70	-0.053526342
41	0xbca03183	-0.019554859
42	0xbd2db26c	-0.042406484
43	0xbcf9868d	-0.030459667
44	0xbc79a978	-0.015238158
45	0xbd799190	-0.060929835
46	0xbdb8e3c2	-0.09027816
47	0x3799a368	1.8315113e-05
48	0xbce04947	-0.027378691
49	0xbb971a89	-0.0046113175
50	0xbdf595fa	-0.119914964
51	0xbd505999	-0.050866697
52	0xbcdeaa05	-0.027180681
53	0xbcc45278	-0.023965105
54	0x3d82e78e	0.06391822
55	0xbe07a4ea	-0.13246503
56	0xbcf5484f	-0.029941706
57	0xbdb17cf5	-0.08666412
58	0x3cde2318	0.027116343
59	0xbd2d2570	-0.04227203
60	0xbd657e38	-0.056028575
61	0x3c647aaf	0.013945266
62	0xbcbb708f	-0.02288082
63	0xbbe409c5	-0.0069591724

model.encoder.conv2.lin.weight f4 [64, 64]
0	0xbd322ac3	-0.043497812
1	0x3d6087c3	0.054816972
2	0x3d1f6d69	0.0389227
3	0xbdd97a5c	-0.10619041
4	0x3de84e91	0.1134311
5	0xbc32fd3b	-0.010924633
6	0xbe1c90e9	-0.15289654
7	0x3df96a13	0.12178435
8	0xbe0146ab	-0.12624614
9	0xbdea98cc	-0.11454925
10	0xbc726bf4	-0.014796246
11	0xbe022545	-0.1270953
12	0xbda06a59	-0.07832784
13	0xbe4e536d	-0.20149012
14	0x3e4c1ef5	0.19933684
15	0x3e1ce73a	0.15322581
16	0x3d9f41d8	0.077762306
17	0xbe684c04	-0.22685248
18	0xbca9f628	-0.02074726
19	0xbd074f8e	-0.033034854
20	0xbc9c6d1f	-0.019095002
21	0xbde4a95f	-0.111651175
22	0x3dbac370	0.09119308
23	0xbe73119e	-0.23737189
24	0xbdaf8ded	-0.08571992
25	0xbcd9f684	-0.026606806
26	0xbe838cb3	-0.25693282
27	0xbb5bfa4f	-0.0033565944
28	0xbe1f01ae	-0.15527984
29	0x3e51931f	0.20466278
30	0xbdf705db	-0.12061664
31	0x3e266596	0.1624969
32	0xbe4036a6	-0.18770847
33	0xbe460a4d	-0.19339867
34	0x3e1c06ca	0.15236965
35	0xbe42a7ec	-0.1900937
36	0x3d04c188	0.03241113
37	0xbd805ce5	-0.06267718
38	0xbdab6689	-0.083691664
39	0xbdcea931	-0.100908644
40	0xbe5cd6bc	-0.2156629
41	0x3ddd4a1f	0.10805153
42	0xbdb764ff	-0.0895481
43	0xbd870ca0	-0.06594205
44	0xbcdf9bd4	-0.027295984
45	0xbe353f7a	-0.17699996
46	0x3c1febf7	0.009760848
47	0x3d46430e	0.048403792
48	0xbe32188a	-0.17392173
49	0xbdbb8bd3	-0.09157529
50	0x3d988efb	0.07449146
51	0x3d85b3fe	0.065284714
52	0x3cf0e0cf	0.029404072
53	0x3cb92d90	0.022604734
54	0x3e5a054d	0.21291085
55	0x3d0dd00c	0.034622237
56	0xbe3a2f47	-0.18182097
57	0x3dad49dc	0.08461353
58	0x3dce6427	0.10077696
59	0xbd9fa077	-0.07794278
60	0xbe13e2a0	-0.1444192
61	0xbe849678	-0.2589605
62	0xbe2642e3	-0.16236453
63	0x3e858aab	0.26082358
64	0xbdecdfd1	-0.11566127
65	0xbc1ef11e	-0.0097010415
66	0xbdc24420	-0.0948565
67	0x3e097d91	0.13426806
68	0x3ddc5e93	0.10760226
69	0xbe53af7e	-0.20672414
70	0x3e3a5c0f	0.1819918
71	0xbe07bb2f	-0.13254999
72	0x3dd5ef12	0.1044599
73	0x3daa8a55	0.08327166
74	0xbc8bcd74	-0.017065741
75	0xbe26fd69	-0.16307606
76	0xbbbed853	-0.0058241277
77	0x3e520175	0.20508368
78	0x3e09c00b	0.13452165
79	0x3bdebb93	0.006797263
80	0xbc54642e	-0.012963338
81	0x3d913385	0.07089905
82	0xbe23962a	-0.15975252
83	0xbe5f44d1	-0.21803595
84	0xbbb0c9b3	-0.005395138
85	0x3a508cde	0.0007955561
86	0x3e79485c	0.24344009
87	0xbdbb20f6	-0.09137146
88	0x3db90182	0.09033491
89	0x3d4ad80e	0.049522452
90	0xbd8e4846	-0.06947379
91	0xbe402b79	-0.18766584
92	0xbe291773	-0.16512851
93	0x3dfc5839	0.12321515
94	0xbdf33c9a	-0.11876793
95	0x3deb67c4	0.11494401
96	0x3e5a95a0	0.2134614
97	0xbda9aedb	-0.08285304
98	0x3e311427	0.17292844
99	0xbdd7e5cc	-0.10541877
100	0x3e1bafa1	0.15203716
101	0x3e73ee91	0.23821475
102	0x3e004afb	0.12528603
103	0xbdbdeaa3	-0.09273269
104	0x3cb25dce	0.021773245
105	0x3e4b312d	0.19842978
106	0x3db50449	0.08838708
107	0x3e276f4d	0.16351052
108	0xbdc2f9b4	-0.09520283
109	0x3d84422d	0.064579345
110	0xbcb1bca9	-0.021696405
111	0xbdc153d3	-0.09439816
112	0xbd90b9f5	-0.070667185
113	0xbc38a14c	-0.011268925
114	0x3e3041b6	0.17212567
115	0xbe6067a0	-0.2191453
116	0xbe420f1e	-0.18951079
117	0x3e30b2b6	0.17255673
118	0x3cf7af7a	0.030235041
119	0x3e5f9e9b	0.21837847
120	0xbc0cfcd9	-0.008605205
121	0x3e605b96	0.21909937
122	0xbe0f2037	-0.13977133
123	0xbd8d41b9	-0.06897301
124	0x3d36f8cd	0.04467087
125	0x3e4316d6	0.1905168
126	0x3c9905a9	0.018679457
127	0x3e13ee82	0.14446452
128	0xbe0999e8	-0.13437617
129	0xbd405421	-0.04695523
130	0xbe5fc99a	-0.21854249
131	0x3dcd1e40	0.10015535
132	0xbcfea835	-0.031086067
133	0xbdac6746	-0.08418135
134	0x3e48a173	0.19592838
135	0xbd816baf	-0.06319367
136	0x3e5dbc1b	0.21653788
137	0xbd9f4710	-0.07777226
138	0xbd0b9b4e	-0.034083657
139	0xbdd455b4	-0.10367909
140	0x3d3e4036	0.046447955
141	0x3c856881	0.016285183
142	0x3e003a30	0.12522197
143	0x3e20dfeb	0.15710418
144	0xbdd899ff	-0.105762474
145	0x3e091f73	0.13390903
146	0x3e411fe9	0.18859829
147	0x3e3e57b3	0.18588142
148	0xbe190e55	-0.14946873
149	0xbd871b52	-0.06597008
150	0x3b13b406	0.0022537722
151	0xbe03613e	-0.12830064
152	0x3e1cd7dc	0.15316719
153	0x3dc62455	0.096748985
154	0xbd1da732	-0.038489528
155	0x3db1049e	0.08643459
156	0x3d0329b4	0.032022193
157	0x3e3cc1d3	0.18433313
158	0x3cb501bb	0.022095552
159	0x3e690f99	0.22759856
160	0x3c311f16	0.010810634
161	0xbcb9ce70	-0.022681445
162	0xbe0f764a	-0.14009967
163	0xbc133425	-0.0089846
164	0x3db1b122	0.086763635
165	0x3de11db8	0.109919965
166	0x3dcdaac4	0.100423366
167	0xbe1f9bf4	-0.15586835
168	0x3d7a1230	0.0610525
169	0xbd75e5e6	-0.0600337
170	0xbda80b12	-0.082052365
171	0x3e364387	0.17799197
172	0xbe22ac41	-0.15886022
173	0x3db6f417	0.08933275
174	0xbbc1f108	-0.0059186257
175	0x3d60d99c	0.05489503
176	0xbd97777b	-0.07395836
177	0x3dc0edef	0.09420382
178	0x3d8bbdf0	0.06823337
179	0x3e41db22	0.18931249
180	0xbd28918f	-0.04115444
181	0x3d2bd009	0.041946445
182	0x3e0405fe	0.12892911
183	0xbd232b47	-0.039836194
184	0x3e412943	0.18863396
185	0x3e28c57c	0.16481584
186	0x3e2e87d3	0.17044
187	0x3e525f97	0.20544277
188	0x3e0756d2	0.13216713
189	0x3df5b551	0.11997474
190	0x3dcc4a80	0.09975147
191	0x3e14243c	0.14466947
192	0x3d1b2f61	0.03788698
193	0x3d8e5179	0.069491334
194	0x3d73247f	0.059360977
195	0xbd62c8ae	-0.055367164
196	0x3d9ffc97	0.078118496
197	0x3da56be5	0.0807722
198	0xbe124e2a	-0.1428763
199	0xbc74e7ee	-0.0149478745
200	0xbdcc25ea	-0.09968169
201	0xbda5407f	-0.08068942
202	0xbe1b13b9	-0.15144242
203	0xbd9bc0f0	-0.07605159
204	0x3e4e98bf	0.20175456
205	0xbd64ae5e	-0.055830352
206	0xbd23a517	-0.039952364
207	0xbe4ea50e	-0.20180151
208	0xbe466ea0	-0.19378138
209	0xbde7914c	-0.1130701
210	0x3d4f670f	0.050635394
211	0x3a32aa6c	0.0006815556
212	0xbe12ccc9	-0.14335932
213	0x3e41b807	0.18917857
214	0xbe35ec5d	-0.17765947
215	0xbdfc5d10	-0.12322438
216	0xbdb2cc9b	-0.08730432
217	0x3e3696d9	0.17830981
218	0xbd1eb780	-0.038749218
219	0xbe52e18f	-0.20593856
220	0x3e28814f	0.16455577
221	0xbe1386cf	-0.14406894
222	0x3c34c862	0.011034103
223	0xbe1dd23e	-0.15412232
224	0x3da8d160	0.0824306
225	0x3b280f5c	0.002564392
226	0x3e4ae260	0.19812918
227	0x3dea44d2	0.11438908
228	0xbd63945d	-0.055561412
229	0x3e2062e5	0.15662725
230	0xbbe5a60b	-0.0070083193
231	0x3c62e30c	0.0138480775
232	0x3dccc0a4	0.09997681
233	0xbe25dca3	-0.16197447
234	0xbe1f9ded	-0.15587588
235	0x3e3ec416	0.18629488
236	0xbddd3a6f	-0.10802161
237	0x3daefcd5	0.08544318
238	0x3d959b2d	0.07304988
239	0x3d395680	0.04524851
240	0x3c22a2a2	0.00992647
241	0x3d99dea3	0.07513168
242	0xbe1f15db	-0.15535681
243	0xbd69ba5c	-0.05706249
244	0x3d980c3c	0.074242085
245	0x3bd2e171	0.006435566
246	0xbdd23c04	-0.10265353
247	0x3e1ff909	0.15622343
248	0x3e2a5d33	0.16637115
249	0x3bdc8888	0.006730143
250	0xbde34fdb	-0.110992156
251	0x3cd6ff36	0.026244741
252	0x3d81e27d	0.06342027
253	0x3e3d3339	0.18476571
254	0xbe54365a	-0.20723858
255	0xbcae50ce	-0.021278765

model.encoder.bn1.weight f4 [64]
0	0x3f7d85d2	0.9903232
1	0x3f80a5f5	1.0050646
2	0x3f7c4c78	0.9855418
3	0x3f7be40b	0.9839484
4	0x3f79124b	0.9729354
5	0x3f7ce987	0.98793834
6	0x3f7ace33	0.97970885
7	0x3f8184df	1.0118674
8	0x3f7f7004	0.997803
9	0x3f80627a	1.0030053
10	0x3f7d9bb6	0.9906572
11	0x3f7fef10	0.99974155
12	0x3f7d866b	0.9903323
13	0x3f80704c	1.003427
14	0x3f7fd02e	0.9992703
15	0x3f809c0e	1.0047624
16	0x3f7d6cb1	0.98993975
17	0x3f7fdc80	0.9994583
18	0x3f81c06f	1.0136851
19	0x3f81d315	1.0142542
20	0x3f83351a	1.025058
21	0x3f801dee	1.0009134
22	0x3f7f1ef9	0.99656636
23	0x3f80dc51	1.0067235
24	0x3f7fb472	0.9988471
25	0x3f80b330	1.0054684
26	0x3f807eb7	1.003867
27	0x3f7ce40b	0.98785466
28	0x3f809630	1.0045834
29	0x3f7c784a	0.98621047
30	0x3f7d49af	0.9894056
31	0x3f7fcad6	0.9991888
32	0x3f80afbe	1.0053632
33	0x3f7e9b29	0.99455506
34	0x3f83b43e	1.028938
35	0x3f8210fa	1.0161431
36	0x3f80f6a7	1.0075272
37	0x3f7f8fce	0.99828804
38	0x3f7bee39	0.98410374
39	0x3f7c1edc	0.9848459
40	0x3f81799f	1.0115241
41	0x3f7df03f	0.9919471
42	0x3f828722	1.0197489
43	0x3f7cff09	0.9882665
44	0x3f803024	1.0014691
45	0x3f855522	1.0416605
46	0x3f7ee2fd	0.99565107
47	0x3f804702	1.002167
48	0x3f8056c5	1.002648
49	0x3f7dfc44	0.9921305
50	0x3f7f1e97	0.9965605
51	0x3f813ee3	1.0097317
52	0x3f7cccfc	0.9875028
53	0x3f80f7de	1.0075643
54	0x3f80d109	1.0063792
55	0x3f831fa4	1.0244031
56	0x3f818bcf	1.0120791
57	0x3f7c921a	0.98660433
58	0x3f7eab50	0.9948015
59	0x3f7ecffc	0.9953611
60	0x3f841383	1.0318455
61	0x3f8006a6	1.0002029
62	0x3f818279	1.0117942
63	0x3f7d9ff7	0.9907221

model.encoder.bn1.bias f4 [64]
0	0x3d2bbe96	0.041929804
1	0xbd88f484	-0.06687263
2	0x3ca03ffd	0.019561762
3	0x3cef25e2	0.029192869
4	0x38a92278	8.064968e-05
5	0xbc8bfef3	-0.017089343
6	0x3de725c7	0.11286502
7	0xbcb6e2da	-0.022324968
8	0xbcb82d1d	-0.02248245
9	0xbd6bc99e	-0.057565324
10	0x3ccd2bd7	0.025045319
11	0x3d950edc	0.07278225
12	0x3c81a370	0.015825003
13	0xbd6a674a	-0.05722741
14	0xbd04dbca	-0.03243617
15	0xbc23a559	-0.009988152
16	0x3cc6d0c9	0.024269478
17	0x3d5a3467	0.05327263
18	0xbcade002	-0.02122498
19	0x3cb2100d	0.02173617
20	0x3cedccbc	0.029028289
21	0x3dc7ecca	0.09761961
22	0x3b423161	0.0029631483
23	0xbd6d107a	-0.05787704
24	0x3d0ae229	0.03390709
25	0xbb0806bd	-0.002075597
26	0x3c79db95	0.015250106
27	0x3c9cc0d9	0.019134926
28	0x3d9e599b	0.07731935
29	0xbd65cde1	-0.056104545
30	0x3cfc81b5	0.030823568
31	0xbd816376	-0.06317799
32	0xbd0db8c6	-0.03460004
33	0xbb819238	-0.003954198
34	0xbd964720	-0.07337785
35	0xbc74e8fa	-0.014948124
36	0x3b318806	0.0027089133
37	0xbd8697a7	-0.06571894
38	0xbc95dcbc	-0.01829373
39	0x3d94f7be	0.072738156
40	0xbd5f6735	-0.054541785
41	0x3bafb773	0.005362445
42	0xbc824f9c	-0.015907101
43	0xbcf90ab2	-0.030400608
44	0xbbcfc110	-0.0063401535
45	0xbce0c617	-0.027438207
46	0x3d54b6c5	0.051932115
47	0xbd966a01	-0.073444374
48	0x3c613bf0	0.0137472
49	0x3cd1dd22	0.02561814
50	0xbda07d4c	-0.078363985
51	0x3d8821e7	0.06647091
52	0xbd64cd8b	-0.055860084
53	0xbc586bfe	-0.013209341
54	0xbca716a4	-0.020396538
55	0xbdb8aa3e	-0.09016846
56	0x3d7011cc	0.058610722
57	0xbd0e004c	-0.034668252
58	0xbd4df0a2	-0.050278313
59	0xbce3818a	-0.02777173
60	0x3d8a218c	0.0674468
61	0x3ca6750e	0.020319488
62	0x3d6f23ae	0.058383636
63	0xbd9609d8	-0.07326096

model.encoder.bn1.running_mean f4 [64]
0	0xbd1e7c40	-0.038692713
1	0xbd8dc585	-0.069224395
2	0x3c7f27fd	0.015573499
3	0xbd4e3f73	-0.05035348
4	0x3befd700	0.007319331
5	0x3c01335d	0.007885781
6	0x3d094b59	0.033519123
7	0x3d58f1a4	0.05296482
8	0xbb33da46	-0.0027443334
9	0xbd5adad8	-0.053431362
10	0x3ca9174c	0.020640992
11	0x3cda1441	0.026620986
12	0x3cc56372	0.02409527
13	0xbce2510b	-0.027626535
14	0xbcb6c2ea	-0.02230974
15	0x3b87c830	0.0041437373
16	0x3d636171	0.05551285
17	0x3ca6110f	0.020271806
18	0xbc58ab25	-0.013224398
19	0x3d92fcb7	0.07177108
20	0x3d2d0f38	0.04225084
21	0x3bf23e20	0.00739266
22	0xbdb4dccf	-0.088311784
23	0xbd3ad5fc	-0.045614228
24	0x3d251f55	0.040313084
25	0xbb62f1c2	-0.0034628962
26	0xbc40cbc7	-0.011767334
27	0x3d303ffa	0.043029763
28	0x3be3431f	0.0069354917
29	0xbd84b9a5	-0.064807214
30	0xbd1d6583	-0.038426887
31	0x3cc35354	0.023843445
32	0xbbba5638	-0.0056865476
33	0x3c045458	0.00807675
34	0x3d053550	0.032521546
35	0xbd1efb29	-0.038813744
36	0xbcec7c90	-0.02886799
37	0xbd25ecd4	-0.04050906
38	0xbd42bbc0	-0.047542334
39	0x3b32ecb8	0.002730174
40	0xbcae7f5a	-0.02130096
41	0x3a6a7711	0.0008944134
42	0xbd2e1ee8	-0.042509943
43	0xbd08cd14	-0.033398703
44	0xbcfbf716	-0.030757468
45	0x3d54bf5f	0.05194032
46	0xbc1b1d65	-0.009467457
47	0x3d5b2a94	0.053507403
48	0xbc0d9ea5	-0.008643781
49	0xbbe7ff2c	-0.0070799794
50	0xbd796827	-0.060890343
51	0x3898002a	7.247955e-05
52	0xbd304538	-0.043034762
53	0xbabf745a	-0.0014606819
54	0xbccb29f9	-0.024800288
55	0xbda7f58a	-0.0820113
56	0xbd944010	-0.072387815
57	0xbb827b32	-0.003981971
58	0xbb9c5e71	-0.0047720005
59	0xbc4a598f	-0.012350454
60	0x3c591883	0.013250473
61	0xbb6da399	-0.0036260842
62	0x3d0ec32e	0.034854107
63	0x3cc1fae1	0.023679199

model.encoder.bn1.running_var f4 [64]
0	0x3ad5806e	0.0016288885
1	0x3a37d5cd	0.0007012755
2	0x3a3507d7	0.000690577
3	0x39ac2dc5	0.00032840497
4	0x37b3be41	2.1427057e-05
5	0x39d62d08	0.00040850812
6	0x394562b3	0.00018824152
7	0x3976689f	0.00023499363
8	0x3b1ca5c5	0.0023902517
9	0x3b714602	0.003681541
10	0x37bc751f	2.2465885e-05
11	0x3bb85c1c	0.0056262147
12	0x38a859e6	8.027609e-05
13	0x3aabc7c1	0.0013105796
14	0x39969c23	0.0002872656
15	0x379a1bc9	1.8371169e-05
16	0x39cee8e1	0.0003946489
17	0x3ac6898f	0.0015147197
18	0x3b20e8aa	0.002455274
19	0x3a426a64	0.0007416366
20	0x3832f039	4.2662232e-05
21	0x3ae09482	0.0017134103
22	0x399a8ddf	0.0002947887
23	0x3911f66f	0.00013920081
24	0x39c10429	0.00036814928
25	0x3b55eef4	0.0032643648
26	0x3ab6c6ed	0.0013944783
27	0x3a2224d5	0.0006185298
28	0x39dffc4b	0.00042721847
29	0x38a5203f	7.8738194e-05
30	0x3abbdc6e	0.0014332661
31	0x380213f8	3.1013013e-05
32	0x3ac1c0e4	0.0014782217
33	0x383dd7c6	4.5262066e-05
34	0x3894a169	7.087255e-05
35	0x3a12a98e	0.00055947236
36	0x380cc9f3	3.356668e-05
37	0x3b85b864	0.004080819
38	0x397e41a4	0.0002424778
39	0x391654fc	0.00014336774
40	0x39833542	0.00025025947
41	0x390aee3d	0.00013249456
42	0x39e8b863	0.00044387867
43	0x3a11ab05	0.0005556795
44	0x3a0b7780	0.0005320236
45	0x38435b1b	4.657647e-05
46	0x3913b421	0.00014086116
47	0x397d97e4	0.00024184544
48	0x3a612e62	0.00085899804
49	0x39289998	0.00016078947
50	0x3ac59e5b	0.0015077101
51	0x394adacb	0.00019345728
52	0x3b32c37c	0.0027277162
53	0x3993f68d	0.0002822172
54	0x38b524b0	8.637586e-05
55	0x398dcd31	0.00027046495
56	0x3a423b90	0.0007409388
57	0x3ba74142	0.005104215
58	0x3a8b6f1e	0.0010637974
59	0x3937da97	0.00017533671
60	0x389dea4f	7.529987e-05
61	0x3a370435	0.0006981523
62	0x39dc2187	0.0004198665
63	0x38e4fd90	0.00010919117

model.encoder.bn2.weight f4 [64]
0	0x3f846aff	1.0345153
1	0x3f7c240e	0.98492515
2	0x3f7caffe	0.9870604
3	0x3f7b0a24	0.9806235
4	0x3f8185d3	1.0118965
5	0x3f7c733b	0.9861333
6	0x3f805275	1.0025164
7	0x3f80b384	1.0054784
8	0x3f7ecd86	0.99532354
9	0x3f8385eb	1.0275244
10	0x3f7d235e	0.9888209
11	0x3f82bbe8	1.0213594
12	0x3f83932b	1.0279287
13	0x3f848496	1.0352962
14	0x3f7fbfda	0.9990212
15	0x3f7e1282	0.9924699
16	0x3f7f6460	0.99762535
17	0x3f8276d9	1.019252
18	0x3f834dd4	1.0258126
19	0x3f81450e	1.0099199
20	0x3f7ac3a5	0.9795478
21	0x3f7d8a9f	0.99039644
22	0x3f810027	1.0078171
23	0x3f7b7bd1	0.98235804
24	0x3f81e494	1.0147882
25	0x3f7e1abc	0.99259543
26	0x3f7c4db3	0.9855606
27	0x3f8693c3	1.0513843
28	0x3f8300b9	1.0234596
29	0x3f8353f2	1.0259993
30	0x3f7b6ee8	0.98216105
31	0x3f803d97	1.0018796
32	0x3f8240f8	1.0176077
33	0x3f81362b	1.0094656
34	0x3f7e427b	0.9932019
35	0x3f7b2cc0	0.9811516
36	0x3f7f2b6a	0.9967562
37	0x3f80c0b2	1.0058806
38	0x3f7bae3c	0.98312736
39	0x3f758d9c	0.95919204
40	0x3f7e6467	0.9937195
41	0x3f831c4e	1.0243013
42	0x3f800242	1.0000689
43	0x3f7f90ae	0.9983014
44	0x3f7dc5e9	0.9913011
45	0x3f7f5f04	0.9975436
46	0x3f7fcf42	0.99925625
47	0x3f7e55f9	0.99349934
48	0x3f832203	1.0244755
49	0x3f8a7c73	1.0819229
50	0x3f821722	1.016331
51	0x3f7f6b17	0.9977278
52	0x3f7db67d	0.9910658
53	0x3f80b60b	1.0055555
54	0x3f7712e2	0.9651319
55	0x3f858cb1	1.0433561
56	0x3f8023c2	1.0010912
57	0x3f7ebb0b	0.99504155
58	0x3f7ee737	0.99571556
59	0x3f8886e2	1.0666163
60	0x3f7f7a99	0.99796444
61	0x3f7fb216	0.9988111
62	0x3f80f662	1.007519
63	0x3f7c581d	0.9857195

model.encoder.bn2.bias f4 [64]
0	0x3c814edc	0.015784673
1	0xbd0b05f7	-0.033941235
2	0x3c1a3c6f	0.009413823
3	0xbbf552e0	-0.007486686
4	0xbd2bc5b5	-0.041936595
5	0xbc50add3	-0.012736755
6	0xbcab1d75	-0.02088807
7	0xbd2a129e	-0.04152166
8	0x3cc413d1	0.02393523
9	0xbd51fa42	-0.051264055
10	0xbc3d4fd9	-0.011554682
11	0x3aed814e	0.0018120201
12	0x3ca52358	0.020158455
13	0xbc3c550e	-0.011494888
14	0x3c9ecdd2	0.019385252
15	0xbd850a9f	-0.064961664
16	0x3d0c258d	0.0342155
17	0x3d61cb16	0.05512532
18	0x3d87d3d5	0.06632201
19	0xbbc4204b	-0.005985295
20	0xbc24ae0d	-0.010051263
21	0xbbadad12	-0.0053001726
22	0x3d4f4e52	0.0506118
23	0xbc5bde4e	-0.013419701
24	0x3b9df249	0.0048201424
25	0x3c636576	0.013879171
26	0xbca19939	-0.019726383
27	0x3d31770a	0.043326415
28	0x3cf23de6	0.029570531
29	0xbca25e52	-0.019820366
30	0x3cdf5f5d	0.027267152
31	0xbafbe7a0	-0.001921881
32	0xbc9eff19	-0.01940875
33	0x3cba9ffb	0.022781363
34	0xbc9c1524	-0.01905305
35	0xbccdcbf4	-0.025121666
36	0x3d06ae70	0.0328812
37	0x3cb3a9fe	0.021931645
38	0xbc263c91	-0.010146276
39	0xbd1681a8	-0.036744744
40	0xbd047fba	-0.032348372
41	0x3c94f095	0.018181125
42	0xbd33ab84	-0.043864742
43	0xbd49254c	-0.049107835
44	0xbc496269	-0.012291529
45	0xbd0abd9b	-0.033872228
46	0xbd49f821	-0.0493089
47	0xbae514d2	-0.0017477518
48	0x3c866d0f	0.016409425
49	0x3de5cbc2	0.11220504
50	0xbd399228	-0.0453054
51	0xbce51b3c	-0.027967088
52	0xbd5a09a1	-0.05323184
53	0xbcaffc70	-0.021482676
54	0xbab9a899	-0.0014164626
55	0xbc55f28a	-0.013058314
56	0xbcbd0029	-0.023071365
57	0xbd45eb61	-0.048320178
58	0x3b87f43e	0.004148989
59	0x3d7b1afc	0.06130503
60	0xbd0cc9fa	-0.034372307
61	0x3bdf7d6c	0.0068203714
62	0xbb066dca	-0.0020512217
63	0xbc8b4226	-0.016999315

model.encoder.bn2.running_mean f4 [64]
0	0x3d82e27d	0.063908555
1	0x3e6b4d2d	0.22978659
2	0xbdf0dd28	-0.11760932
3	0x3de78376	0.11304371
4	0x3f18d327	0.5969719
5	0x3c24c797	0.010057352
6	0x3eac57a3	0.33660612
7	0xbd05639c	-0.032565698
8	0x3f615fb0	0.8803663
9	0xbe97b337	-0.29628918
10	0x3cdc3241	0.026879432
11	0x3da1ad24	0.07894352
12	0xbd04d573	-0.032430124
13	0xbde83515	-0.113382496
14	0xbccecdf7	-0.025244696
15	0x3e9ca565	0.30594936
16	0x3e423b0d	0.18967839
17	0x3e805c8f	0.25070617
18	0x3e925bd1	0.28585675
19	0xbc851a32	-0.016247842
20	0x3efcc7f0	0.4937129
21	0x3f748262	0.9551145
22	0x3e56298d	0.20914288
23	0x3eb27915	0.34858003
24	0xbcae039d	-0.021241957
25	0x3f27a1bb	0.65481156
26	0x3c40bf33	0.011764335
27	0x3e450393	0.19239645
28	0x3e1175af	0.14205049
29	0xbe9102ed	-0.28322545
30	0xbd3e3970	-0.046441495
31	0x3ebe9c0f	0.37228438
32	0xbe5f1715	-0.21786149
33	0x3df8b47a	0.12143798
34	0xbe300a86	-0.17191514
35	0x3e549535	0.20760043
36	0x3e90a468	0.28250432
37	0xbacbafb4	-0.0015540035
38	0xbdffa9e8	-0.12483579
39	0xbdff6326	-0.12470083
40	0xbd8d237e	-0.06891535
41	0xbe056e75	-0.13030417
42	0x3f599755	0.8499654
43	0x3d951b9f	0.07280659
44	0x3de2f6f7	0.11082261
45	0xbe21fd74	-0.15819341
46	0xbe5be45c	-0.21473831
47	0x3da23ce0	0.07921767
48	0xbd898e44	-0.06716588
49	0x3edd360a	0.4320529
50	0xbe11194c	-0.14169806
51	0xbd0efc91	-0.034908835
52	0x3e05e76b	0.1307656
53	0x3e883ffb	0.26611313
54	0xbdd1c9f6	-0.10243599
55	0xbe5c3a52	-0.21506622
56	0x3dae4fec	0.08511338
57	0xbe0d3315	-0.13789017
58	0xbdd340a9	-0.10315067
59	0x3e4d83e3	0.20069842
60	0x3f549ab7	0.83048576
61	0x3e4f9022	0.20269826
62	0x3f66e6b2	0.90195763
63	0x3eb9bbad	0.36275998

model.encoder.bn2.running_var f4 [64]
0	0x403592d1	2.837086
1	0x3f39ad20	0.7252979
2	0x3f2366e5	0.6382888
3	0x3e9e1ed0	0.30882883
4	0x3fb9a231	1.4502622
5	0x3e8cabc0	0.27474785
6	0x3f6466ce	0.8921937
7	0x3ea97a2c	0.33101022
8	0x3f66dfe6	0.9018539
9	0x3ea8fbf0	0.33004713
10	0x3e3ca427	0.18421994
11	0x3edf855e	0.4365644
12	0x3f050911	0.5196696
13	0x3f98b7b8	1.1931067
14	0x3eba002d	0.3632826
15	0x3f9978cc	1.1989989
16	0x3dd1df46	0.10247664
17	0x3e6c9f68	0.23107684
18	0x3e62eda5	0.22160967
19	0x40248ac2	2.570969
20	0x3f63705e	0.88843334
21	0x401139de	2.269157
22	0x3e1b5f8e	0.1517317
23	0x3e9cb6f3	0.3060833
24	0x40251c23	2.5798423
25	0x3f91e2d8	1.1397352
26	0x3edaee7c	0.42760074
27	0x3e903238	0.28163314
28	0x3e28312b	0.16425006
29	0x3f6be242	0.9214212
30	0x3f302745	0.6880992
31	0x3ebacee4	0.3648597
32	0x3ec64ebd	0.38731948
33	0x3e361aea	0.17783704
34	0x3f4d83d8	0.802793
35	0x3e666c66	0.22502288
36	0x3e27550f	0.16341041
37	0x3f50275d	0.81310064
38	0x3fad6e2c	1.3549247
39	0x3e97640d	0.2956852
40	0x3ebef978	0.37299705
41	0x3f3d2dab	0.7389781
42	0x3fb19c25	1.3875777
43	0x3f8766b9	1.0578223
44	0x3edc8858	0.43072772
45	0x3f31b5c6	0.6941799
46	0x3e1f2452	0.15541199
47	0x3f084d26	0.5324272
48	0x3f01a3c9	0.5064054
49	0x3eab6559	0.3347576
50	0x3f783a23	0.9696371
51	0x3f04a991	0.5182124
52	0x3f1982a4	0.59964967
53	0x3f958b77	1.1683186
54	0x3fc68377	1.550887
55	0x3f9155c7	1.1354302
56	0x3ee62a5a	0.44954187
57	0x3f36f1d3	0.71462744
58	0x3f2d1d0a	0.67622435
59	0x3e85513e	0.26038545
60	0x3fd45733	1.6589111
61	0x3f7d9ca2	0.9906713
62	0x3fde40ce	1.7363527
63	0x3ed08308	0.4072497
