lightning_logs/version_136/checkpoints/epoch=11-step=180.ckpt (torch, 135395 bytes, 46 tensors)

model.encoder.conv1.bias f4 [64]
00000000: 83c5 7f3c 1672 153c 3e7c d5ba 9be3 25bc
00000010: 161f 223b fae7 4f3c 5bd1 fdbc 82ff a3bc
00000020: 0000 0000 e97d 9c3b 74ed edbb 0000 0000
00000030: 0000 0000 dc86 aaba 19d2 813c 9f3f 23bd
00000040: 3f82 04bc 7434 4f3c 0000 0000 ea7c 2bbc
00000050: 2fbd 0cbd f5f8 303b 5850 fd3b 0000 0000
00000060: a457 cdb9 ac14 f6bc e3a1 dbbc bb80 bebb
00000070: 0000 0000 cbdd b73c ae37 4e3c 41fa f8bb
00000080: 4743 9ebc 407d 63bb da72 073c 689e 0dba
00000090: d879 4d3c b40a 2a3c dc4a 0bbb d885 6c3c
000000a0: 7783 9a3c e823 4f3c 3427 3d3d 815a a3bb
000000b0: 0000 0000 ba8e 1cbb 0000 0000 fbcd a53b
000000c0: 25de 77bc 8a6a 7b3c 1f96 04bd a947 d1bc
000000d0: 9590 f3ba 9575 2b3c 0000 0000 c9d7 2cbc
000000e0: b6c1 7d3c 333e 14bd 102e 05bc 91ef 473a
000000f0: b5a0 f83a 3b03 b8bc 2825 593c 0000 0000
0.015611055 0.0091214385 -0.0016287637 -0.010125066 0.0024737767 0.012689585 -0.030983618 -0.020019297
0.0 0.004775752 -0.0072609726 0.0 0.0 -0.0013010162 0.015847253 -0.039855596
-0.008087694 0.012646783 0.0 -0.010466794 -0.034360107 0.0027003859 0.007730525 0.0
-0.00039165944 -0.030039154 -0.026810592 -0.0058136857 0.0 0.022444626 0.012586517 -0.007598192
-0.01931919 -0.0034712106 0.008267129 -0.00054023275 0.012541257 0.010378528 -0.0021254336 0.014436208
0.018861515 0.012642838 0.046179965 -0.004985154 0.0 -0.0023888783 0.0 0.005059955
-0.015128647 0.015345225 -0.03236973 -0.025546866 -0.0018582518 0.010465045 0.0 -0.010549494
0.015488079 -0.03619213 -0.008128658 0.0007626946 0.0018968793 -0.022462478 0.013253488 0.0

model.encoder.conv1.lin.weight f4 [64, 3]
00000000: f3e7 acbd c4ce cd3d b6a5 3d3d f16d e03b
00000010: 4ba9 2f3e 8a3d 743e db31 f63c a034 8dbe
00000020: f53a 463e 3813 98bd cf51 1b3e d4bf 8e3e
00000030: 2cca 6b3e 84e6 eb3d 404e 913e da58 86be
00000040: c1e1 d53c dca4 0a3e 1caf 7a3e f55d b0bd
00000050: f042 38be be81 a8be 7bd9 afbd b61b 663e
00000060: 8f76 96be b482 27be 2dac 0cbe 1c13 26be
00000070: 184a 8ebe 9421 9e3c 846c 1c3d 88e1 3fbe
00000080: 505d 92be 7974 96be d184 34be 9062 a9bc
00000090: 87d4 04be 1229 92be 2817 4cbe e938 c7bd
000000a0: 0864 c43d 0f12 3ebe 217d 51be 001e 053d
000000b0: 621a b1bd cd0e b5bb ce7e 563e 3976 9bbe
000000c0: b0c6 64be 8c8d e13d 4176 9abd 40af 813e
000000d0: bf89 0a3e f138 013e 62fa 4dbe d557 8ebe
000000e0: f528 0fbe fabf 2d3e 1f09 16be 7d12 80be
000000f0: b9dc ccbd 848d 18bd 43f4 2a3e 0987 563e
00000100: 9346 97bd 187d 38be d180 c13d 9adc abbd
00000110: 235d 8a3e e5b1 0fbe f495 ccbd 96b2 5dbe
00000120: 4208 863e fb08 0e3c b215 4e3d 4a73 843e
00000130: 74e0 9e3c d1c3 dfbd 04ed 483e 708e 45be
00000140: fb33 823e 098e c53d f420 4abe 521c 10be
00000150: 32d5 a1bd feca d4bd a007 3ebd 57a7 873e
00000160: 9881 08be ed40 9a3e 02eb e73b 2e68 203e
00000170: 6ed4 253d 8b73 22bc 356b d93c 8df6 943e
00000180: 7e19 afbd 919c e83d 9dfb 003e b4d0 133a
00000190: f6e2 c9bd e526 3b3e 5423 4f3e dc7a 70be
000001a0: 1798 25bc 5bfa 2dbe fb60 733c 6a86 80be
000001b0: 985c 8a3e 8ffb 93be 5455 0f3e 6a83 b13d
000001c0: 8997 293e eb7f 8dbd 8d93 81be 5c7e 953d
000001d0: a669 793e 604d 603e dd41 943d cb12 a33d
000001e0: 9033 5d3e 705c 933e 5922 d9bd 4ac5 703e
000001f0: d5f9 8fbe 91b1 ea3d 23ed 163e c49b 163e
00000200: a82f 1bbc 8794 143e a242 12be 2301 4dbd
00000210: d045 47bd 1006 1fbe 8046 72bd a80b a8be
00000220: ae9c 3e3d e9cf 8a3e 70ed e3bc 60b5 29be
00000230: b021 f3bd ad0d 9e3d 95ec 40be 5dbe 73be
00000240: 7e79 813e 1008 b73d 2dca 473d 5598 0b3e
00000250: 69eb 8dbe 30ff 1a3e 5f8b 623d 19d7 08be
00000260: 2286 bebc 6129 743d ab3a 1f3e 5138 4dbd
00000270: cf97 61be d5da f83d 60ee b43d 9ebf 73be
00000280: 17ed 0cbe d6f3 8f3e 68ce 38bd 8168 03be
00000290: 6285 edbd ccaf 473e 2e5b 8d3e 7e85 59be
000002a0: 9996 073e c049 82be b596 4f3e cbc0 52be
000002b0: 0998 7b3d bade 5a3d e723 0bbe e89e 76bd
000002c0: e6e6 073b 154a 2abd f180 4f3e 0ba1 403e
000002d0: 0414 f43d f171 39be cf51 37be 74f8 d9bd
000002e0: 1a89 81bd 38a8 463e 8561 81be 2e01 693e
000002f0: 0dff 923d 905b e1bd 47a4 30be cee8 a9bd
-0.08442678 0.10049203 0.046300612 0.0068490435 0.17154424 0.238516 0.03005307 -0.27579212
0.19358428 -0.07425541 0.15167926 0.27880728 0.23026341 0.11518577 0.28380013 -0.26239663
0.026108624 0.13539451 0.24480861 -0.08611671 -0.17994285 -0.32911485 -0.08586403 0.22471508
-0.29387328 -0.16358453 -0.13737555 -0.16218227 -0.27790904 0.01930312 0.038189426 -0.18738377
-0.28586817 -0.29385737 -0.1762879 -0.020676881 -0.12971698 -0.2854696 -0.19930708 -0.097276516
0.09589392 -0.18561576 -0.20457889 0.032499313 -0.0864761 -0.005525446 0.2094681 -0.30363634
-0.22341418 0.11013326 -0.075420864 0.25329018 0.13529108 0.12619378 -0.20115045 -0.27801386
-0.13980468 0.16967764 -0.14651917 -0.25014105 -0.10003037 -0.037244335 0.16694741 0.2094995
-0.07386508 -0.1801647 0.09448398 -0.08391686 0.27024183 -0.14032705 -0.09989539 -0.21650156
0.26178175 0.008669133 0.05031366 0.2586921 0.019394137 -0.10926021 0.19621664 -0.19292617
0.25430283 0.09646232 -0.19739133 -0.14073303 -0.07901992 -0.1039028 -0.04639399 0.26494858
-0.13330686 0.3012766 0.0070775757 0.15664741 0.04048579 -0.009915243 0.026540378 0.29094353
-0.08549784 0.11357988 0.12595983 0.0005638704 -0.098577425 0.18276556 0.2022832 -0.23484367
-0.010107062 -0.16990034 0.014854665 -0.2510255 0.27023768 -0.2890286 0.13997394 0.08667643
0.16561712 -0.06909164 -0.25307885 0.07299492 0.24356708 0.21904516 0.07239125 0.07962569
0.21601701 0.28781462 -0.106022544 0.2351276 -0.28120294 0.11459649 0.14738898 0.14707857
-0.009471811 0.14509784 -0.14283231 -0.050049912 -0.048650563 -0.15529656 -0.059149265 -0.32821393
0.04653614 0.27111748 -0.02782318 -0.16573095 -0.1187166 0.07717452 -0.18840249 -0.23803087
0.25288004 0.08937085 0.048776794 0.13632329 -0.27718666 0.15136409 0.055308696 -0.13363303
-0.023257319 0.059609775 0.15549724 -0.050102536 -0.22030567 0.12151114 0.08834529 -0.23803565
-0.13762318 0.2811572 -0.04511872 -0.12832834 -0.115977064 0.19500655 0.27608627 -0.2124233
0.13241042 -0.25446892 0.20272334 -0.20581357 0.06142429 0.053435065 -0.13587914 -0.06021014
0.0020736991 -0.041574556 0.20264031 0.18811433 0.1191788 -0.18109871 -0.17902301 -0.10643092
-0.06324978 0.19400108 -0.25269714 0.22754356 0.07177553 -0.11003792 -0.17250167 -0.08296357

model.encoder.conv2.bias f4 [64]
00000000: b918 0ebd 5f8b 293b 1372 a83b d044 923c
00000010: 7d3b 69bc afb9 f0bc 81d8 36bc 93b9 013d
00000020: f574 343c e8f1 8cbc 201e b63b 0c49 73bd
00000030: 8ad4 5fbc e950 623c 6d43 02bd beca 1d3a
00000040: 354a 2fbd 0f7b b13c 538a 20bd 6c69 b6bc
00000050: 79a6 eabc 205d e33b 416f 67bc c6f9 1dbc
00000060: a013 b9bb 682d 41bd d9e4 4fbc aecb 1b3c
00000070: e3e7 abbc 847a 7c3c acae 1fbd a623 42bd
00000080: 10e5 083c ebbe 2f3d 1f9c 0b3c 9cf7 4abc
00000090: 75e9 9fbc eca4 a03b 8f6e ab3c 4cd6 43bd
000000a0: c94a 4a3d 28d5 2dba c0ce 5ebd 7156 5cbc
000000b0: 1fa2 c8bc 3031 3cbc b7e2 6bbc 984a 743c
000000c0: 1eeb 6d3c 8129 bd39 eb5b 8cbd 5f9f a3bb
000000d0: 60ca cdbc 2046 023b 6ad2 cb3c 777c a0bb
000000e0: af1d d4ba d7cc 36bc 027e 4f3c f150 203c
000000f0: ffbb 85bd 31d4 86bc 832a 69bd b7fe 723a
-0.034691546 0.0025870425 0.005140552 0.017855078 -0.0142353745 -0.029385416 -0.011160017 0.031671118
0.011014213 -0.017205194 0.0055577904 -0.059395835 -0.013661513 0.013813236 -0.031802583 0.00060192856
-0.04279538 0.021665124 -0.039194416 -0.022267066 -0.028643833 0.0069385916 -0.014125646 -0.00964207
-0.0056480914 -0.047162443 -0.012688839 0.00950901 -0.020984596 0.015410069 -0.03898494 -0.04739728
0.008355394 0.042906683 0.008521109 -0.012388136 -0.0195205 0.0049024727 0.020926742 -0.04781179
0.049387727 -0.0006631189 -0.05439639 -0.013448344 -0.024491368 -0.011486337 -0.014397315 0.014910363
0.014521388 0.00036079812 -0.068534695 -0.0049933637 -0.025120914 0.0019878224 0.024880607 -0.00489765
-0.0016183163 -0.011157236 0.01266432 0.009784923 -0.06529998 -0.016458603 -0.056925308 0.0009269523

model.encoder.conv2.lin.weight f4 [64, 64]
00000000: 6021 123d f987 45bd ffcd d23d ad0e 4c3c
00000010: 4bf5 64bd 2ca5 08be 9a2b 7fbd 3f52 843d
00000020: ea78 02be 18a6 f63d 64c3 a73d 5a90 b4bc
00000030: 8189 653e 32bf d03d e72d 423e f978 923c
00000040: e39c 90bd b981 fe3d 5a25 84bd 2142 a4bc
00000050: 883e 643d 07c4 01bb c0ca 12be b112 403e
00000060: 1504 8ebd 5950 e8bd 0dea 39bd 94d5 ee3d
00000070: 7a76 203e f390 93bd 7d60 e33d f25b 3ebe
00000080: a9ca 44be 83fd 573e e35b 22be 9846 fd3c
00000090: 1bdf 01be 3d15 c5bd b71f 0abe 9f9b 2a3d
000000a0: c8dd ae3b 8bc4 a53d 377a adbd 29a9 16be
000000b0: 5b87 85be 3774 f23d 3213 4cbe 67b7 c43d
000000c0: c9d8 d6bd c584 0ebe ac6e ebbd a263 22be
000000d0: d731 37be aee4 bb3d c7a9 61bc 0628 bdbd
000000e0: 91aa 0d3d e15c 58bd f255 0d3e ec33 f83d
000000f0: 4269 313e 4da5 f8bd 34ec c9bd f2e5 67be
00000100: bbd2 06be 0c05 573e c717 96bd f711 ba3d
00000110: 15fa 68be ebf3 4fbe db60 8e3d 2533 2bbe
00000120: 7850 b1bc 79bc 42be 6902 1c3e 2711 60bc
00000130: 1e44 403e 26f9 4f3e 166f 2fbe ae44 813d
00000140: d609 bd3d 3364 04be 54d7 fdbc c46b 0dbd
00000150: 86c6 ff3d 4279 983d e14c 483e 3026 9f3c
00000160: 37dc f03d 6ee0 47be b970 463e 4762 3dbe
00000170: 7c96 1cbe 6cd7 d6bd 8045 1dbe 2c83 80bc
00000180: fcf3 c6bd 8db8 d7bd a502 8b3d f5b2 553e
00000190: 04f9 7ebd f138 433e 8294 19be 0972 d0bd
000001a0: 16c2 933d 77b5 7c3d 6428 9a3d 8ca4 28be
000001b0: 23f7 233e 765c b43d c1e6 eebd ce38 843d
000001c0: b53e d23d b476 51be 3a1c 36be 8e8f 39be
000001d0: 39a3 593e 27a8 d1bd 8b64 73bd 7e86 d9bd
000001e0: de9c 23be 7672 06bd 3f37 41be 8d70 d03b
000001f0: 4c2b 15be 9fa8 363e 6a87 273d e7c8 f23c
00000200: 1045 f73d 057d c2bd f158 323e e75c 3bbe
00000210: ad70 2fbd 5824 523e 79a3 a3bd 073e 12bd
00000220: 3e41 893d 7409 433d 3b84 343e 2e8a acbc
00000230: f3b2 42be a9bf c6bd 49c5 07bd 71c7 3a3e
00000240: df96 aebd 4183 33be ff5f 10be a45e 31be
00000250: c3dc 23be 7d44 46bb 88e5 6a3d 0ec4 3fbd
00000260: cca8 343e a2ed 0f3d 9af3 89bd a514 5ebe
00000270: a4e8 1c3e ea1e e3bc 6568 3bbe e0cf b83d
00000280: 274e 3d3e 7318 a13d a8aa 61be 59a0 5cba
00000290: 4599 3ebe 1029 043c 98b5 92bd 1bc8 5037
000002a0: 9d7e 2c3c e73c f6bd 2fe1 1b3e 52ec 1cbe
000002b0: d044 803c 28fc 433d c268 10be b289 3fbd
000002c0: bf9e 193e 9fa9 80bd fe1f 6f3c 6b0f 33be
000002d0: 974c 07bd 84c2 19be 1a25 54be f7e2 ab3d
000002e0: ccd0 0e3e a9b4 f0bd 6bc1 173e ef20 b83d
000002f0: 3f62 1bbe c4c5 a63d 0c5f b53d d64b 1bbd
00000300: 91c8 123e 947d 1fbe f39d 1e3e f4e8 90b9
00000310: d440 d4bd b252 85bc c77f 1c3d 5e7d 87bd
00000320: 43ca f5bc 4b51 41be 0882 a5bd dcb1 34be
00000330: d6da c83d 2cad 233e 4f48 83bd 8c4c 36bd
00000340: a0a1 95bd b49e 19bb 7df7 b33b e3e7 d2bd
00000350: f8b9 23bd 0676 1bbe beff c73d 447a 193d
00000360: d569 023e e745 7dbd 3340 09be d7e0 85bd
00000370: 4d41 3d3e 363a 3e3d 6217 32be 8e65 2ebd
00000380: 4b54 283e 4c95 dfbd 2a29 53bd 4151 393e
00000390: 560f 323e 9f6c 3cbe 2f6b f43d 1aab 04be
000003a0: 2aa3 ab3d f0f0 8fbc 9c7d 923d d073 173c
000003b0: 9c24 dc3c 0874 80bd 8c24 ed3c 4e61 b7bc
000003c0: cd60 f63d c3ea 533e 4fae a53d 85b6 81bd
000003d0: e5f6 16be 3d32 053e 72e2 c7bd ccaa 603e
000003e0: d625 003e 7762 0cbe 0230 7d3d ef78 54be
000003f0: 9af2 0e3e a48e febd 8d6e 163e e5d3 013e
0.03567636 -0.048225377 0.10293197 0.012454671 -0.055897992 -0.13344258 -0.06229744 0.06461
-0.12741438 0.120433986 0.08191565 -0.022041488 0.22415735 0.101927176 0.18962823 0.01787995
-0.07061174 0.124270864 -0.06452437 -0.020051064 0.055723697 -0.001980068 -0.14335155 0.1875713
-0.06934372 -0.1134345 -0.045389224 0.116618305 0.15670195 -0.07205381 0.11102388 -0.18589762
-0.19217934 0.21092801 -0.15855365 0.03091745 -0.12682764 -0.096231915 -0.13488661 0.041652318
0.005336497 0.08094128 -0.08470576 -0.14712967 -0.2607983 0.118385725 -0.19929197 0.09605294
-0.10490567 -0.13917835 -0.11495718 -0.1585832 -0.17890106 0.091744766 -0.013773388 -0.092361495
0.034586493 -0.05282295 0.13802317 0.12119278 0.17325309 -0.121409036 -0.09859505 -0.22646311
-0.13166325 0.20998019 -0.07328754 0.09085458 -0.22751649 -0.20307891 0.069520675 -0.16718729
-0.021644816 -0.19017209 0.15235294 -0.013675964 0.18775985 0.20309886 -0.1713222 0.06311928
0.09230392 -0.12928848 -0.030986466 -0.0345266 0.12489037 0.07445003 0.19560577 0.019427389
0.11760753 -0.19519207 0.19378938 -0.18494521 -0.1529178 -0.10490307 -0.15358543 -0.015687548
-0.09714505 -0.10533247 0.06787614 0.20869048 -0.0622492 0.1906469 -0.14998057 -0.101780005
0.07214753 0.061696496 0.07527235 -0.1646902 0.16012244 0.08806698 -0.116651066 0.06456147
0.10265867 -0.20455438 -0.17784205 -0.18121168 0.21253671 -0.10237151 -0.059422057 -0.106213555
-0.15977809 -0.032824002 -0.18868731 0.0063610733 -0.14567298 0.17837761 0.040900625 0.029636813
0.120737195 -0.09496502 0.17416741 -0.18297158 -0.042832065 0.20521677 -0.07990164 -0.035703685
0.06701897 0.047616437 0.17628567 -0.021061983 -0.19013576 -0.09704525 -0.03314713 0.18240143
-0.0852487 -0.17530538 -0.1409912 -0.17321259 -0.16002183 -0.0030253225 0.057347804 -0.04681783
0.17642516 0.035138734 -0.067359164 -0.21687563 0.1532312 -0.027724702 -0.18301542 0.09024024
0.18486844 0.078659914 -0.22037756 -0.00084162276 -0.18613155 0.008066431 -0.071635425 1.2444357e-05
0.010528234 -0.12023335 0.1522262 -0.15324524 0.015657812 0.047847897 -0.14102462 -0.046762176
0.15001963 -0.06282353 0.01459503 -0.1748635 -0.033032026 -0.15015608 -0.20717278 0.083928995
0.13946837 -0.11753208 0.14819877 0.089906566 -0.15174197 0.081431895 0.088560194 -0.03791412
0.14334323 -0.15575248 0.1548994 -0.00027639384 -0.103639275 -0.016274784 0.038207795 -0.06615709
-0.030003672 -0.18878667 -0.08081442 -0.17645973 0.09807365 0.15984029 -0.06410276 -0.044506595
-0.07306218 -0.0023440542 0.0054921494 -0.10298135 -0.039972275 -0.15181741 0.09765576 0.037470117
0.12735684 -0.061834242 -0.13403396 -0.065370254 0.18481942 0.046442233 -0.17391732 -0.04257732
0.16438405 -0.10917148 -0.05155293 0.18097402 0.17388663 -0.1840081 0.11934506 -0.12955895
0.083807305 -0.017570943 0.07152864 0.00924392 0.026872925 -0.06272131 0.028948091 -0.022385266
0.12030182 0.20695023 0.08089887 -0.06333641 -0.1474262 0.13007446 -0.09759988 0.21940154
0.12514433 -0.13709436 0.061813362 -0.20749258 0.13959733 -0.1242955 0.1469061 0.12678488

model.encoder.bn1.weight f4 [64]
00000000: 9c49 793f 4dcb 803f 5440 843f 84e8 7f3f
00000010: f94c 803f 8dad 7f3f 0f60 7e3f 5b4e 7f3f
00000020: 0000 803f 9d74 7f3f c1e3 7f3f 0000 803f
00000030: 0000 803f a9d5 7b3f e6e3 803f c424 7a3f
00000040: 48ee 7e3f 55f9 7b3f 0000 803f f1a2 813f
00000050: fecc 7e3f fa2f 803f f4b0 7f3f 0000 803f
00000060: e56c 7c3f be7b 793f 9723 803f a5fe 7f3f
00000070: 0000 803f b2b8 7e3f d68f 7b3f 596a 823f
00000080: 056f 803f bc27 7c3f 0302 7f3f 9857 7e3f
00000090: 0055 7f3f fe13 813f 4167 7c3f aa8b 7b3f
000000a0: 80a5 803f 4232 803f 9582 813f 2216 813f
000000b0: 0000 803f 9980 823f 0000 803f 32a0 803f
000000c0: 9d02 7e3f 79d6 7a3f 21bf 833f f0c4 7e3f
000000d0: 01da 803f 9272 833f 0000 803f db60 793f
000000e0: 28a8 813f d3eb 813f 39e7 7d3f 1cd1 803f
000000f0: 4aed 803f b390 7d3f a4fc 7e3f 0000 803f
0.97377944 1.0062042 1.0332131 0.99964166 1.002349 0.9987419 0.99365324 0.99728936
1.0 0.9978731 0.999569 1.0 1.0 0.98372895 1.0069549 0.9771235
0.9958234 0.98427325 1.0 1.0127851 0.99531543 1.0014641 0.99879384 1.0
0.9860366 0.9745444 1.0010861 0.9999793 1.0 0.9950057 0.9826635 1.0188705
1.003388 0.9849813 0.99612445 0.9935241 0.99739075 1.0084226 0.9859505 0.98259985
1.0050507 1.0015337 1.0117975 1.0084879 1.0 1.0195495 1.0 1.0048888
0.9922274 0.9798351 1.0292703 0.9951925 1.006653 1.0269339 1.0 0.97413415
1.0129442 1.0150093 0.9918094 1.0063815 1.0072415 0.9904892 0.9960425 1.0

model.encoder.bn1.bias f4 [64]
00000000: 6cea 23bd 36c2 f3bc 65d2 c83c d5f9 42bd
00000010: fd32 3ebd d123 003b 3f91 583c 795a 75bc
00000020: ae65 5fbd c1d0 583c 3a9c 8ebc c257 243a
00000030: 52d3 2ebd 63e4 acbc a9a2 dfbc 3abd 98bc
00000040: e609 8e3c 3db7 81bd 574b fbbb 3725 2f3c
00000050: 822a 363d 50aa 02bd 980b 523d ad0f c9bc
00000060: d5bc 9fbb 65cb 43bb db63 203b 9135 b13c
00000070: a6d0 ecbb 1bdb 1a3d e4a1 8bbb 4120 4e3d
00000080: bc57 4f3d 9e60 94bc ec77 a53b 5781 4d3d
00000090: ed4d c73b 8d36 823c 3946 ec3c ab81 59bc
000000a0: 501d 01bd 83cd 67bc 0260 b33c a71a b93c
000000b0: 28d7 443d c100 5d3c a2c3 2a3c 4ba6 1abd
000000c0: 71a3 d43c fc9c 23bc f7d1 c03c ea6c 0c3b
000000d0: 65b6 a83c a52e 00bd e5fc 8e3c 323c 17bd
000000e0: 2164 be3c 800e 71bd c482 153d d657 6a3c
000000f0: d8d5 f5bb 2799 9f3c b699 1d3d d8ae 233d
-0.040018484 -0.029755693 0.024514386 -0.04760154 -0.046435345 0.0019552598 0.013218223 -0.014975184
-0.05454033 0.013233365 -0.017408479 0.00062691804 -0.042682 -0.021104997 -0.027299242 -0.018644918
0.017338704 -0.06333778 -0.0076688933 0.010690025 0.044474132 -0.031900704 0.051280588 -0.024543608
-0.0048748055 -0.0029875871 0.002447358 0.021631988 -0.0072270213 0.03780661 -0.004261242 0.05032373
0.05062078 -0.018112477 0.005049696 0.050172176 0.0060822875 0.015895152 0.028842079 -0.013275544
-0.031522095 -0.014148119 0.021896366 0.022595717 0.04805675 0.013488949 0.010422619 -0.037756246
0.025956841 -0.009986158 0.023537619 0.0021427223 0.020594785 -0.031294484 0.017454574 -0.03692264
0.023241105 -0.05885172 0.03650166 0.014303168 -0.007502299 0.019482208 0.03847667 0.039961666

model.encoder.bn1.running_mean f4 [64]
00000000: f1a2 233d f304 d13d 8496 c03b faa8 5d3d
00000010: 79b1 333e 9e11 0b3c 15ef 8c3d 06f6 eb3a
00000020: 0000 0000 a34b e137 dd69 853b 0000 0000
00000030: 0000 0000 9614 ca3c 5b9e f13b c2a3 8a3d
00000040: f2e2 9f3c 3f2f 533e 0000 0000 537b 2b3d
00000050: bf5b af3a f71d a53d 75c8 163d 0000 0000
00000060: 35f8 043e 1d8c d73d b9ea 383d 6c23 8e3c
00000070: 0000 0000 f35d e03d dc6d c03d ed85 803c
00000080: fd67 e43c 1d33 353b f5b5 623d 6a1c 073b
00000090: bd11 a23d 004c 053e 5dbb 833c fd20 203e
000000a0: 5749 843e 086e 883d 1283 3c3e a708 173d
000000b0: 0000 0000 20c4 463c 0000 0000 1870 813c
000000c0: 381a 1b3e 3903 0f3d 4bd8 223b b7ed 9d3d
000000d0: 9283 e23c 6666 563b 0000 0000 d12d 5a3e
000000e0: 72ae 163d 418b a83b 51ae 502a 0ae3 b73d
000000f0: ce20 de3c be93 ef3a 8b80 8d3d 0000 0000
0.039950315 0.10206022 0.005877318 0.054116227 0.17548169 0.008488087 0.06881539 0.0018002398
0.0 2.6857311e-05 0.004071458 0.0 0.0 0.02466802 0.007373614 0.067695156
0.019517396 0.20623492 0.0 0.041865658 0.0013378783 0.08062356 0.036812264 0.0
0.12985308 0.10524771 0.045145724 0.017350875 0.0 0.109554194 0.09395954 0.01568886
0.027881617 0.0027648874 0.05534931 0.0020616301 0.079135396 0.13017273 0.016080553 0.15637584
0.25837204 0.06661612 0.18409374 0.036873486 0.0 0.012131721 0.0 0.01580052
0.1514672 0.034915183 0.002484816 0.07711356 0.027650628 0.0032714843 0.0 0.2130654
0.036787458 0.0051435535 1.8534589e-13 0.08978851 0.027115252 0.0018278284 0.06909283 0.0

model.encoder.bn1.running_var f4 [64]
00000000: e57a e73a 4f24 4a3b 4762 9639 a566 5d3b
00000010: dc87 da3a 87aa d139 fb38 c13b 8b59 5339
00000020: 5d63 c731 6e7c d634 3292 d338 5d63 c731
00000030: 5d63 c731 b349 953a f967 9239 85af 803b
00000040: d1e1 a23a 1391 f93a 5d63 c731 33ae 4f3b
00000050: 9fff c238 9105 c23b 50cd fc3a 5d63 c731
00000060: f5c0 dd3b ee30 c33b c767 7b3b 685b 793a
00000070: 5d63 c731 74be 2d3c 8273 193b ad9d 8a3a
00000080: bfdb a63a d856 7939 9f4a b73b 592d db37
00000090: 2ad5 263c 28ea 913a e57d 9c3a 4989 223b
000000a0: 7d43 203b 255a ff3b 379e f139 4308 233b
000000b0: 5d63 c731 5f54 7f3a 5d63 c731 c7fa 4e3a
000000c0: da01 4d3b 2949 3d3b 20fb 2738 9ee6 9a3a
000000d0: 10de f53a a373 f339 5d63 c731 e914 363b
000000e0: 127a 433b a7a1 0e39 5d63 c731 5ad8 aa3b
000000f0: f65a e53a c594 2239 3a3c f73b 5d63 c731
0.0017660527 0.0030844396 0.00028683452 0.0033783105 0.0016672569 0.0003999064 0.005896685 0.00020155885
5.8029586e-09 3.995114e-07 0.00010088495 5.8029586e-09 5.8029586e-09 0.0011389762 0.00027924756 0.0039271736
0.0012426918 0.0019040428 5.8029586e-09 0.0031689524 9.298254e-05 0.0059210737 0.0019287262 5.8029586e-09
0.006767387 0.0059567606 0.0038361417 0.0009512217 5.8029586e-09 0.01060449 0.0023414795 0.0010575555
0.0012730284 0.00023778842 0.0055936123 2.6127951e-05 0.010182658 0.0011132406 0.0011939375 0.0024801067
0.0024454289 0.0077927285 0.0004608498 0.002487675 5.8029586e-09 0.00097400503 5.8029586e-09 0.0007895645
0.0031281621 0.0028882718 4.004978e-05 0.0011817997 0.0018758196 0.00046434728 5.8029586e-09 0.002778346
0.0029827398 0.00013602395 5.8029586e-09 0.0052137794 0.0017498422 0.00015504945 0.0075450214 5.8029586e-09

model.encoder.bn2.weight f4 [64]
00000000: 7057 863f 545e 7b3f 9cdd 813f 1264 7d3f
00000010: cf69 823f dca5 813f f37c 853f 0011 823f
00000020: d15e 793f ebfa 833f 01ae 803f 4721 893f
00000030: 695d 7f3f b762 803f bb52 823f 4e98 7f3f
00000040: 5fc4 7e3f 6e07 7d3f 55b9 823f 7f49 803f
00000050: b350 7b3f da2d 813f bbec 7e3f 4b3e 803f
00000060: 13e2 803f 022e 813f 47d0 823f b2aa 783f
00000070: 63ad 813f 5670 803f cdea 813f 1727 8b3f
00000080: d155 803f 0ccc 763f 538f 803f 721b 813f
00000090: 4522 833f 6446 823f 5833 813f 674e 7e3f
000000a0: 8494 7b3f 4f06 7f3f 59ad 873f 7370 823f
000000b0: 199d 803f 45f2 803f 3c1b 803f dfd4 7e3f
000000c0: 418d 7f3f a74b 803f c261 843f b218 813f
000000d0: 7f2a 883f c10c 7d3f 7875 7b3f bfee 843f
000000e0: 0fb9 803f 9570 7d3f 4ad5 813f 24ee 7c3f
000000f0: 4d9d 813f 6750 813f c8a1 863f c05a 7e3f
1.0495434 0.9819081 1.0145755 0.9898082 1.018854 1.0128741 1.0428756 1.0161438
0.97410303 1.0310949 1.0053102 1.071328 0.9975191 1.0030125 1.0181497 0.99841774
0.9951839 0.9883946 1.0212809 1.0022429 0.9817001 1.0092118 0.9957997 1.001901
1.0068992 1.0092165 1.0219811 0.9713546 1.0131038 1.0034282 1.014978 1.0871304
1.0026189 0.964051 1.0043739 1.0086501 1.0244833 1.0177732 1.0093794 0.9933838
0.9827349 0.99619 1.0599777 1.0190567 1.0047942 1.0073935 1.0008311 0.99543566
0.9982491 1.0023087 1.0342333 1.0085661 1.0637969 0.98847586 0.9822612 1.038536
1.0056475 0.9899991 1.0143216 0.98800874 1.0126129 1.0102662 1.0518122 0.99357224

model.encoder.bn2.bias f4 [64]
00000000: 6437 f63c a403 c5bc 7298 cd3c 3811 b6bb
00000010: 8520 7d3c e96d 3f3b 4dcb 083d b1dd d03c
00000020: 6eaf d4bc 2bab 0d3d e6e4 153c 6711 7c3d
00000030: 16f4 14bc d64b b13c eb06 2bbc 2427 adbb
00000040: 8542 87bc c3a5 de3b c3e1 393a d255 d5bb
00000050: cf4b f6bc 7ee1 fe3b 4b67 59bc 6ccb 8a3b
00000060: 395f 213c 141c cfbc b08e 883c cd6d cdbc
00000070: cb31 ab3b 13f2 093c 2e3e e73b a8c7 913d
00000080: 5397 20ba b8a1 d4bc 36b6 e23b b2c8 c3bb
00000090: 958b 9a3b 84ea 433d 580f 803c 5fde b6bc
000000a0: 0eb3 a43b f777 02bc 4307 243d 9b5e 933c
000000b0: 945f ecbb 25da 3b3b 5583 4abc f1d5 863c
000000c0: 56ba 6a3b 28b4 bdba fc64 453c ea18 073c
000000d0: 0f5b 2a3d 0061 3cbc e65e 99bb e868 1b3d
000000e0: 2899 673c fb26 3fbc fbbf b53c 8c3f 333b
000000f0: a9f6 1abc 2ade 813b dbd9 fd3c f3f5 bbbb
0.03005571 -0.024049588 0.025097106 -0.005556252 0.015449648 0.0029209799 0.033397008 0.025496336
-0.025962558 0.034587067 0.009148812 0.061540034 -0.009091398 0.021642607 -0.010438661 -0.005284207
-0.016511211 0.0067946627 0.0007090831 -0.0065104747 -0.030065445 0.0077783456 -0.013269256 0.0042356756
0.009849363 -0.025281943 0.016669601 -0.025076771 0.0052244416 0.008419531 0.007056973 0.071181595
-0.00061260647 -0.02595602 0.006918694 -0.0059748525 0.0047163465 0.047831073 0.015632316 -0.022322832
0.005026228 -0.007963172 0.040045988 0.017989447 -0.0072135422 0.002866396 -0.012360414 0.016459437
0.0035816631 -0.0014473246 0.012048002 0.008245686 0.041590746 -0.011497736 -0.004680502 0.037941843
0.014135636 -0.0116670085 0.02218627 0.002735111 -0.009458222 0.0039632516 0.03098767 -0.0057361065

model.encoder.bn2.running_mean f4 [64]
00000000: eb37 623d 23f2 b43e 4f7a a53e 8c76 6b3e
00000010: 02dd 1a3e 360a 503e c9e8 313e 7add b73e
00000020: 9ad9 8b3e fdb1 4c3e 7bee 053f 872a 453e
00000030: ec0c a13e dcf8 733e ab29 f53c 606f ba3e
00000040: 70f8 0b3e 1bd2 653e 2c53 0b3e 6db2 623e
00000050: 2142 b33e acc8 043e f183 903e 2bde 443e
00000060: 4731 7f3e 1f40 8c3e 820a 0d3e 2804 133e
00000070: 2d79 6e3e da96 083f 84ae 1a3e 86a8 193d
00000080: 08a7 a13e 1ef0 1b3f 5105 1d3e 483f 8c3e
00000090: 72b0 ff3d 95a8 353e 012d b43e cfc2 113f
000000a0: 54e8 bd3e 3094 803e 172e 243e 7998 113e
000000b0: ff32 163e 0b86 6c3e be62 303e e1d7 a23e
000000c0: 1458 573e 7fdf 133e 8bc0 303d d208 a73e
000000d0: 16ee 603d 54e8 003f 4577 e23e 57c5 aa3d
000000e0: e86e bf3e 5dc8 4b3e 72fc 3d3e 8209 953e
000000f0: 5b9e 4a3e 82b4 423e 5b12 173e 55db 933e
0.05522911 0.35340986 0.32319877 0.22994441 0.1512337 0.20316395 0.17373957 0.3591116
0.27314454 0.19989772 0.5231702 0.19254504 0.3145517 0.23825401 0.029927095 0.36413097
0.1366899 0.2244343 0.13605946 0.22138377 0.3501139 0.12967175 0.28225663 0.19225375
0.24921142 0.2739267 0.1377354 0.14357054 0.23288412 0.5335518 0.15105635 0.037514232
0.31572747 0.60913265 0.1533406 0.2739203 0.12484826 0.1774009 0.35190585 0.5693788
0.37091315 0.25113058 0.16033207 0.1421832 0.14667891 0.23098008 0.17225167 0.31805328
0.21029693 0.14440726 0.043152373 0.32623917 0.054914556 0.50354505 0.4423162 0.08338421
0.37389302 0.19900651 0.18553331 0.29108816 0.1978697 0.19014171 0.14753096 0.28878275

model.encoder.bn2.running_var f4 [64]
00000000: 2863 7a3c cc11 483e 3238 a83d ccec 2f3e
00000010: 952f ac3d c082 d93d 4c44 143d 337a 513e
00000020: 756e 493d 25ac 193d 3bc1 013f c9e6 773d
00000030: f26e 643e 58bc b13e 974f 953c eec8 403e
00000040: c5a5 363d f57d 043e 7ff0 a03d 2cde 083e
00000050: b852 cd3e f838 1a3d 3484 823e f543 283e
00000060: 4acc 353e ae3c 483e 590e 6e3d 2560 693d
00000070: aedd 783e 5f35 423e 40cf fc3c 028d b03b
00000080: 7ba4 af3e d0e2 743f 86ab 1a3d 41ae 8c3e
00000090: 6505 8e3d 0c0e af3c 68d9 cd3d 6835 1e3f
000000a0: 0584 1d3e 4c90 5d3e 50d1 f43d b65b 933d
000000b0: 45e9 4c3d 0c52 6a3e 8c83 d43e 2555 973e
000000c0: 3feb e23d 84b6 b03d cfb5 0d3c 5d5f 9d3e
000000d0: d5b9 4b3c b866 5d3f a7e2 9e3e ede4 683c
000000e0: 6531 0b3f f7a3 503e 7f47 923d 6967 c63e
000000f0: d4e0 e13d 6944 b23d b63c ec3c 865c eb3e
0.01528243 0.19538039 0.082138434 0.17180175 0.08407513 0.10620642 0.036197945 0.20456772
0.049177606 0.037517685 0.5068547 0.06052283 0.22307947 0.34714007 0.018226428 0.18826649
0.044591684 0.12938674 0.07858371 0.13366002 0.40102172 0.037651986 0.25491488 0.16432174
0.17753711 0.19554397 0.05811915 0.056976456 0.24303314 0.18965672 0.030860543 0.005387903
0.34305176 0.9565859 0.037761234 0.27476695 0.06934623 0.021369003 0.100512326 0.6180024
0.15382393 0.21637076 0.11953986 0.07195227 0.05002715 0.22882861 0.41506612 0.29557148
0.11080026 0.08628562 0.008649304 0.3073682 0.0124344425 0.8648486 0.31032297 0.014214736
0.54372245 0.20375048 0.07142543 0.3875077 0.11029211 0.087044545 0.028837543 0.45969027

model.pooling_fn.gate_nn.0.weight f4 [64, 64]
00000000: 8526 f8bd 5ad6 47bd 0921 933d b2a8 87bc
00000010: c9ad 83bd 5d22 a5bd e05e c8bc f37e 80bd
00000020: 000c 80bd 2169 9ebd e241 58ba dfba 01be
00000030: 18d5 bb3d bbf4 ae3b b504 a6bd 10a0 4c3c
00000040: 1eba 983c df8c bebd d54f 9bbd 5a65 563d
00000050: 1f45 f03c 73a8 403d a388 7d38 c9af c13d
00000060: a32f 843c fd46 08be 2d1f f43c 8714 f6bd
00000070: 5762 5ebd 02c3 efbd 94ef 6dbc f8c9 903d
00000080: 862b ae3d 23c5 ae3c 753d adbc 6131 9dbd
00000090: 2d72 a2bc 4b13 05be 6d22 54bd 977e 00be
000000a0: f1c1 153d ebf2 8dbd 40d3 dfbc 2a9d 033b
000000b0: 3dd0 773d 4260 b9bc ad96 2cbd da35 a63d
000000c0: a3c0 70bd d581 e7bd eb67 94bd afc3 e33d
000000d0: 6dad 5c3d 30fd c4bc 27e9 3c3d bfd9 9c3d
000000e0: b76d 453c 8178 8d3b 01f8 debd 2a03 50bb
000000f0: 9da8 7d3d 6040 713d 1931 bfbd 3200 cf3d
00000100: 3e14 843d 502e 1c3e 3cc6 10bd 07a2 85bd
00000110: c6d8 bcbc b96e e73d 78b2 df3d f667 6e3c
00000120: 71bd 9fbd dc84 d83d 8959 e2bc 1604 133c
00000130: 496e 8e3c 9f06 52bc 8e05 a13d d420 8a3a
00000140: a97f 62bd 4be8 c8bd 1846 853d 95ed 913d
00000150: f756 bcba 592d 093e f8da ec3d a4bd febd
00000160: a771 c0bd 6bd0 87bd 40f3 963d 8eba 993d
00000170: 16b1 07be 5d22 823d 2cf6 48bd 9403 2c3e
00000180: 7780 b1bd 6601 b0bd 23c8 a33c 26af a7bd
00000190: 77f9 a6bd ab59 013e e574 da3d c8f3 bcbd
000001a0: 89a9 b8bd 165b b23d 58ab 58bd bb62 893d
000001b0: 4b0d 5dbd 8630 4cbd 2839 53bd 9005 833d
000001c0: 2324 93bc c1d1 5a3d f195 ab3d 5b05 013e
000001d0: 761e 903d 9259 f33b 5e4f 32bd 7984 87bd
000001e0: a358 bdbd 6b48 3c3c 3b35 603d 71a0 41bc
000001f0: 30a0 d6bd 3e75 653d d54f a9bc 5a77 8dbd
00000200: f9cb 9f3d 8b00 8f3c cca8 d8bc 5a08 773b
00000210: 656a 6abc d7f3 fbbc 04fc 01bd 7c02 3dbc
00000220: 8a24 e1bd 1b31 6abd 2508 a1bd bd97 f3bc
00000230: 4cf4 9dbc 990e 8dbd bda4 28bd 1a06 133d
00000240: f18e b7bd c255 40bc 8012 70bc e6ed f93d
00000250: a283 93bc 625d 80bb c0bc fa3c 837e e9bc
00000260: c20f d2bd 2797 44bd 1230 373d a64f ca3d
00000270: 38f3 89bd 9c2e 0c3b f02c 32bd 25ba 64bd
00000280: f14c ffbd d06c cd3d 6359 f83d d128 533d
00000290: 7902 cebd f143 de3c 6d4b cd3d 3596 05be
000002a0: b967 733d e261 69bc 7b14 0abd 3dd4 b03d
000002b0: 8ca5 98bd 7968 ff3d 0b85 613d 6209 8ebd
000002c0: 7c80 1e3c 7980 d83d d87d b33c b284 d3ba
000002d0: bf0e 783c d14e c1bd e6be ec3d 39c2 6abb
000002e0: b5cb de3d 0008 353d 10cd 0abe fa49 c4bd
000002f0: 1d98 91bd c971 23bd 757d b6bd 566a 9ebd
00000300: 1458 e73d f40c acbc 9263 ccbc 0a42 043d
00000310: f7e3 973d b671 d1bd 5dd4 f73d 4113 cf3d
00000320: 4f42 adbb 50fe 923d 889b 06be 9bc9 3c3d
00000330: d84f e13d bf5a 1c3e b3a2 633d 5464 a43d
00000340: 7a57 aa3d b63d 00bd 6711 483c 2c8f 113a
00000350: 6778 a1bd aa98 2c3d c7f0 813d 74cb a0bd
00000360: 5d90 0dbe 444d 10bd 8bb8 9a3d ed50 e7bc
00000370: 570b 16bc ac8b e4bd db0f 433b b122 92bd
00000380: 01e5 0cbe 4dce a0bd 3662 a5ba 8587 02be
00000390: 5a95 5abd a7b2 76bd d442 6ebc a5f7 913d
000003a0: 95aa 1f3e f5cd 36bd cd2d b63d e071 4abd
000003b0: 28a0 9a3d d4e9 cabd c1e9 18bd b916 123d
000003c0: 5089 7cbd 7d24 913d 0cda b7bd 8a40 333d
000003d0: f09e c7bd 828c b2bd 5741 163d 7974 5bbd
000003e0: 584b 833d 9f14 f83d 2d96 7f3c 2e5c 7abd
000003f0: f82c 82bc 0e9c 263d 0748 083c 6227 0e3e
-0.12116722 -0.048788406 0.07184035 -0.016559932 -0.06429631 -0.08063195 -0.024459302 -0.06274214
-0.06252289 -0.077348955 -0.00082495634 -0.12668942 0.09171504 0.0053392327 -0.081063665 0.012489334
0.018643435 -0.09304213 -0.07583586 0.05234275 0.029329835 0.047035646 6.0447153e-05 0.094573565
0.016135996 -0.1330833 0.029800022 -0.12015634 -0.054293003 -0.11707117 -0.014522452 0.070697725
0.08504395 0.021334236 -0.021147469 -0.07675434 -0.019829834 -0.12995641 -0.051790643 -0.1254829
0.03656191 -0.069310986 -0.027322412 0.002008269 0.060501326 -0.022628907 -0.042135883 0.0811574
-0.058777463 -0.1130406 -0.07246383 0.11121308 0.05387633 -0.02404651 0.04612079 0.07658719
0.012050084 0.0043173437 -0.10887147 -0.0031740167 0.06192838 0.058899283 -0.093355365 0.10107459
0.064491734 0.15252042 -0.0353453 -0.06525045 -0.023052584 0.113004155 0.10922712 0.014551153
-0.07799805 0.10572216 -0.027630584 0.008973142 0.017386572 -0.012818961 0.078623876 0.0010538348
-0.055297527 -0.09809931 0.0650751 0.07125393 -0.0014369179 0.13396205 0.115652025 -0.12438515
-0.093966775 -0.066315494 0.07370615 0.075062856 -0.13251147 0.063542105 -0.049062893 0.1679824
-0.08667081 -0.08594017 0.019992894 -0.08187704 -0.081530504 0.12631862 0.10666827 -0.09226185
-0.09016711 0.087087795 -0.05289778 0.067082845 -0.053967755 -0.049850963 -0.05156818 0.06397545
-0.017961567 0.053422693 0.083782084 0.12599699 0.0703706 0.007426449 -0.04353272 -0.06617064
-0.09245422 0.011491875 0.054738265 -0.011818037 -0.10479772 0.056020014 -0.02066795 -0.0690753
0.078025766 0.017456314 -0.026447676 0.0037694187 -0.014307593 -0.03075592 -0.03173448 -0.011536237
-0.109932974 -0.057175737 -0.078628816 -0.02973544 -0.019281529 -0.0688755 -0.04117273 0.03589449
-0.08962811 -0.011739196 -0.014652848 0.12203579 -0.018007103 -0.003917382 0.030607581 -0.028502708
-0.10256912 -0.047995713 0.044723578 0.09878473 -0.067358434 0.0021390086 -0.043499887 -0.055841584
-0.12465847 0.1003052 0.12126424 0.051552597 -0.10059065 0.027132006 0.10024152 -0.1304558
0.05942509 -0.0142445285 -0.033710938 0.08634231 -0.074534506 0.124710985 0.05505852 -0.069353834
0.009674188 0.10571379 0.021910593 -0.0016137569 0.0151402345 -0.09438861 0.115598485 -0.0035821332
0.10878698 0.044197083 -0.13554788 -0.095844224 -0.071090914 -0.039903436 -0.08910648 -0.07735126
0.112960964 -0.02100227 -0.024949823 0.032289542 0.07416528 -0.10226767 0.12101052 0.10111094
-0.0052874456 0.071774125 -0.13145268 0.046090703 0.11001557 0.15268992 0.055575084 0.080269486
0.08317466 -0.031308852 0.01221118 0.00055526453 -0.07884293 0.04213778 0.06344753 -0.078513056
-0.13824601 -0.035229936 0.0755473 -0.02823683 -0.009157977 -0.11159453 0.002976409 -0.07135523
-0.13759233 -0.07851849 -0.001261777 -0.12747009 -0.05336509 -0.06022897 -0.0145423 0.071273126
0.15592416 -0.04463001 0.088954546 -0.049425006 0.07550079 -0.099078804 -0.0373323 0.0356662
-0.06165439 0.07087038 -0.08977136 0.04376272 -0.09747112 -0.08718206 0.036683407 -0.053577874
0.06410855 0.12113308 0.01559977 -0.061123066 -0.015890583 0.04067617 0.008317954 0.13882211

model.pooling_fn.gate_nn.0.bias f4 [64]
00000000: 960e 9dbd 7da4 bdbc 0010 eb3d 874c e839
00000010: 6745 07bc 6075 b2bd c3c5 8dbd 3d6c 863d
00000020: 8211 743d bc93 393c 5ba5 d7bc 01e3 083e
00000030: dd6b f6bd af9b 6b3d 7215 9e3d b12d a7bd
00000040: f9a0 203d b5c2 673d 2bf3 9e3d e3b4 d0bd
00000050: 416a 91bd 7522 60bd fe10 d6bb 0e34 9bbc
00000060: 944f eebd 3401 833c 61bf a3bd b970 fdbc
00000070: f8fa 913d e484 54bc 4fe6 0ebc aa47 ebbd
00000080: 09c1 70bc 3b94 3fbd 796b 303c 09a3 bbbd
00000090: 1dbe 8bbd 540a c73d aa2c d63d 989b bb3d
000000a0: fe66 ff3c 6df6 8dbd 4f12 e13d 10b1 023e
000000b0: 9377 cabd ff07 a43d 346e eb3d da95 8a3d
000000c0: c91e 9e3b a04b 803d b6be 0ebd 1c98 8f3d
000000d0: 1d0f 633d 487f 193e 041d f5bd ce91 913d
000000e0: 8094 1fbe e58f da3d c963 bd3c 35ae b5bb
000000f0: 641c 2bbd 5ae7 3dbd 43a4 d1bd 5f78 d5bc
-0.07668798 -0.023149723 0.11477661 0.00044307506 -0.008256293 -0.08713794 -0.06922486 0.065636136
0.05958701 0.0113267265 -0.026323965 0.13367845 -0.12032292 0.05752152 0.07718934 -0.08163012
0.039216015 0.05658217 0.07761224 -0.101907514 -0.071003444 -0.05472036 -0.0065327873 -0.01894572
-0.11636272 0.015991785 -0.07995487 -0.03093754 0.071279466 -0.012971137 -0.008721902 -0.11488278
-0.014694461 -0.046772223 0.010767811 -0.09161956 -0.068233706 0.09718767 0.10457738 0.091605365
0.03117704 -0.069317676 0.1098982 0.12762856 -0.09886088 0.08009338 0.11495629 0.06766863
0.004825447 0.06264424 -0.034849845 0.070114344 0.055434335 0.1498996 -0.11968425 0.07107888
-0.15583992 0.10671977 0.02311887 -0.0055444487 -0.041775122 -0.046363212 -0.102364086 -0.026058374

model.pooling_fn.gate_nn.2.weight f4 [1, 64]
00000000: ad06 abbd a4cb 4f3d f874 e6bd 94ab 77bd
00000010: a683 0cbe cee6 01be c25b f03d 1a84 cfbc
00000020: be4c 77bd 3b10 103e 69e1 b63d 9b99 b53d
00000030: 2384 b9bd 400b ec3c 6d83 cabd 58e6 7ebc
00000040: 0362 0d3e 7f71 5e3c d3c9 e2bc df9e d43d
00000050: c83b 9b3c 83be 013d 4a9c 2d3c 4cd7 e1bc
00000060: 9c70 793c 4856 d83d 4407 323d 9e87 2cbd
00000070: 228e d8bd 7b3a 05be 6571 e5bc 64b4 b7bd
00000080: 4a3f 06bd 457f 06be 7d0b 7c3d 2b36 ee3d
00000090: 6033 f8bb 8f07 4ebd 5a8f 053e 4495 b2bb
000000a0: 3206 58bd 7493 ebbd abf3 9cbd f595 e7bc
000000b0: a1ca 0e3d 0588 dabd 2ed7 8fbd 2840 8dbd
000000c0: a6db 973d 20ab db3d f063 a3bd c395 873d
000000d0: ddb3 a9bc 0da9 a5bc 66a1 72bd dbc0 46bd
000000e0: 20b8 c3bc b330 e0bc f5a6 f13d 2c91 53bd
000000f0: 0625 533d 1214 5f3d e638 66bd 44f7 36bd
-0.08350883 0.050731316 -0.11252779 -0.060466364 -0.13722095 -0.12685701 0.117362514 -0.025331546
-0.06037592 0.14068691 0.08929712 0.088671885 -0.09058406 0.028813958 -0.09888349 -0.015557848
0.1380692 0.013576864 -0.027684128 0.10381865 0.018949404 0.031675827 0.010596344 -0.027568482
0.015224602 0.10563332 0.04346396 -0.042121522 -0.10573985 -0.1301059 -0.028008172 -0.08969954
-0.0327752 -0.13134487 0.061534394 0.116314255 -0.0075744838 -0.050300177 0.13042966 -0.0054499228
-0.052740283 -0.11502734 -0.076636635 -0.028269747 0.03486121 -0.10670475 -0.07023464 -0.068970025
0.074149415 0.10725999 -0.07978046 0.06620362 -0.020715648 -0.020222211 -0.059235953 -0.048523765
-0.023891509 -0.027366972 0.11799423 -0.05165212 0.05154898 0.0544625 -0.056206606 -0.044669405

model.pooling_fn.att_pool.gate_nn.0.weight f4 [64, 64]
00000000: 8526 f8bd 5ad6 47bd 0921 933d b2a8 87bc
00000010: c9ad 83bd 5d22 a5bd e05e c8bc f37e 80bd
00000020: 000c 80bd 2169 9ebd e241 58ba dfba 01be
00000030: 18d5 bb3d bbf4 ae3b b504 a6bd 10a0 4c3c
00000040: 1eba 983c df8c bebd d54f 9bbd 5a65 563d
00000050: 1f45 f03c 73a8 403d a388 7d38 c9af c13d
00000060: a32f 843c fd46 08be 2d1f f43c 8714 f6bd
00000070: 5762 5ebd 02c3 efbd 94ef 6dbc f8c9 903d
00000080: 862b ae3d 23c5 ae3c 753d adbc 6131 9dbd
00000090: 2d72 a2bc 4b13 05be 6d22 54bd 977e 00be
000000a0: f1c1 153d ebf2 8dbd 40d3 dfbc 2a9d 033b
000000b0: 3dd0 773d 4260 b9bc ad96 2cbd da35 a63d
000000c0: a3c0 70bd d581 e7bd eb67 94bd afc3 e33d
000000d0: 6dad 5c3d 30fd c4bc 27e9 3c3d bfd9 9c3d
000000e0: b76d 453c 8178 8d3b 01f8 debd 2a03 50bb
000000f0: 9da8 7d3d 6040 713d 1931 bfbd 3200 cf3d
00000100: 3e14 843d 502e 1c3e 3cc6 10bd 07a2 85bd
00000110: c6d8 bcbc b96e e73d 78b2 df3d f667 6e3c
00000120: 71bd 9fbd dc84 d83d 8959 e2bc 1604 133c
00000130: 496e 8e3c 9f06 52bc 8e05 a13d d420 8a3a
00000140: a97f 62bd 4be8 c8bd 1846 853d 95ed 913d
00000150: f756 bcba 592d 093e f8da ec3d a4bd febd
00000160: a771 c0bd 6bd0 87bd 40f3 963d 8eba 993d
00000170: 16b1 07be 5d22 823d 2cf6 48bd 9403 2c3e
00000180: 7780 b1bd 6601 b0bd 23c8 a33c 26af a7bd
00000190: 77f9 a6bd ab59 013e e574 da3d c8f3 bcbd
000001a0: 89a9 b8bd 165b b23d 58ab 58bd bb62 893d
000001b0: 4b0d 5dbd 8630 4cbd 2839 53bd 9005 833d
000001c0: 2324 93bc c1d1 5a3d f195 ab3d 5b05 013e
000001d0: 761e 903d 9259 f33b 5e4f 32bd 7984 87bd
000001e0: a358 bdbd 6b48 3c3c 3b35 603d 71a0 41bc
000001f0: 30a0 d6bd 3e75 653d d54f a9bc 5a77 8dbd
00000200: f9cb 9f3d 8b00 8f3c cca8 d8bc 5a08 773b
00000210: 656a 6abc d7f3 fbbc 04fc 01bd 7c02 3dbc
00000220: 8a24 e1bd 1b31 6abd 2508 a1bd bd97 f3bc
00000230: 4cf4 9dbc 990e 8dbd bda4 28bd 1a06 133d
00000240: f18e b7bd c255 40bc 8012 70bc e6ed f93d
00000250: a283 93bc 625d 80bb c0bc fa3c 837e e9bc
00000260: c20f d2bd 2797 44bd 1230 373d a64f ca3d
00000270: 38f3 89bd 9c2e 0c3b f02c 32bd 25ba 64bd
00000280: f14c ffbd d06c cd3d 6359 f83d d128 533d
00000290: 7902 cebd f143 de3c 6d4b cd3d 3596 05be
000002a0: b967 733d e261 69bc 7b14 0abd 3dd4 b03d
000002b0: 8ca5 98bd 7968 ff3d 0b85 613d 6209 8ebd
000002c0: 7c80 1e3c 7980 d83d d87d b33c b284 d3ba
000002d0: bf0e 783c d14e c1bd e6be ec3d 39c2 6abb
000002e0: b5cb de3d 0008 353d 10cd 0abe fa49 c4bd
000002f0: 1d98 91bd c971 23bd 757d b6bd 566a 9ebd
00000300: 1458 e73d f40c acbc 9263 ccbc 0a42 043d
00000310: f7e3 973d b671 d1bd 5dd4 f73d 4113 cf3d
00000320: 4f42 adbb 50fe 923d 889b 06be 9bc9 3c3d
00000330: d84f e13d bf5a 1c3e b3a2 633d 5464 a43d
00000340: 7a57 aa3d b63d 00bd 6711 483c 2c8f 113a
00000350: 6778 a1bd aa98 2c3d c7f0 813d 74cb a0bd
00000360: 5d90 0dbe 444d 10bd 8bb8 9a3d ed50 e7bc
00000370: 570b 16bc ac8b e4bd db0f 433b b122 92bd
00000380: 01e5 0cbe 4dce a0bd 3662 a5ba 8587 02be
00000390: 5a95 5abd a7b2 76bd d442 6ebc a5f7 913d
000003a0: 95aa 1f3e f5cd 36bd cd2d b63d e071 4abd
000003b0: 28a0 9a3d d4e9 cabd c1e9 18bd b916 123d
000003c0: 5089 7cbd 7d24 913d 0cda b7bd 8a40 333d
000003d0: f09e c7bd 828c b2bd 5741 163d 7974 5bbd
000003e0: 584b 833d 9f14 f83d 2d96 7f3c 2e5c 7abd
000003f0: f82c 82bc 0e9c 263d 0748 083c 6227 0e3e
-0.12116722 -0.048788406 0.07184035 -0.016559932 -0.06429631 -0.08063195 -0.024459302 -0.06274214
-0.06252289 -0.077348955 -0.00082495634 -0.12668942 0.09171504 0.0053392327 -0.081063665 0.012489334
0.018643435 -0.09304213 -0.07583586 0.05234275 0.029329835 0.047035646 6.0447153e-05 0.094573565
0.016135996 -0.1330833 0.029800022 -0.12015634 -0.054293003 -0.11707117 -0.014522452 0.070697725
0.08504395 0.021334236 -0.021147469 -0.07675434 -0.019829834 -0.12995641 -0.051790643 -0.1254829
0.03656191 -0.069310986 -0.027322412 0.002008269 0.060501326 -0.022628907 -0.042135883 0.0811574
-0.058777463 -0.1130406 -0.07246383 0.11121308 0.05387633 -0.02404651 0.04612079 0.07658719
0.012050084 0.0043173437 -0.10887147 -0.0031740167 0.06192838 0.058899283 -0.093355365 0.10107459
0.064491734 0.15252042 -0.0353453 -0.06525045 -0.023052584 0.113004155 0.10922712 0.014551153
-0.07799805 0.10572216 -0.027630584 0.008973142 0.017386572 -0.012818961 0.078623876 0.0010538348
-0.055297527 -0.09809931 0.0650751 0.07125393 -0.0014369179 0.13396205 0.115652025 -0.12438515
-0.093966775 -0.066315494 0.07370615 0.075062856 -0.13251147 0.063542105 -0.049062893 0.1679824
-0.08667081 -0.08594017 0.019992894 -0.08187704 -0.081530504 0.12631862 0.10666827 -0.09226185
-0.09016711 0.087087795 -0.05289778 0.067082845 -0.053967755 -0.049850963 -0.05156818 0.06397545
-0.017961567 0.053422693 0.083782084 0.12599699 0.0703706 0.007426449 -0.04353272 -0.06617064
-0.09245422 0.011491875 0.054738265 -0.011818037 -0.10479772 0.056020014 -0.02066795 -0.0690753
0.078025766 0.017456314 -0.026447676 0.0037694187 -0.014307593 -0.03075592 -0.03173448 -0.011536237
-0.109932974 -0.057175737 -0.078628816 -0.02973544 -0.019281529 -0.0688755 -0.04117273 0.03589449
-0.08962811 -0.011739196 -0.014652848 0.12203579 -0.018007103 -0.003917382 0.030607581 -0.028502708
-0.10256912 -0.047995713 0.044723578 0.09878473 -0.067358434 0.0021390086 -0.043499887 -0.055841584
-0.12465847 0.1003052 0.12126424 0.051552597 -0.10059065 0.027132006 0.10024152 -0.1304558
0.05942509 -0.0142445285 -0.033710938 0.08634231 -0.074534506 0.124710985 0.05505852 -0.069353834
0.009674188 0.10571379 0.021910593 -0.0016137569 0.0151402345 -0.09438861 0.115598485 -0.0035821332
0.10878698 0.044197083 -0.13554788 -0.095844224 -0.071090914 -0.039903436 -0.08910648 -0.07735126
0.112960964 -0.02100227 -0.024949823 0.032289542 0.07416528 -0.10226767 0.12101052 0.10111094
-0.0052874456 0.071774125 -0.13145268 0.046090703 0.11001557 0.15268992 0.055575084 0.080269486
0.08317466 -0.031308852 0.01221118 0.00055526453 -0.07884293 0.04213778 0.06344753 -0.078513056
-0.13824601 -0.035229936 0.0755473 -0.02823683 -0.009157977 -0.11159453 0.002976409 -0.07135523
-0.13759233 -0.07851849 -0.001261777 -0.12747009 -0.05336509 -0.06022897 -0.0145423 0.071273126
0.15592416 -0.04463001 0.088954546 -0.049425006 0.07550079 -0.099078804 -0.0373323 0.0356662
-0.06165439 0.07087038 -0.08977136 0.04376272 -0.09747112 -0.08718206 0.036683407 -0.053577874
0.06410855 0.12113308 0.01559977 -0.061123066 -0.015890583 0.04067617 0.008317954 0.13882211

model.pooling_fn.att_pool.gate_nn.0.bias f4 [64]
00000000: 960e 9dbd 7da4 bdbc 0010 eb3d 874c e839
00000010: 6745 07bc 6075 b2bd c3c5 8dbd 3d6c 863d
00000020: 8211 743d bc93 393c 5ba5 d7bc 01e3 083e
00000030: dd6b f6bd af9b 6b3d 7215 9e3d b12d a7bd
00000040: f9a0 203d b5c2 673d 2bf3 9e3d e3b4 d0bd
00000050: 416a 91bd 7522 60bd fe10 d6bb 0e34 9bbc
00000060: 944f eebd 3401 833c 61bf a3bd b970 fdbc
00000070: f8fa 913d e484 54bc 4fe6 0ebc aa47 ebbd
00000080: 09c1 70bc 3b94 3fbd 796b 303c 09a3 bbbd
00000090: 1dbe 8bbd 540a c73d aa2c d63d 989b bb3d
000000a0: fe66 ff3c 6df6 8dbd 4f12 e13d 10b1 023e
000000b0: 9377 cabd ff07 a43d 346e eb3d da95 8a3d
000000c0: c91e 9e3b a04b 803d b6be 0ebd 1c98 8f3d
000000d0: 1d0f 633d 487f 193e 041d f5bd ce91 913d
000000e0: 8094 1fbe e58f da3d c963 bd3c 35ae b5bb
000000f0: 641c 2bbd 5ae7 3dbd 43a4 d1bd 5f78 d5bc
-0.07668798 -0.023149723 0.11477661 0.00044307506 -0.008256293 -0.08713794 -0.06922486 0.065636136
0.05958701 0.0113267265 -0.026323965 0.13367845 -0.12032292 0.05752152 0.07718934 -0.08163012
0.039216015 0.05658217 0.07761224 -0.101907514 -0.071003444 -0.05472036 -0.0065327873 -0.01894572
-0.11636272 0.015991785 -0.07995487 -0.03093754 0.071279466 -0.012971137 -0.008721902 -0.11488278
-0.014694461 -0.046772223 0.010767811 -0.09161956 -0.068233706 0.09718767 0.10457738 0.091605365
0.03117704 -0.069317676 0.1098982 0.12762856 -0.09886088 0.08009338 0.11495629 0.06766863
0.004825447 0.06264424 -0.034849845 0.070114344 0.055434335 0.1498996 -0.11968425 0.07107888
-0.15583992 0.10671977 0.02311887 -0.0055444487 -0.041775122 -0.046363212 -0.102364086 -0.026058374

model.pooling_fn.att_pool.gate_nn.2.weight f4 [1, 64]
00000000: ad06 abbd a4cb 4f3d f874 e6bd 94ab 77bd
00000010: a683 0cbe cee6 01be c25b f03d 1a84 cfbc
00000020: be4c 77bd 3b10 103e 69e1 b63d 9b99 b53d
00000030: 2384 b9bd 400b ec3c 6d83 cabd 58e6 7ebc
00000040: 0362 0d3e 7f71 5e3c d3c9 e2bc df9e d43d
00000050: c83b 9b3c 83be 013d 4a9c 2d3c 4cd7 e1bc
00000060: 9c70 793c 4856 d83d 4407 323d 9e87 2cbd
00000070: 228e d8bd 7b3a 05be 6571 e5bc 64b4 b7bd
00000080: 4a3f 06bd 457f 06be 7d0b 7c3d 2b36 ee3d
00000090: 6033 f8bb 8f07 4ebd 5a8f 053e 4495 b2bb
000000a0: 3206 58bd 7493 ebbd abf3 9cbd f595 e7bc
000000b0: a1ca 0e3d 0588 dabd 2ed7 8fbd 2840 8dbd
000000c0: a6db 973d 20ab db3d f063 a3bd c395 873d
000000d0: ddb3 a9bc 0da9 a5bc 66a1 72bd dbc0 46bd
000000e0: 20b8 c3bc b330 e0bc f5a6 f13d 2c91 53bd
000000f0: 0625 533d 1214 5f3d e638 66bd 44f7 36bd
-0.08350883 0.050731316 -0.11252779 -0.060466364 -0.13722095 -0.12685701 0.117362514 -0.025331546
-0.06037592 0.14068691 0.08929712 0.088671885 -0.09058406 0.028813958 -0.09888349 -0.015557848
0.1380692 0.013576864 -0.027684128 0.10381865 0.018949404 0.031675827 0.010596344 -0.027568482
0.015224602 0.10563332 0.04346396 -0.042121522 -0.10573985 -0.1301059 -0.028008172 -0.08969954
-0.0327752 -0.13134487 0.061534394 0.116314255 -0.0075744838 -0.050300177 0.13042966 -0.0054499228
-0.052740283 -0.11502734 -0.076636635 -0.028269747 0.03486121 -0.10670475 -0.07023464 -0.068970025
0.074149415 0.10725999 -0.07978046 0.06620362 -0.020715648 -0.020222211 -0.059235953 -0.048523765
-0.023891509 -0.027366972 0.11799423 -0.05165212 0.05154898 0.0544625 -0.056206606 -0.044669405
