lightning_logs/version_195/checkpoints/epoch=19-step=340.ckpt (torch, 132222 bytes, 40 tensors)

model.encoder.conv1.lin_l.weight f4 [64, 3]
0.28203237 -0.20521852 0.12225537 -0.5180543 -0.33503652 -0.14352363 -0.47847918 -0.44131842
-0.41967142 -0.08108041 0.23323219 -0.15158738 0.23170047 -0.13637458 0.21625659 0.5273898
0.041134384 -0.5408128 0.19774644 0.43050963 -0.29111147 -0.07598563 0.41630644 0.08920972
0.5270561 0.21557532 0.49774662 -0.25925532 -0.52417696 -0.03320819 0.23190525 0.26943448
-0.41112724 -0.3295008 -0.56855994 -0.43829182 -0.1878017 -0.12051938 -0.5220736 -0.03034918
0.31711116 0.17481099 0.23903655 -0.45040157 -0.35774744 -0.5468174 0.2547086 -0.42514637
0.24381347 0.3490706 -0.39691463 -0.06547199 0.105817765 0.30906203 0.2877364 -0.44897744
0.19235523 0.38066924 -0.36375487 0.47425708 -0.44099614 0.062972724 -0.5050234 0.22618452
0.42724523 -0.35804275 -0.46152776 -0.502272 0.16705626 -0.6639304 0.5262755 0.22110935
0.4058365 0.19024684 0.28124884 -0.33921367 -0.31012785 0.53447646 -0.07233206 -0.13299073
-0.3454584 0.17661656 0.51755196 0.3933756 0.53452253 0.07233914 -0.18260728 -0.4279224
0.28627437 0.55803025 -0.48476383 -0.2531311 0.0044512395 0.35246316 0.14362016 0.44527435
0.4025872 0.54907113 -0.41875425 0.43083683 0.50023 0.005909645 0.45619917 -0.41101015
-0.41777587 -0.42655936 -0.32315743 0.5858354 0.29132938 -0.026872933 -0.30363792 -0.28714517
0.56312674 0.51386136 -0.44799054 0.5568954 0.47973874 -0.14489233 0.029042538 -0.15336254
-0.35347852 -0.302866 -0.10676593 0.020580642 -0.40933087 -0.45836583 0.14614582 -0.18048416
-0.39572075 -0.028459808 -0.39818582 -0.1609628 0.05959636 0.15407443 -0.0073563457 0.2543621
-0.23301359 0.2685657 0.46606407 0.05846072 0.25873092 -0.5310902 0.35268345 0.37772393
0.5652414 0.41786352 -0.40882358 -0.3353956 -0.41505975 0.564309 -0.50025666 0.48647392
-0.116922684 -0.40982568 0.4430538 0.106533766 0.1899189 0.15664244 0.11999442 -0.1832219
-0.4270368 0.08820971 -0.08760502 0.3868214 0.29552487 0.3512689 0.16285762 -0.07806714
-0.24090287 -0.18150887 0.4893587 0.39864528 -0.4175333 0.31854308 0.44407085 0.11214823
-0.41837865 0.16944174 -0.2510705 0.17861229 0.23356181 -0.09794806 0.058976464 -0.25780025
-0.32706204 -0.35995135 -0.01730411 -0.040880956 0.16401516 -0.51713675 0.1279094 0.27746388
00000000: 8c66 903e ce24 52be 0661 fa3d 359f 04bf
00000010: e889 abbe dcf7 12be 39fb f4be 7df4 e1be
00000020: 2cdf d6be 7c0d a6bd 6bd4 6e3e b939 1bbe
00000030: e342 6d3e c7a5 0bbe 5e72 5d3e 0503 073f
00000040: 877c 283d b572 0abf 0b7e 4a3e c26b dc3e
00000050: 900c 95be 5b9e 9bbd 1e26 d53e 96b3 b63d
00000060: 26ed 063f c7bf 5c3e a5d8 fe3e 1dbd 84be
00000070: 7630 06bf 5005 08bd 9278 6d3e 51f3 893e
00000080: 457f d2be 54b4 a8be 258d 11bf c967 e0be
00000090: 174f 40be ddd2 f6bd 9ea6 05bf d89e f8bc
000000a0: 655c a23e a701 333e ffc5 743e 099b e6be
000000b0: ac2a b7be 3afc 0bbf 2a69 823e c9ac d9be
000000c0: 3daa 793e 62b9 b23e 6538 cbbe 2e16 86bd
000000d0: fcb6 d83d 613d 9e3e 2f52 933e 5fe0 e5be
000000e0: c5f8 443e 14e7 c23e 143e babe d3d1 f23e
000000f0: 3fca e1be d8f7 803d 3749 01bf ea9c 673e
00000100: e3bf da3e 6151 b7be 5e4d ecbe e694 00bf
00000110: cc10 2b3e 58f7 29bf feb9 063f 7d6a 623e
00000120: cdc9 cf3e 11d0 423e d9ff 8f3e 6aad adbe
00000130: 14c9 9ebe 73d3 083f d522 94bd b92e 08be
00000140: ecdf b0be f9da 343e 497e 043f 8768 c93e
00000150: 78d6 083f 8b26 943d 67fd 3abe a518 dbbe
00000160: 8e92 923e 12db 0e3f f732 f8be 669a 81be
00000170: b4db 913b 0d76 b43e 2a11 133e 00fb e33e
00000180: e91f ce3e ed8f 0c3f f566 d6be a596 dc3e
00000190: 130f 003f b2a5 c13b f092 e93e ec6f d2be
000001a0: b8e6 d5be fd65 dabe e474 a5be 4ff9 153f
000001b0: 2029 953e a024 dcbc 6e76 9bbe b104 93be
000001c0: 1329 103f 6b8c 033f 045f e5be b290 0e3f
000001d0: 51a0 f53e a85e 14be 9eea ed3c 120b 1dbe
000001e0: 23fb b4be 4111 9bbe 19a8 dabd bc98 a83c
000001f0: d193 d1be edae eabe 40a7 153e d7d0 38be
00000200: e99b cabe 8b24 e9bc 03df cbbe 6fd3 24be
00000210: 501b 743d b0c5 1d3e 800d f1bb c03b 823e
00000220: 1d9b 6ebe 7281 893e f39f ee3e 8274 6f3d
00000230: 6178 843e 87f5 07bf ed92 b43e 0865 c13e
00000240: a9b3 103f 35f2 d53e 5351 d1be f9b8 abbe
00000250: b682 d4be 8e76 103f d210 00bf 1c13 f93e
00000260: 2975 efbd acd4 d1be f3d7 e23e 602e da3d
00000270: 1a7a 423e e066 203e a2bf f53d 869e 3bbe
00000280: 91a4 dabe 4ba7 b43d 436a b3bd 740d c63e
00000290: 094f 973e 84d9 b33e 26c4 263e aae1 9fbd
000002a0: 3eaf 76be 76dd 39be 398d fa3e 3c1b cc3e
000002b0: edc6 d5be 1418 a33e 415d e33e f9ad e53d
000002c0: ba35 d6be 2382 2d3e 508c 80be 24e6 363e
000002d0: d42a 6f3e fe98 c8bd 4e91 713d 65fe 83be
000002e0: ad74 a7be 8b4b b8be 59c1 8dbc ca72 27bd
000002f0: 97f3 273e 1363 04bf affa 023e bf0f 8e3e

model.encoder.conv1.lin_l.bias f4 [64]
-0.21289405 -0.12708545 -0.018278182 0.27557772 0.43125296 0.47259426 -0.2264722 0.3432396
0.17778277 -0.4080006 0.28618616 -0.47648606 -0.06700938 -0.16134246 0.23184748 -0.35782555
0.25655186 -0.1746749 -0.15847579 0.09794331 -0.4510507 -0.34229615 -0.28293753 -0.30038607
0.22923973 -0.131708 0.11072563 0.060801182 -0.4622805 -0.34060243 0.425611 0.008090382
0.07148643 -0.12108301 -0.51053005 -0.08164668 -0.4160837 -0.25269794 -0.011517141 -0.15637448
0.20054843 0.35992184 -0.1471212 -0.08914663 -0.512735 0.4588768 -0.1303431 0.55439895
-0.5781807 0.1705829 -0.028017448 -0.25447103 0.16542964 -0.120290615 0.4761086 -0.24748369
0.0006982431 0.49563769 -0.13204949 -0.46980464 0.28485116 -0.11982792 -0.2421342 0.6079164
00000000: e600 5abe b022 02be 20bc 95bc 8618 8d3e
00000010: 30cd dc3e e0f7 f13e 54e8 67be 1abd af3e
00000020: b00c 363e 74e5 d0be fe86 923e fbf5 f3be
00000030: 373c 89bd f536 25be 6d69 6d3e e934 b7be
00000040: c45a 833e fadd 32be 7a47 22be 8196 c83d
00000050: 1ef0 e6be 7141 afbe 30dd 90be 34cc 99be
00000060: d2bd 6a3e 76de 06be 1ec4 e23d a90a 793d
00000070: 08b0 ecbe 7163 aebe afe9 d93e 868d 043c
00000080: 7a67 923d 5ffa f7bd 19b2 02bf 6036 a7bd
00000090: ec08 d5be a061 81be 64b2 3cbc a220 20be
000000a0: 915c 4d3e ad47 b83e f1a6 16be 8292 b6bd
000000b0: 9a42 03bf e6f1 ea3e a978 05be 17ed 0d3f
000000c0: a603 14bf 49ad 2e3e d984 e5bc 074a 82be
000000d0: 6366 293e ed5a f6bd 82c4 f33e 5d6c 7dbe
000000e0: 4d0a 373a 39c4 fd3e fb37 07be 3c8a f0be
000000f0: 03d8 913e 5768 f5bd 07f2 77be 69a0 1b3f

model.encoder.conv1.lin_r.weight f4 [64, 3]
-0.3878776 -0.54888356 0.3273113 0.5311029 0.17515126 0.42360118 -0.43324476 -0.0072796345
-0.008306503 -0.13649173 -0.37524635 -0.035265677 -0.5225518 0.5335305 0.33411887 -0.15823925
0.030373234 -0.3819374 -0.21606854 -0.2666425 -0.42756486 0.54736596 0.02305044 -0.15444703
-0.41210103 -0.3849385 -0.24654809 0.111444175 0.16331995 0.21468735 0.21211863 -0.41364256
-0.50618374 -0.25706798 -0.14103448 0.39634347 0.055165946 0.24220726 -0.43268716 0.39791986
-0.42494765 0.19516796 0.56195366 0.4526881 -0.07128897 0.45071995 -0.12859401 0.093810454
-0.21988726 -0.40681174 -0.059148345 0.08522347 -0.1106068 -0.076418474 0.30984327 0.51555204
-0.18329144 -0.21112342 -0.23215052 -0.29118082 -0.57335407 0.5182001 0.07156533 0.015621882
0.4993106 -0.20397866 -0.21934727 -0.26587558 0.45533684 -0.12275166 -0.03401174 0.3532111
-0.44173437 0.41412327 -0.14438732 0.020933805 -0.4486612 -0.5430618 0.29808354 0.35012743
0.44038028 0.156741 -0.03695169 -0.05341217 0.21637133 0.22782202 -0.2249001 -0.481972
-0.09314577 0.29265583 0.46591622 -0.3113428 0.113017015 0.4948358 0.5019485 0.045161918
-0.41189328 -0.2804345 -0.09872603 -0.3342983 0.3573404 -0.37812474 0.33943537 0.4907403
-0.4657889 0.11895903 -0.016011523 0.44314313 -0.06648755 -0.4995612 0.016462922 -0.48759505
0.524448 -0.5083463 0.24909191 0.21564572 -0.24262814 0.31307158 -0.16806495 -0.1723828
-0.046577916 -0.34581113 0.01477027 -0.5031645 0.1571432 0.3410655 -0.107726395 0.08120403
0.53355163 0.25651953 0.36017114 -0.16599867 -0.42184776 -0.1516858 -0.046899557 -0.15331408
-0.55151236 0.21050528 0.39048526 -0.013540492 -0.182267 -0.48097897 0.120821506 0.07525511
-0.0516662 0.37140918 0.47703284 0.40741012 0.11666553 -0.09272295 0.38136974 -0.46020463
0.39120758 0.12258075 0.221685 -0.23642576 0.019072298 -0.4040413 0.37636277 0.5151668
-0.16734958 -0.5077098 -0.37722772 0.2322878 -0.112743974 -0.10530345 0.5388604 0.56347245
0.2850791 0.3990139 0.55002636 -0.14904961 -0.29438907 -0.6257086 0.40835705 0.37444812
-0.5499017 -0.55374396 0.50703347 0.24876624 -0.13014095 0.439884 -0.32536864 -0.42577708
-0.06756574 0.49538597 0.056426167 0.3614802 0.26958907 0.15142585 -0.38877732 -0.4064079
00000000: e597 c6be a283 0cbf 5995 a73e 5cf6 073f
00000010: da5a 333e 41e2 d83e 42d2 ddbe 008a eebb
00000020: 0018 08bc 7dc4 0bbe 4a20 c0be be72 10bd
00000030: f4c5 05bf 7495 083f a111 ab3e 7809 22be
00000040: 4ad1 f83c 4d8d c3be 1241 5dbe 5e85 88be
00000050: c8e9 dabe 2d20 0c3f 47d4 bc3c 5d27 1ebe
00000060: e8fe d2be a916 c5be 1a77 7cbe d83c e43d
00000070: 583d 273e 00d7 5b3e a035 593e f5c8 d3be
00000080: 4295 01bf 6a9e 83be 586b 10be 88ed ca3e
00000090: b0f5 613d 2e05 783e 2c89 ddbe 27bc cb3e
000000a0: bd92 d9be 1cda 473e 32dc 0f3f bcc6 e73e
000000b0: f4ff 91bd c4c4 e63e 26ae 03be b21f c03d
000000c0: 202a 61be a149 d0be 8945 72bd a589 ae3d
000000d0: d185 e2bd 4a81 9cbd c7a3 9e3e 38fb 033f
000000e0: c0b0 3bbe bd30 58be deb8 6dbe a715 95be
000000f0: 55c7 12bf c3a8 043f d890 923d ecf2 7f3c
00000100: a4a5 ff3e c8df 50be 929c 60be d820 88be
00000110: e921 e93e 3965 fbbd e54f 0bbd 16d8 b43e
00000120: 022b e2be f707 d43e 45da 13be 5f7d ab3c
00000130: ecb6 e5be 1906 0bbf 689e 983e e743 b33e
00000140: 8679 e13e b680 203e a85a 17bd b8c6 5abd
00000150: 7290 5d3e 2d4a 693e 364c 66be 09c5 f6be
00000160: 36c3 bebd fcd6 953e 928c ee3e 5368 9fbe
00000170: 7775 e73d 1e5b fd3e b27f 003f b4fb 383d
00000180: ade3 d2be 1c95 8fbe df30 cabd 2629 abbe
00000190: 52f5 b63e 9199 c1be 79ca ad3e 5042 fb3e
000001a0: e27b eebe cba0 f33d 992a 83bc a8e3 e23e
000001b0: a02a 88bd 7cc6 ffbe 40dd 863c 0fa6 f9be
000001c0: 3942 063f fc22 02bf f311 7f3e 3bd2 5c3e
000001d0: 8373 78be eb4a a03e 3819 2cbe 1e85 30be
000001e0: 7cc8 3ebd 280e b1be 01ff 713c 64cf 00bf
000001f0: 26ea 203e 23a0 ae3e a89f dcbd 4c4e a63d
00000200: d796 083f 8756 833e 5a68 b83e 8efb 29be
00000210: 6efc d7be 8653 1bbe c019 40bd 5efe 1cbe
00000220: ea2f 0dbf b28e 573e afed c73e f1d8 5dbc
00000230: 33a4 3abe e042 f6be 4471 f73d 5a1f 9a3d
00000240: f09f 53bd 5829 be3e a63d f43e 0f98 d03e
00000250: 56ee ee3d 88e5 bdbd e542 c33e f19f ebbe
00000260: 5c4c c83e 9e0b fb3d 6501 633e 9819 72be
00000270: 823d 9c3c 80de cebe 9fb2 c03e f9e1 033f
00000280: b05d 2bbe 45f9 01bf fe23 c1be dadc 6d3e
00000290: 50e6 e6bd 56a9 d7bd c1f2 093f bb3f 103f
000002a0: e3f5 913e 8d4b cc3e 87ce 0c3f 76a0 18be
000002b0: 2aba 96be 702e 20bf 2d14 d13e aab7 bf3e
000002c0: 5cc6 0cbf 2ac2 0dbf f2cc 013f 94bc 7e3e
000002d0: ab43 05be 7a38 e13e b896 a6be 74ff d9be
000002e0: e85f 8abd 3ba3 fd3e 201f 673d ef13 b93e
000002f0: 9407 8a3e 610f 1b3e d20d c7be b214 d0be

model.encoder.conv2.lin_l.weight f4 [64, 64]
-0.03291542 0.024445731 0.064395815 -0.05877574 -0.13344476 -0.015412981 -0.104102336 0.062467083
-0.046123944 0.09060594 0.020243436 0.14520144 -0.04285808 0.09650256 0.03555787 0.15436994
-0.05804264 0.027511507 -0.026889285 0.060792927 -0.06923948 -0.08877552 0.1055591 0.00932924
0.062133312 0.08138368 -0.022901647 -0.0066625546 -0.09899527 -0.05260652 -0.06631218 -0.12310086
-0.021006698 0.117484815 0.018293899 -0.08863533 0.027975358 0.17128463 0.1005183 -0.03027025
0.01989157 -0.119703166 -0.15042005 0.005495599 -0.07671848 0.02870329 -0.04916533 0.050766423
-0.0066468124 -0.05676651 -0.10229985 0.16041118 0.027395368 -0.010256001 -0.07447777 -0.12775972
0.063577466 0.069199085 0.046123687 -0.06888358 0.03780184 -0.14519058 0.031814054 0.015571596
0.062021866 -0.08141024 0.12886605 -0.030241238 -0.09268555 0.066459045 -0.05972665 0.086812854
-0.057029173 -0.14854866 0.0048291995 0.10258236 0.06718463 -0.11363477 0.013345897 0.055196892
0.013147797 0.050737035 0.04995793 0.044234663 -0.037948515 0.09294051 0.049789585 0.08483807
-0.00701605 0.0067121494 -0.10099968 -0.10160784 -0.01760205 0.04119761 0.06272774 0.10810692
0.047424898 0.07003359 0.09344986 0.002162725 -0.08980067 -0.03545944 0.018698322 0.006496013
0.062967345 0.037503246 -0.0043559815 0.04725721 -0.118985765 0.03337887 -0.07114443 -0.05818023
0.1180721 0.027714578 0.10591573 0.09414475 -0.035062127 0.053098895 -0.0040950836 0.02075075
0.0034731831 -0.020464556 0.042995743 0.020979615 0.013239124 0.11400963 0.066900745 0.08761376
0.118946046 -0.026391577 0.23844281 -0.05369286 0.09058441 0.052245412 -0.12427633 -0.065326504
0.061354835 -0.06298066 -0.045749288 0.03206233 -0.05409687 -0.13863775 0.016680604 -0.045669794
-0.035640005 -0.013232386 0.004926807 0.104771055 -0.021712096 -0.07521947 0.039625958 -0.040117376
-0.006475056 -0.059250787 0.03479314 -0.16580425 -0.029775778 0.074526496 -0.12039485 -0.06486406
-0.034306142 0.10057294 -0.009287779 -0.09619225 -0.21330741 0.034840185 -0.08572456 -0.110490166
0.0061270795 -0.143079 0.028599123 0.14177181 -0.22285397 -0.0763254 0.13465734 0.1111143
-0.05677185 -0.09652809 -0.07417479 0.016244113 -0.047131915 0.15598798 -0.075152196 0.038462106
0.012026058 0.027785612 -0.121449254 0.14910448 0.108623356 0.10575297 0.08168204 0.07076364
0.017870285 -0.13533835 0.1253055 0.05771566 -0.088948674 0.10128017 0.019941622 0.02548151
0.042590585 -0.06873605 0.052077383 0.020973178 -0.07733849 0.07043085 -0.036785167 0.026571056
0.0038867122 0.06066561 0.10084141 0.019647477 -0.012249487 0.06635133 -0.020488176 0.056324597
-0.12399492 -0.0015770321 0.12719567 -0.02929966 -0.038866363 0.05835536 0.06991787 0.032671835
0.00032299725 -0.053024534 -0.013855229 0.04036125 0.059521165 -0.05287087 0.07900975 -0.042386204
0.020463988 0.08037799 -0.095806964 -0.097612515 -0.0154780345 -0.07880755 -0.039712496 0.047469843
-0.087698996 -0.079091944 -0.06562553 -0.024176406 -0.03013114 0.11887649 -0.029313061 0.06628797
-0.123514615 -0.03552932 -0.011894953 0.07092026 0.06371257 0.00116166 -0.0050318344 -0.0126145715
00000000: 52d2 06bd 6a42 c83c f4e1 833d d5be 70bd
00000010: bea5 08be ba86 7cbc 9b33 d5bd 7cdd 7f3d
00000020: 76ec 3cbd 9b8f b93d 90d5 a53c b0af 143e
00000030: f48b 2fbd 22a3 c53d 21a5 113d 2713 1e3e
00000040: 1fbe 6dbd d05f e13c eb46 dcbc 0102 793d
00000050: 6ecd 8dbd f1cf b5bd 5f2f d83d abd9 183c
00000060: 807f 7e3d 7dac a63d 3c9c bbbc 8f51 dabb
00000070: 08be cabd ef79 57bd aece 87bd 4e1c fcbd
00000080: 3d16 acbc e19b f03d 16dd 953c 7186 b5bd
00000090: 942c e53c 3d65 2f3e 8adc cd3d 51f9 f7bc
000000a0: a5f3 a23c ef26 f5bd b707 1abe 6d14 b43b
000000b0: 941e 9dbd 2923 eb3c 9661 49bd 74f0 4f3d
000000c0: 81cd d9bb 0084 68bd 9582 d1bd d442 243e
000000d0: 406c e03c c908 28bc cd87 98bd 72d3 02be
000000e0: e734 823d 40b8 8d3d 31ec 3c3d d612 8dbd
000000f0: 1ad6 1a3d d7ac 14be 744f 023d 0220 7f3c
00000100: a40a 7e3d 69ba a6bd 76f5 033e 79bc f7bc
00000110: ecd1 bdbd ae1b 883d efa3 74bd f0ca b13d
00000120: 6c97 69bd 241d 18be 433e 9e3b b316 d23d
00000130: 1898 893d 59b9 e8bd c0a8 5a3c 2316 623d
00000140: dc69 573c a3d1 4f3d b0a0 4c3d 682f 353d
00000150: e76f 1bbd 9857 be3d 2af0 4b3d 95bf ad3d
00000160: e5e6 e5bb 97f1 db3b ecd8 cebd c517 d0bd
00000170: 2d32 90bc d3be 283d 6777 803d 2967 dd3d
00000180: 9c40 423d c56d 8f3d a462 bf3d 81bc 0d3b
00000190: 6ae9 b7bd eb3d 11bd 392d 993c 82dc d43b
000001a0: 06f5 803d 019d 193d 9fbc 8ebb c790 413d
000001b0: cfae f3bd 48b8 083d 2cb4 91bd 654e 6ebd
000001c0: c9cf f13d af09 e33c 59ea d83d f6ce c03d
000001d0: 4e9d 0fbd 3a7e 593d 0d30 86bb 7afd a93c
000001e0: 589e 633b 49a5 a7bc 4e1c 303d 71dd ab3c
000001f0: e9e8 583c e27d e93d 4203 893d d86e b33d
00000200: fc99 f33d 2633 d8bc 5a2a 743e 0bed 5bbd
00000210: 5284 b93d 49ff 553d 9784 febd e7c9 85bd
00000220: 354f 7b3d 01fc 80bd 9b63 3bbd ca53 033d
00000230: ae94 5dbd 0ef7 0dbe c3a5 883c 4010 3bbd
00000240: 41fb 11bd a6cc 58bc 0d71 a13b 3592 d63d
00000250: 91dd b1bc aa0c 9abd d44e 223d 1e52 24bd
00000260: b52c d4bb f4b0 72bd 4083 0e3d 97c8 29be
00000270: 55ec f3bc 59a1 983d 9391 f6bd 73d7 84bd
00000280: 9984 0cbd 30f9 cd3d c52b 18bc 7100 c5bd
00000290: 426d 5abe 95b4 0e3d 5c90 afbd ab48 e2bd
000002a0: abc5 c83b 4d83 12be b548 ea3c a12c 113e
000002b0: d533 64be 7e50 9cbd 9de3 093e e58f e33d
000002c0: 9989 68bd 85b0 c5bd f4e8 97bd 6012 853c
000002d0: 650d 41bd 50bb 1f3e 65e9 99bd 718a 1d3d
000002e0: f108 453c a79e e33c 63ba f8bd d8ae 183e
000002f0: ec75 de3d 0395 d83d ea48 a73d 87ec 903d
00000300: b464 923c 2396 0abe 1650 003e 4267 6c3d
00000310: b92a b6bd fa6b cf3d 9d5c a33c 9abe d03c
00000320: 7773 2e3d 7cc5 8cbd 184f 553d f1cf ab3c
00000330: a463 9ebd 0d3e 903d 0bac 16bd 8bab d93c
00000340: 36b8 7e3b 817c 783d f185 ce3d bff3 a03c
00000350: 13b2 48bc 35e3 873d d2d6 a7bc 9fb4 663d
00000360: 0cf1 fdbd 6bb4 ceba 953f 023e d705 f0bc
00000370: 5632 1fbd 0806 6f3d 1a31 8f3d e7d2 053d
00000380: f557 a939 4130 59bd 0b01 63bc d751 253d
00000390: 77cc 733d 208f 58bd ddcf a13d 289d 2dbd
000003a0: 18a4 a73c 379d a43d 7136 c4bd 12e9 c7bd
000003b0: 9597 7dbc da65 a1bd 92a9 22bd bd6f 423d
000003c0: 889b b3bd f5fa a1bd ae66 86bd 990d c6bc
000003d0: 95d5 f6bc 8475 f33d f221 f0bc fdc1 873d
000003e0: 3bf5 fcbd 3187 11bd 0de3 42bc a43e 913d
000003f0: bc7b 823d d742 983a 16e2 a4bb 59ad 4ebc

model.encoder.conv2.lin_l.bias f4 [64]
0.09062565 -0.05954628 -0.18066473 0.09426294 0.08819874 -0.004981881 -0.057788063 -0.033834904
-0.060376838 0.07331733 0.02573465 -0.09442966 -0.015189987 -0.083595425 0.03663076 0.04047586
-0.03804399 0.055390142 -0.011355874 -0.11876847 -0.079206884 -0.084208064 0.03144639 0.09528874
-0.13548249 -0.0019417831 -0.08492952 0.010182374 0.04444109 -0.06972514 -0.11054635 -0.123832114
-0.055008307 -0.123521954 0.051995624 -0.1839525 0.09489057 -0.06718847 0.120548196 0.049984697
0.00302557 -0.0634208 0.01404298 -0.08993353 0.09605086 0.043974143 0.0951665 -0.049920175
-0.049343076 -0.10215247 -0.035460018 -0.12790631 -0.06101124 0.03645258 -0.09607619 0.004961362
-0.13488345 -0.11904009 -0.04883912 0.04779893 0.0286194 0.08335171 -0.061746728 -0.08664909
00000000: f199 b93d cde6 73bd 2d00 39be ee0c c13d
00000010: 8aa1 b43d 0c3f a3bb 2db3 6cbd 7896 0abd
00000020: b44d 77bd 6527 963d 79d1 d23c 5664 c1bd
00000030: 6cdf 78bc 1434 abbd 230a 163d 04ca 253d
00000040: 04d4 1bbd c6e0 623d fd0d 3abc e23c f3bd
00000050: 3837 a2bd 4775 acbd eecd 003d be26 c33d
00000060: ecbb 0abe 6e83 feba 87ef adbd f9d3 263c
00000070: dc07 363d 0ecc 8ebd 2066 e2bd b19b fdbd
00000080: 6450 61bd 14f9 fcbd 5df9 543d 0b5e 3cbe
00000090: fd55 c23d 1c9a 89bd f9e1 f63d c1bc 4c3d
000000a0: a448 463b c4e2 81bd 8714 663c 122f b8bd
000000b0: 50b6 c43d 3b1e 343d a7e6 c23d 1979 4cbd
000000c0: f71b 4abd 5035 d1bd 863e 11bd dff9 02be
000000d0: ece6 79bd 4d4f 153d 98c3 c4bd ec92 a23b
000000e0: e31e 0abe 4acb f3bd 870b 48bd d0c8 433d
000000f0: 3b73 ea3c 4db4 aa3d 23ea 7cbd 1475 b1bd

model.encoder.conv2.lin_r.weight f4 [64, 64]
-0.08503773 -0.043704685 0.11254228 0.03747274 0.05547918 0.035095215 0.06396267 -0.0046634427
0.056772467 -0.016130403 0.05246183 0.05033169 0.08364414 -0.06359092 0.07431671 -0.066437915
-0.045463864 0.025282118 -0.0507867 -0.10836939 -0.076707594 -0.09816645 -0.094006956 0.04577344
-0.0735147 0.077254556 -0.103433795 0.02337666 -0.044951953 -0.09255959 0.11981077 -0.12237935
0.10962102 -0.11809486 0.029809033 -0.05159486 -0.12502041 -0.010710019 -0.060657408 -0.084862895
-0.12826823 0.03285446 -0.0731404 0.02364403 0.03476313 -0.050992288 0.003785048 -0.046621237
-0.019970251 0.04731092 0.00077614636 -0.04038528 0.043355584 0.080707304 -0.07836845 -0.059767038
-0.034671422 0.07713465 0.10517475 -0.056468114 -0.09530387 -0.062398795 0.044754237 0.044557
-0.0135842785 0.10118004 0.11079878 0.10060456 -0.08308725 -0.098445006 0.12395984 0.004377197
-0.04577946 -0.11545514 0.08128092 -0.089408316 0.0044138418 -0.09017138 -0.039071526 -0.004075624
-0.047009807 0.063121356 -0.004720725 -0.11046025 0.017231641 -0.061107334 0.0665861 -0.066037074
0.117307924 -0.15667965 -0.024411473 0.0015011284 0.06935184 0.07435403 0.10804461 0.06645513
0.11291716 0.036825903 -0.07615636 -0.07875955 -0.07553774 -0.031651 -0.062595226 0.001493676
-0.01646516 0.029212387 -0.018274032 0.09452798 0.07979845 0.10631269 -0.01663502 0.014246186
0.011792412 0.078553624 -0.016108219 -0.031743463 0.046124022 -0.05522208 -0.053248394 0.0016109678
-0.0034300645 -0.08267124 0.020022646 -0.057757527 -0.09420464 -0.10853016 -0.08920193 -0.05849624
-0.10778979 -0.06808735 0.23649547 0.07970294 -0.053517275 -0.025243782 0.016218653 -0.04144235
-0.097535655 -0.029045388 0.040284343 0.038392488 -0.003857787 -0.08074425 0.03680311 0.07553964
0.039593548 -0.08574466 -0.08970862 -0.03790922 -0.080706395 0.10742535 0.03351774 0.04266731
0.12270395 0.019345535 -0.12371866 0.032448117 0.1279831 0.003491022 -0.118758745 -0.08242981
0.029377935 0.015521355 0.14970464 -0.018239694 -0.054748785 0.04011765 -0.056931384 0.016846122
-0.071452625 0.02268636 -0.07464815 0.11816133 -0.1541698 0.01651981 -0.035267852 -0.07929635
-0.038441427 0.100817405 -0.005530264 -0.04266355 0.03235473 -0.008635024 0.0664483 -0.0701445
-0.09338407 -0.011331911 -0.0752641 -0.085942656 0.12221191 0.00056900637 0.08232763 -0.055325642
-0.0072047515 0.10706231 0.11288678 0.09624235 -0.09959069 -0.028941054 0.021171931 0.07421898
0.0013489356 0.07558281 -0.030388247 0.032405946 0.09350349 0.034837518 -0.07264929 -0.09321573
-0.11463305 -0.017487919 0.14582603 0.12228071 -0.106151015 0.03945664 0.008409777 -0.12546341
0.07341108 -0.06416194 -0.0358211 -0.07170314 0.029464245 -0.014529866 -0.04537815 0.07804309
0.017850723 0.11997361 0.065084435 -0.043305017 -0.07587143 0.09903302 -0.104539976 0.09695993
0.066702195 0.14471018 0.07363269 -0.0010406935 -0.09605435 -0.11869158 -0.12455462 0.021338321
0.083342396 -0.051524222 -0.005552502 -0.063087866 -0.047054462 0.08180292 -0.057352286 -0.016522257
0.10722436 -0.10402839 0.09732772 0.051087696 -0.0221968 -0.034562092 0.094211705 0.08524202
00000000: 4328 aebd af03 33bd 917c e63d 047d 193d
00000010: 233e 633d 00c0 0f3d dcfe 823d cbcf 98bb
00000020: 3f8a 683d e823 84bc 37e2 563d 9a28 4e3d
00000030: 9e4d ab3d f53b 82bd 5c33 983d 9a10 88bd
00000040: 5138 3abd 721c cf3c b705 50bd c5f0 ddbd
00000050: df18 9dbd 7e0b c9bd b886 c0bd ee7c 3b3d
00000060: e08e 96bd a337 9e3d 19d5 d3bd 6980 bf3c
00000070: 8a1f 38bd e28f bdbd 595f f53d 06a2 fabd
00000080: fc80 e03d b8db f1bd 1332 f43c 2255 53bd
00000090: 5a05 00be 1379 2fbc e773 78bd 99cc adbd
000000a0: bf58 03be 6692 063d a2ca 95bd 20b1 c13c
000000b0: c963 0e3d 4add 50bd 910e 783b e9f5 3ebd
000000c0: a798 a3bc 18c9 413d 4d76 4b3a 096b 25bd
000000d0: a095 313d df49 a53d a37f a0bd 48ce 74bd
000000e0: 9f03 0ebd c5f8 9d3d dc65 d73d 1c4b 67bd
000000f0: ad2e c3bd e195 7fbd 3850 373d 6781 363d
00000100: 9890 5ebc 7b37 cf3d 79ea e23d c309 ce3d
00000110: a629 aabd 899d c9bd a8de fd3d 976e 8f3b
00000120: 3e83 3bbd bf73 ecbd 9c76 a63d b51b b7bd
00000130: fda1 903b c6ab b8bd 7709 20bd d08c 85bb
00000140: 5b8d 40bd c545 813d 50b0 9abb fc38 e2bd
00000150: 5f29 8d3c af4b 7abd 4b5e 883d 723e 87bd
00000160: 233f f03d a170 20be 92fa c7bc 83c1 c43a
00000170: 5608 8e3d ed46 983d 7e46 dd3d a119 883d
00000180: 1d41 e73d c2d6 163d def7 9bbd b04c a1bd
00000190: 88b3 9abd 7ba4 01bd ed31 80bd 73c7 c33a
000001a0: f1e1 86bc d14e ef3c 6cb3 95bc e397 c13d
000001b0: 5f6d a33d 78ba d93d 2a46 88bc d668 693c
000001c0: f634 413c b9e0 a03d 62f5 83bc 6f05 02bd
000001d0: 8bec 3c3d 8c30 62bd fd1a 5abd 1c27 d33a
000001e0: efca 60bb 8a4f a9bd 8806 a43c 2893 6cbd
000001f0: 5dee c0bd 0f45 debd 80af b6bd c199 6fbd
00000200: e5c0 dcbd 6171 8bbd de2b 723e 4c3b a33d
00000210: ee34 5bbd 0ccc cebc fbdc 843c 74bf 29bd
00000220: c6c0 c7bd 98f0 edbc 3201 253d 7141 1d3d
00000230: edd2 7cbb 3e5d a5bd dcbe 163d 87b4 9a3d
00000240: d82c 223d e59a afbd 27b9 b7bd b346 1bbd
00000250: 6549 a5bd d201 dc3d e649 093d ebc3 2e3d
00000260: 354c fb3d 877a 9e3c 3560 fdbd 51e8 043d
00000270: 000e 033e a1c9 643b c937 f3bd f6d0 a8bd
00000280: ffa9 f03c 484d 7e3c 2c4c 193e 696b 95bc
00000290: 4340 60bd 6852 243d e230 69bd e100 8a3c
000002a0: c155 92bd bfd8 b93c 21e1 98bd 91fe f13d
000002b0: b0de 1dbe 8d54 873c 0675 10bd 2066 a2bd
000002c0: c274 1dbd 5b79 ce3d 3837 b5bb f9bf 2ebd
000002d0: 6586 043d ea79 0dbc 0c16 883d eba7 8fbd
000002e0: 2640 bfbd 7ba9 39bc 1124 9abd b402 b0bd
000002f0: 3d4a fa3d 5f29 153a 639b a83d 249d 62bd
00000300: d615 ecbb 7c43 db3d 2f31 e73d b61a c53d
00000310: 34f6 cbbd ca15 edbc c270 ad3c 1f00 983d
00000320: c5ce b03a 29cb 9a3d c6f0 f8bc 19bc 043d
00000330: c27e bf3d c9b1 0e3d 27c9 94bd e3e7 bebd
00000340: bcc4 eabd d342 8fbc 6b53 153e 4f6e fa3d
00000350: b465 d9bd 499d 213d 29c9 093c 7b79 00be
00000360: 8c58 963d 5667 83bd 25b9 12bd 19d9 92bd
00000370: 005f f13c ad0e 6ebc 70de 39bd 0ed5 9f3d
00000380: ae3b 923c b9b4 f53d fd4a 853d 9a60 31bd
00000390: 7b62 9bbd d3d1 ca3d 0e19 d6bd ee92 c63d
000003a0: 299b 883d e82e 143e bccc 963d e167 88ba
000003b0: 25b8 c4bd 9214 f3bd 7e16 ffbd b4cd ae3c
000003c0: 6baf aa3d 100b 53bd c3f1 b5bb 3634 81bd
000003d0: 2ebc 40bd 4a88 a73d 3bea 6abd af59 87bc
000003e0: 7298 db3d d60c d5bd c153 c73d 5541 513d
000003f0: 10d6 b5bc fb90 0dbd 11f2 c03d 5e93 ae3d

model.encoder.bn1.weight f4 [64]
0.99368596 1.0395153 1.0 1.0059303 0.9646791 0.9889434 0.97716343 1.0058271
0.9846346 1.0 0.9741423 1.0 0.9949741 0.9851878 0.99826324 1.0272194
0.99016386 1.0173367 1.0232409 1.0043164 1.0177426 0.9740154 0.97957677 1.0439485
0.9916346 1.0290153 0.96449614 0.9851945 1.0167469 1.0053524 0.97803146 0.9757762
0.99858326 0.98679876 1.0508666 1.0147277 1.0 0.9973083 1.003791 1.0104691
1.0081887 0.96448076 0.99629074 1.0287576 1.0 0.9601067 0.990178 0.9856987
0.9979604 1.0172889 0.98908776 1.0018024 0.9894858 1.0031149 0.9850974 0.9777179
0.99498445 0.97465783 1.022573 1.0607338 0.95715815 1.0034447 0.9616694 1.0194596
00000000: 3462 7e3f d60e 853f 0000 803f 53c2 803f
00000010: 36f5 763f 652b 7d3f 6227 7a3f f1be 803f
00000020: 0311 7c3f 0000 803f 6461 793f 0000 803f
00000030: 9fb6 7e3f 4535 7c3f 2e8e 7f3f ed7b 833f
00000040: 617b 7d3f 1738 823f 8ff9 823f 718d 803f
00000050: 6445 823f 1359 793f 8bc5 7a3f 1ba0 853f
00000060: c4db 7d3f c6b6 833f 38e9 763f b535 7c3f
00000070: c324 823f 63af 803f 4560 7a3f 78cc 793f
00000080: 27a3 7f3f d89e 7c3f cc82 863f 99e2 813f
00000090: 0000 803f 994f 7f3f 397c 803f 0d57 813f
000000a0: 540c 813f 36e8 763f e90c 7f3f 54ae 833f
000000b0: 0000 803f 8dc9 753f 4e7c 7d3f c056 7c3f
000000c0: 557a 7f3f 8636 823f db34 7d3f 103b 803f
000000d0: f14e 7d3f 1266 803f 582f 7c3f b84b 7a3f
000000e0: 4db7 7e3f 2d83 793f ace3 823f 20c6 873f
000000f0: 5108 753f e070 803f f72f 763f a77d 823f

model.encoder.bn1.bias f4 [64]
0.021516737 0.087581016 -0.13878396 0.014136093 -0.011086 -0.0072793984 -0.03825113 0.0028572744
0.032130692 0.10370384 -0.084124334 -0.110764794 -0.010512114 0.060759544 0.028167803 0.034881584
0.0156050585 0.042969946 0.045836758 0.02222969 -0.0056816027 -0.04841083 -0.02161379 0.025033178
-0.033657987 0.016204156 0.04973797 0.041145734 0.044636995 0.022038221 -0.0038917644 -0.065040335
-0.05673894 0.009812024 0.08654494 0.059683684 0.12133487 -0.0021781765 -0.03881633 0.04192835
-0.0069097336 -0.009771318 -0.007375541 0.014285737 0.11078805 0.024428435 -0.015954169 0.020625008
0.018003996 0.069138125 0.001123056 0.014365852 0.037257016 -0.043032117 -0.0271591 0.02134956
0.010658554 -0.0023176156 -0.059154175 0.071286716 -0.012821756 0.028902484 0.019399755 -0.06661383
00000000: de43 b03c ad5d b33d 621d 0ebe 129b 673c
00000010: 0ea2 35bc 0588 eebb 38ad 1cbd 1c41 3b3b
00000020: 799b 033d ae62 d43d 6149 acbd a7d8 e2bd
00000030: 003b 2cbc 00df 783d 2ac0 e63c fedf 0e3d
00000040: 5cac 7f3c 4101 303d 53bf 3b3d 0a1b b63c
00000050: bd2c babb 6f4a 46bd 670f b1bc 6112 cd3c
00000060: f5dc 09bd 94be 843c 0bba 4b3d 6e88 283d
00000070: 48d5 363d 8089 b43c f90c 7fbb de33 85bd
00000080: 1767 68bd 9dc2 203c 793e b13d e176 743d
00000090: 6b7e f83d bdbf 0ebb dffd 1ebd 10bd 2b3d
000000a0: 0c6b e2bb e117 20bc 86ae f1bb b90e 6a3c
000000b0: d8e4 e23d 241e c83c 51b2 82bc c7f5 a83c
000000c0: 1e7d 933c 4a98 8d3d 8233 933a c05e 6b3c
000000d0: d09a 183d 7242 30bd c37c debc 46e5 ae3c
000000e0: 37a1 2e3c 23e3 17bb a64b 72bd c5fe 913d
000000f0: 5812 52bc e7c4 ec3c 3cec 9e3c d56c 88bd

model.encoder.bn1.running_mean f4 [64]
0.0034720902 0.0052111247 0.0 0.10734624 0.5114125 0.66817975 2.1346622e-17 0.7867005
0.15683109 0.0 0.4210975 0.0 0.014469292 0.1601929 0.61820537 0.014991235
0.23200637 0.001274074 0.2013257 0.06544394 0.020079443 0.2534839 0.0014032575 0.037268262
0.5109157 0.00072729815 0.3298876 0.4642984 0.097862564 0.0055421162 0.2463562 0.7492318
0.19378129 0.34937716 0.072621815 0.012065789 0.0 0.27889585 0.3135119 0.03183997
0.00086180476 0.124686964 0.005833324 0.04581869 0.0 0.22037211 0.32340223 0.41278946
0.12162126 0.1225864 0.108287126 0.103254214 0.1940691 0.07184842 0.5550207 0.25921568
0.15310134 0.30120954 0.5135896 0.010148061 0.4993496 0.0010413064 0.045019936 0.3112133
00000000: 028c 633b 15c2 aa3b 0000 0000 58d8 db3d
00000010: eeeb 023f d40d 2b3f 49e3 c423 3465 493f
00000020: 5498 203e 0000 0000 179a d73e 0000 0000
00000030: 9c10 6d3c 9c09 243e b542 1e3f cc9d 753c
00000040: 1493 6d3e d4fe a63a 5328 4e3e 7907 863d
00000050: a57d a43c a4c8 813e 82ed b73a 9ba6 183d
00000060: 5fcb 023f 27a8 3e3a 07e7 a83e 85b8 ed3e
00000070: 2b6c c83d a49a b53b cd44 7c3e a8cd 3f3f
00000080: 9a6e 463e 90e1 b23e bfba 943d 96af 453c
00000090: 0000 0000 70cb 8e3e a284 a03e a16a 023d
000000a0: bdea 613a e15b ff3d 7825 bf3b 61ac 3b3d
000000b0: 0000 0000 3aa9 613e fa94 a53e 2459 d33e
000000c0: 9114 f93d 940e fb3d a4c5 dd3d f276 d33d
000000d0: 0dba 463e 4425 933d d615 0e3f ebb7 843e
000000e0: 99c6 1c3e 2338 9a3e 9c7a 033f 0e44 263c
000000f0: c0aa ff3e 727c 883a d366 383d 5a57 9f3e

model.encoder.bn1.running_var f4 [64]
0.0007334005 0.0007038228 2.7698057e-16 0.008376915 0.20435093 0.031030718 2.774795e-16 0.05165527
0.009859211 2.7698057e-16 0.09561968 2.7698057e-16 0.00039403152 0.029517844 0.07732345 0.0035190298
0.008375188 0.00010949401 0.030151742 0.011095373 0.0020526196 0.06547207 0.0003121686 0.0064436714
0.15041238 0.00021043254 0.0010163815 0.010477632 0.011926391 0.0019042039 0.061498385 0.007958937
0.011548858 0.1239271 0.014392992 0.006228111 2.7698057e-16 0.10779695 0.07727105 0.0022116697
8.764819e-05 0.022719543 0.0011688218 0.0038155813 2.7698057e-16 0.054848406 0.08035211 0.16471598
0.016958293 0.01797212 0.038550343 0.0232643 0.03843482 0.0078751845 0.16789691 0.06618092
0.015235979 0.07266347 0.02434422 0.0014383614 0.06296987 5.9592425e-05 0.0021785374 0.045455806
00000000: ad41 403a c080 383a 1eab 9f25 543f 093c
00000010: 5f41 513e 2234 fe3c bff4 9f25 7a94 533d
00000020: 8788 213c 1eab 9f25 40d4 c33d 1eab 9f25
00000030: 0496 ce39 68cf f13c c25b 9e3d 869f 663b
00000040: 1638 093c 26a0 e538 c900 f73c 5ec9 353c
00000050: 3e85 063b 3816 863d 8faa a339 6f25 d33b
00000060: b405 1a3e 8ea7 5c39 1b38 853a 60aa 2b3c
00000070: e966 433c 7b96 f93a bbe5 7b3d 3466 023c
00000080: 6c37 3d3c 7ecd fd3d 95d0 6b3c 2f15 cc3b
00000090: 1eab 9f25 a6c4 dc3d 4940 9e3d a9f1 103b
000000a0: c4cf b738 561e ba3c 2733 993a d50e 7a3b
000000b0: 1eab 9f25 b9a8 603d a68f a43d 4eab 283e
000000c0: 1eec 8a3c 443a 933c f7e6 1d3d c694 be3c
000000d0: d46d 1d3d eb06 013c 2bed 2b3e dd89 873d
000000e0: 54a0 793c 96d0 943d 886d c73c 6687 bc3a
000000f0: 59f6 803d e1f2 7938 cbc5 0e3b de2f 3a3d

model.encoder.bn2.weight f4 [64]
1.0105184 1.0598217 1.0220377 0.9736198 1.0079243 1.0511525 1.0241563 1.024476
0.99744606 1.0479347 1.0301622 1.1305237 1.0444486 1.0399913 0.99303347 0.9998836
1.0377245 1.042991 1.0288717 1.0394006 1.0354563 1.0312515 1.0511076 1.0127344
1.0753917 1.0280408 1.0332329 1.0354908 1.0472295 1.0947815 1.0287111 1.0453982
1.0191686 1.0524963 1.015033 1.0384905 1.0028573 1.0079384 1.0270627 1.0230215
1.068329 1.0384966 1.0155896 1.0469813 1.0139992 1.0228797 1.0012646 0.9947122
1.0477642 1.0195074 1.0384328 1.0651746 1.0112637 0.99170136 1.0364449 1.1072758
1.0436114 1.0479816 0.9847986 1.0074832 1.0056574 1.0288209 1.0082749 1.0075278
00000000: ab58 813f 3da8 873f 22d2 823f 263f 793f
00000010: aa03 813f 2a8c 863f 8e17 833f 0822 833f
00000020: a058 7f3f b922 863f 5bdc 833f 00b5 903f
00000030: 7eb0 853f 6f1e 853f 7137 7e3f 5ff8 7f3f
00000040: 28d4 843f bb80 853f 11b2 833f 140b 853f
00000050: d589 843f 0d00 843f b28a 863f 48a1 813f
00000060: 6fa6 893f d796 833f fa40 843f f68a 843f
00000070: 9e0b 863f cd21 8c3f ceac 833f 9ccf 853f
00000080: 1e74 823f 33b8 863f 9aec 813f 42ed 843f
00000090: a15d 803f 2004 813f ca76 833f 5ef2 823f
000000a0: 01bf 883f 75ed 843f d7fe 813f 7c03 863f
000000b0: baca 813f b9ed 823f 7029 803f 75a5 7e3f
000000c0: 231d 863f 387f 823f 5eeb 843f a457 883f
000000d0: 1771 813f 24e0 7d3f 3aaa 843f 37bb 8d3f
000000e0: 0f95 853f 4324 863f c31b 7c3f 36f5 803f
000000f0: 62b9 803f 67b0 833f 270f 813f acf6 803f

model.encoder.bn2.bias f4 [64]
0.0146776205 0.023693776 -0.006601135 -0.030202128 -0.011927377 0.022473933 0.0017184843 0.0109738195
-0.011617432 0.020964198 0.01777851 0.07175612 0.021497075 0.03721296 -0.003875661 -0.009612025
0.045012258 0.022953266 0.0062586735 0.017102825 0.013729567 0.031802837 0.023058381 0.023930231
0.044653617 0.003208032 0.028120628 0.008831388 0.025939258 0.061246257 0.010945156 0.024697328
-0.0069333985 0.021785436 0.0028447143 0.004721344 0.005181676 0.0014410097 0.028370144 0.023070792
0.053841047 0.0018789961 0.00022699026 -0.0011696888 0.009906526 -0.004369736 -0.011859857 -0.0070138727
0.01335702 0.013265757 0.016776452 0.042634465 0.016667731 -0.027027678 0.022035275 0.0539015
0.015669081 0.019573612 -0.018725537 -0.004453518 -0.013271378 0.0066576866 0.0018568553 -0.016767407
00000000: 677a 703c 7319 c23c 554e d8bb 746a f7bc
00000010: 0c6b 43bc 411b b83c c43e e13a 89cb 333c
00000020: 0b57 3ebc 1cbd ab3c 3da4 913c dff4 923d
00000030: a21a b03c 9e6c 183d cdfe 7dbb c17b 1dbc
00000040: c65e 383d 7d08 bc3c 8f15 cd3b 391b 8c3c
00000050: faf1 603c b143 023d eee4 bc3c 5509 c43c
00000060: b6e6 363d d93d 523b 3b5d e63c 87b1 103c
00000070: 917e d43c 5bdd 7a3d 5053 333c 0d52 ca3c
00000080: 9031 e3bb 5f77 b23c 636e 3a3b 81b5 9a3b
00000090: 0ccb a93b 43e0 bc3a 8168 e83c f5fe bc3c
000000a0: 6e88 5c3d a648 f63a 3c04 6e39 3e50 99ba
000000b0: fb4e 223c 0130 8fbb d84f 42bc a1d4 e5bb
000000c0: 67d7 5a3c 9e58 593c c56e 893c 7aa1 2e3d
000000d0: c48a 883c 2669 ddbc 5283 b43c d2c7 5c3d
000000e0: 725c 803c d758 a03c 4c66 99bc d1ee 91bb
000000f0: 3270 59bc b928 da3b ba61 f33a cd5b 89bc

model.encoder.bn2.running_mean f4 [64]
0.28809085 0.08810053 0.081504695 0.2682753 0.38784108 0.16885932 0.14114542 0.14304891
0.4383246 0.25009173 0.23687549 0.056810394 0.25708842 0.19524594 0.4008968 0.21145377
0.44795617 0.2984121 0.11677289 0.04434677 0.09016281 0.2901937 0.23182826 0.47451395
0.10626031 0.103200026 0.32461232 0.08067997 0.09704273 0.06007563 0.27943528 0.074264996
0.22098187 0.031372912 0.18042558 0.053790245 0.23891251 0.3153411 0.275423 0.3333165
0.5757641 0.05627344 0.17083758 0.059504263 0.4437145 0.15972996 0.3358438 0.352546
0.20611277 0.23647955 0.1807301 0.1059684 0.15026753 0.22206348 0.20048994 0.1482557
0.10742776 0.03359801 0.11307088 0.28696436 0.17592855 0.11606245 0.18000542 0.2530482
00000000: a580 933e 0d6e b43d efeb a63d 615b 893e
00000010: 1b93 c63e 75e9 2c3e 6d88 103e 6a7b 123e
00000020: 156c e03e 060c 803e 7d8f 723e 04b2 683d
00000030: 18a1 833e 8dee 473e 5842 cd3e 5687 583e
00000040: 835a e53e 79c9 983e a026 ef3d f5a4 353d
00000050: 48a7 b83d 4594 943e 6364 6d3e 7ef3 f23e
00000060: 019f d93d 895a d33d 9633 a63e 8a3b a53d
00000070: 57be c63d dd11 763d 2412 8f3e 3f18 983d
00000080: 1249 623e e280 003d 7cc1 383e 2953 5c3d
00000090: 7ba5 743e 6374 a13e 3e04 8d3e 76a8 aa3e
000000a0: 4765 133f fb7e 663d 0cf0 2e3e beba 733d
000000b0: 8c2e e33e 4090 233e b8f3 ab3e e980 b43e
000000c0: 3a0f 533e b227 723e 5011 393e f605 d93d
000000d0: bbdf 193e 9c64 633e 3c4d 4d3e 58d0 173e
000000e0: 1603 dc3d 119e 093d b591 e73d feec 923e
000000f0: 9d26 343e 26b2 ed3d 5753 383e 898f 813e

model.encoder.bn2.running_var f4 [64]
0.110106744 0.049846698 0.040311534 0.20329158 0.23111929 0.06687438 0.08094075 0.06580366
0.44308478 0.14325024 0.18471956 0.0170693 0.12181208 0.18613774 0.32355884 0.12029264
0.56916374 0.26062542 0.053862307 0.010957407 0.09899641 0.34739292 0.119270556 0.25977048
0.049115043 0.040084854 0.18976846 0.040314257 0.04008623 0.01803776 0.19093561 0.018761389
0.10883082 0.011101365 0.11976509 0.024774281 0.2820771 0.15061544 0.077498116 0.2649128
0.8367232 0.020557225 0.072888225 0.024606062 0.5169864 0.057750653 0.27874565 0.20232953
0.15619609 0.124672614 0.11610817 0.05471556 0.061386857 0.12602007 0.09887582 0.08451002
0.07403319 0.0075505483 0.073290855 0.20445678 0.10667636 0.03158159 0.08392506 0.19260915
00000000: a57f e13d 0d2c 4c3d b51d 253d ab2b 503e
00000010: 89aa 6c3e 6ff5 883d 44c4 a53d 12c4 863d
00000020: 02dc e23e 31b0 123e 2027 3d3e ebd4 8b3c
00000030: 9d78 f93d e49a 3e3e 81a9 a53e fd5b f63d
00000040: b7b4 113f b270 853e b99e 5c3d b286 333c
00000050: a1be ca3d 7cdd b13e 1f44 f43d a300 853e
00000060: db2c 493d 0430 243d aa52 423e 9020 253d
00000070: 7531 243d edc3 933c a084 433e 7cb1 993c
00000080: b1e2 de3d 80e2 353c 6647 f53d 6ff3 ca3c
00000090: 696c 903e ef3a 1a3e 55b7 9e3d a7a2 873e
000000a0: 7e33 563f a067 a83c 6c46 953d a792 c93c
000000b0: 3959 043f f38b 6c3d c0b7 8e3e 792f 4f3e
000000c0: def1 1f3e 5b54 ff3d 1fca ed3d 6c1d 603d
000000d0: c970 7b3d 680b 013e 687f ca3d 9713 ad3d
000000e0: b79e 973d 976a f73b 8419 963d 1e5d 513e
000000f0: 2379 da3d b35b 013d e7e0 ab3d 553b 453e

model.readout.fc.weight f4 [6, 64]
-0.020772882 -0.025140675 -0.061108828 -0.062155012 0.116839126 0.02619441 -0.025672203 0.03515937
-0.058798194 0.07645926 -0.01601329 -0.059287433 -0.0028727986 -0.04266658 -0.046876807 -0.09779346
-0.00488863 0.13516632 0.07696402 -0.046236884 -0.056905184 0.13064423 -0.056256395 0.08831758
0.052455723 -0.03947373 -0.07269191 -0.023592995 0.052400596 -0.07865693 0.05142819 -0.05096309
0.041792482 0.035040382 -0.05900207 -0.046805304 0.09032694 0.10816418 0.09278162 -0.05669559
0.010332568 -0.06777251 0.01052853 -0.04242667 -0.060810495 0.07282317 0.1007182 0.07005997
-0.12494237 0.088346675 0.10105669 0.028970322 -0.01606135 0.11461959 0.040178202 -0.031126108
0.07617114 -0.10890305 -0.012878457 0.056940295 0.04791149 -0.081921004 -0.12888697 -0.033426266
0.11250286 -0.07182345 0.014756123 0.04074817 -0.13282557 -0.07284671 0.12010558 0.007036068
-0.0861751 -0.033732213 0.12981471 0.028144686 0.109371245 -0.15058249 0.0110636465 -0.043687303
0.0610349 -0.050620943 -0.03336322 0.054195408 0.08198987 0.10407783 -0.066230685 -0.10074396
-0.058453523 0.12291605 -0.0010571858 0.047162168 0.06613271 -0.11729327 -0.01856405 -0.12063214
0.08370795 -0.061458457 -0.09273146 0.0026398716 -0.10978622 0.033058476 -0.034946773 0.08880576
0.07812784 -0.12760541 0.050257348 0.010573701 0.08310289 0.06716275 -0.13110763 -0.044670064
-0.046018932 -0.040711306 -0.004902647 0.06477846 0.07014003 0.06169392 0.09780314 0.01910413
-0.040448125 0.008858139 0.04831005 0.030636143 -0.03182801 0.07211625 0.06807498 -0.07282107
-0.110355325 0.06783728 0.056433864 0.034762412 0.11179931 -0.14051354 0.096934885 -0.08088232
0.06824879 -0.05340593 -0.116884224 -0.20152734 -0.004452356 -0.009514665 -0.05206099 -0.009256832
0.13180856 0.07340407 0.11305195 -0.038344946 0.095068514 0.13922366 -0.03528582 -0.033655223
-0.10620322 0.012655535 -0.002915496 -0.03520356 0.13914031 -0.08866773 -0.12330998 -0.06424143
-0.019705698 -0.1333686 0.10765828 0.14822908 0.093799375 0.009516901 -0.11232125 0.08856735
0.04524173 0.045039464 -0.14607821 0.046743285 -0.0006258906 0.05029175 0.0892264 -0.10661034
0.06160653 -0.08527684 -0.0021317308 0.16514306 -0.11623924 -0.032759532 0.021201365 -0.19339587
0.110848 0.15010609 0.12575448 -0.12863001 0.075021416 -0.15505035 -0.07010728 0.11694426
0.035600226 -0.09227248 0.035476834 0.02417232 -0.100516066 0.003467869 0.0010117249 0.10881941
-0.06204902 -0.092543505 -0.025187645 0.096735 -0.09809364 0.09686766 -0.014636739 -0.10450217
-0.058149677 -0.04964679 -0.01679278 0.15683998 0.06680198 -0.053461656 0.08868644 0.0018895499
0.1109518 0.035579037 0.12228489 0.15755488 0.05247618 0.14904445 -0.13900559 -0.043401785
-0.04452013 0.09068949 0.052558973 -0.03889791 0.036997702 -0.10705147 -0.039257206 -0.11134175
-0.043858625 -0.124562345 -0.0023955975 -0.059735026 -0.018489549 0.05494828 -0.016505659 -0.013142676
0.016143143 -0.15598162 -0.15326464 0.08941472 0.10831555 -0.068318784 -0.09402403 0.109014444
0.07901037 0.103038825 0.051471997 -0.11320386 0.030699946 0.0318693 -0.07622422 -0.11181844
00000000: e42b aabc d1f3 cdbc 404d 7abd 4196 7ebd
00000010: 5a49 ef3d a995 d63c 834e d2bc 4603 103d
00000020: 60d6 70bd ac96 9c3d 4e2e 83bc 61d7 72bd
00000030: 9045 3cbb 27c3 2ebd e501 40bd f047 c8bd
00000040: cd30 a0bb 0a69 0a3e 509f 9d3d e362 3dbd
00000050: 6915 69bd 9ac7 053e 1b6d 66bd d9df b43d
00000060: d0db 563d 35af 21bd 7fdf 94bd 1946 c1bc
00000070: 02a2 563d e216 a1bd 5ea6 523d acbe 50bd
00000080: 982e 2b3d 8186 0f3d 28ac 71bd ebb6 3fbd
00000090: 55fd b83d 2e85 dd3d 4a04 be3d a339 68bd
000000a0: ee49 293c 50cc 8abd db7f 2c3c 97c7 2dbd
000000b0: 6d14 79bd 5024 953d 5845 ce3d 9a7b 8f3d
000000c0: c9e1 ffbd 1aef b43d cff6 ce3d 2b53 ed3c
000000d0: 1893 83bc adbd ea3d e691 243d 2efc febc
000000e0: 9dff 9b3d 9008 dfbd 2a00 53bc 3a3a 693d
000000f0: d73e 443d 33c6 a7bd f2fa 03be fbe9 08bd
00000100: e667 e63d 2c18 93bd aac3 713c 8ee7 263d
00000110: 6d03 08be a830 95bd eaf9 f53d d18e e63b
00000120: 927c b0bd ca2a 0abd 26ee 043e af8f e63c
00000130: 08fe df3d 4c32 1abe 4c44 353c 75f1 32bd
00000140: bbff 793d e857 4fbd dfa7 08bd 01fc 5d3d
00000150: 4eea a73d c226 d53d f4a3 87bd d952 cebd
00000160: f66c 6fbd 69bb fb3d 4591 8aba 1e2d 413d
00000170: 9670 873d 7437 f0bd a213 98bc fc0d f7bd
00000180: 136f ab3d ddbb 7bbd fee9 bdbd b201 2d3b
00000190: 99d7 e0bd 5368 073d 5924 0fbd cbdf b53d
000001a0: 7d01 a03d feaa 02be a6da 4d3d 513d 2d3c
000001b0: d931 aa3d a08c 893d 1441 06be f5f7 36bd
000001c0: 597e 3cbd e6c0 26bd 62a6 a0bb 92aa 843d
000001d0: 93a5 8f3d c4b2 7c3d 034d c83d 4480 9c3c
000001e0: efac 25bd ba21 113c c2e0 453d a6f8 fa3c
000001f0: 165e 02bd afb1 933d e56a 8b3d 3723 95bd
00000200: f901 e2bd 46ee 8a3d 3227 673d 0863 0e3d
00000210: 09f7 e43d c8e2 0fbe cc85 c63d a1a5 a5bd
00000220: 06c6 8b3d 2dc0 5abd ff60 efbd 2f5d 4ebe
00000230: 12e5 91bb 66e3 1bbc e83d 55bd f8a9 17bc
00000240: d3f8 063e e054 963d c887 e73d 970f 1dbd
00000250: 48b3 c23d a690 0e3e dd87 10bd 0fda 09bd
00000260: 1381 d9bd 2959 4f3c e811 3fbb 9c31 10bd
00000270: cc7a 0e3e 6d97 b5bd f189 fcbd 0391 83bd
00000280: d86d a1bc c791 08be f27b dc3d 5dc9 173e
00000290: e319 c03d c7ec 1b3c af08 e6bd cc62 b53d
000002a0: 644f 393d 4d7b 383d 8795 15be e375 3f3d
000002b0: cf12 24ba b9fe 4d3d 55bc b63d 8656 dabd
000002c0: 2157 7c3d a0a5 aebd 82b4 0bbb 431b 293e
000002d0: d70e eebd dc2e 06bd 7cae ad3c 9109 46be
000002e0: 4704 e33d 69b5 193e c8c5 003e 96b7 03be
000002f0: d4a4 993d 85c5 1ebe 6894 8fbd 7980 ef3d
00000300: 8bd1 113d 5bf9 bcbd 2850 113d 0705 c63c
00000310: 5edb cdbd 3045 633b db9b 843a b6dc de3d
00000320: 1d27 7ebd 7387 bdbd 5256 cebc 001d c63d
00000330: 51e5 c8bd 8d62 c63d efce 6fbc 3c05 d6bd
00000340: 5b2e 6ebd 6f5a 4bbd 0391 89bc a99a 203e
00000350: 7acf 883d 9cfa 5abd 3ca1 b53d c6aa f73a
00000360: b33a e33d 53bb 113d 8070 fa3d 1156 213e
00000370: 43f1 563d 1c9f 183e 7b57 0ebe 12c6 31bd
00000380: bd5a 36bd 69bb b93d 1448 573d 6a53 1fbd
00000390: e78a 173d cd3d dbbd 2acc 20bd 2507 e4bd
000003a0: 1aa5 33bd 8b1a ffbd 75ff 1cbb b7ac 74bd
000003b0: 6577 97bc 7311 613d e036 87bc 6154 57bc
000003c0: a03e 843c a5b9 1fbe 68f1 1cbe 111f b73d
000003d0: 8bd4 dd3d b8ea 8bbd ac8f c0bd f742 df3d
000003e0: 30d0 a13d 0506 d33d 4dd4 523d 6dd7 e7bd
000003f0: 747e fb3c 6289 023d 721b 9cbd 1101 e5bd

model.readout.fc.bias f4 [6]
-0.072011 -0.11770144 -0.010872116 0.08361396 -0.060427114 -0.045035176
00000000: 817a 93bd 740d f1bd f620 32bc cc3d ab3d
00000010: 6c82 77bd ce76 38bd

exp_avg f4 [64, 3]
0.0005782868 -0.0009117591 -0.0012904117 -0.0008165696 0.015080199 -0.0129327485 0.0 0.0
0.0 0.0054298462 0.0043558334 -0.0041883015 -0.00051084027 0.0003684427 6.83709e-05 0.0029634396
-0.0048521827 0.0012182002 9.784362e-18 2.3385614e-15 0.0 -0.0011432791 0.0035655561 -0.0023268566
-0.0031338746 0.0032930882 -0.00011099364 0.0 0.0 0.0 -0.00085702614 0.0018819243
5.3812597e-05 0.0 0.0 0.0 -0.008483343 -0.0033578929 0.0 0.0038511963
-0.0020830533 0.0011462413 5.4813263e-05 -0.0008624014 0.00048995746 0.002307269 0.0023709857 -0.0005819295
0.0033675577 -0.009371779 0.0029545997 0.002217338 -0.0036469768 -0.0014061509 -0.0003117768 0.0053661675
-0.00057837024 0.0034620077 4.6640416e-05 -0.0035313675 0.002601687 0.007090695 -4.433071e-06 -0.0013782392
0.00020598045 -0.00015949928 -0.00081302354 -0.0050515784 -0.0057798293 0.0007369226 0.0032810927 -0.0028904679
7.30133e-05 -2.8381271e-05 0.00044955025 -0.0004334678 -0.00010994761 -0.00090989214 0.023231992 -0.025391672
0.0016380113 0.0041364534 -0.0022517983 -0.002167689 7.194766e-09 -0.00026013431 6.1020808e-05 0.0005522369
0.00074196595 -0.0013625275 0.0025759572 6.57524e-05 -0.0012261119 -6.7191622e-06 -0.00021587452 0.0003677794
-0.0037211617 0.0030504693 0.00051166833 0.0025029841 -0.0023950709 0.0003826219 0.005745739 0.0030379244
0.00025363115 0.0011100518 0.00017831795 -0.0014276044 0.0 0.0 0.0 1.5272892e-05
2.6530288e-05 -2.076117e-05 0.00092410296 0.00074636826 -0.000516644 0.014976507 -0.0017196595 0.0025935639
-0.0012037064 -0.0056790938 -0.008701923 0.00017430384 -0.0026713784 0.00067199674 -0.010343259 0.0030039647
0.004261255 0.0023238407 0.0045211827 -0.0020279137 0.0 0.0 0.0 0.001962919
0.00016408309 -0.0010938519 -0.00035297588 -0.0024326907 -0.00063553656 0.0004019596 0.00046481894 1.991506e-05
0.007624101 -0.01178061 0.0008688812 0.0024277184 0.0004334687 -0.0010548213 0.0020159166 0.0002910595
0.000127554 0.0025027134 0.0029125689 -0.0008788582 0.0025914395 -0.0011830989 -0.0005368802 -0.0012434185
0.003772275 0.00066466077 0.00021887949 -0.00046608853 0.00024860175 0.0004145427 0.0018783943 4.876537e-05
0.0055277175 -0.006389526 0.00078650634 -0.00043524927 0.0011439946 0.0018893884 0.0009065441 -0.0024510708
-0.0010393164 0.0006405905 -0.004607326 -0.0054050237 -0.0030033083 0.0016277588 0.0009209661 -0.0060765194
-0.0048923716 0.015963074 0.0038247388 -0.006849275 0.0016967038 -0.0071122977 0.010535576 -0.0028009533
00000000: 2c98 173a 1e03 6fba 0823 a9ba 0f0f 56ba
00000010: f012 773c e1e3 53bc 0000 0000 0000 0000
00000020: 0000 0000 daec b13b 61bb 8e3b 053e 89bb
00000030: e9e9 05ba 8b2b c139 5962 8f38 4436 423b
00000040: 0fff 9ebb 04ac 9f3a 587d 3423 d882 2827
00000050: 0000 0000 15da 95ba 1bac 693b 2d7e 18bb
00000060: b161 4dbb dad0 573b 42c5 e8b8 0000 0000
00000070: 0000 0000 0000 0000 0daa 60ba e7aa f63a
00000080: d6b4 6138 0000 0000 0000 0000 0000 0000
00000090: b8fd 0abc 1810 5cbb 0000 0000 5a64 7c3b
000000a0: d683 08bb 7a3d 963a 4be7 6538 c712 62ba
000000b0: 7d70 003a 8d35 173b 8a62 1b3b a18c 18ba
000000c0: 3eb2 5c3b 178c 19bc f5a1 413b c250 113b
000000d0: 1e02 6fbb 984e b8ba f975 a3b9 add6 af3b
000000e0: c59d 17ba dae2 623b c49f 4338 846e 67bb
000000f0: 1181 2a3b 1059 e83b cabf 94b6 09a6 b4ba
00000100: 75fc 5739 433f 27b9 1621 55ba b687 a5bb
00000110: b964 bdbb 0a2e 413a 9a07 573b 016e 3dbb
00000120: b81e 9938 5114 eeb7 9db1 eb39 1043 e3b9
00000130: ac93 e6b8 d485 6eba 0551 be3c 3202 d0bc
00000140: 8ab2 d63a 168b 873b e892 13bb c90f 0ebb
00000150: d535 f731 a362 88b9 98f0 7f38 fec3 103a
00000160: 7e80 423a d696 b2ba 64d1 283b 8de4 8938
00000170: 7db5 a0ba 2a75 e1b6 605c 62b9 84d2 c039
00000180: bcde 73bb 62ea 473b 7b21 063a 1b09 243b
00000190: 9ff6 1cbb a49a c839 c146 bc3b ea17 473b
000001a0: ccf9 8439 287f 913a dcfa 3a39 741e bbba
000001b0: 0000 0000 0000 0000 0000 0000 491e 8037
000001c0: 5c8d de37 4628 aeb7 803f 723a eda7 433a
000001d0: 646f 07ba 0660 753c 3366 e1ba c8f8 293b
000001e0: afc5 9dba b117 babb 8392 0ebc 55c5 3639
000001f0: 4b12 2fbb f028 303a c676 29bc 2ade 443b
00000200: ffa1 8b3b 944b 183b 6e26 943b bfe6 04bb
00000210: 0000 0000 0000 0000 0000 0000 51a4 003b
00000220: b80d 2c39 945f 8fba 9f0f b9b9 c76d 1fbb
00000230: 239a 26ba 1bbe d239 f1b2 f339 440f a737
00000240: 98d3 f93b 7603 41bc a1c5 633a 5b1a 1f3b
00000250: 2f43 e339 ee41 8aba 781d 043b 5899 9839
00000260: 04c0 0539 9004 243b cce0 3e3b 2d63 66ba
00000270: 24d5 293b 3612 9bba 6cbd 0cba 34fa a2ba
00000280: 4638 773b a13c 2e3a 0483 6539 585d f4b9
00000290: c356 8239 fb56 d939 7434 f63a 6b89 4c38
000002a0: db21 b53b 3b5f d1bb 8c2d 4e3a 2b32 e4b9
000002b0: 17f2 953a 5ba5 f73a 25a5 6d3a 25a2 20bb
000002c0: ac39 88ba 4ded 273a 0df9 96bb a01c b1bb
000002d0: 27d3 44bb 865a d53a fd6c 713a 8a1d c7bb
000002e0: 3050 a0bb fec4 823c 78a8 7a3b e26f e0bb
000002f0: ef63 de3a 470e e9bb 699d 2c3c 3390 37bb
