lightning_logs/version_88/checkpoints/epoch=19-step=300.ckpt (torch, 57653 bytes, 42 tensors)

model.encoder.conv1.att_src f4 [1, 4, 32]
00000000: e170 1bbe 3176 573e cfb0 83be ea2f 91be
00000010: 7dce 2d3e 6ac5 573e f0dc 013d eae5 36be
00000020: 5a17 b8be e673 90be ef4b 8cbe b770 97be
00000030: 5ed9 92bc 9717 9c3e 0663 8cbe 1c7e 83bd
00000040: df76 613e dd9b 3cbe 4849 aabd c12b e8bd
00000050: 056d f33d c890 33be d3e3 41be b684 ebbd
00000060: bdbe 8f3e 1afc f1bc 1acf 7fbe c801 b2be
00000070: 1d47 8c3e d7d2 43bd 0bb3 ec3d da43 83bd
00000080: b4a2 9b3e 7c1f 0a3d e7a5 96be b3b1 d83e
00000090: a645 c03e 55ef dd3e 49d0 92be 93d5 cfbe
000000a0: 5414 c03d 9dde b33e 8326 92be 9cd0 f9be
000000b0: 211b 003e 177d e5be ad30 c53e 0279 d83e
000000c0: e52f 6fbd 8664 e8be 5155 cfbd fda8 ddbe
000000d0: 48c8 483e 6cd0 dbbd 76c8 04be f231 873e
000000e0: de5f d3bd 9485 9bbe 0ac0 5ebd d325 abbd
000000f0: 6c3f 01be df5d 723e f92b 05be 5602 62be
00000100: dd0c be3e 66d9 663e 7b2d 86be 5f2f 83be
00000110: 8480 3d3e b0a9 803e e306 5dbe f3df ddbe
00000120: ad06 803e 864d 513e 6f1c 47be c550 ce3e
00000130: b976 ac3e 3bac aabe 34b8 a63e 9423 553e
00000140: 0521 85be 440d d0be 82cd 503e bf1a 9cbe
00000150: ffc9 f8be a1b0 debd 7ecd f93e ba3c 86be
00000160: d5ba 33be caa9 4b3e 97be 903c e215 77bd
00000170: 7ee2 52be 6621 0c3d 8a5f 383e 5408 9dbd
00000180: 033b 113e 659e 483e 9e0a 8e3e debe 39be
00000190: e189 03be 2eba aebe ed9e 963e d180 3bbe
000001a0: bdfd 5b3c f30f a3be 661d abbe 3c93 00be
000001b0: 69c7 5d3e 7334 0abe 811a d0be 5f7a 29be
000001c0: 299e 753e 67e6 0c3c f95a af3e b62c 0ebe
000001d0: 103b fd3e c58e 97bc 7c51 8a3e 4abd 353e
000001e0: cfcf e23d 994e 1abe 88b4 2ebe 3b35 87be
000001f0: 3316 b53e b636 9ebd dd17 b3be 64d0 a43e
-0.15179779 0.2104118 -0.25720832 -0.28356868 0.169733 0.21071401 0.031704843 -0.17861143
-0.35955316 -0.28213423 -0.27401683 -0.29578182 -0.017925914 0.30486748 -0.274193 -0.06420538
0.22018002 -0.18418832 -0.083147585 -0.113364704 0.11886028 -0.17535698 -0.18934564 -0.11499922
0.2807521 -0.029539157 -0.24981347 -0.34766984 0.27398005 -0.047808494 0.11557587 -0.06409426
0.3039757 0.033721432 -0.29423448 0.42323074 0.37553138 0.43346658 -0.28674534 -0.40592632
0.09378877 0.35130778 -0.28545007 -0.4879197 0.12510349 -0.44821998 0.385137 0.42279822
-0.058395285 -0.45389193 -0.10123695 -0.4329299 0.19607651 -0.10733113 -0.12967095 0.26405293
-0.103210196 -0.3037535 -0.05438236 -0.08356824 -0.1262185 0.23668621 -0.13005055 -0.22071204
0.3711919 0.22543868 -0.26206574 -0.2562208 0.18506056 0.2512946 -0.21584658 -0.43334922
0.25005093 0.20439729 -0.1944444 0.40295997 0.33684328 -0.33334526 0.3256241 0.20814353
-0.26001754 -0.4063512 0.20390895 -0.30489156 -0.4859161 -0.10873533 0.4878959 -0.26218206
-0.1755174 0.19888988 0.017669005 -0.060323603 -0.20594212 0.03421154 0.18005195 -0.07667604
0.14182667 0.19591673 0.27742475 -0.18139216 -0.12845565 -0.3412642 0.29418126 -0.18310858
0.013427195 -0.31848106 -0.33420867 -0.12556165 0.216581 -0.1349657 -0.4064522 -0.16550587
0.23986115 0.008599854 0.34249094 -0.13884243 0.49459124 -0.018500695 0.27015293 0.1774799
0.110747926 -0.15069045 -0.17061055 -0.264078 0.353685 -0.07725279 -0.34979144 0.3219024

model.encoder.conv1.att_dst f4 [1, 4, 32]
00000000: ac91 643c 8a44 9bbe d44f 84bd c045 93be
00000010: bf95 e8bd 6862 73be 6543 99bc 5a40 40be
00000020: 93fc 4f3e 522e 93be 9339 af3d 2a1e eebd
00000030: 43e7 bdbe ceac 073e 6a7b b23e 4d68 8bbe
00000040: 5a78 3dbe 5445 c6be 8676 39bd afda b03e
00000050: 3821 ca3d 4b69 e3bd 4dc4 1a3e 1b2a bebc
00000060: 9b32 a8be 0433 863e d8e8 40be 424c b93c
00000070: 2c27 eebe fe7b b73e aae3 aebe 5a6b 92be
00000080: fc45 8ebe 99a0 9abe eb9b 193e 5c7b 52bd
00000090: 67fe c3be 9c1b 4d3c 3abf 983e be4a c23e
000000a0: 5453 9d3d dfc2 83be a0a5 32be 8462 3dbe
000000b0: b397 25be a30d 74be 890d 9abe 3487 5a3c
000000c0: 3110 563e c7e9 713e 4c71 9fbe 4296 963e
000000d0: 8f6d 693e dcd9 28bd b80f a23e 0e94 95bd
000000e0: 6d08 9abe 8f56 783e 9559 8e3e 6c12 9ebe
000000f0: 2f4d a0be 2576 93be 7073 a9bc a369 c1be
00000100: 002e a0be 6cae 3dbe e7af 3fbe 2296 093e
00000110: d4cc a23e 49d6 3fbe 3293 1c3d f426 05be
00000120: 7301 133d e99d 9cbd 4b88 aebe 0157 8f3e
00000130: db25 99bd 5698 35be 82ce 8cbe 3d61 893e
00000140: 678b 953e bf17 59bd 90de babe 8335 7f3e
00000150: 02fa a53e d066 5e3e 4d13 693e 5849 4abe
00000160: 0572 03be d63f b6be 5a50 d3be 8fb6 7b3e
00000170: 955b 88be 5a01 c9bd 6eb7 65bd db7c d8be
00000180: 78a7 1cbe 39ff 853e 0ace 4c3e eab3 a93e
00000190: 5a08 76be 2114 bf3d 3473 373d fc34 55bd
000001a0: ee1d 0dbd efb5 e53d 4a96 e63d 0f70 9a3d
000001b0: 2ab1 0d3e 8832 143d f587 da3e 43ed 76be
000001c0: 5722 31be a9b2 13be cfb8 b53e ca18 893e
000001d0: 00fc ee3e 7374 583e a790 72bd 2a62 703c
000001e0: bdaf 38bd 72e7 783e 46d8 283e 5494 9c3e
000001f0: 8849 bf3e 7d7f 8c3e 24dd 0c3e c09d adbe
0.0139507465 -0.3032573 -0.064605385 -0.28764153 -0.11356687 -0.23768008 -0.018708894 -0.18774548
0.20311193 -0.28746277 0.08555903 -0.11626847 -0.370905 0.13249514 0.34859782 -0.27228013
-0.18502942 -0.38724768 -0.04527905 0.34541842 0.09869617 -0.111040674 0.15113945 -0.023213437
-0.3285111 0.26210797 -0.18838823 0.02261937 -0.4651426 0.35836786 -0.3415807 -0.28597528
-0.2778777 -0.3020065 0.15000884 -0.051387176 -0.3828003 0.01251879 0.29833394 0.3794765
0.07681909 -0.25734612 -0.17445993 -0.18494612 -0.1617115 -0.23833327 -0.30088452 0.013337899
0.20904614 0.23624335 -0.31141126 0.29411513 0.227957 -0.041223392 0.31652617 -0.0730363
-0.30084553 0.2425177 0.2780272 -0.3087343 -0.31308886 -0.28801075 -0.020684928 -0.37775907
-0.31285095 -0.18523568 -0.18719445 0.13436177 0.31796896 -0.18734087 0.038226314 -0.1300314
0.035890054 -0.076473065 -0.34088358 0.27996066 -0.074779235 -0.17733893 -0.27501303 0.26832
0.29207918 -0.05300116 -0.36497927 0.24922757 0.32417303 0.21718907 0.22761269 -0.19754541
-0.12836464 -0.35595578 -0.4127224 0.2458136 -0.26632372 -0.09814711 -0.056083135 -0.42282757
-0.1529826 0.26171282 0.20000473 0.33145076 -0.24026623 0.09330011 0.0447876 -0.052052483
-0.03445237 0.11216342 0.11259134 0.07540905 0.13837114 0.036181003 0.42681852 -0.24113946
-0.17298256 -0.14423622 0.3549256 0.26776725 0.46676636 0.21138172 -0.059219982 0.014671842
-0.045089472 0.2430704 0.16488752 0.30581915 0.37360787 0.27441016 0.13756233 -0.33909416

model.encoder.conv1.bias f4 [32]
00000000: 438a 283d 8d59 cfbc 3cf7 ae3c af9c 573d
00000010: ebb8 813c 8a96 873c 7554 c3bc 0bc2 633b
00000020: 1ac7 bd3b f70c 273c 9193 cf3c e646 2a3d
00000030: fd1f 72bd 8ccf ea3b 994d 01bd da1a b9bb
00000040: 3acc 4abb b07c db3c 969b 32bd dc5c 1bbd
00000050: 1971 a83c 987b 1e3d cbd9 2b3d a00c 253d
00000060: 75a0 10bc 5548 183d 69a9 c53c be63 adbd
00000070: 2ea2 063d af48 8aba a3f6 afbc 3296 223c
0.04114748 -0.025311256 0.021358125 0.05263966 0.015835246 0.016551275 -0.023843983 0.003475311
0.005791557 0.010195962 0.02533892 0.04157152 -0.059112538 0.007165855 -0.031568144 -0.005648953
-0.0030944482 0.026792854 -0.04360541 -0.037930354 0.020561742 0.038692087 0.04195575 0.040295243
-0.008827318 0.037178356 0.024128633 -0.0846629 0.03286951 -0.0010550226 -0.02147991 0.009923505

model.encoder.conv1.lin.weight f4 [128, 3]
00000000: e1f2 283e 0438 4d3e 7958 ac3e 6fb4 29be
00000010: 12fd f5bd cf62 cdbd b933 f23d a996 063d
00000020: 9513 503e b0a0 9ebd 022b 8b3e ce8c edbd
00000030: 037b 8cbe 3a8b 3fbd 68f1 bf3d 368c 2d3e
00000040: 91cd 95bb c18c ae3d 076f 1f3e 6c4b 76be
00000050: 109f 3fbe 3bd2 04be afab 88be 837f 0e3d
00000060: 8d34 753e 9e9e 893d 8583 b2be ce57 69be
00000070: 4c9c 133e ae37 a23e 90a9 eb3b f19b 063c
00000080: 9204 82bd 108b 8b3c 7bd7 dbbd 3b28 2dbd
00000090: bdc6 273e 741c 0bbc 1839 8b3d 9ca1 20be
000000a0: 52ad 1bbe 3c78 a23d 1bc9 ac3d 8b2b 81bd
000000b0: c667 50be 3b75 ddbd c00b b1bd 96d3 903e
000000c0: 021f 01bd 3fdf cb3d 2b09 d8bd d4fc 65be
000000d0: 43cc 923e 0352 bf3d 4a8f 4bbd fdb4 c7bd
000000e0: 2b16 b7be eba9 323e fc57 d9bd f9e0 03be
000000f0: 490d 813e d6a7 85be a9ac c03d c3b8 1dbe
00000100: beae 44be 0fa5 aa3e c374 0e3e c221 06be
00000110: cd42 063e a126 4b3e 4ff5 49bd 6d23 e7bd
00000120: 0b71 49be eddf b8bd 4473 bbbe f682 dfbc
00000130: c72c 153d 1921 693e 6c1d 3a3d 22b7 0b3d
00000140: 7674 973e bdca 95bd b310 2bbe 4889 14bd
00000150: 61fc 0e3d d834 803e 25e2 5f3e 731d 253e
00000160: c212 54bc d30e cc3d 5c70 59be f82b 2d3e
00000170: 87c6 2dbd 0030 28be e1c7 c5bd b6c6 023e
00000180: 3c88 1abe 2643 143e 9630 a13e 17dd 77be
00000190: cf95 dabd edec 6f3d 04cf e03c be3e 6fbc
000001a0: 6798 0e3e 0006 bfbd b252 953e b89b 17bd
000001b0: 3829 43bd 1fa1 813e 5187 373d 76cd 33be
000001c0: afd4 323e b781 983e 8954 173e 0e03 af3c
000001d0: 55bf 81bd cc5d 2a3e d67f a1bd 0139 82bb
000001e0: 868c 0d3c 2ccb 2bbe dd3c 85be 240f 61be
000001f0: 5e95 293e 8184 103d 51a4 47be aabd 893a
00000200: da65 35bd 8425 763d 068e d0bd 915e 2dbe
00000210: 49c5 1abe adcc e9bd 17af 933d 5b81 323e
00000220: 0820 2fbe eb19 3a3e 5a92 46be 453a 623e
00000230: 8f6a 03be 4e84 83bd e57b 303e 406e 923e
00000240: 9771 223d b3ef 963c 586b abbe a074 723d
00000250: 3239 1f3b ccb2 0abd 9005 e13c 1aff 29be
00000260: a7f5 91be 9e1d 42bd de8f 69be 75c4 f3bc
00000270: 3e10 053e f4d6 47be 7a0f cf3d 0bb0 263e
00000280: 5a94 903d f607 3d3e 3d73 30be 12a4 43be
00000290: 4fd0 9f3e 48bb ccbd f8db 03be 59b9 de3d
000002a0: 6256 063c 95b1 443e 3702 b5be 505f d5bd
000002b0: afdb fabd b7e6 8b3e cb19 bebd 715a 813e
000002c0: bd35 ba3e 2c28 8ebe 2951 273d 0f4b 90be
000002d0: 0bcc 93bb 4fd3 3c3e d1c2 383e 79fc 9bbd
000002e0: 3f75 243e a432 47bc 1366 2fbe 3fe4 033e
000002f0: 3580 b33c f63a 05be 9c6a 0d3e 23e3 84bd
00000300: d61c d2bc e668 823e 56c1 c03c e9c6 e8bb
00000310: 8b9e 1a3e 1daa e4bd e879 6bbe fb76 343c
00000320: f5a7 8a3e 91fa e9bd 5fe5 c7bd 5752 06be
00000330: e1e7 f0bd 0205 943e 7c33 003e 43ae dd3d
00000340: aa91 2f3e ef97 2cbd 933b 10be f453 3cbe
00000350: e316 83be 792c 5d3e c77e 373d fde4 8ebd
00000360: 31c1 903e a79b dcbb 7783 76be df10 c43d
00000370: b39a 8c3e ebd2 b53e efb3 f3bd b21a 883e
00000380: 0f07 9dbd aad0 ff3d ddfc 043e 6e68 bb3d
00000390: 41c9 4fbe fd3a 72bc 2aee 8b3c 8da5 71be
000003a0: d010 19be be14 833e 1d4c 61be 8715 cabd
000003b0: 0c46 9cbe a821 a8bd 00a3 703e e39f 293e
000003c0: 83f5 603d 10b5 583e de8d b7be c28d 323c
000003d0: def1 3abd aaf3 0c3e 5f06 123e 0d41 e13d
000003e0: 323b d0be dafd 733e 700a 6ebd 0142 96be
000003f0: 917a b13e ca16 7a3d f422 5cbe 2352 153e
0.16498901 0.200409 0.3366125 -0.16572736 -0.1201116 -0.10028612 0.118262716 0.032858524
0.2031997 -0.077454925 0.2718125 -0.11599122 -0.274376 -0.046763636 0.093722165 0.16948017
-0.0045716246 0.085229404 0.15569697 -0.24052209 -0.18713021 -0.12970822 -0.26693484 0.034789573
0.23945828 0.06719707 -0.34865966 -0.22787401 0.14415091 0.31683105 0.0071918443 0.00821589
-0.06348528 0.017034084 -0.10734459 -0.042274695 0.16384406 -0.0084906705 0.06797999 -0.15686649
-0.15202835 0.07933089 0.08436795 -0.06307133 -0.20352086 -0.108133756 -0.08644819 0.28286427
-0.031523712 0.0995469 -0.10548624 -0.22459728 0.28671464 0.09341814 -0.049697198 -0.09751318
-0.357591 0.17447631 -0.10612485 -0.12878789 0.25205448 -0.2610461 0.09407932 -0.15402512
-0.19207284 0.33329055 0.13911729 -0.13098815 0.1311142 0.19838955 -0.04930621 -0.11286054
-0.19672029 -0.090270855 -0.36611378 -0.027284127 0.036419656 0.22766532 0.045438215 0.034110196
0.2958104 -0.0731406 -0.16705589 -0.036263734 0.034908656 0.25040317 0.21863611 0.16124515
-0.012943925 0.09963765 -0.21234268 0.16911304 -0.04242566 -0.1642456 -0.096572645 0.12771115
-0.15091032 0.1447874 0.3148238 -0.24205433 -0.10673105 0.05857556 0.027442463 -0.014602361
0.13925324 -0.09327316 0.29164654 -0.03701374 -0.04764673 0.25318238 0.044806782 -0.17558846
0.17463945 0.29786465 0.14778341 0.021363761 -0.06335322 0.16637343 -0.07885711 -0.0039740806
0.00863946 -0.16776723 -0.26022997 -0.21978432 0.16560885 0.035282616 -0.19496275 0.0010508795
-0.044286586 0.06009437 -0.10183339 -0.16930605 -0.15114321 -0.11415992 0.0721113 0.17432158
-0.17102063 0.1817395 -0.19391766 0.2209254 -0.12833618 -0.064217195 0.17234762 0.2859974
0.03965911 0.018424844 -0.33480334 0.059193254 0.0024295566 -0.03386192 0.027468473 -0.1660122
-0.2850773 -0.047391526 -0.22808787 -0.029756764 0.12994477 -0.19515592 0.10110374 0.16278093
0.07059546 0.18460068 -0.1723146 -0.19105557 0.31213614 -0.099966586 -0.1287688 0.10875196
0.008199306 0.19208367 -0.35353252 -0.1041857 -0.122489326 0.2732446 -0.09282263 0.25264314
0.36369124 -0.27765024 0.040848885 -0.28182265 -0.004510408 0.18439983 0.18043067 -0.07616515
0.16060351 -0.01215807 -0.17128782 0.12880038 0.02191172 -0.13010773 0.138102 -0.064886354
-0.025648516 0.25470656 0.02352969 -0.00710379 0.15099542 -0.11165259 -0.22995722 0.011014695
0.27081266 -0.11424745 -0.09760546 -0.13117348 -0.117629774 0.2891007 0.1251964 0.108242534
0.1714541 -0.042137083 -0.14085226 -0.183914 -0.256034 0.21598996 0.04479864 -0.0697727
0.28272393 -0.0067324224 -0.24073587 0.095735304 0.27461776 0.3551248 -0.11899554 0.26582867
-0.07667362 0.124909714 0.12987085 0.09150778 -0.20291616 -0.014784572 0.017081339 -0.23598309
-0.1494782 0.25601763 -0.22001691 -0.09867387 -0.30522192 -0.082095444 0.2349968 0.16564898
0.05492164 0.2116282 -0.35850424 0.0108980555 -0.04564082 0.13764825 0.14260243 0.109987356
-0.40670162 0.23827305 -0.058115423 -0.29347232 0.34663823 0.06105689 -0.21497709 0.14582114

model.encoder.conv2.att_src f4 [1, 1, 32]
00000000: 34ac 0f3e 23f1 c2bd 2f85 04be 4bab 9cbe
00000010: ac55 073e 8c5d 96be 551f efbe 050b 773e
00000020: 6900 d9bb 0a64 a1be 91f1 533d 9c69 bb3e
00000030: 34a4 3dbe a3a2 0ebe 15b4 f23e 3ae9 5a3e
00000040: 4dd6 933e 1308 0dbe 1d3b f13e fb8c f03d
00000050: 6d95 b73c 3a7b dcbe 2bc2 4dbe b215 e33d
00000060: 6530 ccbc e028 2f3d 6064 9b3e 3fc7 57be
00000070: bdd5 abbd 6744 b33e 0a09 8dbe 4314 7d3e
0.14030534 -0.095186494 -0.1294143 -0.30599436 0.13216275 -0.29368246 -0.46703592 0.24125297
-0.0066223633 -0.31521636 0.051744048 0.3660401 -0.1851967 -0.13929228 0.47403017 0.21378031
0.28874436 -0.13772611 0.47115412 0.1174564 0.022410119 -0.43062764 -0.200936 0.110881224
-0.02492542 0.04276359 0.30350018 -0.210721 -0.08390377 0.35013124 -0.2754596 0.2471476

model.encoder.conv2.att_dst f4 [1, 1, 32]
00000000: 1f69 88bc 5763 09bb e51d 573d 8d5f babe
00000010: 1472 cabe 5ca9 da3d 60cc 943e 4215 1c3e
00000020: b3eb 9bbe 3e13 db3e 4196 5d3d 2015 193e
00000030: 6fd5 d63e 594e f63d 4e3a 96be bfcf bcbe
00000040: 549c c3bd caf5 5cbd c3ea 11be 3772 51be
00000050: d2ea 74be 1c42 af3c fe11 9e3a dbc7 5fbe
00000060: 59b4 cc3e f09e 17bc 2409 b3bd f1d8 e63c
00000070: 4478 f7bd 4eca bebe baaf 993e bf92 ba3e
-0.016651688 -0.0020963752 0.052518744 -0.36401024 -0.3954016 0.10676834 0.29062176 0.15242484
-0.30453262 0.42788118 0.05409837 0.14949465 0.41959712 0.120266624 -0.29341358 -0.36877248
-0.095513016 -0.05394534 -0.1424971 -0.20453726 -0.23917702 0.021393828 0.0012059805 -0.21853583
0.39981344 -0.009254202 -0.08741978 0.028179618 -0.12083486 -0.3726372 0.3001688 0.36440083

model.encoder.conv2.bias f4 [32]
00000000: f11e b53c 5d66 ad3c 8b4f a03c 465f 0e3d
00000010: f230 30bc 2cd6 1b3d b80c aa3c 9d16 ecbb
00000020: 5b4e a13c 7729 53bb f8b6 073d 3441 e03c
00000030: 431b 1ebd 342c 553d 43e3 e43b e8e1 813a
00000040: 7745 373b 2e2c 5d3c d3c3 8abc 7f21 4bbc
00000050: 967d ee3c 876b b83c e2d3 153c 2a15 1cbc
00000060: ba7f 9dbc bbca 313b d874 52bc a8a0 6dbc
00000070: c466 453d 60ac 09bd 1d5e fd3c 979a 6e3d
0.02210948 0.021166975 0.019569179 0.03475883 -0.010753857 0.038046047 0.020758018 -0.007204844
0.019690683 -0.003222076 0.033133477 0.027374841 -0.038600218 0.05204411 0.0069850995 0.0009909244
0.0027964988 0.013499303 -0.01693908 -0.012398123 0.029112618 0.02251221 0.009144755 -0.00952653
-0.019225944 0.0027128893 -0.0128452405 -0.0145036355 0.048193708 -0.033611655 0.030928666 0.058252897

model.encoder.conv2.lin.weight f4 [32, 32]
00000000: 2f55 91be 2d2b 993d a537 7abd b053 b8bd
00000010: a6db fbbe 8d63 ffbd d97c ac3c 3997 843e
00000020: dd6c 133e 3df1 fcbe 5c3f 8a3d cf65 2cbe
00000030: 8c24 88be e039 443e 5fcc 4dbd bb3b cdbe
00000040: 844f 0a3e 7a17 afbd 1935 5d3e 5c15 d03e
00000050: 431e dd3e 9e08 96bd f857 0a3e 17c4 353e
00000060: ad67 d2be 0cd4 57be a279 a6be 4cde 32be
00000070: f39c 723e 7652 2b3e 0e84 abbe bb10 04be
00000080: 919f ac3c 17cf 8d3c 1142 fa3d f448 f7bd
00000090: da3e 7abc 3608 d7bd 4463 3abe 3cd8 84be
000000a0: b755 e3be 7a39 9a3e f939 e33c 9cd1 753e
000000b0: eedf a23d ba15 96bc b82c 5dbe 6b45 ae3e
000000c0: ccc2 28be 97da 363e 53e7 bfbe 8e18 5dbe
000000d0: 056c 60be 1511 bbbd 80b7 b43e cfc7 453d
000000e0: 753d b8be 15a1 b53e df84 a23e 50b3 c73d
000000f0: 237c 9e3e 1cac 433d 0a64 6f3e a56d c03e
00000100: d028 023c 9031 b3bc 2bf7 d13d cb7e fbbd
00000110: fc31 89bd 861c 473e 89b6 26be 626c 843e
00000120: 6e7d 393e 2805 493d 6e62 98be 1be4 9c3e
00000130: e257 4fbb ae3b c1bd 2f13 85bd 32cb c1b9
00000140: d381 4a3e d53a 8a3d d27f d3bd d1da b23d
00000150: bab0 8f3e 499f 47bd 3c61 8fbd ee7b a53e
00000160: 070f 9a3d 86f9 08be af06 1fbe dffe ad3c
00000170: 19d0 573e 7209 973e 5e01 40be e50c 43be
00000180: 8f51 863e 941a a63d aaeb 00be 434f 073c
00000190: 2f5f c2bd 8be4 3b3e 7d3e 93be 34e7 6e3b
000001a0: 2ce0 bd3d 4c24 1bbe e991 823d 09f1 293e
000001b0: 1f91 35be 6893 80be 7ad7 93be 28e9 543d
000001c0: 33b7 29bd e47e 3b3e f920 fbbd 4ce7 a0be
000001d0: c830 333e 2e34 a23e 265c 0e3e 5f78 6a3e
000001e0: 9f87 09be 79bd 943d daa0 8a3e 1332 8ebe
000001f0: 061c 713e 8699 9cbd 2a47 cd3c 94e9 c0bb
00000200: 7390 3fbe 1963 84be 7dcc 1a3e 9c35 80be
00000210: 45c5 273e 88b5 edbd d521 05be 7159 5d3e
00000220: 1123 57be 268f 01be fde4 8cbe 52b5 823d
00000230: 18cb 0abe 4c16 aa3e ede9 02bd e435 25bc
00000240: 720d 143e abe4 4f3e 7847 9bbe 353e ad3e
00000250: 39e3 443d 0a1f 363e addb 583e a85e 143e
00000260: 1e30 0dbe 4db8 9abd 9a0a 75be 8e31 1d3b
00000270: 8f41 153e 8651 3dbe e95e 6bbe f721 49be
00000280: bc1f 0bbe aa70 96bd 4861 ed3d 98cb b13e
00000290: 28b6 183e 1aa0 733d 28f6 99be f920 d03d
000002a0: cd32 a8be 3693 b33e 986f c83e 630f 7a3d
000002b0: 3994 953c c1ad 6a3e f016 0fbd addb fb3e
000002c0: 870d f13d 81b5 b03e c22c 9dbe 889d 8abe
000002d0: 8334 c7be 1025 833d d10b c33d 9525 2fbe
000002e0: b068 12be be06 cfbc 3e85 a13e 1602 e03d
000002f0: 88dc bb3e 04d7 a73d fa68 08be 273f 3cbe
00000300: f0bb a6be 4f48 1abd d98a 673e a11d 7bbe
00000310: 6408 f53d 25d5 b03d 457e c9bd 1e1d b63e
00000320: b7a1 603d 4d2b 023e bd97 91bd 9bc0 a63e
00000330: 3bc1 c23d f0a2 273d 9a08 52bc c8ba 073d
00000340: f6d2 8cbe f1eb 98be 2d6c 25bd 9451 28be
00000350: f558 623e f6ec d1bd 4d95 8cbe 5d63 a6bd
00000360: 2e19 093e 64fe 25be 7f25 8dbe 431c 883e
00000370: 4bc5 a1be 57ad aebc ea04 84be f713 4cbd
00000380: 647a 08be ed35 62be 0315 2a3e 035f 83be
00000390: cf30 663d cd32 5abe 924f bd3c 0419 16be
000003a0: c19c 5f3e e758 563e 76c0 a1bd 9bd3 143e
000003b0: 4860 763d 81e8 603d c5b4 a13e 3e2a 84be
000003c0: 95e6 67be 3d80 983e efa1 853e a2d4 1b3c
000003d0: 32f8 82bb b0b8 88be 021a 943e d5e7 febd
000003e0: 4734 d13b 077c afbd 7049 dc3d 39af 983e
000003f0: 3306 8e3e 5243 1d3e 4472 cabd b1b9 003e
-0.28385302 0.07478938 -0.061088223 -0.09000337 -0.49191016 -0.1247016 0.021055626 0.25896624
0.14396997 -0.494028 0.06750366 -0.16835712 -0.26590383 0.19162703 -0.05024373 -0.40084633
0.13506895 -0.085494 0.21602286 0.40641296 0.4318715 -0.07325862 0.1351012 0.17750584
-0.41094723 -0.21076983 -0.32514673 -0.17467612 0.23692684 0.16730675 -0.33499187 -0.12897007
0.021072181 0.017310662 0.122196324 -0.120744616 -0.015273774 -0.10499613 -0.1820193 -0.25946224
-0.44401333 0.30121976 0.027737604 0.24005741 0.079528674 -0.018320907 -0.2159909 0.34037337
-0.16480559 0.17856823 -0.37481174 -0.21591398 -0.21916206 -0.091341175 0.3529625 0.048286255
-0.35984388 0.35474458 0.31741998 0.09750998 0.30954084 0.04777156 0.23378006 0.37583652
0.007944301 -0.02187422 0.10252222 -0.12280043 -0.06698987 0.19444475 -0.16280569 0.2586394
0.18114254 0.049077183 -0.29762596 0.3064278 -0.0031638076 -0.09435211 -0.064977996 -0.0003696322
0.19776087 0.067495026 -0.10327114 0.08733142 0.2806452 -0.04873589 -0.07000968 0.32321113
0.075223975 -0.13376436 -0.15529893 0.021239696 0.21075477 0.29499394 -0.18750522 -0.19047888
0.262341 0.08110538 -0.12589899 0.008258644 -0.09490811 0.18348901 -0.28758612 0.0036453726
0.09271273 -0.15150565 0.063754864 0.16595854 -0.1773114 -0.25112462 -0.28875333 0.051980168
-0.041434478 0.18310124 -0.122621484 -0.31426466 0.17499077 0.31680435 0.1390234 0.2289748
-0.13430642 0.072627015 0.27075845 -0.2777258 0.23545846 -0.0764647 0.025058348 -0.0058872197
-0.18707447 -0.25856856 0.15117069 -0.250409 0.16383846 -0.1160689 -0.13001187 0.2161615
-0.2100947 -0.12652263 -0.27518454 0.0638224 -0.13554037 0.33220136 -0.03196137 -0.010083649
0.14458254 0.20302074 -0.30327964 0.33836523 0.04806826 0.17785278 0.2117755 0.14489233
-0.13787887 -0.07554684 -0.23929825 0.0023985836 0.1457579 -0.1848813 -0.22985424 -0.19641863
-0.13586324 -0.07345708 0.115908206 0.34725642 0.14913237 0.059478857 -0.30070615 0.10162539
-0.32851258 0.3507325 0.3914764 0.06104983 0.018259155 0.22917844 -0.034933984 0.49191037
0.11770158 0.34513476 -0.3069821 -0.27073312 -0.3890725 0.064035535 0.09523738 -0.1710418
-0.14297748 -0.02527177 0.31546968 0.10937898 0.3669169 0.08195308 -0.13321295 -0.18383466
-0.3256526 -0.037666615 0.2261156 -0.24523021 0.11964491 0.08634404 -0.09838537 0.3556909
0.054841723 0.1271183 -0.0710902 0.3256882 0.09509512 0.040926874 -0.012819434 0.033137113
-0.275047 -0.2986751 -0.040386368 -0.1643737 0.22104247 -0.10250275 -0.27457657 -0.08124421
0.13388512 -0.16210324 -0.2756767 0.26584062 -0.31595835 -0.02132289 -0.25785 -0.049823727
-0.13327938 -0.22090884 0.16609578 -0.25658426 0.05619889 -0.21308441 0.023109231 -0.1465798
0.2183714 0.20932351 -0.07898037 0.14533846 0.060150415 0.054909233 0.3158323 -0.25813478
-0.22646554 0.29785338 0.26100108 0.009511145 -0.0039968723 -0.26703405 0.28926092 -0.12446562
0.006384406 -0.08568578 0.107561946 0.29821184 0.27739105 0.15357712 -0.09885076 0.12570836

model.pooling_fn.gate_nn.0.weight f4 [32, 32]
00000000: 6259 713e 7cfc a1be 1647 003e 3f18 113e
00000010: 9345 7f3e 7092 6cbd f535 203e 8601 913d
00000020: 25f5 c3bd 1bf0 e8bd 4771 c43d 42e9 aabe
00000030: 71a3 93bd 757b 43be fbf3 04bc 6aa3 e73d
00000040: d026 7f3e 94c4 063e 20f5 b6bb c12d 243e
00000050: e853 87be af08 933c 4df7 d2bd f2b5 d43d
00000060: 87c3 713d 221d 803e ff5e 163e b51d c8bd
00000070: f7c5 6d3c b8f4 bc3d 3edf 7c3e ff92 01be
00000080: 6693 c33d f934 17be 97aa 263e 014f a63d
00000090: 8e29 df3d 289b b0be ccbc 353e 3e85 7abd
000000a0: 0ec7 19be 2ae1 023d b8ba be3d 2844 c2be
000000b0: 4600 163e d651 cbbe 64d6 113e cac6 1b3d
000000c0: 3fc6 363e a23b 41bd 9425 8e3d 779d 263e
000000d0: a900 13be 0e75 89bd 259a d4be 112b ccbd
000000e0: e724 f43d 8c12 8b3e 491c 073d aa6b 6d3c
000000f0: 3780 883e bd24 a73d 03af 7c3e b046 acbe
00000100: 79e7 7b3e 3762 70be 24b2 0f3d 884e 9d3d
00000110: 934b a33e 3131 183d e2cd c33d 73cb 9ebc
00000120: 2824 03be cbbb 04be 78c4 c73d daa5 41be
00000130: 8155 d0bd cd55 9cbe eff8 4b3e 4ee3 efbd
00000140: 7e4b ec3c 75fb 0e3d efbd e53d 7344 cabd
00000150: 0caf b4be 3371 163e 4f21 0abe 6b44 0b3e
00000160: e8da fa3c 88a3 1dbc 46d8 78bd 1394 473d
00000170: eeb2 b53c 4851 13be 0465 fc3d 1b5c b7be
00000180: 3672 c93d 5385 0c3e b912 133e 2670 d13d
00000190: f0b2 02bd 86e1 00be 56b7 c53d db06 21be
000001a0: 4824 813c 4dab 0abe 301e dcbd 52ae d3bd
000001b0: 10a8 29bd d892 d13c 820b d73d f0f9 08bc
000001c0: 1568 2e3e f0cd 1bbe 7b7a 0f3e 642a 28bd
000001d0: 10d9 53bd 6b44 33be 2de0 1d3e 4d58 0c3e
000001e0: 9843 8bbd f454 7b3d 90f1 5c3d 80e2 dc3c
000001f0: 4429 25bd a82e 30bd 43d9 003e 34a8 b9bd
00000200: 27e6 0e3e aabb b63d b5a6 34be 462c 95bd
00000210: 3897 953c c418 92bd 008f 433c 8876 cf3c
00000220: 4622 c73d 5899 083d d04e 54bd 243d 743d
00000230: 380d f2bc 5074 dfbc 8d93 ddbd c3ba 253e
00000240: 5e85 13be 206d b93b c0b0 a23c 0088 a5bb
00000250: 59d3 33be 62bd f73d ffad 31be 108c 9ebc
00000260: 00e4 5abd 541e 34bd 74fa 11be 822b 903d
00000270: 0a25 ee3d c652 30be 1030 c4bc 0172 273e
00000280: e182 813e 26f8 93be 2ad1 4f3e 9d5f 2cbe
00000290: 383f 953d 1ec7 70bd ab45 b6bd 5e27 ad3d
000002a0: 86b4 b1bd c814 02bc 1225 2b3e 0a80 afbe
000002b0: 1fab 013e a011 69be a7df fb3d 1b24 12be
000002c0: 3cb3 ba3c 68a1 283e 424b 8dbd b493 f93d
000002d0: 301c e4be 08e8 59bc 6c63 53be aa1c 16be
000002e0: afb8 89bd 2244 cc3d 0a7a a6bd 21ea d8bd
000002f0: 7e32 d33c ad2a ff3d 9a8e 3b3e 071e bfbe
00000300: 6c7f 54bd 332f f0bd 6042 70bd f8aa 453d
00000310: 3cf3 663d 6074 61bd c027 923c 00a6 13ba
00000320: 8890 8abc a56b 273e dd9e 12be e865 b83c
00000330: 48d7 23bd ec5e 23be 6062 1c3c e8f3 813d
00000340: 287b d7bc 0064 93ba 4c51 f4bd 08ce b23c
00000350: ce81 d63d 4cd6 0b3d f76a edbd 5b86 1dbe
00000360: 276a 1b3e d549 083e 90d3 11be e132 013e
00000370: e026 3bbd b1d0 f7bd b456 703d 904d b33c
00000380: 2d52 85bd a22a ca3d 559e b4bd 1054 b23c
00000390: 4089 0fbd 261f a03d 449b 643d 6d42 84bd
000003a0: 607a 8fbd 4c6b cbbd 4414 52bd 402e c1bc
000003b0: 39cf 0b3e 188e f4bc 51f0 1ebe 444b d6bd
000003c0: 6c91 fabd 56c0 1ebe ea21 13be 4e0d febd
000003d0: fa2f ee3d 5a13 e73d ee11 f63d a02f 8d3b
000003e0: c3b3 313e c6cc b23d 040f 3c3d 68a9 b03c
000003f0: 00a5 e7bd b9a7 173e 7bc4 2cbe e0d6 8cbc
0.23569253 -0.31637943 0.12527117 0.14169405 0.24928884 -0.05775684 0.15645583 0.07080369
-0.09568242 -0.113739215 0.095919184 -0.33381087 -0.07208908 -0.19090064 -0.00811481 0.11310466
0.2491715 0.13160926 -0.0055834204 0.16033079 -0.26431203 0.017948477 -0.10301075 0.10386266
0.05902436 0.25022227 0.14684676 -0.09771291 0.0145125305 0.09226364 0.24694535 -0.12653731
0.095495984 -0.14766301 0.16276012 0.081205375 0.10896598 -0.34493375 0.17747802 -0.061162226
-0.1501734 0.031953014 0.093129575 -0.37942624 0.14648542 -0.39710873 0.1424194 0.038031377
0.17849062 -0.04717601 0.06940761 0.16271006 -0.1435572 -0.067117795 -0.41523853 -0.09969152
0.11921101 0.27162588 0.03298596 0.014491001 0.2666032 0.08161304 0.24676137 -0.3364768
0.24600019 -0.23474966 0.035081998 0.07680994 0.31893596 0.037156288 0.095607534 -0.019384122
-0.12806761 -0.12962262 0.0975427 -0.18910924 -0.101725586 -0.3053421 0.1991918 -0.11713277
0.028844591 0.034907777 0.112178676 -0.09876337 -0.352898 0.1469162 -0.13489269 0.13600318
0.03062196 -0.009621508 -0.06075313 0.0487252 0.022180047 -0.14386475 0.12323955 -0.35812458
0.09836237 0.13722734 0.14362611 0.10226469 -0.03190893 -0.1258603 0.09654109 -0.15725271
0.01576437 -0.13541909 -0.10747945 -0.10335983 -0.041420043 0.025582716 0.10500242 -0.008360371
0.17031892 -0.15215278 0.14011566 -0.04105605 -0.05172068 -0.17506568 0.15417548 0.13705559
-0.06800002 0.061360314 0.05394131 0.026963472 -0.040322557 -0.043013245 0.12582879 -0.09065285
0.13954984 0.08922513 -0.17641719 -0.07283835 0.018260583 -0.0713363 0.011935949 0.025325075
0.09723334 0.033349365 -0.051832974 0.05962862 -0.029547319 -0.027277142 -0.10819159 0.16184525
-0.14406344 0.0056587607 0.019859672 -0.005051613 -0.17561091 0.12096669 -0.1735153 -0.019353896
-0.053440094 -0.043974236 -0.14255697 0.070395485 0.116281584 -0.17219076 -0.0239487 0.16352083
0.25295165 -0.2890026 0.20294634 -0.16833349 0.07287449 -0.058783643 -0.08900007 0.08454774
-0.0867701 -0.007939525 0.1671336 -0.34277374 0.12662934 -0.2276063 0.12298518 -0.14271586
0.022790544 0.16467822 -0.0689912 0.12186375 -0.44552755 -0.0132999495 -0.20643395 -0.14659372
-0.06724679 0.09973933 -0.08128746 -0.105915315 0.025780912 0.12459312 0.18316117 -0.37327597
-0.05187933 -0.117277525 -0.05865705 0.04825875 0.05638431 -0.055042624 0.01784122 -0.0005632341
-0.016914621 0.16349657 -0.14318414 0.02250953 -0.04000023 -0.15954179 0.009544939 0.063453496
-0.026303843 -0.0011245012 -0.11929569 0.021826759 0.10473977 0.034139916 -0.115926675 -0.15383284
0.15177213 0.13309415 -0.14240861 0.12617065 -0.04569137 -0.121003516 0.058676437 0.02188757
-0.065098144 0.09871413 -0.08819262 0.0217686 -0.035043 0.07818441 0.055812135 -0.06457982
-0.07005763 -0.09932575 -0.051288858 -0.023581624 0.13653268 -0.029852912 -0.15521361 -0.104635745
-0.12234768 -0.15503058 -0.14368406 -0.124048814 0.116302446 0.11282988 0.120151386 0.004308656
0.1735373 0.08730464 0.045912758 0.021565154 -0.11310768 0.14810075 -0.16871826 -0.017192304

model.pooling_fn.gate_nn.0.bias f4 [32]
00000000: 8e81 a9bd 91a7 01bc 5f4d db3c b429 17be
00000010: b887 9cbd 737e 8e3d 8852 05be 684e 24be
00000020: da59 46bd 5b64 babd b814 f0bc 7011 283e
00000030: d9cb 753e 2bab 10be 5652 e9bc 8f62 093a
00000040: 48fb 2bbc 3df3 563e b637 a1bd 0541 2abe
00000050: 3805 a2bc 875e 7b3e 06d3 983d ae81 fcbd
00000060: 3a14 fdbd 4e82 f83d 1563 2c3e bcec 9b3e
00000070: ab5e 21bd 1839 723e dad6 c0bd f927 723e
-0.08276664 -0.007913486 0.026770292 -0.14762002 -0.07643074 0.06957712 -0.13019764 -0.16045535
-0.048425533 -0.091011725 -0.029306754 0.16412902 0.24003543 -0.14127795 -0.028481644 0.00052408216
-0.010496922 0.20991226 -0.07871954 -0.16626365 -0.01977788 0.24547778 0.074621245 -0.12329422
-0.123573735 0.12134229 0.16834672 0.30454051 -0.039396923 0.23654592 -0.0941598 0.23648061

model.pooling_fn.gate_nn.2.weight f4 [1, 32]
00000000: c3c6 893e 55a8 353e 3001 613e b924 c8bd
00000010: 1c48 44bd 4077 6b3e 8f4b 1c3e a01e 1b3d
00000020: 34c7 bf3e aa1c 3abd 43dc 9abd e3f4 8b3e
00000030: fbab b0be b099 d2bd 099f d2bd 3b52 0bbe
00000040: f042 853e d2db a4be 5f7e 1dbe e87d fabd
00000050: 7640 f83d 38e3 e2be 0afa 7e3e 1f0c 11be
00000060: 3fd6 1bbe a644 90be 021f 8f3e 0c5b 88be
00000070: c8a8 28bc 8b25 b0be 8ad9 3c3e a41a 3fbe
0.26909456 0.17739995 0.21973109 -0.09772629 -0.04792033 0.22994709 0.15263198 0.037871003
0.37456667 -0.045437492 -0.07561543 0.2733527 -0.3450621 -0.1028322 -0.1028424 -0.13605587
0.26027632 -0.3219896 -0.15380238 -0.12231046 0.1212167 -0.4431398 0.2490007 -0.1416478
-0.15218447 -0.28177375 0.27953345 -0.26631963 -0.010294147 -0.34403643 0.1844236 -0.18662506

model.pooling_fn.att_pool.gate_nn.0.weight f4 [32, 32]
00000000: 6259 713e 7cfc a1be 1647 003e 3f18 113e
00000010: 9345 7f3e 7092 6cbd f535 203e 8601 913d
00000020: 25f5 c3bd 1bf0 e8bd 4771 c43d 42e9 aabe
00000030: 71a3 93bd 757b 43be fbf3 04bc 6aa3 e73d
00000040: d026 7f3e 94c4 063e 20f5 b6bb c12d 243e
00000050: e853 87be af08 933c 4df7 d2bd f2b5 d43d
00000060: 87c3 713d 221d 803e ff5e 163e b51d c8bd
00000070: f7c5 6d3c b8f4 bc3d 3edf 7c3e ff92 01be
00000080: 6693 c33d f934 17be 97aa 263e 014f a63d
00000090: 8e29 df3d 289b b0be ccbc 353e 3e85 7abd
000000a0: 0ec7 19be 2ae1 023d b8ba be3d 2844 c2be
000000b0: 4600 163e d651 cbbe 64d6 113e cac6 1b3d
000000c0: 3fc6 363e a23b 41bd 9425 8e3d 779d 263e
000000d0: a900 13be 0e75 89bd 259a d4be 112b ccbd
000000e0: e724 f43d 8c12 8b3e 491c 073d aa6b 6d3c
000000f0: 3780 883e bd24 a73d 03af 7c3e b046 acbe
00000100: 79e7 7b3e 3762 70be 24b2 0f3d 884e 9d3d
00000110: 934b a33e 3131 183d e2cd c33d 73cb 9ebc
00000120: 2824 03be cbbb 04be 78c4 c73d daa5 41be
00000130: 8155 d0bd cd55 9cbe eff8 4b3e 4ee3 efbd
00000140: 7e4b ec3c 75fb 0e3d efbd e53d 7344 cabd
00000150: 0caf b4be 3371 163e 4f21 0abe 6b44 0b3e
00000160: e8da fa3c 88a3 1dbc 46d8 78bd 1394 473d
00000170: eeb2 b53c 4851 13be 0465 fc3d 1b5c b7be
00000180: 3672 c93d 5385 0c3e b912 133e 2670 d13d
00000190: f0b2 02bd 86e1 00be 56b7 c53d db06 21be
000001a0: 4824 813c 4dab 0abe 301e dcbd 52ae d3bd
000001b0: 10a8 29bd d892 d13c 820b d73d f0f9 08bc
000001c0: 1568 2e3e f0cd 1bbe 7b7a 0f3e 642a 28bd
000001d0: 10d9 53bd 6b44 33be 2de0 1d3e 4d58 0c3e
000001e0: 9843 8bbd f454 7b3d 90f1 5c3d 80e2 dc3c
000001f0: 4429 25bd a82e 30bd 43d9 003e 34a8 b9bd
00000200: 27e6 0e3e aabb b63d b5a6 34be 462c 95bd
00000210: 3897 953c c418 92bd 008f 433c 8876 cf3c
00000220: 4622 c73d 5899 083d d04e 54bd 243d 743d
00000230: 380d f2bc 5074 dfbc 8d93 ddbd c3ba 253e
00000240: 5e85 13be 206d b93b c0b0 a23c 0088 a5bb
00000250: 59d3 33be 62bd f73d ffad 31be 108c 9ebc
00000260: 00e4 5abd 541e 34bd 74fa 11be 822b 903d
00000270: 0a25 ee3d c652 30be 1030 c4bc 0172 273e
00000280: e182 813e 26f8 93be 2ad1 4f3e 9d5f 2cbe
00000290: 383f 953d 1ec7 70bd ab45 b6bd 5e27 ad3d
000002a0: 86b4 b1bd c814 02bc 1225 2b3e 0a80 afbe
000002b0: 1fab 013e a011 69be a7df fb3d 1b24 12be
000002c0: 3cb3 ba3c 68a1 283e 424b 8dbd b493 f93d
000002d0: 301c e4be 08e8 59bc 6c63 53be aa1c 16be
000002e0: afb8 89bd 2244 cc3d 0a7a a6bd 21ea d8bd
000002f0: 7e32 d33c ad2a ff3d 9a8e 3b3e 071e bfbe
00000300: 6c7f 54bd 332f f0bd 6042 70bd f8aa 453d
00000310: 3cf3 663d 6074 61bd c027 923c 00a6 13ba
00000320: 8890 8abc a56b 273e dd9e 12be e865 b83c
00000330: 48d7 23bd ec5e 23be 6062 1c3c e8f3 813d
00000340: 287b d7bc 0064 93ba 4c51 f4bd 08ce b23c
00000350: ce81 d63d 4cd6 0b3d f76a edbd 5b86 1dbe
00000360: 276a 1b3e d549 083e 90d3 11be e132 013e
00000370: e026 3bbd b1d0 f7bd b456 703d 904d b33c
00000380: 2d52 85bd a22a ca3d 559e b4bd 1054 b23c
00000390: 4089 0fbd 261f a03d 449b 643d 6d42 84bd
000003a0: 607a 8fbd 4c6b cbbd 4414 52bd 402e c1bc
000003b0: 39cf 0b3e 188e f4bc 51f0 1ebe 444b d6bd
000003c0: 6c91 fabd 56c0 1ebe ea21 13be 4e0d febd
000003d0: fa2f ee3d 5a13 e73d ee11 f63d a02f 8d3b
000003e0: c3b3 313e c6cc b23d 040f 3c3d 68a9 b03c
000003f0: 00a5 e7bd b9a7 173e 7bc4 2cbe e0d6 8cbc
0.23569253 -0.31637943 0.12527117 0.14169405 0.24928884 -0.05775684 0.15645583 0.07080369
-0.09568242 -0.113739215 0.095919184 -0.33381087 -0.07208908 -0.19090064 -0.00811481 0.11310466
0.2491715 0.13160926 -0.0055834204 0.16033079 -0.26431203 0.017948477 -0.10301075 0.10386266
0.05902436 0.25022227 0.14684676 -0.09771291 0.0145125305 0.09226364 0.24694535 -0.12653731
0.095495984 -0.14766301 0.16276012 0.081205375 0.10896598 -0.34493375 0.17747802 -0.061162226
-0.1501734 0.031953014 0.093129575 -0.37942624 0.14648542 -0.39710873 0.1424194 0.038031377
0.17849062 -0.04717601 0.06940761 0.16271006 -0.1435572 -0.067117795 -0.41523853 -0.09969152
0.11921101 0.27162588 0.03298596 0.014491001 0.2666032 0.08161304 0.24676137 -0.3364768
0.24600019 -0.23474966 0.035081998 0.07680994 0.31893596 0.037156288 0.095607534 -0.019384122
-0.12806761 -0.12962262 0.0975427 -0.18910924 -0.101725586 -0.3053421 0.1991918 -0.11713277
0.028844591 0.034907777 0.112178676 -0.09876337 -0.352898 0.1469162 -0.13489269 0.13600318
0.03062196 -0.009621508 -0.06075313 0.0487252 0.022180047 -0.14386475 0.12323955 -0.35812458
0.09836237 0.13722734 0.14362611 0.10226469 -0.03190893 -0.1258603 0.09654109 -0.15725271
0.01576437 -0.13541909 -0.10747945 -0.10335983 -0.041420043 0.025582716 0.10500242 -0.008360371
0.17031892 -0.15215278 0.14011566 -0.04105605 -0.05172068 -0.17506568 0.15417548 0.13705559
-0.06800002 0.061360314 0.05394131 0.026963472 -0.040322557 -0.043013245 0.12582879 -0.09065285
0.13954984 0.08922513 -0.17641719 -0.07283835 0.018260583 -0.0713363 0.011935949 0.025325075
0.09723334 0.033349365 -0.051832974 0.05962862 -0.029547319 -0.027277142 -0.10819159 0.16184525
-0.14406344 0.0056587607 0.019859672 -0.005051613 -0.17561091 0.12096669 -0.1735153 -0.019353896
-0.053440094 -0.043974236 -0.14255697 0.070395485 0.116281584 -0.17219076 -0.0239487 0.16352083
0.25295165 -0.2890026 0.20294634 -0.16833349 0.07287449 -0.058783643 -0.08900007 0.08454774
-0.0867701 -0.007939525 0.1671336 -0.34277374 0.12662934 -0.2276063 0.12298518 -0.14271586
0.022790544 0.16467822 -0.0689912 0.12186375 -0.44552755 -0.0132999495 -0.20643395 -0.14659372
-0.06724679 0.09973933 -0.08128746 -0.105915315 0.025780912 0.12459312 0.18316117 -0.37327597
-0.05187933 -0.117277525 -0.05865705 0.04825875 0.05638431 -0.055042624 0.01784122 -0.0005632341
-0.016914621 0.16349657 -0.14318414 0.02250953 -0.04000023 -0.15954179 0.009544939 0.063453496
-0.026303843 -0.0011245012 -0.11929569 0.021826759 0.10473977 0.034139916 -0.115926675 -0.15383284
0.15177213 0.13309415 -0.14240861 0.12617065 -0.04569137 -0.121003516 0.058676437 0.02188757
-0.065098144 0.09871413 -0.08819262 0.0217686 -0.035043 0.07818441 0.055812135 -0.06457982
-0.07005763 -0.09932575 -0.051288858 -0.023581624 0.13653268 -0.029852912 -0.15521361 -0.104635745
-0.12234768 -0.15503058 -0.14368406 -0.124048814 0.116302446 0.11282988 0.120151386 0.004308656
0.1735373 0.08730464 0.045912758 0.021565154 -0.11310768 0.14810075 -0.16871826 -0.017192304

model.pooling_fn.att_pool.gate_nn.0.bias f4 [32]
00000000: 8e81 a9bd 91a7 01bc 5f4d db3c b429 17be
00000010: b887 9cbd 737e 8e3d 8852 05be 684e 24be
00000020: da59 46bd 5b64 babd b814 f0bc 7011 283e
00000030: d9cb 753e 2bab 10be 5652 e9bc 8f62 093a
00000040: 48fb 2bbc 3df3 563e b637 a1bd 0541 2abe
00000050: 3805 a2bc 875e 7b3e 06d3 983d ae81 fcbd
00000060: 3a14 fdbd 4e82 f83d 1563 2c3e bcec 9b3e
00000070: ab5e 21bd 1839 723e dad6 c0bd f927 723e
-0.08276664 -0.007913486 0.026770292 -0.14762002 -0.07643074 0.06957712 -0.13019764 -0.16045535
-0.048425533 -0.091011725 -0.029306754 0.16412902 0.24003543 -0.14127795 -0.028481644 0.00052408216
-0.010496922 0.20991226 -0.07871954 -0.16626365 -0.01977788 0.24547778 0.074621245 -0.12329422
-0.123573735 0.12134229 0.16834672 0.30454051 -0.039396923 0.23654592 -0.0941598 0.23648061

model.pooling_fn.att_pool.gate_nn.2.weight f4 [1, 32]
00000000: c3c6 893e 55a8 353e 3001 613e b924 c8bd
00000010: 1c48 44bd 4077 6b3e 8f4b 1c3e a01e 1b3d
00000020: 34c7 bf3e aa1c 3abd 43dc 9abd e3f4 8b3e
00000030: fbab b0be b099 d2bd 099f d2bd 3b52 0bbe
00000040: f042 853e d2db a4be 5f7e 1dbe e87d fabd
00000050: 7640 f83d 38e3 e2be 0afa 7e3e 1f0c 11be
00000060: 3fd6 1bbe a644 90be 021f 8f3e 0c5b 88be
00000070: c8a8 28bc 8b25 b0be 8ad9 3c3e a41a 3fbe
0.26909456 0.17739995 0.21973109 -0.09772629 -0.04792033 0.22994709 0.15263198 0.037871003
0.37456667 -0.045437492 -0.07561543 0.2733527 -0.3450621 -0.1028322 -0.1028424 -0.13605587
0.26027632 -0.3219896 -0.15380238 -0.12231046 0.1212167 -0.4431398 0.2490007 -0.1416478
-0.15218447 -0.28177375 0.27953345 -0.26631963 -0.010294147 -0.34403643 0.1844236 -0.18662506

model.readout.fc.weight f4 [6, 32]
00000000: e2f5 8e3e b5f5 a53d 9036 fb3d c44c fe3d
00000010: d8ba 0a3d 654f e1bd 3a86 0d3e c559 f4bd
00000020: 8bdd 083e 3bd5 26ba 82e7 293e 224d 233e
00000030: dae4 d33c 9e71 443c 6f24 a03a 7bea e8bd
00000040: 52c5 2d3e 60e2 853d b364 84bc 3ae6 a9bd
00000050: 36bd 0dbe a405 d33d 6936 48be f84a 0d3e
00000060: 24ba f5bd 28cc 5fbd ab7e 453d e850 babc
00000070: bb36 3f3d d6e8 e0bd 7198 163e 590f 2abc
00000080: ced0 8c3e d4b6 94bd f8c8 ba3c 8a1c 0ebe
00000090: 8580 97bd 3112 8bba dec5 103d bb62 80bd
000000a0: 4a48 51be 7ca7 8dbb 9dca d63d 0cc5 66be
000000b0: a86c e6bd c19d 89be fc66 52be a9bf 153e
000000c0: ee1c 63bd 91cd 5fbe ba9e 173c 0d09 0c3d
000000d0: c984 95be 3da3 2abd 1252 323d cc38 98bd
000000e0: c26c 043e 3e35 543e 4a8a 2ebb 4f83 21bd
000000f0: 9c39 163e d6f1 833d 62d0 263e 18b0 57be
00000100: a0d6 2e3d ea97 413e b5b1 0bbe 42b3 1b3e
00000110: 2b11 cd3b bff7 6e3e 4877 a6bd 5515 253e
00000120: 1c4d 3b3e 4757 31bb e856 cdbd c2a0 36bd
00000130: 4ef8 4d3d f491 8c3d cbf5 633d 04fe 913d
00000140: 055c 063e 153d d4bd f975 2cbe c87b e4bd
00000150: 39f8 2abb 8c0f 073d b965 dc3d 7e34 c43a
00000160: bc97 d2bd bb65 30be 8c7f 243e 4a8f c83d
00000170: 3b92 65be b8c7 d73c e9d6 bebc 553a 0d3e
00000180: 8cc7 90be 489d 90bd ca49 b03b 8c29 ccbd
00000190: b24c 28be 7ed7 59bd 4106 0d3d e118 1c3e
000001a0: 86be 6a3d 6250 f33d 09ea 5bbe ca74 39bd
000001b0: cc01 5fbe 7899 283d f0d7 73be 7896 4e3d
000001c0: ea12 60be 62dd 0dbe d628 313d 916c 00bd
000001d0: 2832 cabd 1f9b 76be ab9b a33d 2078 dabc
000001e0: b929 0d3e cc5b 86be 3abc 1abe 0241 c83d
000001f0: f8b7 bdbc 523f 1e3e b054 c33d 6f95 c53d
00000200: e8c3 2abe 6fb5 273e d907 dfbd f681 20be
00000210: 8292 4bbe 3ba2 2b3e fb52 40be 66a0 e5bd
00000220: c62b 733d 223d 453d a423 b2be d676 603e
00000230: a610 69be dd7c 263e f166 373d 9930 54be
00000240: 98ae 43be 0e2a 023e 4d08 b53d dbfb cd3d
00000250: 05ef 573e 520a 93be 0c77 463d 91a2 f7bc
00000260: fd0f 173c 5114 7abe 37c2 1d3c a05e 8cbd
00000270: 8354 87be b01b a73d b4c9 65be d239 8c3d
00000280: a4ed fabd 63fb 8ebc ad46 da3c 6e8c ac3b
00000290: 06c5 093e 7d28 c4bd 4d08 6f3d e6f6 cbbd
000002a0: fa5d 4e3d c8d8 24be 610e d23d 8ff6 f0bd
000002b0: 4859 2e3e e8b7 bdbd 5e7c a0bd 25f2 2ebe
000002c0: 16ad bf3d f7e3 1b3e ce5a 9a3b 34c4 bdbd
000002d0: 10ef 863d 2a02 e0bd 983b 5ebe bf31 0fbe
000002e0: 7650 fa3d 9696 1abd f51a 50be a1db a1bd
000002f0: 1567 663e 9a3b e8bd 8fe1 083e e610 0dbe
0.2792197 0.081035055 0.12266266 0.12416986 0.033869594 -0.110014714 0.13820735 -0.11931185
0.13365762 -0.0006364171 0.1659222 0.15947393 0.02586596 0.011989979 0.0012217889 -0.113728486
0.16969803 0.06537318 -0.016161298 -0.08295865 -0.1384171 0.1030381 -0.19552006 0.1379813
-0.11998394 -0.054638058 0.048216503 -0.022743657 0.046683054 -0.1098191 0.1470659 -0.010379636
0.27503055 -0.07261434 0.022800907 -0.13878074 -0.0739756 -0.001061028 0.03534495 -0.06268831
-0.20437732 -0.004322944 0.10487864 -0.22536105 -0.11251193 -0.2687817 -0.20547098 0.14623894
-0.05544751 -0.21855761 0.009254152 0.03418832 -0.2920287 -0.041659582 0.0435353 -0.07432708
0.12932113 0.20723435 -0.002663272 -0.039431866 0.14670414 0.06442611 0.16290429 -0.21063268
0.04268515 0.18905607 -0.13642009 0.152051 0.00625815 0.23336695 -0.0812822 0.16121419
0.18291134 -0.0027060078 -0.10026342 -0.044586904 0.05028563 0.06863776 0.05565433 0.07128528
0.1312104 -0.10363213 -0.16841878 -0.11156422 -0.0026087894 0.03297381 0.107615896 0.0014969257
-0.10282847 -0.17226307 0.1606428 0.09792955 -0.22419064 0.02634035 -0.023295837 0.13791783
-0.28277242 -0.07061249 0.00537989 -0.09968862 -0.16435507 -0.053184025 0.034429792 0.15243866
0.057310604 0.11880566 -0.21475996 -0.045277394 -0.21778029 0.041161984 -0.23812842 0.050436467
-0.21882215 -0.13853982 0.043251835 -0.031353537 -0.09872848 -0.24082612 0.07988676 -0.026668608
0.13785447 -0.2624191 -0.15110865 0.09778024 -0.023159012 0.15453842 0.09537637 0.09647643
-0.16676295 0.16377805 -0.10890169 -0.15674576 -0.19880107 0.16761105 -0.18781655 -0.11212234
0.059367917 0.048154004 -0.34792817 0.21920332 -0.22760257 0.16258569 0.044775907 -0.20721664
-0.19109571 0.12711355 0.08839474 0.10057803 0.21087272 -0.2871881 0.048453376 -0.030228885
0.0092201205 -0.24421813 0.009628824 -0.06853986 -0.26431665 0.08159578 -0.22440225 0.06846966
-0.122523576 -0.017453855 0.026645029 0.005265764 0.13454065 -0.09578035 0.058357526 -0.099592015
0.05038259 -0.1609832 0.10256649 -0.11765777 0.17026246 -0.09263593 -0.07836221 -0.17084558
0.093591854 0.1522368 0.004710532 -0.092659384 0.06588566 -0.10937913 -0.2170242 -0.1398382
0.12222378 -0.037741266 -0.20322783 -0.07903219 0.2250026 -0.11339493 0.13367294 -0.13775977

model.readout.fc.bias f4 [6]
00000000: 7733 25be 8e2b 8f3d 681f 07be fc61 a53c
00000010: 5854 f1bd 46ef b2bc
-0.16132914 0.06990729 -0.13195574 0.020188324 -0.117836654 -0.02184261

exp_avg f4 [1, 4, 32]
00000000: 5ce1 92b7 91c5 bbb5 5f40 b6b7 cd70 6638
00000010: 1fb4 7fb7 001d 74b7 7ce4 22b7 13a8 3cb8
00000020: 6f65 6038 acc1 acb7 b4a3 4d37 0ae9 3fb7
00000030: c2ec 19b7 6632 e2b7 707f 9c37 88f0 45b8
00000040: 1958 f137 15ba f737 eab1 0738 2527 8b35
00000050: ef09 5ab8 ce45 98b8 c61e 13b8 0af1 a136
00000060: b395 1938 f934 c5b7 898b 0ab8 5660 8eb7
00000070: 5385 e736 cb84 98b7 c908 0a38 382c efb7
00000080: 4869 ffb8 e7c7 43b9 1e3b bbb7 ef19 2d38
00000090: 86a0 2c38 9db8 09b9 e82d d338 d040 8d38
000000a0: 2ff2 8537 ed19 b2b8 36d9 d4b8 78ba 2938
000000b0: 8e99 0cb9 0d2e 7c37 a680 a3b7 4aec 5ab8
000000c0: ce12 e938 1cf8 4338 88e8 1238 89c2 c5b8
000000d0: 7f8c dab6 2f19 9238 6ad5 73b9 1d0f 03b9
000000e0: ddea 1139 c872 26b9 c934 93b8 9b4b acb8
000000f0: a555 d336 70b1 1836 8841 88b8 8abe a8b7
00000100: 77b2 2038 04c5 3638 aee8 97b8 cc1c 2cb7
00000110: 9171 8637 3348 4d38 f37b 8cb7 3f6e 3b38
00000120: 2f4c 9938 4a9e 3237 83fc 2d38 a968 e237
00000130: 1ee1 ffb7 4cba c9b8 a46a 3935 b172 d336
00000140: 591d c838 4eb5 ceb7 4d3a ce38 799f 8a38
00000150: c3f3 b838 0453 19b8 dcd3 51b8 7518 3338
00000160: cd5a b738 8352 bdb7 1535 13b8 c010 2e37
00000170: 6a15 5737 e065 9db7 f4db edb7 81ba 2db8
00000180: 7f9a b0b6 a0af 9138 ba31 01b8 a798 4e38
00000190: d7cf bf38 bf62 fbb8 275d 4f38 d5e4 10b7
000001a0: e782 9cb8 45dc a435 72eb 1338 bda9 e236
000001b0: 8594 2337 1540 4938 af02 05b8 703c 4238
000001c0: 90e7 6c38 9754 91b6 85e1 99b8 be6b 22b8
000001d0: b786 2cb8 3139 f037 8bb2 e937 be2f ecb7
000001e0: 09af 3937 a481 be37 84cd ae38 b481 e938
000001f0: a24d f336 0abc e137 a3f1 1db7 eb28 47b8
-1.7509497e-05 -1.3990085e-06 -2.1726066e-05 5.4941327e-05 -1.5241122e-05 -1.4550285e-05 -9.709151e-06 -4.4979224e-05
5.350023e-05 -2.0594183e-05 1.2257067e-05 -1.1438746e-05 -9.174635e-06 -2.6964768e-05 1.8655992e-05 -4.7192472e-05
2.8770462e-05 2.9531346e-05 3.2352204e-05 1.03677e-06 -5.19845e-05 -7.260927e-05 -3.507619e-05 4.8262345e-06
3.661746e-05 -2.3508897e-05 -3.3031716e-05 -1.6972579e-05 6.8998575e-06 -1.8181649e-05 3.2909946e-05 -2.8511611e-05
-0.00012178958 -0.00018671119 -2.2319666e-05 4.1270567e-05 4.1157495e-05 -0.00013134112 0.00010069815 6.735476e-05
1.5967611e-05 -8.4925305e-05 -0.000101494064 4.0466402e-05 -0.00013408644 1.50310925e-05 -1.949102e-05 -5.219531e-05
0.000111138084 4.6722693e-05 3.5025674e-05 -9.429927e-05 -6.513262e-06 6.966513e-05 -0.00023253789 -0.00012498764
0.00013915771 -0.00015873753 -7.019338e-05 -8.215682e-05 6.2982604e-06 2.2753047e-06 -6.4971915e-05 -2.0115887e-05
3.831318e-05 4.3575666e-05 -7.243581e-05 -1.0258704e-05 1.6026928e-05 4.894305e-05 -1.6747019e-05 4.468695e-05
7.309799e-05 1.0646481e-05 4.1481584e-05 2.6990036e-05 -3.0503197e-05 -9.6191274e-05 6.9073053e-07 6.301642e-06
9.5422096e-05 -2.464154e-05 9.833705e-05 6.610057e-05 8.819208e-05 -3.6555357e-05 -5.0026792e-05 4.2699703e-05
8.743033e-05 -2.2568978e-05 -3.5096968e-05 1.0375108e-05 1.28199845e-05 -1.8763298e-05 -2.8355025e-05 -4.142011e-05
-5.2631945e-06 6.9468515e-05 -3.0802308e-05 4.9256396e-05 9.146303e-05 -0.000119870056 4.94394e-05 -8.636348e-06
-7.463042e-05 1.2283059e-06 3.5266807e-05 6.755085e-06 9.750137e-06 4.7981815e-05 -3.171217e-05 4.630949e-05
5.6482444e-05 -4.3311843e-06 -7.337615e-05 -3.8724153e-05 -4.113346e-05 2.8636861e-05 2.7858905e-05 -2.8155624e-05
1.1067613e-05 2.2710134e-05 8.335247e-05 0.00011134465 7.251002e-06 2.6909653e-05 -9.41419e-06 -4.7483405e-05

exp_avg_sq f4 [1, 4, 32]
00000000: 6624 3630 602d 5630 393e ad31 b4ab 8433
00000010: d33a cd32 f3ec 7732 8504 b533 3ca1 fe31
00000020: 84c3 9132 c33f 9e33 d4e1 2e30 a89b e431
00000030: 918b a532 c8bf 3a30 cc1b 8532 8741 0531
00000040: 4e19 0e32 d211 1434 95a0 ce30 a94c 3333
00000050: 4ffd 1434 febe 5b31 5f3a 3433 62ea 0933
00000060: 05a0 ce31 0b09 1131 fe38 ce30 fefd 0032
00000070: 5274 cd32 180e 9232 351d a133 4a27 3231
00000080: b7e8 ca33 099e 3b32 98af e230 abb3 6934
00000090: 343c 1134 b3c9 2f34 d062 c831 6104 2f33
000000a0: e70d 7133 ddee 1534 3fe0 a132 fe16 fe32
000000b0: 8b89 3a32 da0d 2534 093a 5634 ad0b a333
000000c0: 7a1e 4931 9ae7 9431 143d 8f33 3f11 a933
000000d0: 5375 0734 a8e0 9831 ac31 0a33 05df 9032
000000e0: 69e3 9e33 e1f2 9e32 c9b1 4234 e3f8 8e33
000000f0: aab4 9d33 8eca a833 07a5 b333 a8c2 aa33
00000100: a64e 0a34 55a8 3d33 676f 0933 a349 8d32
00000110: dee1 6034 92b6 2d33 4239 ea32 6a8c 3732
00000120: 4e8a 3333 9a3c c133 ff39 3e34 f266 ba32
00000130: daa8 8432 a47c ab32 31c0 2b32 fc4d 0d34
00000140: 0d03 9633 58b0 6632 0f62 7132 544a 6f33
00000150: c2c9 0933 0bd1 6a33 4671 4b32 a790 8733
00000160: 0775 c932 e86b 8531 837d 4d34 1c9a 0d32
00000170: 55ed 8432 7fe3 0c34 35ef 8832 a9e7 bb33
00000180: a9c1 1731 a878 8732 a124 c430 c2fd 6d32
00000190: 1a7f ea31 91a7 eb32 fd8b 2a31 9bdb 8831
000001a0: 0a2f 2233 faf5 2530 840a 0a31 190e 0431
000001b0: a72a 1230 632b ac31 f341 6231 aa65 b032
000001c0: 2df3 1a31 9270 0131 7718 6932 2b12 4531
000001d0: c775 7930 0e4d 6e31 8a47 4031 c098 0a32
000001e0: c920 4231 3adb 6631 952b cb32 1b41 e332
000001f0: e46e 0732 766d 6c31 9fc2 6530 51cc fd31
6.626294e-10 7.791723e-10 5.0420366e-09 6.1779616e-08 2.3891891e-08 1.4431168e-08 8.4292914e-08 7.410703e-09
1.6969132e-08 7.3690465e-08 6.362175e-10 6.6533694e-09 1.9271996e-08 6.7938943e-10 1.5495878e-08 1.9391295e-09
8.2712415e-09 1.3790057e-07 1.5034113e-09 4.1746407e-08 1.3875727e-07 3.197726e-09 4.1962604e-08 3.2110968e-08
6.013581e-09 2.1105417e-09 1.5004671e-09 7.508332e-09 2.3918037e-08 1.7003046e-08 7.5024595e-08 2.5924742e-09
9.4486886e-08 1.0920766e-08 1.6493571e-09 2.1765179e-07 1.3526079e-07 1.6371523e-07 5.8319998e-09 4.0749345e-08
5.612483e-08 1.3963604e-07 1.8844842e-08 2.9579947e-08 1.0857899e-08 1.5371862e-07 1.9951416e-07 7.592403e-08
2.9266674e-09 4.333697e-09 6.6700665e-08 7.872813e-08 1.2615537e-07 4.4493227e-09 3.2175805e-08 1.6865224e-08
7.398814e-08 1.850407e-08 1.8132336e-07 6.6576625e-08 7.343745e-08 7.859954e-08 8.365355e-08 7.95165e-08
1.2880864e-07 4.415809e-08 3.1999118e-08 1.6448046e-08 2.0943796e-07 4.0445748e-08 2.7267223e-08 1.0683928e-08
4.1802473e-08 8.998286e-08 1.7716228e-07 2.1700064e-08 1.5443607e-08 1.99637e-08 9.997209e-09 1.3160019e-07
6.985474e-08 1.3427858e-08 1.4050342e-08 5.5714125e-08 3.2081296e-08 5.4672494e-08 1.1841911e-08 6.3127395e-08
2.3452698e-08 3.883077e-09 1.9137774e-07 8.242321e-09 1.5474749e-08 1.3121279e-07 1.5941263e-08 8.750005e-08
2.2083475e-09 1.5770937e-08 1.4271287e-09 1.38529135e-08 6.824746e-09 2.7433801e-08 2.481783e-09 3.983087e-09
3.7761346e-08 6.0376204e-10 2.008762e-09 1.9216542e-09 5.3175103e-10 5.0107913e-09 3.2924816e-09 2.0535328e-08
2.2548179e-09 1.883596e-09 1.3567948e-08 2.86776e-09 9.0753044e-10 3.4677359e-09 2.7980342e-09 8.0673885e-09
2.8249352e-09 3.359402e-09 2.365213e-08 2.6455885e-08 7.883248e-09 3.4404741e-09 8.358629e-10 7.386497e-09
